epsilon_10/saved_model 4000.pth (torch, 52885 bytes, 4 tensors)

Linear1.weight f4 [256, 42]
00000000: 2e74 3cbd b322 233c b2f7 e03b df2f 41bd
00000010: 35e1 25bd e460 513c d1f6 dbbd a184 a6bd
00000020: 26ed 4fbd b5b5 3e3d e0d7 adbd 0913 4ebb
00000030: 3570 b7bd a832 733a bda4 1d3d 86e4 16be
00000040: ac39 093d 558f 8abc 53fe 533d bcd1 ad3c
00000050: 09e6 c63a bfd0 d7bd 1cad d1bc 37af eb3c
00000060: 8e2a 093d f024 f2bc 3ad9 acbd f990 d3bd
00000070: 70ae 2f3c 0b88 d8bd f6e0 243d 5b51 d8bc
00000080: c1a9 103c 3052 1d3e 80b4 b23c 31f3 a3bd
00000090: 1f3f f03d 7f06 d93c 0bd2 31bd 72f7 01be
000000a0: 4fac a1bc 697f f33b 6c91 4cbc 5cda e83c
000000b0: 0803 503d 47d8 453d 885d 6b3d 61d9 653d
000000c0: 67a9 ff3c 3fa0 343d a597 933d aaa6 2b3d
000000d0: dafd 513d caec 093d 7ab4 0a3d b622 713d
000000e0: dfe6 1a3a 6673 933b 6a4d 343d 50e4 f43c
000000f0: 8af4 703c 78f9 b1bc 8a68 053d f390 473c
00000100: 0dab 123d bc18 ba3c a32c 923d a872 2dbc
00000110: 5a66 45bc 7b18 13bd 6e6c fd3c 2155 c03d
00000120: beb4 c53a e70a 0f3d 762d 6e3d 82fe 8bbb
00000130: 7bf6 37bd 7524 fb3c 8763 b03d 888c 10bd
00000140: 8574 763d 1160 6b3c 43e3 8b3c a539 1a3d
00000150: a6fd a83b 6c71 07bd 9f81 7ebc b4a4 66bd
00000160: ec93 9dbd c41e c93c 385d 863d 3db3 a83d
00000170: 981e ccbd d1ff b43d 2122 8dbb 7579 ae3c
00000180: 003d a63c d181 debd 0a25 8e3d e565 e83a
00000190: da32 b03c 49b9 83bb 2dad 723d f8e4 c6ba
000001a0: 4831 603c a6e9 ebbc 5874 2a3e 2e7b 993d
000001b0: 597c 10bd fd8d 383d db0f 8d3d bdf8 14bd
000001c0: 72c5 8b3d d19a 53be 1301 43be 001f 9cbb
000001d0: ddaa abbd 2f66 5b3e 6a21 a33d 3726 cbbc
000001e0: 37a2 e8bb 98be 54bd 3b91 c93c 9726 053e
000001f0: 7f24 f3bd 6f7f b53d 046c 833d 8323 84bd
00000200: 230f cd3b a307 e93d 0c19 353d f7a3 47bd
00000210: 16eb ae3d 8189 7b3c a35c 613d a71d a73d
00000220: 7a7e 413d e654 a53b 7266 9a3c 433f 0ab9
00000230: 5426 a0bd 95a0 6c3e 85bf 1a3d b7bf 893c
00000240: 16ed 9ab9 6381 ae3d a569 b5bd ec47 973c
00000250: 8db4 0dbe 99d9 f33c 0657 0f3b e58a b73b
00000260: 4733 233c b935 84bd 3433 ba3c 32ef 76bd
00000270: 7a97 8cbc 4660 533c 69f8 03bd 404e dabc
00000280: c251 ca3d 3432 febb 0ee5 0a3e 1134 3abb
00000290: acf5 053d f096 56bd 449a 7e3d ef0f 48bd
000002a0: 3785 27bc 4acf 343d a4a0 693c 6d43 a2bd
000002b0: d87c d5ba c871 1cbd 3c20 11bc 5369 b53c
000002c0: 5935 8c3d 21a9 ec3d c6e5 ba3d 769b 6b3d
000002d0: 5768 23bd dfca 0b3e 2c5e ab3d 23a2 493e
000002e0: 2862 c2bd 9071 d83c 6efa 043e 5287 513c
000002f0: 4d14 803d 882c ed3d ac19 1dbd 2067 0d3d
00000300: 5fb2 b63c ad4b fdbd 7cb2 023d 1a0c 003c
00000310: 7653 c13c 6379 e9bc e2f0 e5bd 7199 16be
00000320: 6b62 c03c f9c3 5ebc 5ad6 573d f621 25bd
00000330: 9179 033e d2a7 e73d dc69 b33d 7d81 06be
00000340: 5e29 80bd 3ecf a13d 9dbf 7c3c ed1a 313d
00000350: 2600 3ebd 4734 f53b 6061 52bc 5879 963c
00000360: 3a21 5f3c 9772 d33c 9fc9 f83c 86bc 72bb
00000370: c972 4ebb 685e 72bd 3587 c13a 3482 cb3c
00000380: 1625 01bb 04a3 8e3c c468 9c3c 143b 0a3c
00000390: 99ec 5b3b d2c6 6f3d fa7a 10bd b20a 6b3d
000003a0: 8de9 033d 4713 513c 464a 09bc a86b 1c3d
000003b0: 705e d03c 5c82 a83c 9c44 bfbb bec4 853d
000003c0: 513f ae3b 234c 9d3d 8724 753b 558f ce3d
000003d0: 12ea 213d 9e93 6d3d 4c12 793d 0dee 13bb
000003e0: c76a 06bd 1ac3 eabb 5e7e d6bb 329f 9e3d
000003f0: f5b2 34bd c843 23bd 4202 cf3c 5eb8 0ebb
-0.046009235 0.009957003 0.006865465 -0.047164794 -0.040497977 0.012779448 -0.10740436 -0.08130766
-0.05076327 0.046560008 -0.084884405 -0.0031444451 -0.08956949 0.0009277263 0.038487185 -0.14735612
0.033502266 -0.01691405 0.051756214 0.021218173 0.0015174757 -0.10537862 -0.02559524 0.028770072
0.03348785 -0.029558629 -0.0843987 -0.10330386 0.0107227415 -0.10572823 0.040253602 -0.02640598
0.008829535 0.15363383 0.021814585 -0.080053695 0.117307894 0.026492355 -0.043413203 -0.12692049
-0.019735483 0.00743096 -0.012485843 0.028424434 0.05078414 0.04830196 0.057462245 0.05611551
0.031208707 0.044098135 0.07206658 0.04190699 0.051267482 0.033673085 0.033863522 0.058870994
0.0005909036 0.0044998406 0.04401914 0.029894024 0.01470674 -0.021725401 0.0325704 0.012180555
0.035807658 0.022716872 0.0713742 -0.010586418 -0.012048328 -0.03591202 0.030935492 0.09391237
0.0015083773 0.034922507 0.058148824 -0.004272283 -0.044912796 0.030657033 0.08612733 -0.03529027
0.060169715 0.014366166 0.01707614 0.03765263 0.0051571904 -0.033067152 -0.015533834 -0.056309417
-0.076942295 0.024550803 0.06560749 0.08237312 -0.09966773 0.088378556 -0.004307047 0.02129815
0.020292759 -0.10864604 0.069406584 0.0017730562 0.021508623 -0.0040198904 0.059247185 -0.0015174439
0.013683625 -0.028797936 0.16645944 0.07494198 -0.035274837 0.045057286 0.0688779 -0.036370028
0.06824769 -0.20664527 -0.19043379 -0.0047644377 -0.08382199 0.21425699 0.079653576 -0.024798496
-0.0070994156 -0.051939577 0.024605384 0.13003002 -0.118721955 0.08862197 0.06417087 -0.06452086
0.006257908 0.1137841 0.04421334 -0.048740353 0.08540933 0.015352608 0.055019986 0.081599526
0.047239758 0.005045521 0.018847678 -0.00013184272 -0.078198105 0.23108132 0.037780304 0.01681505
-0.00029549812 0.08520772 -0.08858041 0.018466912 -0.13838406 0.029766845 0.0021871938 0.0056012743
0.009960956 -0.06455559 0.022729494 -0.06028671 -0.017162073 0.012901371 -0.032219324 -0.02664864
0.09878875 -0.0077574495 0.1356394 -0.0028412382 0.032704994 -0.05239004 0.062158838 -0.04884332
-0.010224632 0.044143 0.014259491 -0.07923017 -0.0016287817 -0.038194448 -0.008857783 0.022144949
0.06846113 0.11555696 0.09125857 0.057521306 -0.039894428 0.13651608 0.08367571 0.19690756
-0.09491378 0.026421338 0.12986156 0.0127886105 0.06253872 0.11580759 -0.03835456 0.034522176
0.02230185 -0.1236795 0.031908497 0.007815385 0.023599368 -0.028500265 -0.112275854 -0.14706971
0.02348443 -0.013596528 0.052694656 -0.04031559 0.12839343 0.11311306 0.087604254 -0.13135333
-0.0625789 0.079008564 0.015426544 0.04323857 -0.04638686 0.0074830386 -0.012840599 0.018368408
0.013618762 0.025811477 0.030369578 -0.0037038638 -0.0031501523 -0.059172064 0.0014765026 0.02484236
-0.0019705943 0.017411716 0.019092925 0.008436937 0.0033557771 0.05853922 -0.03527353 0.057383247
0.032205153 0.012760944 -0.008379525 0.038188607 0.025435656 0.020569973 -0.0058370363 0.06531666
0.0053176065 0.076805376 0.0037405805 0.10085932 0.039529867 0.058002107 0.060808465 -0.002257231
-0.032816675 -0.007164371 -0.006545826 0.07745208 -0.04411598 -0.039859563 0.025269631 -0.0021777372

Linear1.bias f4 [256]
00000000: 7900 13bf 4596 dcbe 5d84 1dbf 7a85 01bf
00000010: 9873 38bf 01b1 fcbe 5f02 1dbf 7eed 01bf
00000020: 22ad 37bf 5175 07bf a387 dbbe 0aee 16bf
00000030: 7c71 22bf 0e9f f9be 9ff6 34bf c604 e4be
00000040: 200d 21bf 48ae 19bf 1cea e6be a43d 06bf
00000050: e2f8 16bf a3bc eebe 1592 eabe 042c e5be
00000060: 9c76 19bf 9eb3 0abf 47e4 d3be 4bfe 12bf
00000070: b838 2cbf 4aa9 08bf 21e9 efbe 8d9e 12bf
00000080: b8c0 13bf 5679 f3be 48e6 f6be 3d1b f3be
00000090: acc7 f2be e81d 05bf c4a0 f3be aed6 e4be
000000a0: 0fb0 0bbf e4c3 0bbf 0cf2 09bf c53c fabe
000000b0: 927b 10bf ad30 15bf 88bb e7be 2de4 fabe
000000c0: 32b8 1fbf 0fa4 e5be 0a14 2cbf fa94 0fbf
000000d0: 524b f3be 69fe 18bf ed51 20bf fe7c 06bf
000000e0: b36a f7be f9b1 11bf e8a9 24bf cbfd 12bf
000000f0: 7dc1 2cbf 1d4e ecbe be27 ffbe 43f0 0ebf
00000100: 619e 11bf 3386 dbbe 8902 1ebf a481 34bf
00000110: e6ef d3be 9f34 2abf b3db 03bf 883d e0be
00000120: 5fe4 d7be 7f98 21bf 8d90 2fbf 7817 22bf
00000130: 565c 04bf 78d8 1ebf 9e81 01bf d199 febe
00000140: f41e 0dbf 1c40 fabe 51ad f8be 6454 1fbf
00000150: 44a4 0cbf aa45 22bf c8b3 e3be 62dc 0bbf
00000160: 6340 d9be 5ab8 38bf fa66 d6be 9e2c e6be
00000170: 07a9 1ebf 54ff c9be ad86 f1be 7865 09bf
00000180: cd0a 11bf 9081 02bf 2d96 0dbf 73c3 20bf
00000190: bebd 55bf e035 16bf 8e41 04bf c317 2bbf
000001a0: a86b 09bf ef64 31bf 4ef2 24bf 963c 11bf
000001b0: d1a9 f2be 339a 31bf 4c45 08bf f6c2 12bf
000001c0: 6f02 dabe 5729 ffbe 73e2 2abf 42d5 38bf
000001d0: 2528 26bf fd92 f0be 39ee 14bf 97ee debe
000001e0: 0c07 f2be 3784 14bf bf80 16bf a8ea 03bf
000001f0: 5103 f3be 7d2a f7be ddbf 0fbf cabd febe
00000200: 7bda 21bf 85eb 0fbf 7f95 02bf eb3f fcbe
00000210: 8193 d5be e8fd debe ee5e d3be 40be cfbe
00000220: 25d1 09bf e350 e8be 022e 18bf 8355 12bf
00000230: fbc5 edbe 7f1a f8be 5dea 06bf 3c1c 12bf
00000240: ae62 20bf 9dbd 13bf 9114 cfbe 8907 0abf
00000250: 02ed d4be e29b c2be 1dce 00bf 3afa 32bf
00000260: 8f64 2abf fcc7 3ebf 88e1 e5be 5101 13bf
00000270: a265 11bf 1317 0bbf 2bc0 47bf fdd0 1bbf
00000280: 46a5 f6be 03b9 0ebf 0e19 24bf fc60 0fbf
00000290: 7f6a 08bf 7279 ebbe 206d 17bf e1ea 0fbf
000002a0: 1a37 f7be 5813 1dbf 6eb4 15bf 9e26 f0be
000002b0: a93b 09bf d135 07bf b0ee 0fbf ac95 0ebf
000002c0: dd71 0ebf d968 fbbe 0fa6 1abf 4728 28bf
000002d0: 93d6 08bf cc1f f8be a72a f8be 8d55 eabe
000002e0: 9d0c 0cbf 6111 01bf 8e74 13bf b367 e5be
000002f0: 9970 1fbf 71a6 ebbe 9e15 02bf 5601 07bf
00000300: 2b24 f5be 1363 23bf eefb 22bf 655c f9be
00000310: ba33 0cbf 3d8e 08bf a1df 10bf a769 1dbf
00000320: 75a7 e3be e2cd 3bbf 9210 03bf 4d7a 27bf
00000330: 2f8f efbe 3113 12bf 0528 e0be 15d5 f0be
00000340: 7075 e1be ea29 18bf 342b 0ebf 26b0 0ebf
00000350: ab5e 16bf fc68 19bf 0b65 d9be aa03 44bf
00000360: af17 00bf a1c6 21bf 1a05 fabe 3ae1 07bf
00000370: 219c ffbe 9221 f9be 3874 d9be 0825 20bf
00000380: 8471 1dbf 4c07 07bf d7f7 e0be d747 10bf
00000390: 2b13 f5be cf97 02bf 18a2 0dbf 0450 15bf
000003a0: 999b fdbe a3d3 35bf d48c f0be 7d34 06bf
000003b0: 6f4b 0cbf dc4f 18bf 0f87 e4be b1a0 d5be
000003c0: b512 edbe 1c89 f6be f9dc 39bf 966d e0be
000003d0: 95c0 0ebf 6cb7 32bf 48ee c8be aa73 fbbe
000003e0: 90e5 d6be 766b 0dbf 8732 10bf 6b0d 21bf
000003f0: cd42 f7be 7f47 09bf 9f9d 01bf 80db f8be
-0.57422596 -0.43083397 -0.61530095 -0.50594294 -0.7205138 -0.49353793 -0.61331743 -0.5075301
-0.71748555 -0.52913386 -0.4287692 -0.5895697 -0.63454413 -0.48754162 -0.70688814 -0.44534892
-0.6291065 -0.6003156 -0.45100486 -0.52437806 -0.58973515 -0.46628293 -0.45814577 -0.44760144
-0.5994661 -0.54180324 -0.413851 -0.5741927 -0.67274046 -0.53383315 -0.4685755 -0.5727318
-0.5771594 -0.4755351 -0.48222566 -0.4748172 -0.47417963 -0.5199876 -0.47583592 -0.44695038
-0.5456552 -0.5459578 -0.5388496 -0.48874488 -0.56438553 -0.582774 -0.45260262 -0.4900221
-0.62390435 -0.4485173 -0.6721808 -0.56086695 -0.47518402 -0.597632 -0.6262501 -0.5253447
-0.48323593 -0.5691219 -0.64321756 -0.5741851 -0.6748274 -0.46153346 -0.49835008 -0.5583536
-0.5688229 -0.42875823 -0.6172262 -0.70510316 -0.41393965 -0.66486543 -0.5150711 -0.43796945
-0.4216642 -0.63123316 -0.6857994 -0.6331706 -0.51703393 -0.62049055 -0.50588405 -0.49726728
-0.55125356 -0.48877037 -0.4856973 -0.62238145 -0.5493815 -0.6338755 -0.444731 -0.5463315
-0.42431936 -0.721563 -0.4187544 -0.44955915 -0.61976665 -0.39452612 -0.47173062 -0.53670454
-0.56657106 -0.50978947 -0.55307275 -0.6279823 -0.8349265 -0.58675957 -0.5166253 -0.6683313
-0.53679895 -0.6929464 -0.6443223 -0.5673307 -0.47395185 -0.69375914 -0.5323074 -0.57328737
-0.42579982 -0.49836227 -0.66751784 -0.72200406 -0.64905006 -0.46987143 -0.58176 -0.43541405
-0.47271 -0.58014244 -0.587902 -0.5152993 -0.47463468 -0.48274603 -0.56152135 -0.49754173
-0.63224 -0.5621875 -0.5100936 -0.49267516 -0.417141 -0.4355309 -0.41283363 -0.40574837
-0.53834754 -0.45374212 -0.594452 -0.5716173 -0.4644011 -0.48457715 -0.5270136 -0.5707433
-0.62650573 -0.577112 -0.40445378 -0.5391775 -0.41587073 -0.38009554 -0.50314504 -0.69913065
-0.6655969 -0.745239 -0.4489863 -0.57423884 -0.56795704 -0.54332083 -0.780276 -0.60865766
-0.4817297 -0.55751055 -0.6410073 -0.5600736 -0.532875 -0.45991093 -0.59150887 -0.5621777
-0.48284227 -0.6135764 -0.5847844 -0.46904463 -0.5360666 -0.5281649 -0.56223583 -0.5569713
-0.5564249 -0.4910343 -0.60409635 -0.6568646 -0.53452414 -0.4846176 -0.4847004 -0.45768395
-0.54706746 -0.50417143 -0.57599723 -0.4480568 -0.62281185 -0.46025422 -0.50814235 -0.52736413
-0.47879156 -0.6382305 -0.63665664 -0.48703304 -0.5476643 -0.5334204 -0.5659123 -0.6148934
-0.44463697 -0.7336103 -0.5119716 -0.6542099 -0.46788928 -0.57060534 -0.43780532 -0.4703757
-0.4403491 -0.59438956 -0.5553467 -0.5573753 -0.587382 -0.5992582 -0.42459902 -0.7656809
-0.5003614 -0.6319371 -0.48832017 -0.53078043 -0.49923804 -0.48658425 -0.4247148 -0.62556505
-0.61501336 -0.5274551 -0.43939087 -0.5635962 -0.47866186 -0.5101289 -0.5532546 -0.5832522
-0.49532774 -0.71026057 -0.46982443 -0.5242384 -0.548026 -0.59496856 -0.44634292 -0.4172416
-0.46303335 -0.4815148 -0.726028 -0.43833607 -0.55762607 -0.6981113 -0.39244294 -0.49111682
-0.41972017 -0.552421 -0.563271 -0.629111 -0.48293152 -0.5362472 -0.50631136 -0.48604965

Linear2.weight f4 [7, 256]
00000000: f8ab 533d 41ff 473b 79fe a3ba 181c 61bd
00000010: 4f3c 183d b98d 83bc f6e4 3dbd 48fd f73d
00000020: c25f adbd 4f8b 3fbd 1469 21be ddca 913d
00000030: aa80 4bbd 3ae1 4cbc 1b3d 19bc 73fa 8fbb
00000040: 4675 d13d e6db 04bd 96ba 85be 78fc 963b
00000050: 589f a83c 22f7 a4bd 28b8 d33c 71b1 e0bd
00000060: fc9c c0bd 000e f6bc a24a ebbc 10ff 2ebd
00000070: 29b1 1bbd 9d0e fc3c 28af 643c 25bf abbd
00000080: 51f0 a6bb 69be 38bd 42b3 26bd 64ae 55be
00000090: 16e2 e3bc 0dbb 9cbd 7dcd d6bb 2ec4 953b
000000a0: 8ecc 0c3d 1062 623d 2839 89bc abef 13be
000000b0: 419f 1bbe 2bf5 993a f3fa 11bc 1549 6cbb
000000c0: 294a f2bb 409c a73c bc1e 25bd 6dbf a53c
000000d0: 06b7 8fbc 68d3 b6bd 128d 8ebd 77a1 2bbd
000000e0: 25e0 5b3d abde 5bbd 0644 aebd 91d9 433c
000000f0: c706 0ebc e7d1 103d 938b 313e e60b fdbc
00000100: 58cf 2bbe 09fa 943c 92e4 583d e836 7cbd
00000110: 74a2 a9bd 5c53 913d a022 a23c 0f3e b6bd
00000120: eb3b 19be 03ca 9b3d 6072 a63c 2535 873c
00000130: ee10 ecbc be79 cc3b 758f 2b3d 04e8 e13a
00000140: 0553 903b 3b12 8438 f908 3b3c 706a 703d
00000150: ea6d acbb c158 253d dbc5 82bd ee01 ebbc
00000160: 348a 0fbd fbb5 3e3e 04d8 6dbc 8dc9 bbbb
00000170: f2f6 e93d 0911 1ebd dd23 2abe 68b5 babd
00000180: 9f98 b63d c58c a8bd a60a f1bd 2e48 40bc
00000190: 7f11 4d3d 56e7 713d c209 75bd 58c4 76bd
000001a0: 876e 4eba 871c b3bd 03f7 29bd f4ca b33b
000001b0: 7347 1f3e 0306 52bd 2a87 c63c 78c6 1cbe
000001c0: b64b 233d 2ad4 abbc 1bd1 51bd 2702 8cbd
000001d0: c840 b93c 5f0e 69be bdd1 e4bd ecd2 febb
000001e0: 26a4 32be 9127 89bc f92f 283d cecc 8abc
000001f0: bbd3 a53c f12d 133c d081 bcbd 4e31 c4ba
00000200: 7e84 3b3c e645 22bc 85d2 34be 57a1 863c
00000210: 5f9f ed3c e441 b2bd 7600 87bd 768e 97bd
00000220: 1d56 bcbd a57b 673c 9240 99bd e521 99ba
00000230: c52a adbb 5c68 953d ac58 92bd 9c6a 0ebc
00000240: 47ec 35bd 8eb5 26be 937f 5f3d 4304 6dbd
00000250: 3630 00be c39c 93bd 9db0 5d3d b3d4 a2bd
00000260: 415c a3bc 8767 afbd eab9 47bd e234 813d
00000270: d8fc 913c f44f 09bc 3596 afbd 8e1b 183d
00000280: 7aa9 bebd 9aeb 91bd fe17 8bbc 5db7 d5bc
00000290: 6ce8 fcbb 7fe2 b2bc 7a47 1fbd 051a 3b3d
000002a0: c8cf 21bd 2df2 043c b20c 35be d1b8 7a3c
000002b0: dbb5 1abe 79db dbbd 5ece 1d3e 305d 49bc
000002c0: 9466 4cbd 500b 093c 787c 893d 1b41 d3bc
000002d0: f2c8 05bd e897 4bbd 7a47 b2bc 346a 33be
000002e0: ce57 08bd ac8a d93b defb 9dbd 1769 94bd
000002f0: 5c5c 943b 2e6c 00bc 159b fb3d 5f97 3f3b
00000300: 2e2c acbd 800c fcbc 1a26 573d 1678 8bbb
00000310: cb3c 853c 574f e53d fd83 deb9 3998 143b
00000320: dc68 18bd 7fa9 5e3d c066 25bd 71f8 55bd
00000330: 6d36 473d 7d54 51bd 3eac b5bd 1d9d 01be
00000340: 5628 e9bd c9b4 d3bd 3ad1 d7b9 d030 033d
00000350: f667 01bc 5835 a4bd 9fd7 d13b 3990 0dbe
00000360: fbc9 1fbd 2da9 073d c351 4bbd 8628 5dbd
00000370: 5d4c a03d 6a0b 4cbd 85b6 d6b8 60fb 38bd
00000380: 66e0 2b3e 2a0b e2bc f8d8 48bd f6f5 bdbd
00000390: 495b d9bd ae6d a4bc e070 163c 865a 80bb
000003a0: 808f 9cbc 6d33 e33b bd3f b4bb 69ed 7ebd
000003b0: de07 933d 2552 bdbd 1a0f 0bbe e8e6 0c3e
000003c0: d099 4abd 0af7 0c3d 5b15 f2bd 7e12 f4bc
000003d0: 49ef ccbd b8b4 833c f31a b7bd f353 fbbc
000003e0: b599 1dbe 351f 73bd 9ada 233d b744 ae3d
000003f0: 9d6e 6ab9 5a13 43bd d7dc 123d 56f8 88bc
0.051677674 0.0030517133 -0.0012511752 -0.054958433 0.03716689 -0.01605879 -0.046360932 0.121088564
-0.0846553 -0.046763714 -0.1576274 0.07118771 -0.04968325 -0.01250487 -0.009352948 -0.0043938695
0.10227446 -0.032436274 -0.26118916 0.0046077333 0.020583794 -0.08054949 0.025844648 -0.10971344
-0.094049424 -0.030035973 -0.028722111 -0.042723715 -0.03801075 0.030768687 0.013957776 -0.08386067
-0.005094566 -0.045103464 -0.040698297 -0.20867306 -0.027817767 -0.076528646 -0.006555258 0.0045705056
0.034374766 0.0552693 -0.016750887 -0.14446895 -0.1519747 0.0011746039 -0.008909929 -0.0036054302
-0.0073940945 0.020460248 -0.040312514 0.02023288 -0.017543327 -0.08927041 -0.06960501 -0.04190203
0.053680558 -0.05367915 -0.08509068 0.011953727 -0.008668608 0.03535643 0.173384 -0.030889463
-0.16778314 0.018185632 0.052952357 -0.0615758 -0.082829386 0.07095978 0.019791901 -0.088985555
-0.14964263 0.0760689 0.02031821 0.016504833 -0.028816666 0.0062400987 0.04188486 0.0017235284
0.004404428 6.297646e-05 0.0114157135 0.058695257 -0.005262126 0.040367845 -0.06385394 -0.028687444
-0.03504391 0.18624108 -0.014516834 -0.005730814 0.11424054 -0.038590465 -0.16615243 -0.09116632
0.08915829 -0.08229975 -0.11769609 -0.011735959 0.050065514 0.05905851 -0.05982376 -0.06024584
-0.0007874746 -0.087456755 -0.041495334 0.0054868404 0.155546 -0.051275264 0.024234373 -0.15310085
0.039867125 -0.020975191 -0.05122481 -0.06836348 0.022613898 -0.22759388 -0.11172817 -0.0077766087
-0.1744543 -0.0167425 0.041061375 -0.016943362 0.020242563 0.008983121 -0.09204447 -0.0014968307
0.011445163 -0.00990436 -0.17658432 0.016434355 0.029006658 -0.08703974 -0.06591885 -0.07400219
-0.09196112 0.0141286 -0.07483019 -0.0011683075 -0.0052846395 0.072952956 -0.07145819 -0.00869241
-0.044414785 -0.16280195 0.054565024 -0.057865392 -0.12518391 -0.07207634 0.05412351 -0.079507254
-0.019941451 -0.08564668 -0.048761286 0.06308915 0.01782076 -0.008380879 -0.085735716 0.037135653
-0.09309669 -0.071250156 -0.016979214 -0.026088411 -0.0077181365 -0.021836517 -0.038886525 0.04567911
-0.039504796 0.00811438 -0.17680624 0.015302853 -0.15108435 -0.107352205 0.15410754 -0.012290284
-0.049902514 0.0083645135 0.06713194 -0.02578788 -0.03266234 -0.049705416 -0.021762598 -0.17520982
-0.033286862 0.0066388454 -0.077140555 -0.07246607 0.0045276117 -0.007838292 0.12285439 0.0029234511
-0.08406864 -0.03076768 0.05252657 -0.0042562587 0.01626434 0.111967735 -0.0004244148 0.002267374
-0.037209377 0.054360863 -0.040381193 -0.052238885 0.04863589 -0.051105965 -0.08870743 -0.1265759
-0.113846466 -0.103372164 -0.00041163882 0.032028973 -0.007898321 -0.08017987 0.006403878 -0.13824548
-0.039010983 0.033120323 -0.04963852 -0.053993724 0.07827065 -0.049815573 -0.00010238312 -0.045161605
0.1678482 -0.027593214 -0.049035043 -0.09275429 -0.106131144 -0.02007183 0.009182185 -0.0039170412
-0.019111395 0.0069336207 -0.0055007623 -0.06223813 0.07179235 -0.092441835 -0.1357998 0.13759959
-0.049463093 0.034415282 -0.118204795 -0.029793974 -0.100065775 0.016077384 -0.08940687 -0.030679679
-0.15390666 -0.059355933 0.040003397 0.085092 -0.00022357186 -0.047625877 0.03585514 -0.016719978

Linear2.bias f4 [7]
00000000: 06f8 283c ee59 203c c990 0a3c a4b4 303c
00000010: 1e85 243c aa6b fa3b 972a 293c
0.01031304 0.009787066 0.008457371 0.010785256 0.010041503 0.007642229 0.010325096
