epsilon_10/saved_model 2000.pth (torch, 52885 bytes, 4 tensors)

Linear1.weight f4 [256, 42]
0	0xbd0702da	-0.032961704
1	0xbb2c48db	-0.0026288542
2	0xbd273f0f	-0.04083162
3	0xbd606f78	-0.054793805
4	0xbd29ff85	-0.041503448
5	0xbdb878e9	-0.09007437
6	0xbe08fb45	-0.13377102
7	0xbd62d9a1	-0.05538333
8	0xbbc10a34	-0.005891109
9	0xbcbd3a41	-0.023099067
10	0xbcd1c81d	-0.025608117
11	0xbc9f7adc	-0.019467764
12	0xbd34ed06	-0.044171356
13	0x3c9bfabe	0.019040462
14	0xbc5f6c3b	-0.013636644
15	0x3cbaf2dd	0.022820884
16	0x3caf4aa9	0.021397905
17	0x3c1326ee	0.0089814495
18	0x3c84ff07	0.016234888
19	0xbcac17b0	-0.021007389
20	0x3d32c6ff	0.04364681
21	0x3c63015f	0.013855307
22	0x3ca07b1d	0.019589955
23	0x3c02a5eb	0.007974128
24	0x3d579c73	0.052639436
25	0x3d621670	0.05519718
26	0x3dc95eb7	0.098325185
27	0xbcb7b15b	-0.022423437
28	0xbd8a8d91	-0.06765283
29	0xbda16181	-0.078799255
30	0xbc116394	-0.008873839
31	0x3d14af22	0.036299832
32	0x3dc4c64e	0.09608136
33	0x3e052d54	0.13005573
34	0xbcee26bf	-0.02907121
35	0xbd82af50	-0.063810945
36	0x3db5ac86	0.08870797
37	0xbe078d48	-0.13237488
38	0xbd783b64	-0.060603514
39	0xbba8b89c	-0.0051489603
40	0x3dbc7fe5	0.092040814
41	0xbcee660a	-0.02910139
42	0xbcd41fca	-0.025894064
43	0x3c4e9a77	0.0126100695
44	0x3d856ac9	0.06514508
45	0x3d796193	0.06088407
46	0x3da3d91b	0.08000394
47	0x3da5b8eb	0.08091911
48	0x3d243735	0.040091712
49	0x3d2372f3	0.039904546
50	0x3da9a6fd	0.082838036
51	0x3d23a1a5	0.039949078
52	0x3d59763a	0.053091265
53	0x3c201725	0.009771143
54	0xbd0e3895	-0.03472193
55	0x3d99ff7c	0.07519433
56	0xbb78961a	-0.0037931264
57	0xbd33034c	-0.043704316
58	0x3d26a389	0.040683303
59	0x3d0832b4	0.03325148
60	0x3cedfcf2	0.029051278
61	0xbc481022	-0.012210878
62	0x3cf80f4c	0.030280732
63	0x3be1095f	0.006867572
64	0x3db1022d	0.08642993
65	0x3cfe0e51	0.031012686
66	0x3d9ad0b8	0.07559341
67	0xbd0e50fb	-0.034745198
68	0xbcbfa455	-0.02339379
69	0xbd8d1217	-0.06888216
70	0x3d08ff29	0.033446465
71	0x3e27acd0	0.16374516
72	0xbd009049	-0.0313876
73	0x3d19d86e	0.03755992
74	0x3d844b8b	0.06459721
75	0xbd907bf3	-0.070548914
76	0xbd1d2cf5	-0.038372952
77	0x3cdd1ed1	0.026992233
78	0x3d835467	0.06412583
79	0xbb739f20	-0.0037173703
80	0x3d9555f3	0.07291784
81	0x384dc6aa	4.906083e-05
82	0x3d70e251	0.058809582
83	0x3cc8eed4	0.024527945
84	0xbd9f8d5b	-0.07790633
85	0x3d499d35	0.04922219
86	0xbd1f770a	-0.038931884
87	0x3cb5e02d	0.022201622
88	0xbc249c5c	-0.010047045
89	0xbc84b62f	-0.016200153
90	0xbd368a04	-0.044565216
91	0xbcd6679e	-0.026172455
92	0xbdb7447a	-0.08948608
93	0x3d09f4ce	0.03368073
94	0xbcc6e0eb	-0.024277171
95	0x3cb8cbee	0.022558179
96	0xbd8a554d	-0.06754551
97	0xbd0fab19	-0.03507528
98	0xbc180ce4	-0.009280417
99	0xbd0f51aa	-0.03498999
100	0x3d3e4e5f	0.04646146
101	0x3dc5cdf3	0.09658422
102	0x3c4a0f5d	0.012332764
103	0x3dd2638d	0.10272894
104	0xbd93f871	-0.07225121
105	0x3d4f3038	0.050583094
106	0x3dd2080c	0.10255441
107	0xbd68c9ae	-0.05683296
108	0xbdccb60b	-0.099956594
109	0x3ab35bc5	0.0013683966
110	0x3de4a9f3	0.11165228
111	0xbc83f5d5	-0.016108433
112	0xbd85e75c	-0.06538269
113	0xbd3dc76d	-0.046332765
114	0x3b222afe	0.0024744864
115	0x3c892645	0.016741881
116	0xbc43ea16	-0.011957666
117	0x3df396ba	0.11893983
118	0x3d8f13ff	0.06986236
119	0xbb603d45	-0.0034216207
120	0x3db9f8ec	0.09080681
121	0xbd531ab7	-0.05153915
122	0xbc3a0321	-0.011353285
123	0x3d783d41	0.06060529
124	0xbd824267	-0.063603215
125	0x3d4e26fd	0.05033015
126	0x3d4e01ce	0.05029469
127	0xbd057045	-0.03257777
128	0x3c575489	0.013142713
129	0x3d9cf481	0.07663823
130	0x3dabcea4	0.08389023
131	0xbcf17f3b	-0.029479614
132	0x3df6525d	0.12027428
133	0x3c94192d	0.018078411
134	0x3dabe297	0.08392828
135	0x3d46703d	0.048446883
136	0x3d9534db	0.07285472
137	0xbcc8776c	-0.024471007
138	0xbd14f41f	-0.036365625
139	0x3cd85a93	0.026410377
140	0xbbe9f955	-0.0071403184
141	0x3e609d45	0.21934994
142	0xbbfee44c	-0.00777868
143	0xbd1c1f23	-0.03811563
144	0xbd27962d	-0.040914703
145	0x3dc5ad4d	0.09652195
146	0xbd9ae2d0	-0.07562792
147	0xbaaf9044	-0.0013394435
148	0xbdd03bef	-0.101676814
149	0x3d48ad4f	0.048993405
150	0x3da198a7	0.07890444
151	0x3c6302e9	0.013855674
152	0x3c959f87	0.018264545
153	0xbc5e2d1f	-0.013560562
154	0xbd1c2696	-0.038122736
155	0xbdb19f1f	-0.08672928
156	0xbd51d8c6	-0.051232122
157	0xbcb160d6	-0.02165262
158	0xbd8132c0	-0.06308508
159	0x3e1f268d	0.1554205
160	0x3cbbbeac	0.022918068
161	0x3d4b9a8d	0.049707938
162	0x3d222602	0.03958703
163	0xbd050053	-0.032471012
164	0x3c273cc8	0.0102073625
165	0xbd728cd1	-0.059216324
166	0xbd2cd45e	-0.042194717
167	0xbd8a9c10	-0.06768048
168	0xbd7fb867	-0.06243172
169	0x3d1daa46	0.038492464
170	0xbc799df2	-0.015235411
171	0xbdd29f90	-0.102843404
172	0x3cd9661b	0.026537945
173	0xbd83acef	-0.06429469
174	0x3d43b3fa	0.04777906
175	0x3c810645	0.01575006
176	0x3db2e997	0.0873596
177	0x3af302fc	0.0018540318
178	0x3ce164ee	0.027513947
179	0x3d6b99a3	0.057519566
180	0x3c860e30	0.016364187
181	0x3ccd76bf	0.025081037
182	0x3cc37d1d	0.02386337
183	0x3db4548d	0.08805189
184	0xbb89eb05	-0.0042089247
185	0x3d82f15d	0.06393693
186	0x397b52b8	0.0002396804
187	0xbd2c1e20	-0.042020917
188	0x3d046798	0.032325357
189	0x3d29fd38	0.041501254
190	0x3df4940e	0.11942302
191	0xbd6ec3fc	-0.058292374
192	0x3d555115	0.05207928
193	0x3d53ecb1	0.0517394
194	0x3d03e986	0.032205127
195	0x3d6b01b2	0.057374664
196	0x3cba5105	0.022743711
197	0x3ca3f62d	0.020014847
198	0x3dc3f4f8	0.095682085
199	0xbd6e9346	-0.05824592
200	0xbd2e2a35	-0.04252072
201	0xbd264e96	-0.04060229
202	0x3dd116c5	0.10209421
203	0x3c19ca36	0.00938659
204	0x3cf69157	0.0300986
205	0x3cf57f86	0.029968034
206	0xbd717598	-0.058950037
207	0xbcad4e0b	-0.021155378
208	0xbcbb2b44	-0.02284778
209	0x3d8d168c	0.06889066
210	0xbc1a9b63	-0.009436461
211	0x3cfcd6a6	0.030864071
212	0xbc3a3a2f	-0.011366411
213	0xbcc6a4d7	-0.024248524
214	0xbd241ece	-0.04006844
215	0xbd3cb513	-0.046071123
216	0xbc324573	-0.010880816
217	0x3d67afe3	0.056564223
218	0xbce50352	-0.027955685
219	0x3d1049ce	0.035226636
220	0x3c9e1227	0.019295765
221	0xbcb6b4b5	-0.022302965
222	0x3c62817b	0.013824816
223	0xbc6b4623	-0.014359984
224	0x3cbb6977	0.022877438
225	0x3c959944	0.01826156
226	0xbd8b998e	-0.068163976
227	0xbcaa8b05	-0.020818243
228	0x3d22f69a	0.03978596
229	0x3bb4927a	0.0055106254
230	0xbd784cdd	-0.060620178
231	0x3d143684	0.036184803
232	0x3d2320d9	0.039826248
233	0xbc6d2140	-0.014473259
234	0x3a61474f	0.00085936947
235	0x3a7cdcd3	0.00096459425
236	0x3d69fa93	0.05712373
237	0x3d3a34dd	0.04546057
238	0x3c8d2bb7	0.017232759
239	0x3daadf5b	0.08343383
240	0x3d05d8dc	0.032677516
241	0x3bb9d598	0.0056712143
242	0x3d278ffa	0.04090879
243	0x3d8c4b00	0.068502426
244	0x3d888774	0.06666461
245	0x3d14a2f9	0.036288235
246	0x3da19c98	0.07891196
247	0xbce028fa	-0.02736329
248	0xbcba635e	-0.02275246
249	0x3d0640ec	0.032776758
250	0x3c83b040	0.016075253
251	0x3d4e368b	0.050344985
252	0xbcedd7f9	-0.029033648
253	0xbc77f5c6	-0.015134281
254	0xbc836982	-0.016041521
255	0x3c72983c	0.014806803

Linear1.bias f4 [256]
0	0xbee3b5cd	-0.4447464
1	0xbecc0fee	-0.39855903
2	0xbef56308	-0.47927117
3	0xbec9f914	-0.39447844
4	0xbef60b72	-0.48055607
5	0xbeee269f	-0.4651384
6	0xbed0a991	-0.4075437
7	0xbece03d9	-0.4023731
8	0xbf05824f	-0.5215196
9	0xbed392b3	-0.4132286
10	0xbebdcdc6	-0.37071055
11	0xbef2ce91	-0.47423223
12	0xbf0bfa7c	-0.54679084
13	0xbef99f0e	-0.48754162
14	0xbeaf4483	-0.34231958
15	0xbe99a1f4	-0.30006373
16	0xbed79644	-0.4210683
17	0xbeff24f8	-0.49832892
18	0xbeb6459a	-0.35599977
19	0xbed2f3a0	-0.41201496
20	0xbece4627	-0.40287897
21	0xbeb72c36	-0.35775918
22	0xbea3f682	-0.32024008
23	0xbe7b876b	-0.24563377
24	0xbeeb501b	-0.45959553
25	0xbedab2c3	-0.4271451
26	0xbec2795c	-0.37983215
27	0xbee17a95	-0.44038835
28	0xbebbafee	-0.3665766
29	0xbec3cebf	-0.38243672
30	0xbecfeb2d	-0.40609112
31	0xbec9ff37	-0.39452526
32	0xbee883e8	-0.45413136
33	0xbed3f9f9	-0.41401652
34	0xbeb1f74d	-0.34758988
35	0xbec5a98f	-0.38605925
36	0xbe938ce6	-0.28818434
37	0xbec1ef65	-0.37877956
38	0xbead8961	-0.33893874
39	0xbe9f6deb	-0.31138548
40	0xbed9728b	-0.42470202
41	0xbec3c90d	-0.38239327
42	0xbecf1039	-0.40442064
43	0xbead5145	-0.33851066
44	0xbec56877	-0.38556263
45	0xbed74d97	-0.42051384
46	0xbec193b0	-0.3780799
47	0xbed26d75	-0.41099134
48	0xbeda0655	-0.42582956
49	0xbeb546a3	-0.35405454
50	0xbed34476	-0.4126317
51	0xbebb42a7	-0.3657429
52	0xbeb7216f	-0.35767695
53	0xbee4e413	-0.44705257
54	0xbef6834b	-0.48147044
55	0xbec79953	-0.38984165
56	0xbeccbe57	-0.39988968
57	0xbee7e38b	-0.4529079
58	0xbf0b739c	-0.5447328
59	0xbef9d959	-0.48798636
60	0xbef3718a	-0.4754756
61	0xbebc60e2	-0.36792666
62	0xbea1bbc4	-0.31588566
63	0xbeb6559c	-0.3561219
64	0xbeeddd5e	-0.46457952
65	0xbeb76f25	-0.35826984
66	0xbedd3955	-0.43207803
67	0xbef05dbb	-0.4694651
68	0xbea2a745	-0.31768242
69	0xbee97565	-0.45597377
70	0xbec4b4a3	-0.38419065
71	0xbeb7ed03	-0.35923013
72	0xbeae8a56	-0.34089917
73	0xbedb8eab	-0.42882285
74	0xbf0a5a26	-0.54043806
75	0xbeb9821a	-0.36232072
76	0xbee376d9	-0.4442661
77	0xbec96a88	-0.3933909
78	0xbec394a8	-0.38199353
79	0xbec3932c	-0.3819822
80	0xbec4e791	-0.3845792
81	0xbecd54ff	-0.4010391
82	0xbebf9531	-0.37418512
83	0xbed9c526	-0.42533225
84	0xbee0b294	-0.43886244
85	0xbeb23ed2	-0.34813553
86	0xbed3f7b5	-0.41399923
87	0xbec583e9	-0.38577202
88	0xbed3ccfa	-0.41367322
89	0xbefecc62	-0.49765307
90	0xbed7306f	-0.4202914
91	0xbec30bd1	-0.38094953
92	0xbedeb23e	-0.43495363
93	0xbeba3392	-0.3636747
94	0xbeacbe7f	-0.33739087
95	0xbecf1c29	-0.40451172
96	0xbea608f4	-0.32428706
97	0xbeb4ec36	-0.35336465
98	0xbeae5baa	-0.3405431
99	0xbed1682d	-0.40899792
100	0xbf017db8	-0.50582457
101	0xbee42358	-0.44558215
102	0xbebf4294	-0.37355483
103	0xbef0eb3d	-0.47054473
104	0xbe6b5732	-0.22982481
105	0xbee8123b	-0.4532641
106	0xbed4202d	-0.41430798
107	0xbecc51a3	-0.39906034
108	0xbedcc205	-0.43116775
109	0xbed17fd6	-0.40917844
110	0xbeca7081	-0.3953896
111	0xbee76cc3	-0.45200166
112	0xbea19b5c	-0.31563842
113	0xbedde11f	-0.43335816
114	0xbf0aecfa	-0.5426785
115	0xbee5e8bd	-0.44904128
116	0xbeb88e2f	-0.36045977
117	0xbebcb467	-0.36856386
118	0xbeba8475	-0.36429182
119	0xbe990621	-0.29887488
120	0xbeb31c9d	-0.34982768
121	0xbed616fe	-0.41814417
122	0xbee51f13	-0.4475027
123	0xbed3c389	-0.4136012
124	0xbecfee57	-0.40611526
125	0xbea1a253	-0.31569156
126	0xbefba0aa	-0.49146014
127	0xbebdff0d	-0.3710865
128	0xbf139e6d	-0.57663614
129	0xbeecd739	-0.46257952
130	0xbea910e5	-0.33020702
131	0xbe84a82a	-0.2590955
132	0xbec8d4e9	-0.39224938
133	0xbebc3e82	-0.3676644
134	0xbebe316d	-0.37147084
135	0xbeb1841e	-0.3467111
136	0xbebe290e	-0.37140697
137	0xbe9ce593	-0.306439
138	0xbea4c647	-0.32182524
139	0xbeff3069	-0.49841622
140	0xbeb0f762	-0.34563738
141	0xbed2e742	-0.4119206
142	0xbefb1325	-0.49038044
143	0xbeb0c4af	-0.34525058
144	0xbebe7826	-0.3720104
145	0xbef18521	-0.47171882
146	0xbeb90f82	-0.36144644
147	0xbece6711	-0.40313008
148	0xbeada133	-0.33912048
149	0xbe9dca5e	-0.30818456
150	0xbed22cde	-0.41049856
151	0xbef8f6bc	-0.48625743
152	0xbedb6e43	-0.4285756
153	0xbef7c3ef	-0.48391673
154	0xbe8b806b	-0.27246413
155	0xbec71ceb	-0.3888925
156	0xbee4707f	-0.44617078
157	0xbe9c55d2	-0.30534226
158	0xbf0a299c	-0.5396974
159	0xbedd448c	-0.4321636
160	0xbed2a552	-0.41141754
161	0xbed8aebf	-0.4232082
162	0xbee3a3d8	-0.4446094
163	0xbea5e03c	-0.3239764
164	0xbec23233	-0.37928924
165	0xbec1a902	-0.37824255
166	0xbee49cb9	-0.4465082
167	0xbecb713a	-0.39734823
168	0xbe957464	-0.29190361
169	0xbf046364	-0.5171416
170	0xbebfdfcc	-0.3747543
171	0xbeb0af52	-0.3450876
172	0xbede9277	-0.4347112
173	0xbec7b0f6	-0.39002198
174	0xbebd5c83	-0.36984643
175	0xbeb0fabe	-0.345663
176	0xbec0b861	-0.3764067
177	0xbedf3836	-0.43597573
178	0xbebe48c2	-0.37164885
179	0xbee97c37	-0.4560258
180	0xbee9e4c6	-0.45682353
181	0xbeb49bc8	-0.35275102
182	0xbebb62d6	-0.36598843
183	0xbea13f5c	-0.31493652
184	0xbef4e3a4	-0.47829926
185	0xbed5068d	-0.4160656
186	0xbee0ff43	-0.4394475
187	0xbea75a12	-0.32685906
188	0xbef92bfa	-0.48666364
189	0xbeaab2f9	-0.3333967
190	0xbed3b189	-0.41346386
191	0xbed2ba6b	-0.4115785
192	0xbecd3199	-0.40076903
193	0xbef8fd99	-0.4863098
194	0xbec64072	-0.38721043
195	0xbef2be7a	-0.47410947
196	0xbebc1452	-0.36734253
197	0xbeddb3d9	-0.43301275
198	0xbed01a60	-0.40645123
199	0xbedd2107	-0.4318926
200	0xbeb33eec	-0.35008943
201	0xbecc1ab9	-0.39864138
202	0xbeb051e2	-0.34437472
203	0xbee410d3	-0.44544086
204	0xbecfd3ce	-0.40591282
205	0xbefb26f6	-0.49053162
206	0xbebf0516	-0.37308568
207	0xbeb8353c	-0.35978115
208	0xbeaeb089	-0.3411906
209	0xbee4d3e8	-0.44692922
210	0xbef69af3	-0.48165092
211	0xbec9364d	-0.3929924
212	0xbeb4ff40	-0.3535099
213	0xbee0e320	-0.43923283
214	0xbeaf7a37	-0.3427293
215	0xbf169b22	-0.58830464
216	0xbeb2806b	-0.348636
217	0xbef88039	-0.48535326
218	0xbec52d64	-0.38511193
219	0xbed57228	-0.41688657
220	0xbec7bf3e	-0.39013094
221	0xbedc377c	-0.4301108
222	0xbea960ff	-0.33081815
223	0xbee08a35	-0.43855444
224	0xbec37fe3	-0.38183507
225	0xbef77c25	-0.48336902
226	0xbea84d10	-0.32871294
227	0xbee23ab2	-0.44185406
228	0xbec43dbf	-0.3832836
229	0xbeb9b024	-0.36267197
230	0xbedd03e0	-0.4316702
231	0xbece1e28	-0.40257382
232	0xbed9b62c	-0.425218
233	0xbf003771	-0.50084597
234	0xbebf7b94	-0.3739897
235	0xbec893df	-0.39175317
236	0xbec35626	-0.38151664
237	0xbee4b6cc	-0.44670713
238	0xbedd12e9	-0.4317849
239	0xbea90dd0	-0.3301835
240	0xbeb76230	-0.358171
241	0xbeda9b6a	-0.42696697
242	0xbed201cb	-0.41016993
243	0xbec2d545	-0.38053337
244	0xbec08175	-0.37598768
245	0xbf08bfef	-0.5341787
246	0xbeafe0a6	-0.3435108
247	0xbeb7fe34	-0.3593613
248	0xbec52a71	-0.38508943
249	0xbef96031	-0.487062
250	0xbec56191	-0.38551
251	0xbef211e1	-0.47279266
252	0xbec6e42b	-0.38845953
253	0xbee7154d	-0.4513344
254	0xbef73fdc	-0.48290908
255	0xbe9f2b94	-0.31087935

Linear2.weight f4 [7, 256]
0	0x3d066afe	0.03281688
1	0xbcb5de6f	-0.022200791
2	0x3d562475	0.052280862
3	0xbd9d07ea	-0.07667525
4	0xbc3dce4c	-0.01158483
5	0x3cc633a7	0.024194552
6	0xbd811636	-0.063030645
7	0x3d40cc5c	0.047069892
8	0xbdcd01d4	-0.10010114
9	0x3d8a3e60	0.06750178
10	0x3cdbbfec	0.026824914
11	0x3d53fd85	0.051755447
12	0xbc832310	-0.01600793
13	0xbc4ce13a	-0.01250487
14	0x3b95fcf4	0.0045772735
15	0xbd3b3609	-0.04570583
16	0xbd964644	-0.07337621
17	0xbc58d767	-0.01323495
18	0xbd6c67d1	-0.057716195
19	0x3de58d65	0.112086095
20	0xbb97b131	-0.004629277
21	0xbcd6229c	-0.02613955
22	0x3b10d1b7	0.0022097656
23	0xbb90dc82	-0.004420818
24	0x3d7b330c	0.06132798
25	0x3a5adb7d	0.00083487463
26	0xbc595783	-0.013265493
27	0x3c157d8c	0.009124171
28	0x3d8bac62	0.06819989
29	0xbd715d9e	-0.05892717
30	0xbd7e9ecf	-0.06216317
31	0xbe33b27e	-0.17548558
32	0x3d292591	0.04129559
33	0xbe1086eb	-0.14113967
34	0xbd17da68	-0.037073523
35	0xbe27a062	-0.16369775
36	0x3b85ed0d	0.0040870965
37	0xbdb71ac0	-0.08940649
38	0x3becedd1	0.0072304984
39	0xbd2ef471	-0.042713586
40	0xbc54a44a	-0.012978623
41	0x3c1ceada	0.009577477
42	0xbd884ce6	-0.06655292
43	0x3c83f5b2	0.016108368
44	0xbe04ad16	-0.12956652
45	0x3dc61914	0.09672752
46	0xbd537b97	-0.051631536
47	0xbdadd7eb	-0.08488449
48	0x3db2f00b	0.08737191
49	0xbd085663	-0.03328551
50	0x3de7acbc	0.11312243
51	0xbd471a0b	-0.04860882
52	0x3a2db840	0.00066268817
53	0xbd4566c6	-0.048193716
54	0x3c8ff934	0.017574884
55	0x3dd6fbda	0.104972556
56	0xbb994153	-0.0046769767
57	0xbc551e4b	-0.013007711
58	0xbe142fb3	-0.14471321
59	0x3c6625cc	0.014047097
60	0xbd7eccc8	-0.062207013
61	0x3c1451be	0.009052692
62	0xbca4013c	-0.02002012
63	0x3ba42bac	0.005010089
64	0xbd16386c	-0.0366749
65	0xbcb0e9d8	-0.02159588
66	0x3dc43ba5	0.09581689
67	0x3cb2b1b1	0.021813245
68	0xbd2c9bae	-0.042140655
69	0x3e181d74	0.14854985
70	0xbd34ff88	-0.044189006
71	0xbdc3a857	-0.09553593
72	0xbe0e79c1	-0.13913633
73	0xbc8b7882	-0.017025236
74	0xbcad8a03	-0.021183973
75	0xbd89ab15	-0.067220844
76	0xbcc0f876	-0.023555975
77	0xbcb2050c	-0.021730922
78	0x3d6e1537	0.0581257
79	0xba17a7ff	-0.0005785226
80	0x3cc38790	0.023868352
81	0xbdfa3cf8	-0.1221866
82	0x3be3e0b3	0.0069542765
83	0x3d63acf8	0.055584878
84	0xbcebac88	-0.028768793
85	0x3c15a190	0.009132758
86	0xbcce14d5	-0.025156418
87	0xbe209e46	-0.15685377
88	0xbd28700e	-0.04112249
89	0x3da4e335	0.08051149
90	0x38a939de	8.0693266e-05
91	0xbd8dea3a	-0.06929441
92	0x3c12ae67	0.008952714
93	0xbd773b19	-0.060359094
94	0xbbaa915e	-0.0052053174
95	0xbd85abea	-0.06526931
96	0xbb84b4f6	-0.0040498925
97	0x3bd9ccd8	0.0066467337
98	0xbdee9dfd	-0.116512276
99	0xbc80d173	-0.015724873
100	0x3cfe4ce4	0.031042524
101	0x3d1a5f95	0.03768881
102	0x3c3192e9	0.010838249
103	0x3ce7b09c	0.028282456
104	0xbba84d6d	-0.005136183
105	0xbd5db20c	-0.054124877
106	0x3ce0cfa9	0.02744277
107	0x3cbbc544	0.022921212
108	0xbd2b5dbe	-0.041837446
109	0x3cdb93b8	0.026803836
110	0xbc61637a	-0.013756627
111	0xbc8ec772	-0.017429087
112	0xbd002565	-0.031285662
113	0x3d41ed09	0.047345195
114	0xbd3be517	-0.045872774
115	0xbdb4cb61	-0.08827854
116	0xbcdfd62f	-0.02732381
117	0x3c167b63	0.009184691
118	0xbcaa3075	-0.02077506
119	0xbb10dcef	-0.0022104343
120	0xbd910643	-0.070812725
121	0xbd69c73c	-0.05707477
122	0xbc40ee54	-0.011775572
123	0xbd3c3276	-0.04594656
124	0xbc452c41	-0.012034477
125	0xbcc21c9f	-0.023695288
126	0x3c832ef5	0.016013602
127	0x3c8ea37a	0.017411936
128	0x3d65a55c	0.056065902
129	0xbd80586a	-0.06266864
130	0xbd3090bd	-0.043106783
131	0x3c2fd69d	0.01073232
132	0x3d5802ec	0.05273716
133	0xba84f771	-0.0010144544
134	0xbd518ffc	-0.051162705
135	0xbc93c115	-0.018036405
136	0x3c7a54d7	0.015279016
137	0xb900bd23	-0.0001227749
138	0x3ca66c25	0.02031524
139	0xbdb144be	-0.0865569
140	0x3cbfe961	0.023426713
141	0xbd6cac45	-0.057781477
142	0xbdb192c3	-0.08670571
143	0xbd6ca42b	-0.05777375
144	0xbc823510	-0.015894443
145	0x3d5d730b	0.05406479
146	0xbcede029	-0.029037552
147	0x3d16b4ac	0.036793396
148	0xbc411071	-0.011783705
149	0xbbe36e82	-0.006940664
150	0xbe0935d6	-0.13399443
151	0x3bb1d4e6	0.005426991
152	0xbd55e647	-0.052221563
153	0xbcb168b5	-0.021656374
154	0xbd81b4f0	-0.06333339
155	0xbcd5c888	-0.026096597
156	0xbc7de472	-0.01549636
157	0xbb06cbfd	-0.0020568364
158	0x3ddcf47f	0.107888214
159	0x3d2035d2	0.039113827
160	0x3c4b274b	0.012399505
161	0xbd5dd0a9	-0.054154072
162	0x3cbbd6f5	0.022929648
163	0xbc3860c4	-0.0112535395
164	0x3b91508b	0.0044346503
165	0xbdd8e8f2	-0.10591306
166	0xbb58402b	-0.0032997231
167	0xbbd700e9	-0.006561388
168	0x3c40ce3c	0.01176792
169	0xba8f5aaa	-0.0010937054
170	0x3daf2e20	0.085537195
171	0x3d006f76	0.031356297
172	0x3d26d030	0.040725887
173	0xbe1bad3d	-0.15202804
174	0x3b6b776c	0.0035929335
175	0xbc1049ce	-0.008806659
176	0xbc711c1e	-0.014716176
177	0xbd30bf24	-0.043151036
178	0x3c89c121	0.016815724
179	0xbd3a1d11	-0.045437876
180	0xbd135642	-0.035970934
181	0x3aa1e532	0.0012351631
182	0xbd83f118	-0.06442469
183	0xbb1982b4	-0.0023423852
184	0xbe0a66de	-0.13515803
185	0xbb430a67	-0.002976084
186	0x3cc6d95d	0.024273569
187	0xbe0a12fd	-0.13483806
188	0xbb6fd5a1	-0.0036595839
189	0xbd2aff7f	-0.041747566
190	0xbc3f4851	-0.011674956
191	0xbe0e4b9b	-0.13896029
192	0xbdaa3d18	-0.08312434
193	0xbd096c70	-0.03355068
194	0xbcf15abd	-0.029462213
195	0xbc039a6b	-0.008032422
196	0xbd557c5d	-0.052120555
197	0x3addd7ea	0.0016925309
198	0xbc2c7df6	-0.010528078
199	0xbd61d8fc	-0.055138573
200	0xbcbd2c90	-0.023092538
201	0x3d07fbd4	0.033199146
202	0xbc97fa7b	-0.018552056
203	0xbd907d02	-0.07055093
204	0xbd05f899	-0.032707784
205	0x3c096477	0.008385769
206	0xbc81e630	-0.015856832
207	0x3d435ccf	0.04769593
208	0x3d1d463f	0.03839707
209	0xbd45c8e3	-0.048287284
210	0xbc07a6fa	-0.008279556
211	0x3d45364a	0.048147477
212	0x3d2288fd	0.039681423
213	0x3c74ace3	0.0149337975
214	0x3d16d6cb	0.036825936
215	0x3c950fbd	0.018195981
216	0xbdc6fd46	-0.09716277
217	0xbd001e6c	-0.031279013
218	0xbd471a74	-0.048609212
219	0xbd92fe9e	-0.071774706
220	0xbccdc945	-0.025120387
221	0xbc6dcda4	-0.014514361
222	0xbd03bae5	-0.03216066
223	0xbd4dc1a6	-0.050233506
224	0x3d8124ae	0.06305824
225	0x3d5243c0	0.051334143
226	0x3c763023	0.015026125
227	0xbbaf9a05	-0.0053589367
228	0xbb702a2d	-0.0036646232
229	0x3d3d7b93	0.046260428
230	0xbb9296e5	-0.0044735544
231	0xbd865951	-0.065600045
232	0x3d2c5b2f	0.042079147
233	0x3d1b2725	0.037879128
234	0xbd7df7a6	-0.062003754
235	0x3d64d3d8	0.055866092
236	0x3cf67c11	0.030088456
237	0x3cb6d79f	0.022319613
238	0xbcf1e4b7	-0.029528005
239	0xb9a3a99a	-0.00031216146
240	0x3c4a3a66	0.012343025
241	0xbdc0964f	-0.09403669
242	0xbc1b7d9b	-0.009490396
243	0xbd0a47eb	-0.033759993
244	0xbd4645c0	-0.048406363
245	0x3c2a98e1	0.010412426
246	0xbc8f4b45	-0.017491946
247	0x3b5c2d34	0.003359628
248	0xbc72235d	-0.014778939
249	0xbcc2f8ed	-0.023800338
250	0x38f4f9fa	0.000116813884
251	0xbcca6e3b	-0.024710765
252	0xbd9f0b8f	-0.077658765
253	0xbcd6d89a	-0.02622633
254	0x3d552173	0.052033853
255	0xbd134dd2	-0.035962887

Linear2.bias f4 [7]
0	0x3c878df2	0.016547177
1	0xb9ca6d00	-0.00038609654
2	0x3c9241e4	0.017853685
3	0x3c901f44	0.017593034
4	0x3c957612	0.018244777
5	0xbb0b5b0a	-0.002126398
6	0x3c846a00	0.016163826
