epsilon_10/saved_model 6000.pth (torch, 52885 bytes, 4 tensors)

Linear1.weight f4 [256, 42]
0	0xbd68fbcf	-0.05688077
1	0xbba3d40c	-0.004999643
2	0xbd3225d2	-0.0434931
3	0xbba75c06	-0.0051074056
4	0xbd474137	-0.048646178
5	0x3c8d9334	0.017282106
6	0xbd33598a	-0.043786563
7	0x3d0bed35	0.034161765
8	0x3c86d31f	0.016458092
9	0x3d3d1849	0.04616574
10	0xbd8d8778	-0.06910604
11	0xbd6cea88	-0.057840854
12	0x3d5a9309	0.05336288
13	0xbcc9a397	-0.024614139
14	0x3cd3d5bd	0.025858754
15	0xbdba1769	-0.090864964
16	0x3d33f458	0.043934196
17	0xbd45e3ab	-0.048312824
18	0xbb4fcba4	-0.0031707073
19	0x3c2a5434	0.010396052
20	0xbcdf9013	-0.02729038
21	0xbd04ce3c	-0.032423243
22	0xbd4bf6ae	-0.0497958
23	0x3bc14041	0.0058975522
24	0x3d4ff4a5	0.05077042
25	0xbb64ea26	-0.0034929602
26	0x3d142959	0.036172245
27	0xbcfa49e8	-0.03055282
28	0x3b30033a	0.0026857392
29	0xbd116b88	-0.03550294
30	0x3de6535f	0.112463705
31	0xbc682bb1	-0.014170573
32	0xbd9b5373	-0.07584276
33	0x3d5d16d4	0.05397685
34	0xbdc2f7fc	-0.095199555
35	0xbd0c4903	-0.034249317
36	0x3c9aaab3	0.018880224
37	0x3c1398eb	0.009008626
38	0x3c791466	0.015202617
39	0xbdc47fbf	-0.09594678
40	0xbc7b98cc	-0.015356254
41	0x3d31d93e	0.04342007
42	0x3cc3474e	0.023837712
43	0x3d51fd06	0.051266693
44	0x3d058172	0.03259415
45	0x3c456122	0.012047084
46	0x3a9d97a0	0.0012023337
47	0x3d0a3e9c	0.033751115
48	0x3c10e7d7	0.008844337
49	0x3b6bf036	0.0036001331
50	0x3d12aee4	0.03581132
51	0x3c6a084c	0.014284205
52	0x3d64e9fd	0.05588721
53	0x3cfe5494	0.03104619
54	0x3d7963e7	0.06088629
55	0x3d077c9b	0.033077817
56	0x3d17339b	0.03691445
57	0x3dc02b3f	0.093832485
58	0x3d8da3b7	0.06915992
59	0x3d76a401	0.060215
60	0xbc794713	-0.015214699
61	0x3c99467b	0.018710366
62	0x3d02971a	0.031882383
63	0x3d0d7ef8	0.034544915
64	0x3c19170a	0.009343872
65	0xbb1eda38	-0.0024238955
66	0x3d28f8df	0.041252967
67	0x3cb070d6	0.02153818
68	0x3bcb49a9	0.0062038493
69	0xbbac6bdc	-0.0052618813
70	0x3c0c6ddd	0.008571115
71	0x3c210953	0.009828883
72	0x3ce75406	0.028238308
73	0x3d8535a3	0.06504371
74	0x3d809a5a	0.0627944
75	0xbd002f4a	-0.0312951
76	0xbc890d4d	-0.016729975
77	0x3d592cf4	0.053021386
78	0x3d7be0f6	0.061493836
79	0xbc577511	-0.013150469
80	0x3cd22069	0.02565022
81	0x3c1f431c	0.00972059
82	0x3c9210ff	0.01783037
83	0x3ba71d57	0.005099933
84	0xbd170bc4	-0.036876455
85	0x3d9435c2	0.07236816
86	0x3a1af23f	0.0005910731
87	0xbdfc6e64	-0.12325743
88	0xbb5e2a94	-0.003389989
89	0x3cc68acd	0.024236107
90	0x3cf796f2	0.030223344
91	0x3df6c347	0.12048965
92	0xbd6ce649	-0.057836805
93	0x3dd9d8b6	0.106370375
94	0x3e1e644a	0.15467945
95	0xbc9ee241	-0.019394996
96	0x3d500c3e	0.050792925
97	0xbdfc8329	-0.12329704
98	0x3d57ff35	0.05273362
99	0x3d84cacc	0.06483993
100	0x3d96dd9d	0.07366488
101	0xbd9a73ea	-0.0754164
102	0x3ddb60c5	0.10711817
103	0x3def6398	0.11688918
104	0xbc92120a	-0.017830867
105	0xbcea6938	-0.028614625
106	0x3e11bd81	0.14232446
107	0x3e0f4978	0.1399287
108	0xbdd5b65f	-0.10435175
109	0xbba056eb	-0.004893174
110	0xbd4f6936	-0.050637446
111	0xbce7f477	-0.028314812
112	0x3bd811d2	0.006593921
113	0xbe048391	-0.12940814
114	0xbe6005c8	-0.21877205
115	0xbc38404b	-0.011245797
116	0x3db64655	0.089001335
117	0x3e18536e	0.14875576
118	0x3dcfdce6	0.10149555
119	0x3d9dd99d	0.07707522
120	0xbd9d3551	-0.07676185
121	0x3ddbc569	0.107310124
122	0xbe0a104f	-0.13482784
123	0x3c674f9b	0.0141181005
124	0xbdbabe02	-0.09118272
125	0xbc59690c	-0.013269674
126	0x3d5c2706	0.053748153
127	0xbce4a303	-0.027909761
128	0x3dc67224	0.09689739
129	0x3d994025	0.07482938
130	0x3d7a2676	0.061071835
131	0x3d03677d	0.032081116
132	0x3da208d8	0.07911843
133	0xbcadb477	-0.021204216
134	0xbc04d2c3	-0.00810689
135	0x3e21f046	0.15814313
136	0x3de5a2bb	0.11212679
137	0xbc8d4b3b	-0.017247787
138	0xbdb5546c	-0.08853993
139	0x3b890301	0.0041812663
140	0xbd0c1ad4	-0.034205273
141	0x3df2f2db	0.11862727
142	0x3d2f911b	0.042862993
143	0xbe159334	-0.14606935
144	0x3d84100d	0.06448374
145	0x3d219404	0.0394478
146	0x3cd8d80c	0.026470207
147	0x3cab7561	0.020929994
148	0x3c4588fd	0.012056586
149	0x3d4e84a1	0.050419454
150	0x3e3442e9	0.17603649
151	0xbd125368	-0.035724074
152	0xbcd8fa10	-0.026486427
153	0xbd8444d6	-0.06458442
154	0xbbf1f4e2	-0.0073839286
155	0x3bf0e761	0.0073518013
156	0xbd51ac07	-0.05118945
157	0xbb4cd5f2	-0.003125545
158	0xbd269a30	-0.04067439
159	0x3d3232f9	0.043505643
160	0x3dab507c	0.083649606
161	0x3baba80f	0.00523854
162	0x3da2f0c2	0.07956077
163	0x3d3d442b	0.04620759
164	0xbd8e9469	-0.06961901
165	0xbdc7d775	-0.09757892
166	0x3d0a6a44	0.03379275
167	0x3caf001e	0.02136236
168	0x3ce12129	0.027481632
169	0x3d781556	0.060567223
170	0x3cb38864	0.021915622
171	0x3bb8e24b	0.0056422106
172	0x3cf1ecfb	0.029531946
173	0xbcb45e26	-0.02201755
174	0x3ce9d93c	0.028545968
175	0xbcb2851d	-0.021791989
176	0x3c1013b7	0.008793763
177	0x3d95b1f6	0.07309334
178	0x3d677a48	0.0565131
179	0x3cf15795	0.029460708
180	0x3c63be3e	0.013900338
181	0x3d9a401b	0.075317584
182	0x3d2a62de	0.041598193
183	0x3e082e1e	0.13298842
184	0x3d1826e7	0.037146475
185	0x3dd53d6f	0.10412108
186	0x3db9e265	0.090763845
187	0x3ca3df7d	0.020004028
188	0x3daf945b	0.085732184
189	0x3db1de91	0.08685029
190	0x3adbd8ee	0.0016773024
191	0xbcfb5386	-0.030679476
192	0xbd88489a	-0.06654473
193	0xbd20eaac	-0.0392863
194	0x3c7ae552	0.015313463
195	0x3d4b8303	0.04968549
196	0x3d4c609c	0.04989682
197	0xbc13f4c0	-0.009030521
198	0xbbf6b5cc	-0.007528996
199	0xbd7b9f65	-0.061431307
200	0x3c6c0753	0.014406043
201	0x3b6bcfbc	0.0035981974
202	0x3d91a221	0.07111002
203	0xbd859306	-0.06522183
204	0x3e1c7e4a	0.1528255
205	0x3da378dc	0.079820365
206	0x3d43075c	0.04761444
207	0xbc3a6f5e	-0.011379091
208	0xbc3620d9	-0.01111623
209	0xbb1db4e0	-0.0024064109
210	0x3cb165d5	0.021655003
211	0x3d0ea3e8	0.034824282
212	0xbd1b8bdf	-0.03797519
213	0xbb42472c	-0.0029644473
214	0xbb15fbc6	-0.0022885664
215	0x3c00119e	0.0078167
216	0x3cc602c1	0.024171235
217	0x3c7bbcdf	0.015364855
218	0x3cb4b99e	0.022061165
219	0x3b99f8e5	0.00469886
220	0xbc19aefb	-0.0093800975
221	0xbd46c287	-0.04852536
222	0x3bf91506	0.007601383
223	0x3c987693	0.018611228
224	0x3c0c98b1	0.008581326
225	0x3cd2b6bd	0.025721902
226	0x3c97af8b	0.018516323
227	0x3c6e9868	0.014562704
228	0x3c1c7a05	0.009550576
229	0x3d448604	0.04797937
230	0xbcca7d00	-0.024717808
231	0x3d3fce23	0.046827447
232	0x3d2661d7	0.04062065
233	0x3c511347	0.012760944
234	0x3c41e246	0.011833733
235	0x3ce290da	0.027656961
236	0x3d0aa9b2	0.03385324
237	0x3c472d33	0.012156772
238	0x3b9aa804	0.004719736
239	0x3d690f28	0.05689922
240	0x3bae3f51	0.0053176065
241	0x3d6767b5	0.056495387
242	0x3c69e2a3	0.014275226
243	0x3dbd5549	0.092447825
244	0x3d445fa2	0.047942765
245	0x3d41f46f	0.04735225
246	0x3d5697dd	0.05239092
247	0xbb13ee0d	-0.002257231
248	0xbc4ce940	-0.012506783
249	0x3cbb7111	0.022881063
250	0xbbc12d7d	-0.005895315
251	0x3d8d6458	0.06903905
252	0xbd2ab0c9	-0.0416725
253	0xbcf217ff	-0.029552458
254	0x3d03dd5a	0.03219352
255	0x3b7947d7	0.0038037205

Linear1.bias f4 [256]
0	0xbf306c43	-0.68915194
1	0xbf03397b	-0.51259583
2	0xbf34d730	-0.7064085
3	0xbf2197d6	-0.6312231
4	0xbf4e31cd	-0.8054474
5	0xbf010c09	-0.5040899
6	0xbf1fa071	-0.6235419
7	0xbf2a7946	-0.665913
8	0xbf4dded6	-0.80418146
9	0xbf2d6070	-0.67725277
10	0xbf005fd6	-0.50146234
11	0xbf24c595	-0.64363986
12	0xbf4558ef	-0.77088827
13	0xbef99f0e	-0.48754162
14	0xbf4b62ea	-0.79447806
15	0xbf087d13	-0.5331585
16	0xbf5af00e	-0.85522544
17	0xbf35a40b	-0.70953435
18	0xbf1ced79	-0.61299855
19	0xbf063da4	-0.52437806
20	0xbf37102b	-0.71509045
21	0xbf2bfb5d	-0.67180425
22	0xbf2ae420	-0.6675434
23	0xbf1916a9	-0.598002
24	0xbf28ee64	-0.65988755
25	0xbf1bc49a	-0.60846865
26	0xbf060f22	-0.5236684
27	0xbf21c229	-0.6318689
28	0xbf691a4e	-0.9105576
29	0xbf34b104	-0.70582604
30	0xbf114e61	-0.5676022
31	0xbf21d5db	-0.6321694
32	0xbf1d0bc5	-0.61346084
33	0xbf0e4fef	-0.5559072
34	0xbf09f674	-0.5389168
35	0xbf069a3f	-0.5257911
36	0xbf0d4664	-0.5518553
37	0xbf1635db	-0.58675927
38	0xbf24d847	-0.64392513
39	0xbf0a7345	-0.5408214
40	0xbf0cdb70	-0.55022335
41	0xbf224886	-0.6339191
42	0xbf09f20c	-0.5388496
43	0xbf05cf27	-0.52269214
44	0xbf309599	-0.6897827
45	0xbf301843	-0.6878702
46	0xbf150c80	-0.582222
47	0xbf2e95d4	-0.6819737
48	0xbf2a0343	-0.66411227
49	0xbf049900	-0.5179596
50	0xbf386f3d	-0.72044736
51	0xbf317a4c	-0.69327235
52	0xbf1a3bd0	-0.60247517
53	0xbf2464f5	-0.6421655
54	0xbf42b51a	-0.7605759
55	0xbf192733	-0.5982544
56	0xbf0effb7	-0.5585894
57	0xbf35c58a	-0.71004546
58	0xbf41ac61	-0.75653654
59	0xbf12fdcb	-0.5741851
60	0xbf2cc17d	-0.6748274
61	0xbf06573c	-0.5247686
62	0xbf25f3ae	-0.6482495
63	0xbf0ef043	-0.5583536
64	0xbf2381d8	-0.6387
65	0xbf22ef74	-0.63646626
66	0xbf50390e	-0.8133706
67	0xbf31ef9c	-0.6950624
68	0xbf092cdb	-0.5358407
69	0xbf3c652f	-0.73591894
70	0xbf223c3c	-0.6337316
71	0xbf1402de	-0.57816875
72	0xbf1587bc	-0.5841024
73	0xbf4effd8	-0.80859137
74	0xbf40825a	-0.751989
75	0xbf28c11e	-0.65919673
76	0xbf2427a2	-0.64122975
77	0xbf2ff1b0	-0.6872816
78	0xbf305818	-0.6888442
79	0xbf25e885	-0.6480792
80	0xbf11b34d	-0.56914216
81	0xbf238d9c	-0.63887954
82	0xbf224cfb	-0.6339871
83	0xbf324e54	-0.6965077
84	0xbf0ca444	-0.5493815
85	0xbf485d34	-0.78267217
86	0xbf23fe0f	-0.6405954
87	0xbf28c7e5	-0.65930015
88	0xbed94063	-0.42431936
89	0xbf4fd5be	-0.8118552
90	0xbf0d71f6	-0.55252016
91	0xbf110e59	-0.5666252
92	0xbf484832	-0.7823516
93	0xbf12e0c4	-0.57374215
94	0xbf0c9898	-0.5492034
95	0xbf310917	-0.69154495
96	0xbf4e4cf2	-0.8058616
97	0xbf3a11ab	-0.7268321
98	0xbf0d962d	-0.55307275
99	0xbf339be4	-0.70159745
100	0xbf5dddc6	-0.86666524
101	0xbf3f57b8	-0.74743223
102	0xbf222959	-0.6334434
103	0xbf2be8e0	-0.67152214
104	0xbf0f76ae	-0.56040466
105	0xbf3164ef	-0.6929464
106	0xbf2f3dd3	-0.6845371
107	0xbf113c96	-0.5673307
108	0xbf122092	-0.5708095
109	0xbf51a9b6	-0.81899583
110	0xbf222d2b	-0.6335017
111	0xbf21c92c	-0.6319759
112	0xbf0df1aa	-0.55446875
113	0xbf146de2	-0.5798017
114	0xbf58b8f0	-0.8465719
115	0xbf39b402	-0.72540295
116	0xbf5ecb45	-0.87028915
117	0xbf0b2819	-0.5435806
118	0xbf29cd59	-0.6632896
119	0xbf1f898f	-0.6231927
120	0xbf1c0109	-0.6093908
121	0xbf322bca	-0.69598067
122	0xbf2d90cd	-0.67799073
123	0xbf10d033	-0.56567687
124	0xbf0fdf37	-0.56199974
125	0xbf140e5d	-0.57834417
126	0xbf32041b	-0.69537514
127	0xbf2b14da	-0.6682869
128	0xbf21da7b	-0.63224
129	0xbf169cb6	-0.5883287
130	0xbf2bfc05	-0.67181426
131	0xbf234a6a	-0.6378542
132	0xbf17f92e	-0.59364593
133	0xbf00112b	-0.50026196
134	0xbef8a641	-0.48564342
135	0xbf119478	-0.5686717
136	0xbf1552b6	-0.5832933
137	0xbf1130d3	-0.56715125
138	0xbf425013	-0.75903434
139	0xbf158021	-0.58398634
140	0xbf0d7afc	-0.55265784
141	0xbf0a2927	-0.53969043
142	0xbf10d212	-0.5657054
143	0xbf34bf08	-0.7060399
144	0xbf413ff1	-0.7548819
145	0xbf25bff8	-0.64746046
146	0xbf0cff39	-0.5507694
147	0xbf1a90f0	-0.6037741
148	0xbf00a2c8	-0.50248384
149	0xbf10d51d	-0.56575185
150	0xbf223e44	-0.6337626
151	0xbf5207bf	-0.8204307
152	0xbf3b58b2	-0.73182213
153	0xbf620b28	-0.88298273
154	0xbf0f4ab1	-0.55973345
155	0xbf38397d	-0.7196272
156	0xbf316dc0	-0.6930809
157	0xbf1a5513	-0.6028606
158	0xbf6a962b	-0.9163539
159	0xbf1f3d52	-0.6220294
160	0xbf0e7de6	-0.55660856
161	0xbf29bccf	-0.66303724
162	0xbf2e9b95	-0.6820615
163	0xbf3eb0f8	-0.7448878
164	0xbf086a7f	-0.532875
165	0xbf15ca7e	-0.58512104
166	0xbf3d99b6	-0.7406267
167	0xbf250cdd	-0.6447275
168	0xbf2ec058	-0.68262243
169	0xbf28a094	-0.6587002
170	0xbf361562	-0.7112638
171	0xbf1a80f8	-0.6035304
172	0xbf2f5994	-0.6849606
173	0xbf24760b	-0.6424262
174	0xbf22dc71	-0.63617617
175	0xbf57172f	-0.8401975
176	0xbf489fbe	-0.7836875
177	0xbf2c0d58	-0.6720786
178	0xbf45c75f	-0.7725734
179	0xbf57e2ed	-0.84330636
180	0xbf25803b	-0.6464879
181	0xbf352ad2	-0.70768464
182	0xbf1b7ffd	-0.6074217
183	0xbf0e1515	-0.5550092
184	0xbf27a238	-0.654819
185	0xbf2771c2	-0.65407956
186	0xbf33a73a	-0.7017704
187	0xbee567b3	-0.4480568
188	0xbf25b1dd	-0.6472452
189	0xbf1c5959	-0.61073834
190	0xbf409086	-0.75220525
191	0xbf3e697b	-0.743797
192	0xbf32cb6b	-0.6984164
193	0xbf23c16b	-0.6396701
194	0xbf5f8c28	-0.87323236
195	0xbf0c6bd7	-0.5485205
196	0xbf2ced60	-0.67549706
197	0xbf2bec42	-0.67157376
198	0xbf3ca464	-0.7368834
199	0xbf35a544	-0.709553
200	0xbf35401c	-0.7080095
201	0xbf68c71a	-0.90928805
202	0xbf26f8ae	-0.65223205
203	0xbf2a035b	-0.6641137
204	0xbf1169c7	-0.5680203
205	0xbf3e3ce2	-0.7431165
206	0xbf155a4f	-0.58340925
207	0xbf1d18fc	-0.6136625
208	0xbf0d2f96	-0.55150735
209	0xbf48bc54	-0.78412366
210	0xbf257bdc	-0.6464212
211	0xbf3cca57	-0.73746246
212	0xbf45da51	-0.7728625
213	0xbf3e4ede	-0.7433909
214	0xbf030f92	-0.51195633
215	0xbf690123	-0.9101736
216	0xbf10064d	-0.56259614
217	0xbf495cf7	-0.7865748
218	0xbf4a56b0	-0.79038525
219	0xbf07e13a	-0.53078043
220	0xbf3ae4f2	-0.7300559
221	0xbf0855db	-0.53256005
222	0xbf21705f	-0.6306209
223	0xbf339e13	-0.7016308
224	0xbf5558ce	-0.8333863
225	0xbf2a2876	-0.6646799
226	0xbef60b5a	-0.48055536
227	0xbf2018ac	-0.62537646
228	0xbf28fe26	-0.660128
229	0xbf1cb98b	-0.61220616
230	0xbf3c4f6b	-0.7355868
231	0xbf4b8742	-0.7950326
232	0xbefd9b99	-0.49532774
233	0xbf63488a	-0.8878256
234	0xbf00e339	-0.50346714
235	0xbf294ade	-0.66129863
236	0xbf39aaf9	-0.7252651
237	0xbf23e2aa	-0.64017737
238	0xbef59e3f	-0.47972295
239	0xbee7e07a	-0.4528845
240	0xbf124b48	-0.5714612
241	0xbf2e6cac	-0.6813457
242	0xbf5bbb03	-0.8583223
243	0xbf0c5c69	-0.54828507
244	0xbf2b48c6	-0.6690792
245	0xbf652c43	-0.89520663
246	0xbeeedcaa	-0.46652728
247	0xbf1b58b0	-0.606822
248	0xbf0f2492	-0.55915177
249	0xbf27874a	-0.6544081
250	0xbf24e8fc	-0.64418006
251	0xbf800920	-1.0002785
252	0xbf2a5e42	-0.66550076
253	0xbf222017	-0.63330215
254	0xbf18c206	-0.59671056
255	0xbf0bb856	-0.5457815

Linear2.weight f4 [7, 256]
0	0x3dc4f5a2	0.09617163
1	0x3bcf7854	0.006331483
2	0xbe5e9838	-0.21737754
3	0xbe0b549b	-0.13606493
4	0xbd4e92f4	-0.050433114
5	0xbc826352	-0.0159165
6	0xbd3de4f6	-0.046360932
7	0xbd2c7703	-0.042105686
8	0xbd82dbde	-0.063895926
9	0xbdbd7338	-0.09250492
10	0xbdc0eff1	-0.09420765
11	0x3c960806	0.018314373
12	0x3d6fe344	0.058566347
13	0xbc4ce13a	-0.01250487
14	0xbdc7f643	-0.097637676
15	0xbd82a2dd	-0.0637872
16	0x3e000e52	0.12505463
17	0xbc17eb84	-0.00927246
18	0xbde93184	-0.113863975
19	0x3b96fc78	0.0046077333
20	0x39cb10ee	0.0003873179
21	0xbdd03c8a	-0.10167797
22	0xbd290f0c	-0.041274115
23	0xbc1523ee	-0.009102805
24	0xbbd62bf2	-0.0065360004
25	0xbc84e231	-0.016221138
26	0xbd303c54	-0.043026283
27	0xbdc8bc2e	-0.098015174
28	0x3e0cec32	0.13761976
29	0xbd4d858d	-0.050176192
30	0xbdb2dd03	-0.08733561
31	0xbdc8b53e	-0.09800194
32	0xbdd9c740	-0.10633707
33	0xbe2ceaf6	-0.16886505
34	0x3dbebca2	0.093133226
35	0xbe44f6d1	-0.19234778
36	0x3dcc9087	0.09988504
37	0xbd9f651b	-0.07782956
38	0xbbff01e2	-0.007782207
39	0xbd73a210	-0.059480727
40	0x3d0ccc8e	0.034374766
41	0xbe294c95	-0.1653312
42	0xbc893928	-0.016750887
43	0xbe2fe839	-0.1717843
44	0xbcd43d01	-0.025907995
45	0x3d86ac9f	0.065758936
46	0xbded6dca	-0.11593206
47	0x3cb50d5f	0.022101102
48	0x3b5910c6	0.003312157
49	0xbde00cdb	-0.10939952
50	0xbd6d3147	-0.057908323
51	0x3e0a669d	0.13515706
52	0xbdae85d9	-0.08521623
53	0xbcfa2aac	-0.030537926
54	0xbc7fa8d1	-0.015604214
55	0xbd36ebfb	-0.044658642
56	0xbdd4d8bf	-0.103929035
57	0xbdce7506	-0.10080914
58	0xbcaee403	-0.021348959
59	0x3c43d991	0.011953727
60	0xbc0e06c7	-0.008668608
61	0xbb6a29b0	-0.0035730414
62	0x3dfdf8e5	0.124009885
63	0xbcfd0be6	-0.030889463
64	0xbd75f6c0	-0.060049772
65	0xbd3cd055	-0.04609712
66	0x3e027708	0.1274072
67	0xbb474e69	-0.0030411726
68	0xbdd3fa7e	-0.10350512
69	0xbd2b2c2d	-0.041790176
70	0xbe4f49db	-0.20243017
71	0xbe019630	-0.12654948
72	0xbe489413	-0.19587736
73	0x3dbf3fc5	0.09338335
74	0x3ca345cd	0.019930745
75	0x3c873525	0.016504833
76	0xbd94e4e0	-0.07270217
77	0xbe464de1	-0.19365646
78	0x3d518ffc	0.051162705
79	0xbc35b57f	-0.011090635
80	0xbddafb73	-0.106924914
81	0xbc6ec38c	-0.014572989
82	0x3d22b9cf	0.039727982
83	0x3d978c10	0.07399762
84	0xbbac6dea	-0.005262126
85	0xbd1575fd	-0.036489476
86	0xbdce812e	-0.10083233
87	0xbd802471	-0.06256951
88	0xbd0f8a34	-0.03504391
89	0x3e02344c	0.12715262
90	0xbc68921a	-0.01419499
91	0xbcfeca67	-0.031102372
92	0xbb5cef4e	-0.0033711973
93	0xbdac8815	-0.08424393
94	0xbd3dfec0	-0.046385527
95	0xbde404eb	-0.111337505
96	0x3dd76804	0.10517886
97	0xbd1bb0b6	-0.03801032
98	0xbdf10aa6	-0.11769609
99	0xbbc8c255	-0.006126682
100	0x3cb85c35	0.022504905
101	0x3cc6dbbd	0.024274701
102	0x3ce54aef	0.027989833
103	0xbd76c458	-0.06024584
104	0xbca7bf03	-0.020476824
105	0xbdb31c87	-0.087456755
106	0xbe1c546e	-0.15266582
107	0x3bb3caf4	0.0054868404
108	0xbc053f98	-0.008132838
109	0xbd578b40	-0.052623034
110	0x3bc15a38	0.0059006475
111	0xbe1cc678	-0.15310085
112	0xbe59ed50	-0.21281934
113	0xbe36dd26	-0.17857799
114	0xbd35ea7f	-0.044413086
115	0x3c178ef6	0.009250393
116	0xbb9f98f2	-0.0048705274
117	0xbd9e879d	-0.0774071
118	0xbd30fdfb	-0.043210965
119	0xbbefbaef	-0.0073159854
120	0xbe0ff65f	-0.14058827
121	0x3c7621d0	0.01502271
122	0x3b672442	0.0035269414
123	0xbd0fe467	-0.03512993
124	0xbd289dcd	-0.041166116
125	0x3d2bbc1a	0.041927435
126	0xbd5fce06	-0.05463984
127	0x3d8c5d07	0.06853681
128	0x3c3b847e	0.011445163
129	0xbc21fd65	-0.009887074
130	0xbdf28e14	-0.118435055
131	0x3d60ac7e	0.054852
132	0x3cc28e1f	0.02374941
133	0x3c40306d	0.011730296
134	0x3d596428	0.053074032
135	0xbdd3618c	-0.1032134
136	0xbd50831b	-0.050906282
137	0xbd3bc294	-0.04583986
138	0x3c381c65	0.0112372385
139	0x3b2308a4	0.0024876976
140	0xbd0c14fd	-0.034199703
141	0xbdb4ca59	-0.08827657
142	0x3d9fad29	0.077966996
143	0xbd82459d	-0.06360934
144	0xbd816828	-0.06318694
145	0xbdfe7757	-0.12425106
146	0xbc855f90	-0.01628092
147	0xbd711981	-0.058862213
148	0xbdd7e04e	-0.105408296
149	0xbda8cd2f	-0.08242261
150	0x3c117f01	0.008880378
151	0x3d0bb309	0.034106288
152	0xbc9e3fa7	-0.019317461
153	0xbdccb96b	-0.09996303
154	0xbccda1dc	-0.025101595
155	0xbce92655	-0.028460661
156	0xbd21be13	-0.03948791
157	0xbc8ec1a9	-0.017426329
158	0xbd4da6cb	-0.050207894
159	0x3d9bd108	0.07608229
160	0xbde8ff6b	-0.11376842
161	0x3d770c44	0.06031443
162	0xbb3025dd	-0.0026878037
163	0xbdb61e5b	-0.088925086
164	0xbbfce86c	-0.0077181365
165	0xbd2afe5f	-0.041746493
166	0xbd690ad5	-0.056895096
167	0xbceb7d10	-0.028746158
168	0xbe58a1c1	-0.21155454
169	0xbb955244	-0.004556926
170	0x3ca5f447	0.020258082
171	0x3b5e4944	0.0033918181
172	0xbdbbe382	-0.09174253
173	0xbd881467	-0.066445164
174	0xbd25201e	-0.040313832
175	0xbce7ab1b	-0.028279832
176	0xbd4c6aef	-0.049906667
177	0xbdc35550	-0.095377564
178	0xbc9cd064	-0.019142337
179	0x3d2aef59	0.041732166
180	0x3d94de0b	0.07268914
181	0xbe5e341d	-0.21699567
182	0xbc50657b	-0.012719507
183	0xbe1c8c49	-0.1528789
184	0xbd007f48	-0.031371385
185	0xbdb05be7	-0.08611279
186	0xbd371087	-0.044693496
187	0xbd946917	-0.07246607
188	0xb91c8ff2	-0.00014930943
189	0xbd1fc608	-0.039007217
190	0x3bce2c95	0.0062919357
191	0xbc4634ca	-0.012097547
192	0x3d7f1a2e	0.062280826
193	0xbd16e333	-0.036837768
194	0xbd0ecf94	-0.03486593
195	0xbb8b7816	-0.0042562587
196	0xbc9b1832	-0.018932436
197	0x3ca5e022	0.020248476
198	0xbd031446	-0.032001756
199	0x3d21c54e	0.039494805
200	0xbc47da5f	-0.01219806
201	0xbd9c269a	-0.0762455
202	0xbd72ae1d	-0.05924808
203	0xbd7f37bb	-0.062309008
204	0x3d81b1ec	0.06332764
205	0xbd83420c	-0.06409082
206	0x3d45bee9	0.04827777
207	0xbe041d24	-0.12901741
208	0x3e1eb2fe	0.15497968
209	0x3c953779	0.018214928
210	0xbe535561	-0.20638038
211	0x3c8af027	0.016960217
212	0xbc996004	-0.018722542
213	0xbd3c1e0d	-0.045927096
214	0xbc5724bb	-0.013131316
215	0x3cd40455	0.025880972
216	0xbdd6cb50	-0.104879975
217	0x3c362a97	0.011118553
218	0x3dae6781	0.085158356
219	0xbd5d2886	-0.053993724
220	0x3d4580d6	0.04821857
221	0xbde8e0ea	-0.11371024
222	0xbca1b389	-0.01973893
223	0xbbae3a32	-0.005316996
224	0xbca6cc39	-0.020361053
225	0xbd300d8d	-0.042981673
226	0x3d38a2dc	0.04507719
227	0xbe015124	-0.12628609
228	0xbc979b0e	-0.018506553
229	0xbd6224eb	-0.05521099
230	0x3c53563d	0.012898979
231	0xbde9089e	-0.11378597
232	0xbc9c8f80	-0.019111395
233	0xbd67133b	-0.056414824
234	0xbc91156a	-0.017710406
235	0xbcc43308	-0.023950115
236	0x3c64a1b5	0.01395457
237	0xbe004e00	-0.12529755
238	0xbe539376	-0.2066172
239	0xbdc12b3e	-0.09432076
240	0xbd85544d	-0.0651022
241	0x3c8e41db	0.017365387
242	0xbe1ebbe0	-0.15501356
243	0xbdeff4fa	-0.117166474
244	0xbd4c3c42	-0.049862154
245	0x3ccf4cf6	0.025305253
246	0xbc4c78e2	-0.012479993
247	0xbe075a73	-0.13218097
248	0xbdcda819	-0.10041828
249	0xbd041310	-0.032244742
250	0x3cf19919	0.029491948
251	0x3d284ad1	0.041086975
252	0xbd2b41c6	-0.041810773
253	0x3dbec657	0.09315174
254	0x3d47c6e7	0.048773672
255	0xbe3bdf2d	-0.18346854

Linear2.bias f4 [7]
0	0x3bd70a86	0.006562534
1	0x3be68680	0.0070350766
2	0x3bbcabb5	0.0057577738
3	0x3bea14be	0.007143586
4	0x3be67f3a	0.0070342096
5	0x3beb3c91	0.007178851
6	0x3bd3b4b3	0.00646075
