epsilon_10/saved_model 500.pth (torch, 52879 bytes, 4 tensors)

Linear1.weight f4 [256, 42]
0	0xbe047add	-0.12937494
1	0xbd0f14fa	-0.034932114
2	0xbc1eca5e	-0.009691803
3	0xbdb62de8	-0.08895475
4	0xbe04095b	-0.12894194
5	0xbda911f9	-0.08255381
6	0xbdad8727	-0.08473044
7	0xbddb3950	-0.10704291
8	0xbe046ba3	-0.12931685
9	0xbc8aba4a	-0.016934533
10	0xbd9a8b6e	-0.07546125
11	0xbdb982f5	-0.09058181
12	0xbc200b62	-0.009768339
13	0xbcef6b6f	-0.029226033
14	0x3de69665	0.11259154
15	0xbd086852	-0.033302613
16	0x3c0d5143	0.008625331
17	0x3db5c28f	0.08875
18	0x3c976c66	0.018484306
19	0x3b0aaacf	0.0021158939
20	0x3de69cf8	0.11260408
21	0x3de05226	0.109531686
22	0xbdad14c7	-0.084512286
23	0x3cc2b794	0.023769177
24	0x3cb6ad3c	0.022299401
25	0x3d7e6ab7	0.06211349
26	0xbbb11a47	-0.005404744
27	0xbcdd34cc	-0.027002715
28	0xbd9467bc	-0.07246348
29	0x3be8df6d	0.0071067126
30	0xbd649dbc	-0.05581449
31	0x3d480d94	0.048841074
32	0x3e00c441	0.12574865
33	0x3dbf2d12	0.09334768
34	0x3d24df0d	0.04025178
35	0x3c2b16d9	0.010442459
36	0xbe04e080	-0.12976265
37	0xbdf14f28	-0.11782676
38	0xbd9baf08	-0.07601744
39	0xbcfc3b6a	-0.03079005
40	0x3d7de4ff	0.061985966
41	0xbd73ded6	-0.059538685
42	0xbd7efe73	-0.06225438
43	0xbb8252e4	-0.0039771665
44	0x3ce4fdab	0.02795299
45	0x3d9c3508	0.076273024
46	0x3d151925	0.036400933
47	0x3d9ee2fb	0.07758137
48	0x3cb2c299	0.021821307
49	0x3dc810ec	0.097688526
50	0x3d6b20df	0.057404395
51	0xbbea512e	-0.0071507907
52	0x3dad8ac7	0.08473735
53	0xbccfa267	-0.025345994
54	0x3cc318ff	0.02381563
55	0x3da2944e	0.07938443
56	0x3ab43622	0.0013749043
57	0xbe07a77a	-0.13247481
58	0xbd0ec823	-0.034858834
59	0x3dcd1679	0.10014052
60	0xbdc6e44a	-0.097115114
61	0xbe0d81a2	-0.13818982
62	0x3e29773d	0.16549392
63	0x3ce67935	0.028133968
64	0x3db35078	0.087555826
65	0x3c58890b	0.013216267
66	0x3dba4852	0.09095825
67	0xbe0762f5	-0.13221343
68	0xbdebfa98	-0.11522406
69	0xbdf8b6ba	-0.12144227
70	0x3db4eee0	0.08834624
71	0x3e0614cb	0.1309387
72	0x3e05d018	0.13067663
73	0x3d88ec21	0.06685663
74	0x3ddbac3f	0.10726213
75	0xbd2a83ad	-0.041629482
76	0xbd0a7c82	-0.033810146
77	0x3e042608	0.12905133
78	0x3db5dfa4	0.08880547
79	0xbdda4f32	-0.106596366
80	0xbdb14cb0	-0.08657205
81	0xbd7f838b	-0.06238131
82	0x3deb044f	0.11475431
83	0xbcdaac40	-0.026693463
84	0xbdd142b3	-0.102178
85	0xbd53edcb	-0.05174045
86	0x3d8ed394	0.06973949
87	0xbe112d6c	-0.14177483
88	0xbdcb0432	-0.099129096
89	0x3d6e1660	0.058126807
90	0xbe103b59	-0.1408514
91	0xbdc83339	-0.09775395
92	0xbdd1028d	-0.10205565
93	0xbd166ad7	-0.036722984
94	0xbdbafc0f	-0.091301076
95	0xbc4670d3	-0.01211186
96	0xbd626178	-0.055268735
97	0xbde77936	-0.11302416
98	0x3d94c183	0.07263472
99	0x3d8804fa	0.06641574
100	0xbd84fd9e	-0.06493686
101	0xbce6094e	-0.028080609
102	0x3de6494a	0.112444475
103	0x3df5b74c	0.11997852
104	0xbd556d8e	-0.052106433
105	0x3d0c3401	0.034229282
106	0x3d963025	0.073334016
107	0x3c966940	0.018360734
108	0xbdaa737b	-0.083228074
109	0x3e30fa88	0.1728307
110	0x3e105432	0.14094618
111	0x3d083b13	0.033259463
112	0x3cfa7880	0.030575037
113	0xbd523957	-0.051324215
114	0xbbe9e94e	-0.007138408
115	0x3dcb4c21	0.0992663
116	0xbc690fa1	-0.014224918
117	0x3da78e11	0.08181394
118	0x3c01e49b	0.007928039
119	0xbdef90d9	-0.116975494
120	0x3da7bf15	0.08190743
121	0x3d839855	0.064255394
122	0xbd1b5862	-0.037926085
123	0x3e09d33a	0.13459483
124	0x3d4b7a1d	0.049677003
125	0x3e05a567	0.13051377
126	0x3dc2fdec	0.09521088
127	0xbbe38fc1	-0.006944627
128	0xbd9ae457	-0.075630836
129	0xbd82dd26	-0.06389837
130	0x3d282da0	0.041059136
131	0xbc94f853	-0.018184816
132	0x3dfede83	0.124447845
133	0xbd21a8f6	-0.039467774
134	0x3d0eec0e	0.034893088
135	0x3d0f5bbe	0.0349996
136	0xbc069b41	-0.008215726
137	0x3d817cf4	0.06322661
138	0xbc7c6279	-0.015404337
139	0xbdadcc1d	-0.08486197
140	0x3d6f401c	0.05841075
141	0x3e0cb1dd	0.13739724
142	0x3cf4957a	0.029856432
143	0x3c883d4b	0.01663079
144	0xbdb7e971	-0.08980072
145	0x3c9d0516	0.019167464
146	0xbe08719a	-0.13324586
147	0x3d8134da	0.06308909
148	0xbe0eb4bc	-0.13936132
149	0x3de3180e	0.110885724
150	0xbd224469	-0.039616022
151	0xbdb8302a	-0.089935616
152	0x3e08619b	0.13318484
153	0x3db4b331	0.088232405
154	0xbd9f879f	-0.077895395
155	0xbdcdddf7	-0.10052102
156	0xbdf840f6	-0.12121765
157	0x3e1ebbd2	0.15501335
158	0xbcda78bd	-0.0266689
159	0x3ddaaac4	0.10677102
160	0xbd8bdf21	-0.06829668
161	0x3cc2da6b	0.02378579
162	0xbde38f56	-0.111113235
163	0xbe08ab5b	-0.13346617
164	0x3d96235a	0.073309615
165	0xbc5a1869	-0.013311484
166	0xbdf9318e	-0.12167655
167	0x3d1a86da	0.03772626
168	0xbdc4a892	-0.09602465
169	0xbc74f3f7	-0.014950744
170	0xbdc22526	-0.09479742
171	0xbd922ce6	-0.0713747
172	0x3d9b1d0d	0.075739
173	0xbd84b28c	-0.064793676
174	0x3d2c92d3	0.04213221
175	0x3d97843d	0.07398269
176	0x3db3b875	0.08775417
177	0x3dbf40d4	0.09338537
178	0x3d8ddc6c	0.06926808
179	0xbd58338b	-0.05278353
180	0xbd86d6a0	-0.06583905
181	0xbce0ae55	-0.027426878
182	0x3df782af	0.12085473
183	0x3e13571b	0.14388697
184	0xbd7c7f74	-0.061644986
185	0x3d88e8ab	0.06685003
186	0x3cdb6d5c	0.026785545
187	0x3d99754a	0.07493074
188	0x3dd4a993	0.10383906
189	0x3def729a	0.116917804
190	0x3e189016	0.14898714
191	0xbdd08fbd	-0.10183666
192	0x3cca9ca1	0.02473289
193	0xbd874a3f	-0.06605958
194	0x3ba69041	0.0050831144
195	0x3da78ca8	0.08181125
196	0xbd832b64	-0.064047605
197	0x3dfd165f	0.123577826
198	0x3db50c68	0.08840257
199	0xbdf0f2d5	-0.117650665
200	0xbd524d1f	-0.05134308
201	0xbc9dc9fa	-0.019261349
202	0x3c9e6456	0.019334953
203	0x3d2a8bf1	0.041637365
204	0xbdaddf95	-0.084899105
205	0x3d46b656	0.048513733
206	0xbe107e40	-0.1411066
207	0xbdf1560b	-0.117839895
208	0xbd63b721	-0.055594567
209	0x3e12b28c	0.14325923
210	0x3d30ae43	0.04313494
211	0x3c8e1c42	0.017347459
212	0x3d9cba65	0.076527394
213	0xbd502f59	-0.050826404
214	0xbcb3dc30	-0.02195558
215	0xbd216488	-0.039402515
216	0x3dac5b16	0.08415811
217	0x3d97e7d7	0.07417267
218	0xbd0fb7f3	-0.035087537
219	0x3d9c6ba8	0.07637721
220	0xbd9f6933	-0.07783737
221	0xbd82142f	-0.06351506
222	0x3b6f9694	0.0036558257
223	0xbd6475dc	-0.055776462
224	0x3d622613	0.05521209
225	0xbca1f7f1	-0.019771548
226	0xbd666471	-0.056248132
227	0xbdce8276	-0.10083477
228	0x3c8f738f	0.017511157
229	0xbd0ac536	-0.03387948
230	0xbdaf55c0	-0.085612774
231	0x3c80f4fd	0.01574182
232	0x3e00c62a	0.12575594
233	0xbd449fe2	-0.04800404
234	0xbdbeb60b	-0.09312066
235	0xbd3a66cf	-0.045508202
236	0x3d812e90	0.06307709
237	0x3d8d9873	0.06913843
238	0x3db6f965	0.08934287
239	0x3e0d226c	0.13782662
240	0x3d35df0d	0.04440217
241	0x3ad2e0d5	0.0016088734
242	0xbd2caa92	-0.042154856
243	0x3db55944	0.08854917
244	0x3ddea14a	0.10870607
245	0xbd89d5f5	-0.06730262
246	0x3df51cef	0.11968409
247	0xbd39d621	-0.045370225
248	0xbdedb1ea	-0.116062
249	0x3dc9ff92	0.09863199
250	0x3de2f216	0.110813305
251	0x3e0661a8	0.1312319
252	0x3c8d48b8	0.017246589
253	0xbd627523	-0.05528749
254	0xbd22f6ed	-0.039786268
255	0xbd8020ea	-0.06256278

Linear1.bias f4 [256]
0	0xbe5ccbb3	-0.2156208
1	0xbde6a318	-0.112615764
2	0xbdcdd58c	-0.100504965
3	0x3dcca0a2	0.09991576
4	0xbe1b4072	-0.15161303
5	0xbe52b3dd	-0.20576425
6	0x3d58a5cc	0.05289249
7	0xbcfa1d61	-0.030531587
8	0xbe31dc21	-0.17369129
9	0x3d12697c	0.03574513
10	0x3d375d30	0.044766605
11	0xbc9365b4	-0.017992832
12	0xbe05a445	-0.13050945
13	0xbe180b57	-0.14848076
14	0x3d4df616	0.050283514
15	0xbd185edc	-0.03719984
16	0xbd925b71	-0.07146347
17	0xbe876e99	-0.26451567
18	0x3d52be9b	0.051451307
19	0xbdf4a514	-0.11945549
20	0x3c8202e9	0.015870528
21	0xbcac5d7c	-0.02104067
22	0xbe1651ea	-0.14679685
23	0xbd249468	-0.040180594
24	0xbd0ff09b	-0.03514157
25	0xbdfc85a5	-0.12330178
26	0xbd8d3d89	-0.068965025
27	0xbda0dfd7	-0.07855194
28	0x3d7a9a00	0.061182022
29	0xbe194e59	-0.14971294
30	0xbe069d20	-0.13145876
31	0xbd9a769d	-0.07542155
32	0xbe4d2c48	-0.20036423
33	0xbe50cbb8	-0.20390213
34	0x3d1c1726	0.038108014
35	0xbdcf557a	-0.10123725
36	0x3db67c2f	0.08910405
37	0xbddd313d	-0.10800407
38	0xbe125499	-0.14290084
39	0xbdc01ea9	-0.09380848
40	0xbdaa29d3	-0.083087586
41	0xbc640b89	-0.013918766
42	0xbbf2ad39	-0.0074059037
43	0x3c462de8	0.012095906
44	0xbdcc1f00	-0.0996685
45	0xbd95e3a7	-0.07318812
46	0x3d0c9049	0.03431729
47	0xbde2b76e	-0.11070143
48	0xbda7767f	-0.08176898
49	0x3d6b3489	0.05742315
50	0xbd11c44b	-0.03558759
51	0xbe0227b9	-0.12710465
52	0xbc81112c	-0.015755259
53	0x3cbf14af	0.023325292
54	0xbd723fa9	-0.059142742
55	0x3d05afe8	0.03263846
56	0x3d8383da	0.06421633
57	0xbe3d5d19	-0.18492545
58	0xbe5d97d8	-0.21639955
59	0xbe651f0e	-0.22375128
60	0xbe1e4dd6	-0.1545938
61	0x3d761104	0.06007482
62	0x3d2b1840	0.041771173
63	0xbdf0554f	-0.11735021
64	0xbd5e7650	-0.05431205
65	0x3d96594e	0.07341252
66	0xbd3c3f4b	-0.0459588
67	0xbe1a5110	-0.15069985
68	0x3da6a3d1	0.08136714
69	0xbe118a2d	-0.14212866
70	0xbdab9ff8	-0.08380121
71	0xbdcafb69	-0.09911234
72	0xbd83d167	-0.06436425
73	0xbdc03828	-0.09385711
74	0xbe1200bd	-0.14258094
75	0xbde4a9ba	-0.11165185
76	0xbe00b2ca	-0.12568203
77	0xbe23da79	-0.1600131
78	0xbbbaff8d	-0.0057067336
79	0xbe000ce5	-0.12504919
80	0xbd818306	-0.06323819
81	0xbe09bdcd	-0.1345131
82	0xbd76e4f9	-0.06027696
83	0xbdc75ca1	-0.097344644
84	0xbe199f00	-0.1500206
85	0x3b72cee5	0.0037049588
86	0xbe429532	-0.19002226
87	0x390c1726	0.00013360064
88	0x3d897375	0.06711475
89	0xbe0f0a00	-0.13968658
90	0xbddf09ec	-0.10890564
91	0xbe0d20fe	-0.13782117
92	0xbdd38b4b	-0.103293024
93	0xbdbe365f	-0.09287714
94	0x3c656e5e	0.014003364
95	0x3c4180e6	0.011810517
96	0x3c5178af	0.012785121
97	0xbcdb96ce	-0.026805308
98	0xbe2c28ca	-0.16812435
99	0xbd807b31	-0.06273497
100	0xbddb577b	-0.10710045
101	0xbdad2a2d	-0.0845531
102	0xbcd27375	-0.02568982
103	0xbe3c44dc	-0.18385643
104	0x3dc6a004	0.09698489
105	0xbe04bb61	-0.12962104
106	0xbc99ba2f	-0.018765537
107	0xbd6aeff5	-0.057357747
108	0xbd46a889	-0.04850057
109	0xbe189a88	-0.14902699
110	0xbdc9f2d0	-0.09860766
111	0xbe5d49e4	-0.21610218
112	0x3d040a06	0.03223612
113	0xbe268db9	-0.16265
114	0xbdd7ad16	-0.105310604
115	0xbdbc19b9	-0.09184594
116	0x3d41bcbb	0.047299128
117	0xbd60f81a	-0.054924108
118	0xbe07526c	-0.13215035
119	0x3db10ee6	0.0864542
120	0xbd44a01b	-0.04800425
121	0xbd6cda7f	-0.05782556
122	0xbe340f81	-0.1758404
123	0xbe0f9649	-0.14022173
124	0xbcff841a	-0.03119092
125	0xbd2284f6	-0.039677583
126	0xbc849be6	-0.01618762
127	0x3cbc0488	0.02295138
128	0xbe0a03ab	-0.13477962
129	0xbe1984af	-0.14992021
130	0x3d05dd0a	0.032681502
131	0xbad532ce	-0.0016265751
132	0xbd9c6888	-0.07637125
133	0x3dd3b7f8	0.10337824
134	0xbcd51234	-0.026009656
135	0x3de7ded9	0.11321802
136	0xbd612b3a	-0.054972865
137	0x3dab5d3b	0.08367392
138	0x3d976fbd	0.07394359
139	0xbe58bbb4	-0.21165353
140	0xbc5db159	-0.0135310525
141	0xbdee61ee	-0.11639772
142	0xbe3ddf42	-0.18542197
143	0xbd93aa11	-0.07210172
144	0x3d59b1a8	0.05314794
145	0xbde65e2b	-0.1124843
146	0xbd85479c	-0.06507799
147	0xbe4bd282	-0.19904521
148	0x3d482c9f	0.04887068
149	0x3d9597ef	0.0730437
150	0x3d380f81	0.04493666
151	0xbe6055f9	-0.21907796
152	0xbdd0b5bf	-0.10190915
153	0xbe64989a	-0.22323838
154	0xbbfb9737	-0.0076779383
155	0xbc111569	-0.008855202
156	0xbe5a85ac	-0.21340054
157	0xbdc301a2	-0.09521796
158	0xbe6464aa	-0.22304025
159	0xbbbafe64	-0.0057065953
160	0xbe2eff8a	-0.17089668
161	0xbe4643ad	-0.19361754
162	0xb98b64b4	-0.00026587176
163	0xbcbdc88d	-0.02316692
164	0x3c307268	0.010769464
165	0xbde02eca	-0.10946424
166	0xbe188122	-0.1489301
167	0x3c75cd93	0.015002626
168	0x3dd69f86	0.104796454
169	0xbe46a849	-0.19400133
170	0x377798a2	1.4757885e-05
171	0x3d80f49d	0.06296656
172	0xbe1e9a02	-0.15488437
173	0xbd8cd03c	-0.06875655
174	0x3d1f60ca	0.038910665
175	0x3d19e7bf	0.037574526
176	0x3cad2be4	0.021139093
177	0xbdf741d5	-0.12073103
178	0x3db87ccb	0.09008177
179	0xbe32343f	-0.17402743
180	0xbe346a22	-0.17618611
181	0xbd52a5dd	-0.05142771
182	0x3cfedfe1	0.031112613
183	0x3d225baf	0.039638218
184	0xbdc319e6	-0.09526424
185	0xbe0cb2f6	-0.13740143
186	0xbdacb56b	-0.0843304
187	0xbb85945e	-0.0040765246
188	0xbdfb17bf	-0.122603886
189	0x3da91d50	0.08257544
190	0xbddfa3f6	-0.10919945
191	0xbd97ff5d	-0.074217536
192	0xbcf99463	-0.030466264
193	0xbe46da96	-0.19419321
194	0x3d6fc3ba	0.05853627
195	0xbe41eb2a	-0.18937364
196	0x3d3c99c1	0.04604507
197	0xbe2d19eb	-0.16904418
198	0xbdb146d5	-0.08656088
199	0xbe1f07a2	-0.15530255
200	0x3d426476	0.04745909
201	0x3c4d4c27	0.012530363
202	0xbc8d34ab	-0.017237028
203	0xbe2477f1	-0.16061379
204	0xbe0658db	-0.13119833
205	0xbe370256	-0.17871985
206	0x3d200937	0.039071288
207	0xbd6d4c9a	-0.05793438
208	0xbdaa0591	-0.08301843
209	0xbe5dbf89	-0.21655096
210	0xbe340a01	-0.17581941
211	0xbd27abdf	-0.040935393
212	0xbdf7d3c9	-0.12100942
213	0xbda221f2	-0.07916631
214	0xbdc9b4ed	-0.09848962
215	0xbe5e32a4	-0.21699005
216	0xbd98e90f	-0.074663274
217	0xbe652a38	-0.22379386
218	0xbdf02086	-0.11724953
219	0xbe1543c1	-0.14576627
220	0xbe49a703	-0.19692616
221	0xbe4aeecc	-0.19817656
222	0xbde4c20c	-0.11169824
223	0x3cf10d11	0.029425176
224	0xbdb194d4	-0.08670965
225	0xbdec78ab	-0.11546453
226	0x3d63eaa3	0.05564369
227	0xbdeef699	-0.116681285
228	0xbe53043c	-0.20607084
229	0xbca28115	-0.019836942
230	0xbe920c44	-0.28524983
231	0xbe10dce6	-0.14146766
232	0xbe2e409a	-0.17016831
233	0xbe2bc33f	-0.16773699
234	0xbd9dfeed	-0.07714639
235	0xbdd53a56	-0.10411517
236	0x3cb77bfd	0.02239799
237	0xbdeb3630	-0.11484945
238	0xbe405244	-0.18781382
239	0xbda9b81c	-0.08287069
240	0x3d504f9d	0.050857175
241	0xbe12ccd0	-0.14335942
242	0xbe1c4935	-0.15262301
243	0x3d1606e4	0.036627665
244	0x3d08a1af	0.03335732
245	0xbe40636a	-0.18787923
246	0xbd151a6d	-0.036402155
247	0x3d108d68	0.035291106
248	0xbd67c972	-0.056588598
249	0xbe18c88c	-0.14920253
250	0xbdeb3f92	-0.114867344
251	0xbe2b77ff	-0.16744994
252	0x3dbb7e32	0.09154929
253	0xbe80341a	-0.2503975
254	0x3b192ef3	0.0023373931
255	0x3d9e357d	0.07725046

Linear2.weight f4 [7, 256]
0	0xbcb6b1a6	-0.022301506
1	0xbc90130b	-0.017587205
2	0x3bd905cc	0.0066230055
3	0x3a9c4e4c	0.001192519
4	0xbb1807ab	-0.002319793
5	0xba40514b	-0.00073363323
6	0xbcb279fd	-0.021786684
7	0xbb385c78	-0.0028131288
8	0xbb594c0a	-0.0033156895
9	0xbc550199	-0.013000869
10	0xbcd45727	-0.025920464
11	0xbccdeb84	-0.025136717
12	0xbc33d1ce	-0.010975314
13	0xbbb9ccc6	-0.005670163
14	0xbc757704	-0.014981989
15	0xbcb55ed4	-0.022139944
16	0x3c563c53	0.013075906
17	0x3a282734	0.0006414533
18	0xbca38326	-0.019959997
19	0xbbb97f9b	-0.0056609637
20	0x3cc45b79	0.023969399
21	0xbc337c9a	-0.010955
22	0xbc3e393d	-0.011610326
23	0xbceca13d	-0.028885478
24	0xbc9af913	-0.018917596
25	0xbc7bc81a	-0.015367532
26	0x3c95bff0	0.01828
27	0x3ce4722a	0.027886469
28	0xbc399edd	-0.01132938
29	0xbd0d236a	-0.0344576
30	0x3c2b74ba	0.0104648415
31	0x3c8b5d5c	0.01701229
32	0xbd16f6f5	-0.03685661
33	0xbd1c65d1	-0.038183037
34	0x3cc5fbee	0.024167981
35	0x3d27e5be	0.040990584
36	0xbd16626b	-0.036714952
37	0x3c1b8e4c	0.009494375
38	0xbcffb20e	-0.031212833
39	0xbca3663b	-0.019946208
40	0x3cc794f0	0.024363011
41	0x3c78a495	0.015175958
42	0x3c58d433	0.013234186
43	0x3b5956f8	0.003316341
44	0x3bee4a4a	0.0072720395
45	0x3babb6a7	0.0052402797
46	0x3cb4608c	0.022018693
47	0x3baddb2f	0.0053056697
48	0x3becfb7c	0.0072321277
49	0xbca4c445	-0.02011312
50	0xbb6d1cfb	-0.0036180604
51	0xbc2667bc	-0.010156568
52	0xbc6f7138	-0.014614396
53	0xbbfa47d4	-0.007637957
54	0xbc333c86	-0.010939723
55	0xbc9c51c5	-0.01908196
56	0x3bd32eb2	0.0064447755
57	0xbb29dbe2	-0.0025918414
58	0xbbe12fde	-0.0068721613
59	0xbbb80fbd	-0.0056171105
60	0xbc1f9f68	-0.009742595
61	0xbc198421	-0.009369881
62	0xbd1187fe	-0.035530083
63	0xbbaab1ef	-0.0052091996
64	0xba2e4e00	-0.0006649196
65	0x3c1d5b50	0.00960429
66	0x3c99d917	0.018780274
67	0x39856c6e	0.00025448523
68	0xbcf5866e	-0.029971328
69	0xbbc19279	-0.0059073535
70	0xbc84ec86	-0.016226064
71	0xbcce510a	-0.025185127
72	0xbced24d7	-0.02894823
73	0x383fb1f5	4.5703684e-05
74	0xbaf1f0bc	-0.0018458585
75	0xbb9e8ba8	-0.0048384257
76	0xbcecbe62	-0.028899375
77	0xbc02aee7	-0.00797627
78	0x3c12437d	0.008927223
79	0xbcda1ac7	-0.026624097
80	0x3c0f3318	0.008740209
81	0xba8a7c57	-0.0010565621
82	0xba21991c	-0.00061644777
83	0x3c077919	0.008268618
84	0xbb683c23	-0.0035436235
85	0x3c67768a	0.014127383
86	0x3c0beca5	0.008540307
87	0xbc7824c6	-0.015145486
88	0xbbd9061a	-0.006623042
89	0x3b93d7be	0.0045118025
90	0xbbb8c82b	-0.0056390963
91	0xbc9afd86	-0.018919718
92	0xbcb31d5e	-0.02186459
93	0x3c9166df	0.017749248
94	0xbcfd6123	-0.030930107
95	0x3acb4eee	0.0015511194
96	0xbc93ccb1	-0.01804194
97	0x3b65d546	0.0035069748
98	0x3c343519	0.010998988
99	0x38651b62	5.4623357e-05
100	0xbca6b3c1	-0.020349385
101	0xbb279e4f	-0.0025576537
102	0x3b363504	0.0027802596
103	0xba3cbda6	-0.00071998907
104	0xbd03fed5	-0.03222545
105	0xbb569c86	-0.0032747104
106	0xbc0cd8f5	-0.008596648
107	0x3b63607e	0.0034694965
108	0x3c4ff664	0.012693021
109	0x3cc4b4f0	0.024012059
110	0xbcbe212b	-0.023209175
111	0x3baab71d	0.005209817
112	0xbb221439	-0.0024731292
113	0xbca2a6dc	-0.019854955
114	0xbcbdbafd	-0.023160452
115	0xbbcd2a82	-0.006261171
116	0x3b875916	0.004130493
117	0xbc042773	-0.008066046
118	0xbcdde5c5	-0.027087102
119	0xbcd1835a	-0.025575329
120	0xbcd2d773	-0.0257375
121	0x3bb781f4	0.0056002084
122	0xbcc3acd1	-0.023886116
123	0x3c3b6418	0.011437438
124	0xbbf367a8	-0.0074281283
125	0xbc9fcca4	-0.01950676
126	0x3b734fed	0.0037126497
127	0x3c4cfd8f	0.012511625
128	0xba8b768d	-0.0010640189
129	0xbc27f195	-0.010250469
130	0x3c26a842	0.010171952
131	0xbcb0e482	-0.021593336
132	0xbd228ed9	-0.03968701
133	0x3c0238b3	0.007948088
134	0x3d205b29	0.039149437
135	0xbc48f8cb	-0.012266348
136	0xbc082368	-0.008309223
137	0x3d0e2228	0.034700543
138	0x3d27eacb	0.0409954
139	0xbb966c54	-0.0045905504
140	0x3c1e5be4	0.009665463
141	0x3c968835	0.018375495
142	0xbbf85452	-0.007578411
143	0xbd06d431	-0.032917205
144	0x3c4f018c	0.012634646
145	0xbb331254	-0.0027324157
146	0x3b10236d	0.0021993772
147	0x3a08c765	0.00052177004
148	0xbd245103	-0.04011632
149	0xbd14dfd8	-0.036346287
150	0x3cbd996f	0.023144452
151	0x3b154134	0.002277446
152	0x3ca650bc	0.020302169
153	0x3acfaf29	0.0015845048
154	0xbd01594d	-0.031579304
155	0x3b3f4052	0.0029182625
156	0x3d13fe50	0.036131203
157	0xbbb2351d	-0.0054384605
158	0xb902be8a	-0.00012468747
159	0x3b8233d2	0.0039734626
160	0x3c2608b8	0.010133915
161	0xbcfc2f53	-0.030784285
162	0x3c51402e	0.012771649
163	0xbc55a1a8	-0.01303903
164	0xbb90e7ef	-0.00442218
165	0xbb9e9849	-0.004839931
166	0xbd220d8d	-0.039563704
167	0xbce489b5	-0.027897695
168	0x3d05c84d	0.032661725
169	0xb9e89960	-0.00044364762
170	0x3cbfbf90	0.023406774
171	0xbc661255	-0.014042457
172	0xbccbb8fa	-0.024868477
173	0x38a789ab	7.988823e-05
174	0xbc827862	-0.015926544
175	0xbbbcc911	-0.0057612737
176	0xbbbcf79f	-0.0057668234
177	0x3ba9193b	0.0051604784
178	0x3bf5f622	0.007506148
179	0x3b5add2a	0.0033395984
180	0x3a81e8be	0.0009911282
181	0xbd277db9	-0.040891383
182	0x3bde457f	0.006783187
183	0x3cbf1b92	0.023328576
184	0x3d27e959	0.040994022
185	0x3c18e0fa	0.009330982
186	0x3b595325	0.003316113
187	0xb8bcb219	-8.997712e-05
188	0xbd19f3c5	-0.037585992
189	0x3c1bf23d	0.009518203
190	0x3c27f0e0	0.0102503
191	0xbcc43a93	-0.023953712
192	0x3c57aa7f	0.013163208
193	0xbc41d758	-0.011831127
194	0xbb24f253	-0.002516885
195	0x3b09ff2a	0.002105663
196	0x3c9a83d5	0.01886169
197	0xbc5c93dc	-0.013462987
198	0x3b840818	0.004029285
199	0x3b52cc51	0.003216524
200	0x3ce9bbc9	0.028531926
201	0x3c95d8f0	0.01829192
202	0xbc17aea6	-0.009257948
203	0xbb906112	-0.004406103
204	0x3bfd9029	0.0077381325
205	0xbc4d887f	-0.01254475
206	0x3ce57631	0.02801046
207	0xbc5b829e	-0.013397841
208	0x3c9e3b9c	0.019315533
209	0x3c6eb3e9	0.014569261
210	0x3cbe1e27	0.023207737
211	0x3a00699c	0.00048985495
212	0x3b46e9d4	0.0030351775
213	0x3adce593	0.0016853086
214	0x3cb73904	0.022366054
215	0xbb553fe2	-0.0032539298
216	0x3c568986	0.013094312
217	0x3bde82eb	0.006790509
218	0xbc417221	-0.011806996
219	0x3b90d79b	0.0044202334
220	0x39a34490	0.00031140866
221	0x3a924874	0.0011160509
222	0xbc634eda	-0.01387378
223	0x3c3cdb89	0.011526951
224	0x3c33bced	0.010970336
225	0xbb753282	-0.0037414138
226	0xbc36faed	-0.011168224
227	0x3bb5ea6b	0.0055516264
228	0x3c6b9836	0.014379552
229	0xbbd04149	-0.006355439
230	0x38f759b1	0.00011794584
231	0x3bf6c81e	0.00753118
232	0xbb311c5a	-0.0027024955
233	0xbb3e5288	-0.0029040892
234	0xbaa36065	-0.0012464641
235	0xbc8e14b3	-0.017343855
236	0x3cecd2a1	0.02890903
237	0xbc51e482	-0.012810828
238	0x3bd4950d	0.006487495
239	0xbd12158e	-0.035665087
240	0x3c9c269c	0.01906138
241	0x3c41c079	0.011825674
242	0x3c5a53f3	0.013325679
243	0x3c4266d1	0.011865334
244	0x3b838ab2	0.0040143365
245	0x3c80298b	0.01564481
246	0xbd34c83e	-0.04413628
247	0x3ce0eed1	0.027457627
248	0x3cd14457	0.025545282
249	0xbc00839f	-0.007843881
250	0xbcee63dd	-0.029100353
251	0xbcb1342a	-0.02163132
252	0x3c1bf343	0.009518447
253	0x3c4d1f36	0.012519648
254	0x39c9ce78	0.0003849154
255	0xbc472813	-0.0121555505

Linear2.bias f4 [7]
0	0x3d5fa858	0.054603904
1	0xbcebf049	-0.0288011
2	0x3d4a23dd	0.04935061
3	0x3d7b7466	0.061390303
4	0x3d1f45e4	0.038885012
5	0xbcd372bb	-0.025811544
6	0xbc078508	-0.008271463
