epsilon_10/saved_model 1000.pth (torch, 52885 bytes, 4 tensors)

Linear1.weight f4 [256, 42]
000000 ea 8a d3 bd fd 2b 4b bd fe b4 4f bd 2d 88 9a bd
       -0.1032923 -0.049602497 -0.050709717 -0.07545505
000010 ed 25 9f bd 64 9c b2 bd 3c 8f b7 bd ab 4b bd bd
       -0.07770906 -0.087212354 -0.08962867 -0.09242948
000020 71 3a b7 bd 0d e0 9c bc 6a 16 1e bd 32 16 9f bd
       -0.08946694 -0.019149804 -0.038595594 -0.07767905
000030 7a c0 38 bc 5a c9 a0 3c af 1a 4b 3d 0f 59 fd bc
       -0.011276359 0.019627262 0.049585994 -0.030926256
000040 ed 6b 65 bc a2 c7 af 3d dc 5d ee 3b b7 f9 bf bb
       -0.014002782 0.08582999 0.0072743725 -0.0058586258
000050 e2 7e 89 3d 62 88 54 3d 2a 5f 90 bd f3 0f 43 3d
       0.06713654 0.051887877 -0.07049401 0.047622632
000060 e1 48 79 3b 5a 15 8a 3d 6b 19 a5 3c cb 21 15 bc
       0.0038037824 0.06742354 0.020153722 -0.009102295
000070 b4 9d bc bc 32 76 a2 bc 15 c2 30 bd cd 23 44 3d
       -0.023024417 -0.01983175 -0.04315384 0.047885705
000080 22 cc d2 3d 42 96 ba 3d aa 24 91 bc 4e e2 9b bc
       0.102928415 0.09110691 -0.017717678 -0.019028809
000090 95 d9 d1 bd 95 7f ae bd 8c 9a 9b bd c6 80 02 bc
       -0.102465786 -0.08520428 -0.07597837 -0.007965272
0000a0 06 e3 74 3d dc f2 da bc 5d 47 f0 bc 03 17 67 3c
       0.05978682 -0.026727132 -0.029330904 0.0141046075
0000b0 94 8c e1 39 a9 30 87 3d 4b 60 e8 3c 88 e0 98 3d
       0.00043020083 0.06601078 0.028366229 0.07464701
0000c0 f8 0a a7 bc f8 5d 8d 3d db 4c 9c 3d e1 d4 d9 3c
       -0.020390972 0.06902689 0.076318465 0.026590766
0000d0 b3 b5 8e 3d 76 bc 95 3b f9 4a e7 3c 20 ef a6 3d
       0.0696825 0.0045695854 0.028233992 0.08151078
0000e0 24 80 60 3b 21 63 fe bd c4 0c 10 3b 8c 28 9f 3d
       0.0034256065 -0.12421251 0.0021980265 0.077714056
0000f0 3e 41 dd bd 98 8d ce bd 6f b2 e4 3d fc 8c df 3c
       -0.108034596 -0.100856006 0.11166846 0.027288906
000100 b5 42 b0 3d 77 6b 2e 3c 32 ab 97 3d 26 82 9a bd
       0.08606473 0.010645739 0.074057 -0.07544355
000110 00 80 c0 bd 0e 37 87 bd 01 bb b1 3d 84 81 fa 3d
       -0.09399414 -0.06602298 0.08678246 0.122317344
000120 6f 89 bb 3d 9f 03 97 3d 70 f5 7a 3d f7 47 dc bc
       0.09157073 0.073737375 0.061269224 -0.026889784
000130 9c c3 2a bd 0d 78 ce 3d c7 1f c2 3d d5 93 9b bd
       -0.041690454 0.100814916 0.09478717 -0.07596556
000140 b2 ad a5 bd f1 d8 77 bc 60 75 b3 3d fd a8 0a bc
       -0.080897704 -0.015127406 0.08762622 -0.0084631415
000150 ab ff cc bd 67 65 35 bd 4c 01 1e 3d 72 7e 11 be
       -0.10009702 -0.044286158 0.038575456 -0.14208391
000160 be 62 a2 bd d9 ef 54 3d be b9 03 be 64 75 98 bd
       -0.0792899 0.05198655 -0.12863824 -0.074442655
000170 e6 2d b0 bd 50 1c e2 bc e4 a9 9e bd 70 c2 c2 bc
       -0.086025044 -0.027601391 -0.07747248 -0.023774356
000180 d1 56 4a bd d1 c5 b4 bd 99 39 64 3d 1c 52 36 3d
       -0.0493992 -0.08826793 0.055718992 0.0445119
000190 f5 ce 41 bd 36 6e 6b bc 8a a1 d5 3d 8b 57 e5 3d
       -0.04731651 -0.014369538 0.10431202 0.11198338
0001a0 2d 51 1c bd 11 88 19 3d 4e 8b 81 3d 24 92 37 3c
       -0.038163353 0.03748328 0.063253984 0.011204276
0001b0 0f ef 90 bd 20 f1 15 3e 5c 08 13 3e dc 1c 56 3c
       -0.07076847 0.14642763 0.14358658 0.013068404
0001c0 4b 3c 0e 3d cf 77 59 bd bb 72 65 3c 35 dc 8b 3d
       0.03472547 -0.053092774 0.014004405 0.068291105
0001d0 39 b2 eb 3b f0 91 ab 3d 8f e9 1f ba b9 c3 c2 bd
       0.0071928767 0.08377445 -0.00061001716 -0.095099874
0001e0 0e dd ab 3d 6a 68 32 3d 94 c7 bf bc ce 4a fa 3d
       0.08391772 0.04355661 -0.023410596 0.12221299
0001f0 6b e7 12 3d 42 b3 05 3e 54 f6 f8 3c 3e 90 e3 3b
       0.03586523 0.13056663 0.030390896 0.0069446852
000200 58 cc 5b bd 30 ab 4c 3b 50 5e b9 3c 83 fb 26 bc
       -0.053661674 0.0031229965 0.02262798 -0.010191801
000210 c8 f3 b1 3d 86 5d 49 bd 09 1d 1b 3d 49 d9 1c 3d
       0.08689076 -0.049161457 0.037869487 0.038293157
000220 de 89 c7 bb 9a 62 6f 3d c3 a6 d8 bc 1d 87 37 bd
       -0.006089433 0.058443643 -0.026446706 -0.04480659
000230 28 31 31 3d 71 4b e9 3d 75 6a 2b 3d 6e 19 99 3c
       0.04325977 0.113913424 0.041849572 0.018688884
000240 0d c3 98 bd ee a5 c1 3c a0 5f d6 bd 04 89 a8 3d
       -0.07459078 0.023638692 -0.10467458 0.08229259
000250 75 13 1f be 19 a4 f9 3d 62 83 66 ba b4 74 a5 bd
       -0.15534766 0.12189502 -0.0008793381 -0.080789
000260 60 64 f4 3d a1 9a 92 3d 01 1f 67 bd 15 50 b1 bd
       0.119332075 0.071583994 -0.056426052 -0.086578526
000270 d3 6e db bd 09 a2 0d 3e 68 b4 1e bd a2 9d f7 3d
       -0.107144974 0.13831343 -0.038746268 0.12090613
000280 a1 60 2a bd 2c 9b 87 3c f1 d5 00 be fc e3 01 be
       -0.04159606 0.016553484 -0.12581612 -0.12684625
000290 3b 7a cb 3d 0d 87 84 3c 42 a3 10 be b1 f4 4b 3c
       0.09935423 0.016177678 -0.14124778 0.012448476
0002a0 12 61 aa bd 27 03 70 3c 20 c3 ff bb 84 66 2e ba
       -0.08319296 0.014649189 -0.007805243 -0.0006652849
0002b0 ac ef 37 bd 8d a6 77 bc 5d c4 27 3d 45 e9 d8 3c
       -0.044906303 -0.015115392 0.04095875 0.02647842
0002c0 e0 67 e8 3d 07 fe 00 3d b5 f0 1b 3d db bd fa 3c
       0.113479376 0.03149226 0.038071353 0.030608108
0002d0 6c 70 69 bd 6a 4a f6 3c 46 a8 c1 3c fd 31 a6 3d
       -0.05699198 0.03006478 0.02363981 0.08115003
0002e0 8d b8 fc bc 7f 9f 8e 3d 02 d4 ca bc 2b 3a e2 3b
       -0.03084972 0.06964015 -0.024759296 0.006903907
0002f0 8b 4b 88 3d 6c a7 a1 3d 10 e5 1e 3e 91 e0 26 bd
       0.06655034 0.07893261 0.15517068 -0.040741507
000300 b9 14 82 3d f3 72 dd bb 50 cb 32 3d 1d 52 d7 3d
       0.06351609 -0.006758088 0.043650925 0.10513709
000310 97 3a 3f 3d 00 f3 1f 3d 6a cf a1 3d bc 60 8a bd
       0.046686735 0.039050102 0.07900889 -0.06756732
000320 73 86 22 bc 7f a1 09 3c 1f 1e e4 bb 9e 46 77 3c
       -0.0099197505 0.00840032 -0.0069615985 0.01509252
000330 16 3c 74 bd ba f2 9a 3d 63 48 de bd 0a b4 c1 bd
       -0.059627615 0.07565828 -0.108536504 -0.09458168
000340 87 a7 20 bd 3c 0c f3 3d 92 bc ab 3c 18 6a fd 3c
       -0.039222267 0.11867568 0.02096394 0.030934379
000350 d7 fe 5c 3d 3d ac f9 3b 7d cf e1 bc dd 4e b3 bb
       0.05395397 0.0076194094 -0.027564758 -0.0054720477
000360 8a a6 41 3c 09 f3 99 3c 24 17 b2 bc 17 f1 81 3d
       0.011819491 0.018792646 -0.02173955 0.06344812
000370 24 19 20 bd dd 75 81 bd e1 7e 99 bc 84 d5 0a bc
       -0.039086476 -0.06321309 -0.018737258 -0.008473758
000380 b3 c6 3d 3d 2b 92 e4 3c d2 71 66 bd ee f9 64 bd
       0.046332072 0.02790173 -0.05626089 -0.055902414
000390 11 ec 64 3c 50 57 d7 bb 8d be ab bd 01 60 24 3d
       0.013972298 -0.0065716878 -0.08385954 0.04013062
0003a0 d6 01 95 3d 03 0d 8e bd 17 78 4a bd cd 6c b7 bc
       0.07275741 -0.069360755 -0.049430933 -0.022390747
0003b0 9d 6b a9 3d ed 4b 72 3d 93 b0 00 3d 4d ad f4 3d
       0.08272479 0.05915444 0.031418394 0.11947117
0003c0 35 db 3d 3d 44 1a 90 bd 0e b8 ba bc f0 20 1b 3e
       0.04635163 -0.0703626 -0.022792842 0.15149283
0003d0 d1 7e da 3d 94 fa d1 bc 96 77 fe 3d ca 70 18 3a
       0.106687196 -0.02563218 0.12425153 0.0005815147
0003e0 bf 0b 9e 3b 0a 75 c1 3d 70 80 1b 3d a1 8b c0 3d
       0.0048231776 0.094461516 0.037964284 0.09401632
0003f0 c6 ff b6 3a d5 6b 7e bd 44 c8 cb bc 37 aa f7 bc
       0.0013961724 -0.062114555 -0.024875768 -0.030232532

Linear1.bias f4 [256]
000000 ea 01 99 be 81 ba 4f be 79 cb 33 be bb 6d de bc
       -0.29884273 -0.2028599 -0.17558087 -0.027151933
000010 9a de af be f5 db ad be e7 c0 e1 bc 07 24 0a be
       -0.3434952 -0.33956876 -0.027557803 -0.13490306
000020 45 fa a0 be c8 0f 20 be 09 d7 76 bc 96 d9 d7 bd
       -0.3144094 -0.1563102 -0.015065917 -0.10539548
000030 18 7b 70 be 80 81 8f be 4b 79 89 3b 1f 04 c9 bd
       -0.23484457 -0.28028488 0.0041953675 -0.09815239
000040 f6 aa 2c be 94 b9 c4 be 72 9e a0 bc ca 05 54 be
       -0.16862091 -0.38422835 -0.019606803 -0.20705333
000050 a8 2f e8 bd 43 a6 34 be b4 d3 8b be 63 2a a1 bd
       -0.11337215 -0.17641549 -0.27309954 -0.07869413
000060 e0 c4 eb bd e1 cc 39 be cf 64 47 be 09 4c 0f be
       -0.1151216 -0.18144561 -0.19472049 -0.13993849
000070 59 3a 36 bd 01 01 3c be e4 19 8e be 19 d3 01 be
       -0.04448924 -0.18359758 -0.27754128 -0.12678184
000080 35 5e 74 be d3 b7 91 be b5 b6 bf bd ad 0c 65 be
       -0.23864062 -0.2846056 -0.093610205 -0.22368117
000090 04 eb 2b 3d 10 59 57 be e3 c0 36 be 27 30 30 be
       0.041972175 -0.21030068 -0.17847018 -0.17205869
0000a0 53 fa 31 be 51 db 45 be c1 67 5b be 1a 6f e8 bd
       -0.17380647 -0.19321944 -0.21426298 -0.11349316
0000b0 f5 5f 99 be 96 0f 6e be 3a a4 24 be ae 62 4b be
       -0.29956022 -0.23248133 -0.16078272 -0.19861862
0000c0 6c 66 68 be 21 23 94 bc 0a 31 2d be 29 41 3f be
       -0.22695321 -0.018083157 -0.16913238 -0.186772
0000d0 80 e8 ff bd 88 b1 37 be bc a5 47 be 81 02 d2 bd
       -0.12495518 -0.17938817 -0.19496816 -0.10254384
0000e0 63 cc df bd 74 5e b4 be 81 ed ab be 49 91 a6 be
       -0.109276555 -0.35228312 -0.3357964 -0.3253272
0000f0 67 ea 61 be b5 5f 3c bd 20 71 83 3b 9a bc 34 be
       -0.22062074 -0.04598971 0.0040112883 -0.17650071
000100 6b 63 48 be fc 95 a8 bc 83 fa 44 be e9 fe 75 be
       -0.19569175 -0.02057933 -0.19236188 -0.24023022
000110 42 fc b1 3b bc c0 82 be 85 a2 1e be a5 1a 40 be
       0.005431683 -0.2553767 -0.15491684 -0.18760164
000120 15 fd 25 be 2a c7 95 be b3 42 76 be 97 39 7a be
       -0.16209824 -0.29253513 -0.24048881 -0.24436031
000130 8d 79 75 be e0 df 69 be 4b 34 2c be 63 61 28 be
       -0.23972149 -0.22839308 -0.16816823 -0.164434
000140 c3 dc 1a be c5 ed 6b be e7 21 2f be 75 89 47 be
       -0.15123276 -0.2303992 -0.17102776 -0.1948603
000150 4a b9 a2 be fd 08 aa bd 8a d3 9b be 29 fe b6 bd
       -0.3178199 -0.08302496 -0.3043483 -0.08935196
000160 73 81 cd bd 32 7f ac be 49 2d 3c be 67 c7 8c be
       -0.10034456 -0.33690792 -0.1837665 -0.27495882
000170 df 43 50 be bc f0 5b be 95 9d 1d bd b6 d2 d4 bd
       -0.20338391 -0.21478552 -0.03848036 -0.103917524
000180 36 6a 55 bd 02 ac e6 bd 75 49 8b be af 94 81 be
       -0.052103244 -0.11263277 -0.2720448 -0.2530875
000190 60 b2 57 be 6b 4d 57 be 7a 96 07 be 13 31 b5 be
       -0.21064138 -0.21025626 -0.13240996 -0.35389003
0001a0 40 83 7b 3d f0 ec 8d be d3 4b 01 be 9e 36 1d be
       0.061404467 -0.2771983 -0.12626581 -0.15352866
0001b0 86 00 13 be 3b fd 58 be 6e 0f 2b be b5 af ac be
       -0.14355668 -0.2119035 -0.16705105 -0.33727804
0001c0 06 fc 38 be 2a a8 7c be 8f 41 5c be 38 c9 68 be
       -0.1806489 -0.24673524 -0.21509384 -0.22733009
0001d0 ee 06 a8 bd ce 0f 39 be cf 7f 3a be 14 f9 24 3d
       -0.08204447 -0.18072435 -0.18212818 0.040276602
0001e0 96 f1 ff bd 69 76 44 be de 67 70 be 22 b7 6e be
       -0.12497251 -0.19185795 -0.23477122 -0.23312047
0001f0 14 5b 5e be 1c 7c bc bd 13 40 48 be 35 f2 8f bd
       -0.21714431 -0.092033595 -0.19555692 -0.07028619
000200 42 22 72 be 68 a4 81 be 38 a4 b1 bc c4 68 44 bd
       -0.23645881 -0.25320745 -0.02168475 -0.047951475
000210 42 5e 1e be e6 ab 83 bc 4c 52 c5 bd 80 b9 0e 3d
       -0.15465644 -0.016073178 -0.096348375 0.034844875
000220 ab 22 24 be ec 4f 3c 3d eb 43 93 3c 05 dd 9d be
       -0.1602885 0.045974657 0.017976722 -0.30832687
000230 da 2a 37 be 6e b1 1f be 0f ef 5f be 16 38 00 be
       -0.1788744 -0.15595028 -0.21868537 -0.12521395
000240 09 d0 0e bd 26 6f 83 be f1 26 54 be d4 8f 7d be
       -0.034866367 -0.25670737 -0.2071798 -0.24761897
000250 9d cb 8f bc 23 98 dc 3c 97 8c 86 bd e3 4d aa be
       -0.017553145 0.026928013 -0.06569784 -0.33262548
000260 93 da 48 be 07 52 a3 be 82 46 85 bd db 42 f2 bd
       -0.1961463 -0.3189852 -0.06507589 -0.11829158
000270 13 0d c1 be 25 f3 6b be c0 78 bb be e7 81 42 be
       -0.37705287 -0.23041971 -0.36615562 -0.18994866
000280 b1 5e a4 be 62 76 74 be 36 73 d1 bd 1d 69 10 be
       -0.32103494 -0.23873284 -0.10227053 -0.14102598
000290 4c b8 a7 bd a5 42 45 be ac ff 55 be c1 79 91 bd
       -0.08189449 -0.19263704 -0.20898312 -0.07103301
0002a0 15 a8 50 3d b8 dd bc be 97 ef 7c bd 95 dd a3 bc
       0.050941546 -0.36887908 -0.06175193 -0.02000312
0002b0 3a 41 4f be 1c bf 93 be 9d 10 5a bc e9 e9 20 bd
       -0.20239726 -0.28856742 -0.013309625 -0.039285574
0002c0 22 fe b8 bd ca 54 60 be b0 37 e2 bc 39 54 68 be
       -0.09032847 -0.21907344 -0.027614444 -0.22688378
0002d0 1a 16 98 be 1b c0 a7 bd be c1 93 bd 9f 99 8d bd
       -0.29704362 -0.08190938 -0.07214688 -0.069140665
0002e0 e1 50 2e be 42 b2 33 be 64 6a 43 be c6 6e c7 bd
       -0.1702304 -0.17548469 -0.19083554 -0.09737925
0002f0 2e c2 4e be 28 68 79 3b aa 24 63 be a2 59 0e be
       -0.20191261 0.0038056467 -0.22181955 -0.1390138
000300 e3 a6 12 be f9 1f 9b be 2a 61 04 bd d5 6a a7 be
       -0.14321475 -0.3029783 -0.032319225 -0.32698694
000310 e0 e6 de bd 61 ed 76 be 11 39 4d be b5 13 ac be
       -0.1088388 -0.2411399 -0.200413 -0.33608785
000320 8f 38 48 bd 63 9b e0 bd ce 6c 0c be c9 e3 7d be
       -0.048882063 -0.10967138 -0.1371338 -0.24793924
000330 fb 98 50 be c0 52 82 be 22 f3 37 bd 80 9e c3 bd
       -0.20370857 -0.25453758 -0.044909604 -0.09551716
000340 64 fb 15 be c5 56 a9 be 16 7c 96 be cb 8e 70 be
       -0.14646679 -0.33074012 -0.29391545 -0.23491971
000350 4e 61 91 be 29 74 80 be 2d 64 33 be ce f7 b0 be
       -0.2839455 -0.25088623 -0.17518683 -0.3456406
000360 c4 37 43 be c2 e7 96 be da 6b 43 be e3 b0 5c be
       -0.19064242 -0.29473692 -0.19084111 -0.21551852
000370 ef 11 97 be 12 f1 98 be 6b 28 82 be 28 ec a2 bd
       -0.2950587 -0.29871422 -0.2542146 -0.079551995
000380 3a 7d 74 be 55 a9 9a be e0 05 20 bd f1 dc 94 be
       -0.23875895 -0.30207315 -0.039068103 -0.29074815
000390 82 a9 94 be 9c a2 ac bd fb a2 c5 be b3 38 67 be
       -0.29035574 -0.08429453 -0.38600907 -0.22580223
0003a0 8d f0 9c be a2 57 aa be 08 24 3f be b4 bb 15 be
       -0.30652276 -0.33269984 -0.18666089 -0.14622384
0003b0 21 46 39 bd e2 d0 64 be 24 ca 89 be 50 07 f8 bd
       -0.045232896 -0.22345307 -0.26912034 -0.1211077
0003c0 3b 0a 44 bd f1 72 78 be b0 91 44 be 1f 41 d1 bc
       -0.04786132 -0.24262597 -0.191962 -0.025543747
0003d0 9b d7 67 be ee 19 98 be 33 aa b6 bd d9 05 0c bd
       -0.2264084 -0.29707283 -0.08919182 -0.034185264
0003e0 45 19 13 be f8 51 97 be 20 49 1d be 5b 75 89 be
       -0.14365108 -0.29554725 -0.15359926 -0.26847348
0003f0 f0 92 5e bc f9 57 b5 be f3 5d 74 be 19 11 a1 bc
       -0.013584837 -0.3541868 -0.23863964 -0.019661473

Linear2.weight f4 [7, 256]
000000 ae bc 63 bc df f6 00 bb 6a 5c 9b 39 db c1 b4 ba
       -0.013899965 -0.0019678397 0.00029632758 -0.0013790684
000010 52 e4 0d bb 4a 93 c4 bc ec 46 38 bb f8 95 2f ba
       -0.0021650982 -0.023996014 -0.0028118445 -0.00066980673
000020 24 d5 11 b9 c4 de 86 37 b3 e7 3f bc f5 b5 42 bb
       -0.00013907679 1.6077778e-05 -0.011712956 -0.0029710506
000030 f3 91 96 bb 77 02 41 3a 5f f8 02 bc 1e ce e8 ba
       -0.004595035 0.0007362733 -0.007993787 -0.0017761623
000040 77 2a 1f ba ca b9 a9 bc 53 ff 80 bb 56 ee 4d bb
       -0.00060716964 -0.020718474 -0.003936687 -0.0031422577
000050 4a 96 03 3b 22 dd 6f 39 83 7e 92 3a 2f 38 8d bc
       0.0020078593 0.00022875195 0.001117662 -0.017238704
000060 61 9a 30 ba b8 03 41 bb a9 bb 7a b9 50 4c 32 3b
       -0.00067368714 -0.002945168 -0.00023911767 0.002720613
000070 e1 4b 22 bb cf 61 42 bc b5 90 69 b9 bd b4 2a 3b
       -0.0024764466 -0.01186414 -0.00022274519 0.002604767
000080 dc 04 84 bc 60 15 a7 bc e5 50 e9 38 a1 8a 16 3c
       -0.016115598 -0.020395935 0.000111253736 0.009188325
000090 02 d2 72 bc 9a ea 76 b9 54 46 2b bc ab c6 9c bb
       -0.014820578 -0.00023547784 -0.010453779 -0.0047844253
0000a0 52 f3 ae 38 59 fb 95 39 0c 77 71 bb d4 7a a0 ba
       8.3422885e-05 0.00028606763 -0.003684464 -0.0012243637
0000b0 1b d4 be 3b 31 3c df b9 b3 9c b5 b8 58 47 56 b9
       0.005823625 -0.0004257872 -8.65994e-05 -0.00020435208
0000c0 ea 0b f7 3a 39 3e fc ba bb 8c 5b ba b4 6f 41 bb
       0.0018848155 -0.0019244618 -0.00083751575 -0.0029516043
0000d0 32 34 77 38 d1 0e aa b9 e9 1a 33 b8 90 92 69 bb
       5.8938e-05 -0.00032435966 -4.2701988e-05 -0.0035640337
0000e0 af c8 ab b9 62 b7 0b 3a 6c 0c e4 b9 1a 09 76 ba
       -0.00032765183 0.00053297554 -0.00043496804 -0.00093855115
0000f0 bf b4 73 bc 21 e8 3e bb 57 69 37 bc 75 5d 30 bb
       -0.014874636 -0.0029130059 -0.011194549 -0.0026911173
000100 43 fa 9e b9 d8 42 00 ba 98 8e 27 bc b3 c3 76 ba
       -0.00030322568 -0.0004892773 -0.010226868 -0.0009413317
000110 d5 54 8b bb fd 2c c2 b9 ae 01 36 ba 01 8c 70 bc
       -0.004252056 -0.00037036082 -0.00069429993 -0.014681817
000120 b3 cd 59 bb da 8e ec b9 cb 45 07 39 72 ac fe ba
       -0.0033234179 -0.0004511986 0.00012900603 -0.0019430055
000130 8f a8 5b bc 5b e3 1b bb ea 9c 9c b8 0d 4d 43 bc
       -0.013406887 -0.0023786637 -7.467887e-05 -0.011920226
000140 10 3e 68 b9 ac b7 35 ba b8 ae aa b9 16 aa 88 ba
       -0.00022148364 -0.00069319713 -0.00032555102 -0.0010426666
000150 9e 1e 31 ba 8c 80 32 b9 9a 91 0b ba bb 87 84 b9
       -0.00067565765 -0.0001702329 -0.00053241255 -0.0002527813
000160 39 68 25 ba 96 d7 15 bb 5b f8 ef ba ef 38 02 bc
       -0.0006309781 -0.0022864095 -0.0018308269 -0.007948144
000170 3d b3 52 bb 79 8d b6 b7 29 3c 3f bc 2a 07 fe b9
       -0.0032150291 -2.1761969e-05 -0.011672058 -0.00048451993
000180 08 80 a2 bb ef 0c 4e 37 da 9a 94 bb ad f5 4a 38
       -0.00495911 1.2281568e-05 -0.0045350613 4.8389356e-05
000190 ee 7e bf 39 e1 c0 d8 b9 45 30 54 ba f5 f6 40 3b
       0.0003652493 -0.00041342436 -0.0008094351 0.0029444073
0001a0 6a 0b 9d bc 13 d3 c2 ba 56 b2 84 ba 2e 29 f8 ba
       -0.019170482 -0.001486393 -0.0010123949 -0.0018933171
0001b0 0b 37 55 39 89 bc b9 3a 4d 91 36 bb 4d ca 83 ba
       0.00020333768 0.0014170568 -0.0027857602 -0.0010054797
0001c0 33 e8 97 38 bb 9a e1 ba 43 cc 88 bb 04 b4 4f 38
       7.2434916e-05 -0.0017212251 -0.0041747405 4.95203e-05
0001d0 50 9c 1c b9 3c 05 cd b8 59 d4 09 bc 83 93 37 bc
       -0.0001493555 -9.776137e-05 -0.008412444 -0.011204603
0001e0 31 35 e2 bb 43 c3 18 bb 4e 54 fa ba 4b f2 ce 38
       -0.0069033136 -0.0023309744 -0.0019098611 9.867976e-05
0001f0 a1 ff 47 38 7d 06 ae bb 3f ea bd b9 62 dc f0 39
       4.768337e-05 -0.005310832 -0.00036223416 0.00045940565
000200 ae b8 4c 3a e7 5e c6 ba 38 8d b6 ba 35 25 44 bc
       0.0007809502 -0.0015134484 -0.0013927585 -0.0119717615
000210 6a 59 74 bb 3e e8 42 3a cc 27 f0 3b 17 41 a7 bb
       -0.003728474 0.00074351195 0.007328963 -0.005104195
000220 a5 a4 79 b9 af ef 67 3c c6 01 89 3c 82 9d a3 ba
       -0.00023807825 0.014156266 0.016724478 -0.0012482854
000230 3a 9c 4c b9 f7 66 ef 3a 58 af be bb 8d 6d df bb
       -0.00019513155 0.0018264939 -0.0058192424 -0.0068184794
000240 70 10 39 b9 71 18 95 39 20 2b 17 b9 d3 4c 2d b9
       -0.00017649098 0.00028437705 -0.00014416547 -0.00016527185
000250 70 f7 0b bc 71 82 6a bc 1a 51 ec ba 03 b2 2a 38
       -0.00854288 -0.014313326 -0.0018029541 4.0696945e-05
000260 31 d5 82 3a 91 4f 27 3a 8b 9b 03 bd f9 d0 18 ba
       0.0009981749 0.0006382401 -0.03213076 -0.0005829479
000270 0b dd 31 3b f5 d7 fb b9 c9 c8 fd b9 b7 ed 6e b9
       0.0027139809 -0.0004803535 -0.00048405517 -0.00022786004
000280 cd b5 3b bb 50 1d 67 bc 54 17 0d b9 e5 18 47 ba
       -0.0028642297 -0.01410611 -0.00013455498 -0.0007594957
000290 c4 a2 2a bb 85 22 1f bb 2c 4a 79 bb bc 4d 28 bc
       -0.0026036957 -0.002428205 -0.0038038595 -0.01027244
0002a0 fa d9 cc 3b 98 d6 bc 38 a2 9d 19 ba f2 5c 32 bb
       0.006251571 9.00451e-05 -0.0005859976 -0.0027216044
0002b0 1e f8 ef ba 75 24 71 3b fb f3 cb bb 32 71 58 bb
       -0.0018308198 0.0036795412 -0.006224153 -0.0033026454
0002c0 22 cd c9 ba 39 83 bd ba 18 3c 9a ba ed db ab ba
       -0.0015396217 -0.0014458663 -0.0011767177 -0.0013111808
0002d0 30 7d d7 b9 a8 c8 b0 bc 62 6c 08 ba 77 f8 6a bb
       -0.00041101268 -0.021580055 -0.00052041386 -0.0035853663
0002e0 68 de 4f 3c e3 e6 d2 ba 4c cd e1 3a 3c bf bd ba
       0.012687303 -0.0016090538 0.0017227321 -0.0014476548
0002f0 30 e5 a8 bc 88 5a b3 ba f2 23 57 ba 57 fe a7 bb
       -0.020617098 -0.0013683597 -0.00082069554 -0.005126755
000300 56 23 ab b8 d6 04 17 39 b0 d5 9b ba ce 4d 22 3a
       -8.160497e-05 0.00014402284 -0.0011889245 0.00061914034
000310 c9 73 9d b8 22 93 1e bb 94 61 c0 3a 6e db 64 39
       -7.50791e-05 -0.0024196585 0.0014677518 0.00021825518
000320 67 e3 b3 3b 11 19 ad b9 d6 a4 3c b7 aa aa 75 ba
       0.005489755 -0.00033015807 -1.1244052e-05 -0.0009371439
000330 05 d1 1a 39 25 5f ef ba 49 2f 43 3b 0e 0d a8 bb
       0.0001476445 -0.0018262608 0.0029782823 -0.0051285094
000340 e0 be 29 3b 79 70 b2 ba 68 fe ee ba ec 1d d0 b9
       0.0025901124 -0.0013613842 -0.0018233778 -0.00039695145
000350 59 a7 0c ba dd 18 95 b9 6a 10 eb 3a 35 0c cd ba
       -0.0005365513 -0.0002843802 0.0017933969 -0.0015643897
000360 8c a2 60 b8 0c 67 9a b9 8a ce 38 bb 36 75 b2 ba
       -5.3557145e-05 -0.00029449945 -0.0028199279 -0.0013615254
000370 a0 cf 89 b9 0f be cf bb 9f 90 c8 b9 b0 b6 c6 39
       -0.0002628537 -0.0063397954 -0.00038254724 0.00037901616
000380 b1 a6 a6 38 7a e6 e8 b9 09 ed 9d ba df af 19 ba
       7.9465455e-05 -0.00044422207 -0.0012048791 -0.00058626937
000390 50 19 cc ba 84 42 82 bb d6 35 7c bb e1 67 a2 b9
       -0.0015571509 -0.0039752144 -0.0038484237 -0.00030976444
0003a0 f2 3b ae b9 cb 41 e6 39 77 14 6a 39 a0 20 07 bc
       -0.0003323253 0.00043918038 0.00022323603 -0.0082475245
0003b0 3d 9b 90 3b 01 48 38 3c 11 9a ea 39 29 50 0a bc
       0.004413037 0.011247636 0.00044746746 -0.008441963
0003c0 81 60 29 3b 27 4a 4a b8 e5 f5 46 3b 0f 1e de 3a
       0.0025844874 -4.8229613e-05 0.0030358967 0.0016946214
0003d0 27 cc 89 b8 cf f1 17 3c b6 86 ec bb c9 a5 a1 3b
       -6.5706954e-05 0.00927396 -0.007218207 0.004933093
0003e0 d5 67 23 3b b2 7e ae 3b 8c 1b 28 bc 13 18 5a bb
       0.0024933715 0.005325162 -0.010260474 -0.003327851
0003f0 60 a2 ae b9 7e 64 47 ba be ce 15 b9 25 b9 e6 ba
       -0.00033308845 -0.0007606222 -0.00014286765 -0.0017602785

Linear2.bias f4 [7]
000000 11 89 47 3d b6 4a ad bc 51 26 35 3d 11 4d 58 3d
       0.0487147 -0.021153789 0.044225994 0.05280787
000010 91 7e 1b 3d 79 fe 91 bc e7 c1 ff ba
       0.0379625 -0.017821537 -0.0019512743
