epsilon_10/saved_model 8500.pth (torch, 52885 bytes, 4 tensors)

Linear1.weight f4 [256, 42]
000000 03 3c 5c bd 11 61 5a bc 74 88 23 bd 52 e9 e2 bb
       -0.05376817 -0.0133288065 -0.039925054 -0.0069247866
000010 8f 8c 38 bd 88 45 ab 3c 18 84 24 bd df 81 00 3d
       -0.045055922 0.020907179 -0.040165037 0.031373855
000020 d2 41 6b 3c 68 eb 1a 3d 12 fd 87 bd 0d e9 63 bd
       0.0143589545 0.037822157 -0.06640066 -0.055642176
000030 fd e1 3b 3d 86 4b e7 bc 5b 07 bd 3c 86 6c b5 bd
       0.045869816 -0.028234255 0.023074796 -0.0885859
000040 b3 a1 22 3d da 59 3a bd da 2a 13 bb 7e af 83 3c
       0.03970499 -0.045495845 -0.0022455961 0.016074892
000050 54 ce c1 bc c4 04 d7 bc d5 d7 41 bd 09 bd 80 bb
       -0.023657955 -0.02624739 -0.047324974 -0.0039287847
000060 15 8e 44 3d 43 42 be bb bb 97 f6 3c f5 fc ea bc
       0.047987062 -0.005806239 0.030101648 -0.028685072
000070 4a d2 60 bb 19 63 16 bd f4 e2 e0 3d 6e 5a 39 bc
       -0.003430503 -0.0367156 0.10980788 -0.011313064
000080 76 6e 96 bd 25 e7 75 3d 53 70 bb bd 0a de e7 bc
       -0.073452875 0.06003489 -0.091522835 -0.028304119
000090 b3 aa 9a 3c 7c 44 3b 3c aa 2a 4a 3c 20 94 bf bd
       0.018880224 0.011429902 0.0123392735 -0.093544245
0000a0 46 c1 b1 bc 67 bb 22 3d 4e 47 c3 3c 06 fd 51 3d
       -0.021698605 0.039729502 0.023837712 0.051266693
0000b0 72 81 05 3d 22 61 45 3c a0 97 9d 3a 9c 3e 0a 3d
       0.03259415 0.012047084 0.0012023337 0.033751115
0000c0 d7 e7 10 3c 36 f0 6b 3b e4 ae 12 3d 4c 08 6a 3c
       0.008844337 0.0036001331 0.03581132 0.014284205
0000d0 fd e9 64 3d 94 54 fe 3c e7 63 79 3d 9b 7c 07 3d
       0.05588721 0.03104619 0.06088629 0.033077817
0000e0 9b 33 17 3d 3f 2b c0 3d b7 a3 8d 3d 01 a4 76 3d
       0.03691445 0.093832485 0.06915992 0.060215
0000f0 13 47 79 bc 7b 46 99 3c 1a 97 02 3d f8 7e 0d 3d
       -0.015214699 0.018710366 0.031882383 0.034544915
000100 0a 17 19 3c 38 da 1e bb df f8 28 3d d6 70 b0 3c
       0.009343872 -0.0024238955 0.041252967 0.02153818
000110 a9 49 cb 3b dc 6b ac bb dd 6d 0c 3c 53 09 21 3c
       0.0062038493 -0.0052618813 0.008571115 0.009828883
000120 06 54 e7 3c a3 35 85 3d 5a 9a 80 3d 4a 2f 00 bd
       0.028238308 0.06504371 0.0627944 -0.0312951
000130 4d 0d 89 bc f4 2c 59 3d f6 e0 7b 3d 11 75 57 bc
       -0.016729975 0.053021386 0.061493836 -0.013150469
000140 69 20 d2 3c 1c 43 1f 3c ff 10 92 3c 57 1d a7 3b
       0.02565022 0.00972059 0.01783037 0.005099933
000150 fd df 51 bd c9 90 5e 3d 77 75 37 3c 2e 57 82 bd
       -0.051239002 0.054337297 0.011197439 -0.063642845
000160 9f da 31 bc 9d da 25 3d 97 88 30 3d 63 ba 97 3d
       -0.010855346 0.04049169 0.043099012 0.07408597
000170 d9 e1 c5 bd 46 53 64 3d 21 67 ca 3d 88 a6 3f bd
       -0.09662218 0.05574348 0.098829515 -0.046789676
000180 a8 cd 7d 3d d1 3d 00 be 38 0c 62 3d af 34 ad 3d
       0.061963707 -0.12523581 0.055187434 0.08457314
000190 1c 93 f6 3d 10 bb 9b bd 08 3e 93 3d 58 80 c7 3c
       0.12039778 -0.07604039 0.07189566 0.024353191
0001a0 27 ea 47 bc 89 75 9e 3d a9 70 07 3e eb 7c 62 3d
       -0.012201822 0.07737262 0.1322657 0.055294912
0001b0 21 bf af bd 58 3f 11 3d da f6 7c 3d 71 65 2f bd
       -0.08581377 0.0354608 0.061758853 -0.04282135
0001c0 70 44 9c bb a8 35 3f be 74 d6 e5 bd e2 f8 00 ba
       -0.0047689006 -0.18672812 -0.11222544 -0.0004919899
0001d0 fb 77 11 3d 6a df 7b 3c f4 d0 8d bd ba 1e d5 3d
       0.035514813 0.01537309 -0.0692462 0.10406251
0001e0 d0 d6 0d 3d 76 64 f7 3d bf cc 71 bd eb 55 19 3b
       0.03462869 0.12079708 -0.05903315 0.0023397158
0001f0 5d 94 c9 3d 0c 4c 8a bd 8d 7c 15 3d 63 7f b9 3b
       0.09842751 -0.06752786 0.036495734 0.0056609376
000200 fb bd ce 3d 8c bd 7d 3d 75 1e 47 3d f9 ab c7 bb
       0.1009483 0.061948344 0.04861303 -0.006093499
000210 e0 dd e0 3a 9f 0d d3 bc ed 1a 75 3c 27 86 18 3e
       0.0017155968 -0.025763331 0.014960033 0.14894925
000220 8a e3 9d 3d 60 ad 53 3c 8d c0 60 bd bf 16 ad 3d
       0.07709415 0.012919754 -0.05487113 0.08451604
000230 f3 a6 90 3c 1d 84 a3 3d 4b 25 85 3c 8f 67 f9 bd
       0.017657733 0.07984183 0.016253134 -0.12177955
000240 97 de 9d 3d df 74 24 bd 7f 7a 56 3d a2 94 a0 39
       0.07708471 -0.04015052 0.052362915 0.00030628318
000250 70 db 74 bd 83 dc 6b 3d 61 9d 24 3d 16 94 7e 3c
       -0.059779584 0.057583343 0.04018915 0.015538236
000260 70 80 1c 3e 10 69 c2 bc 33 4e 55 bc 29 4c 36 ba
       0.1528337 -0.023731738 -0.013019132 -0.0006954098
000270 19 3a ef bc 46 6e 1d 3d 14 41 a5 bd b0 d3 f2 bd
       -0.029202508 0.038435243 -0.08069053 -0.118567824
000280 28 24 9a bd ba 26 f2 3c ad f5 ed 3d cd 33 fb 3c
       -0.075264275 0.029559482 0.116191246 0.030664349
000290 7f b4 fd bc 8c 3a 9a bc e9 50 55 3d 88 f2 0e 3e
       -0.030969856 -0.018826745 0.052079115 0.13959706
0002a0 29 21 e1 3c 56 15 78 3d 64 88 b3 3c 4b e2 b8 3b
       0.027481632 0.060567223 0.021915622 0.0056422106
0002b0 fb ec f1 3c 26 5e b4 bc 3c d9 e9 3c 1d 85 b2 bc
       0.029531946 -0.02201755 0.028545968 -0.021791989
0002c0 b7 13 10 3c f6 b1 95 3d 48 7a 67 3d 95 57 f1 3c
       0.008793763 0.07309334 0.0565131 0.029460708
0002d0 3e be 63 3c 1b 40 9a 3d de 62 2a 3d 1e 2e 08 3e
       0.013900338 0.075317584 0.041598193 0.13298842
0002e0 e7 26 18 3d 6f 3d d5 3d 65 e2 b9 3d 7d df a3 3c
       0.037146475 0.10412108 0.090763845 0.020004028
0002f0 5b 94 af 3d 91 de b1 3d ee d8 db 3a 86 53 fb bc
       0.085732184 0.08685029 0.0016773024 -0.030679476
000300 9a 48 88 bd ac ea 20 bd 52 e5 7a 3c 03 83 4b 3d
       -0.06654473 -0.0392863 0.015313463 0.04968549
000310 9c 60 4c 3d c0 f4 13 bc cc b5 f6 bb 65 9f 7b bd
       0.04989682 -0.009030521 -0.007528996 -0.061431307
000320 53 07 6c 3c bc cf 6b 3b 21 a2 91 3d 06 93 85 bd
       0.014406043 0.0035981974 0.07111002 -0.06522183
000330 4a 7e 1c 3e dc 78 a3 3d 5c 07 43 3d 5e 6f 3a bc
       0.1528255 0.079820365 0.04761444 -0.011379091
000340 d9 20 36 bc e0 b4 1d bb d5 65 b1 3c e8 a3 0e 3d
       -0.01111623 -0.0024064109 0.021655003 0.034824282
000350 df 8b 1b bd 2c 47 42 bb c6 fb 15 bb 9e 11 00 3c
       -0.03797519 -0.0029644473 -0.0022885664 0.0078167
000360 c1 02 c6 3c df bc 7b 3c 9e b9 b4 3c e5 f8 99 3b
       0.024171235 0.015364855 0.022061165 0.00469886
000370 fb ae 19 bc 87 c2 46 bd 06 15 f9 3b 93 76 98 3c
       -0.0093800975 -0.04852536 0.007601383 0.018611228
000380 b1 98 0c 3c bd b6 d2 3c 8b af 97 3c 68 98 6e 3c
       0.008581326 0.025721902 0.018516323 0.014562704
000390 05 7a 1c 3c 04 86 44 3d 00 7d ca bc 23 ce 3f 3d
       0.009550576 0.04797937 -0.024717808 0.046827447
0003a0 d7 61 26 3d 47 13 51 3c 46 e2 41 3c da 90 e2 3c
       0.04062065 0.012760944 0.011833733 0.027656961
0003b0 b2 a9 0a 3d 33 2d 47 3c 04 a8 9a 3b 28 0f 69 3d
       0.03385324 0.012156772 0.004719736 0.05689922
0003c0 51 3f ae 3b b5 67 67 3d a3 e2 69 3c 49 55 bd 3d
       0.0053176065 0.056495387 0.014275226 0.092447825
0003d0 a2 5f 44 3d 6f f4 41 3d dd 97 56 3d 0d ee 13 bb
       0.047942765 0.04735225 0.05239092 -0.002257231
0003e0 40 e9 4c bc 11 71 bb 3c 7d 2d c1 bb 58 64 8d 3d
       -0.012506783 0.022881063 -0.005895315 0.06903905
0003f0 c9 b0 2a bd ff 17 f2 bc 5a dd 03 3d d7 47 79 3b
       -0.0416725 -0.029552458 0.03219352 0.0038037205

Linear1.bias f4 [256]
000000 73 58 31 bf 7b 39 03 bf 18 33 46 bf d9 b5 3c bf
       -0.6927559 -0.51259583 -0.7742171 -0.7371498
000010 cd 31 4e bf 09 0c 01 bf 71 a0 1f bf f9 fe 53 bf
       -0.8054474 -0.5040899 -0.6235419 -0.8281093
000020 fe ef 55 bf 75 c6 56 bf 72 9b 1e bf d8 b5 32 bf
       -0.83569324 -0.8389657 -0.6195594 -0.6980872
000030 59 7a 4d bf 0e 9f f9 be ea 62 4b bf 2c fd 1e bf
       -0.8026481 -0.48754162 -0.79447806 -0.6210506
000040 6a 4d 74 bf 52 73 47 bf eb 47 46 bf ef dd 29 bf
       -0.95430624 -0.7791034 -0.7745349 -0.6635427
000050 f7 b3 82 bf 3a 6b 32 bf b7 ba 3f bf ad d2 47 bf
       -1.0211171 -0.69694865 -0.7489428 -0.7805584
000060 d0 76 27 bf 00 f8 44 bf a4 5f 33 bf e5 8b 6a bf
       -0.6541567 -0.7694092 -0.7006781 -0.9161971
000070 bc e9 8e bf ba 16 53 bf a2 db 1f bf db d5 21 bf
       -1.116508 -0.82456553 -0.6244451 -0.6321694
000080 f5 92 4c bf 98 1a 1a bf 57 b3 1b bf 0f 00 37 bf
       -0.7991174 -0.6019683 -0.60820526 -0.71484464
000090 ea d8 52 bf a9 9f 37 bf 2b c1 34 bf 5b 75 32 bf
       -0.82362235 -0.71728 -0.7060725 -0.6971032
0000a0 70 db 0c bf 38 de 36 bf 35 6f 10 bf 15 de 12 bf
       -0.55022335 -0.7143283 -0.5641969 -0.5737012
0000b0 82 b0 3f bf 43 18 30 bf 43 51 2c bf 94 f7 34 bf
       -0.74878705 -0.6878702 -0.67311496 -0.70690274
0000c0 7e e0 4a bf 07 0c 35 bf 3d 6f 38 bf f8 5c 48 bf
       -0.792488 -0.7072148 -0.72044736 -0.7826686
0000d0 e1 5e 3f bf a9 b5 47 bf b2 8b 5b bf 2d c4 2c bf
       -0.7475415 -0.78011566 -0.85760033 -0.6748684
0000e0 f6 8e 2a bf 6e 39 3a bf 01 1f 4e bf 7a 02 2c bf
       -0.6662439 -0.7274388 -0.8051606 -0.6719128
0000f0 7d c1 2c bf 94 90 3e bf 8a 11 2e bf 43 f0 0e bf
       -0.6748274 -0.7443936 -0.6799551 -0.5583536
000100 62 5d 49 bf b7 ce 37 bf af e9 69 bf 77 72 41 bf
       -0.78658116 -0.71799797 -0.913722 -0.75565284
000110 5f 06 1a bf 97 d0 3f bf 6c 9d 43 bf 0d 4e 3e bf
       -0.6016597 -0.7492766 -0.7641208 -0.74337846
000120 18 10 20 bf 7d 97 8a bf 5a 82 40 bf 1e c1 28 bf
       -0.6252456 -1.082748 -0.751989 -0.65919673
000130 a2 27 24 bf 3a f3 42 bf 50 42 46 bf e9 b4 57 bf
       -0.64122975 -0.76152384 -0.77444935 -0.8426042
000140 78 c3 41 bf 36 4a 40 bf 03 30 42 bf 8e d6 61 bf
       -0.75688887 -0.75113237 -0.7585451 -0.8821801
000150 44 a4 0c bf 37 17 60 bf 10 c7 2d bf dc c9 39 bf
       -0.5493815 -0.87535423 -0.6788187 -0.7257364
000160 5a ef f1 be be d5 4f bf ce 33 1b bf 42 24 22 bf
       -0.47252923 -0.8118552 -0.6062592 -0.63336575
000170 7e c9 74 bf 8e 94 40 bf df 46 42 bf 17 09 31 bf
       -0.9561995 -0.75226676 -0.7588939 -0.69154495
000180 2b 39 67 bf 1b 87 57 bf 2d 96 0d bf 14 72 3a bf
       -0.90321606 -0.8419053 -0.55307275 -0.7283032
000190 c6 dd 5d bf b2 6a 4f bf 6d 21 28 bf 32 2b 35 bf
       -0.86666524 -0.8102218 -0.65676004 -0.70769036
0001a0 cb 25 34 bf ef 64 31 bf c9 48 44 bf 81 f6 19 bf
       -0.7037017 -0.6929464 -0.7667356 -0.6014176
0001b0 75 18 30 bf 57 a9 71 bf 2b 2d 22 bf 2c c9 21 bf
       -0.6878732 -0.9439902 -0.6335017 -0.6319759
0001c0 8d 2d 36 bf 16 f0 3d bf 9e d8 60 bf 3d 27 44 bf
       -0.71163255 -0.7419447 -0.8783053 -0.7662237
0001d0 45 cb 5e bf 22 bd 2a bf 72 52 32 bf 1b e9 4c bf
       -0.87028915 -0.66694844 -0.6965705 -0.8004319
0001e0 23 14 23 bf ca 2b 32 bf 2c d3 52 bf 5b 26 39 bf
       -0.637026 -0.69598067 -0.8235347 -0.7232415
0001f0 09 39 1a bf 25 7f 1c bf 21 e5 4c bf af e8 38 bf
       -0.6024328 -0.6113151 -0.8003712 -0.72230047
000200 7b da 21 bf d8 db 17 bf 3d 50 31 bf 87 ee 53 bf
       -0.63224 -0.5931983 -0.6926306 -0.8278584
000210 2e f9 17 bf 3c 65 25 bf 28 45 0b bf d3 1a 36 bf
       -0.59364593 -0.64607596 -0.544024 -0.7113468
000220 cc 95 3f bf 0e 13 50 bf a3 a3 59 bf 86 ea 4f bf
       -0.74837947 -0.81279075 -0.85015315 -0.8121723
000230 48 95 2f bf b5 40 36 bf 0a a7 19 bf d3 98 43 bf
       -0.6858716 -0.71192485 -0.60020506 -0.76405066
000240 f5 82 63 bf f8 bf 25 bf 22 7d 0e bf 32 f6 42 bf
       -0.888717 -0.64746046 -0.5565969 -0.76156914
000250 f2 e0 03 bf b7 28 2f bf b4 54 37 bf 97 5a 8a bf
       -0.51515114 -0.684215 -0.7161362 -1.0808896
000260 b2 58 3b bf dc d5 7c bf b1 4a 0f bf 51 0e 2a bf
       -0.73182213 -0.98763824 -0.55973345 -0.66428095
000270 4f 2d 4d bf 13 55 1a bf fd 9c 8e bf cc 94 38 bf
       -0.8014726 -0.6028606 -1.1141659 -0.72102046
000280 1b e3 39 bf 2e fe 4e bf 95 9b 2e bf a3 a3 40 bf
       -0.7261216 -0.808566 -0.6820615 -0.7524969
000290 7f 6a 08 bf f9 a8 2a bf b6 99 3d bf 84 20 4c bf
       -0.532875 -0.6666408 -0.7406267 -0.79737115
0002a0 58 c0 2e bf 1c c4 35 bf 27 de 4c bf b4 60 39 bf
       -0.68262243 -0.71002364 -0.8002648 -0.7241318
0002b0 69 27 57 bf 0b 76 24 bf 7b 0d 2f bf ed 7d 4e bf
       -0.8404451 -0.6424262 -0.68379945 -0.806609
0002c0 c1 dd 69 bf f6 e6 33 bf 5f c7 45 bf 5a 5f 81 bf
       -0.91353995 -0.70274293 -0.7725734 -1.0107224
0002d0 36 ee 66 bf d7 2a 83 bf 0b 9c 1f bf 6e e4 3d bf
       -0.9020723 -1.0247449 -0.6234748 -0.7417668
0002e0 35 f6 4b bf 03 6a 32 bf 3a a7 33 bf b3 67 e5 be
       -0.7967256 -0.6969301 -0.7017704 -0.4480568
0002f0 71 72 3b bf 05 b0 40 bf 27 f7 5e bf 7b 69 3e bf
       -0.732215 -0.75268584 -0.87095875 -0.743797
000300 c1 b0 35 bf 30 84 41 bf 15 7b 61 bf d7 6b 0c bf
       -0.7097283 -0.7559233 -0.88078433 -0.5485205
000310 d4 03 35 bf bd 49 4d bf 56 b6 44 bf 2b f3 4d bf
       -0.70708966 -0.8019064 -0.7684072 -0.8044917
000320 1e b5 47 bf 86 08 79 bf 44 26 42 bf be 80 39 bf
       -0.7801074 -0.9727863 -0.7583964 -0.7246207
000330 c7 69 11 bf cb e9 52 bf 0b 3e 27 bf b4 03 37 bf
       -0.5680203 -0.8238799 -0.65329045 -0.71490026
000340 a9 41 57 bf 54 bc 48 bf bc 64 30 bf f7 51 4a bf
       -0.84084564 -0.78412366 -0.6890371 -0.7903132
000350 7d df 49 bf 86 05 62 bf 1a 60 26 bf 95 d9 79 bf
       -0.7885664 -0.8828968 -0.6499039 -0.9759763
000360 34 24 22 bf 4a 5e 51 bf c6 9d 52 bf 3a e1 07 bf
       -0.6333649 -0.817845 -0.82271993 -0.53078043
000370 37 04 5a bf 81 8a 12 bf 0a ad 2e bf 13 9e 33 bf
       -0.8516268 -0.5724259 -0.68232787 -0.7016308
000380 ce 58 55 bf 9f 59 39 bf 13 3f 28 bf 2a 75 33 bf
       -0.8333863 -0.72402376 -0.65721244 -0.70100653
000390 b2 5c 42 bf 5e 24 45 bf 40 4c 4f bf 1c 52 6a bf
       -0.7592269 -0.77008617 -0.80975723 -0.9153154
0003a0 dd 71 10 bf 13 f2 7d bf 3d 58 1e bf 5a 35 24 bf
       -0.5642374 -0.991975 -0.6185339 -0.6414391
0003b0 f0 43 3f bf 70 3f 2a bf 8f 27 17 bf 43 c0 20 bf
       -0.7471304 -0.6650305 -0.59044737 -0.6279337
0003c0 fd 7a 2a bf a1 e8 3d bf 61 68 74 bf 3a f5 29 bf
       -0.66593915 -0.7418309 -0.9547177 -0.6638981
0003d0 c6 48 2b bf 43 2c 65 bf ba d6 1a bf 93 24 32 bf
       -0.6690792 -0.89520663 -0.60483897 -0.6958706
0003e0 92 24 0f bf de 9b 53 bf 27 42 3f bf b5 dd 81 bf
       -0.55915177 -0.8265971 -0.74710315 -1.0145785
0003f0 88 53 46 bf 9a dc 58 bf 09 fa 42 bf 5f 70 23 bf
       -0.7747121 -0.8471161 -0.76162773 -0.6384334

Linear2.weight f4 [7, 256]
000000 10 eb b7 3d 54 78 cf 3b e4 01 31 bc 9d e7 37 bb
       0.089803815 0.006331483 -0.010803673 -0.0028061636
000010 f4 92 4e bd 52 63 82 bc f6 e4 3d bd cb 7d 8a bd
       -0.050433114 -0.0159165 -0.046360932 -0.06762274
000020 fc 8f 08 bd e7 5c 40 bd 09 81 34 3c a2 43 9e bd
       -0.03334044 -0.0469636 0.0110170925 -0.07727744
000030 44 e3 6f 3d 3a e1 4c bc 43 f6 c7 bd d2 93 24 bc
       0.058566347 -0.01250487 -0.097637676 -0.010045009
000040 34 ed 16 3e f3 a4 5f bc f9 f0 0f bd f4 77 b9 bc
       0.14738923 -0.013650167 -0.03514192 -0.022640206
000050 2f df 44 be ed f2 ca bd cd 52 56 be 11 12 ba bd
       -0.19225763 -0.09909616 -0.20930023 -0.09085477
000060 fe e9 20 bd 93 79 be bc fb 2c ba bc 52 d4 1e bd
       -0.039285652 -0.02325133 -0.022726526 -0.038776703
000070 ae 91 c1 bd 7b bf 0b be f1 51 1e bd 3e b5 c8 bd
       -0.09451614 -0.13647263 -0.038652364 -0.09800194
000080 2d 83 ac bd 41 fb 8c bd 4d f4 ef bd 6f a2 51 bd
       -0.08423457 -0.068838604 -0.117165186 -0.0511803
000090 94 98 b2 3d a4 87 8b bd 2b 30 33 3d 6e d9 5e 3c
       0.08720508 -0.06812981 0.04374711 0.013601644
0000a0 8e cc 0c 3d 81 f7 eb bb 28 39 89 bc 03 af aa 3c
       0.034374766 -0.0072011356 -0.016750887 0.020835405
0000b0 d6 05 06 bd 9f ac 86 3d 80 d8 09 be 9e ff 46 3c
       -0.03272041 0.065758936 -0.13461494 0.012145905
0000c0 db 6d 2d 3d 42 cd 28 bd 47 31 6d bd 4b cb 6b 3e
       0.042341094 -0.041211374 -0.057908323 0.23026769
0000d0 47 32 a0 bc 86 b5 b3 3c fa 08 f3 bd a9 12 3b be
       -0.019555224 0.021937143 -0.118669465 -0.18268837
0000e0 02 b8 63 bc 3a e5 e6 bd b4 f0 e4 3c e6 09 f9 bb
       -0.013898851 -0.1127419 0.027946807 -0.007600057
0000f0 c7 06 0e bc 1d c7 02 be e5 f8 fd 3d e6 0b fd bc
       -0.008668608 -0.12771268 0.124009885 -0.030889463
000100 48 99 e1 bd 82 91 89 bb 99 20 10 3e 82 5a 83 3c
       -0.11015564 -0.004198254 0.14074935 0.016034368
000110 c9 9a 0f bd ca 6c 2c be be 7c 81 be 55 d4 f9 3a
       -0.035059724 -0.16838375 -0.25290483 0.0019060472
000120 07 e0 96 bd 4b 2a 12 3e cd 45 a3 3c 25 35 87 3c
       -0.073669486 0.14273946 0.019930745 0.016504833
000130 e0 e4 94 bd 46 bd 5e bd 82 b9 f1 3a 03 ab ed 3c
       -0.07270217 -0.054379724 0.0018442126 0.029012209
000140 e4 2b 96 bc 3b fb 6d bd 1b c7 93 3d 6f 96 81 3d
       -0.018331476 -0.05810092 0.07215711 0.06327521
000150 ea 6d ac bb b4 19 66 3c 93 dc 16 be 97 9c b4 3c
       -0.005262126 0.014044214 -0.1473258 0.022047324
000160 ac 3c b4 bc 4c 34 02 3e 11 ac 1a bc 01 55 f3 3b
       -0.022001587 0.12715262 -0.009440438 0.0074259047
000170 e2 9a 3e bd 41 00 ae bd 65 b0 a9 3b eb 04 e4 bd
       -0.046534427 -0.08496142 0.0051784986 -0.111337505
000180 e2 2a 19 bb 10 ab 49 bc a6 0a f1 bd da 26 ef 3c
       -0.0023371507 -0.012308851 -0.11769609 0.02919333
000190 35 5c b8 3c bd db c6 3c 44 ae f5 3c 58 c4 76 bd
       0.022504905 0.024274701 0.029990323 -0.06024584
0001a0 3d 86 15 3d 87 1c b3 bd c5 e1 2a bd f4 ca b3 3b
       0.036504973 -0.087456755 -0.041719217 0.0054868404
0001b0 bf a6 a4 bb 8a 2a 81 bd 38 5a c1 3b 78 c6 1c be
       -0.0050247605 -0.06306942 0.0059006475 -0.15310085
0001c0 66 f4 09 bd 75 4f 89 be 7c 42 36 bd 36 8d 31 3c
       -0.033680342 -0.26818433 -0.044497 0.01083689
0001d0 f2 98 9f bb 54 9b d5 3b 04 92 0a bd b2 c1 5d 3c
       -0.0048705274 0.0065187607 -0.033830658 0.01353495
0001e0 bc 8b 22 be d0 21 76 3c 7e 9a 25 bc 9f 6e 33 bd
       -0.15873617 0.01502271 -0.010107635 -0.04380667
0001f0 4c 6a c5 bd 91 b4 09 be 96 de ec bc d7 0c 3e bd
       -0.09639415 -0.13447787 -0.028914731 -0.046398964
000200 7e 84 3b 3c 22 8d 59 3d 92 e2 29 3d 14 fd 02 be
       0.011445163 0.05311311 0.04147584 -0.12791854
000210 1f 8e c2 3c 50 4f d5 3d 54 05 a6 3d a1 89 db 3c
       0.02374941 0.10415518 0.08106485 0.026799025
000220 f3 e7 0d be 94 37 d6 bd e4 4d c6 bc a5 d2 a8 bd
       -0.13858013 -0.104598194 -0.024207063 -0.08243302
000230 1c f9 05 be 70 49 85 bd 5a 3f 87 3b 87 72 4a bd
       -0.13083309 -0.06508148 0.004127425 -0.049425628
000240 42 48 07 bd 57 77 fe bd 90 5f 85 bc a7 9f 3c bd
       -0.033027895 -0.12425106 -0.01628092 -0.046050694
000250 5a 5f 45 bd e3 91 7d bd f2 3f ba ba ec f6 1f bd
       -0.048186637 -0.061906707 -0.0014209731 -0.039053842
000260 a7 3f 9e bc fb ba 0a be dc a1 cd bc 6c b6 77 bc
       -0.019317461 -0.1354789 -0.025101595 -0.015119176
000270 79 02 56 3d a9 c1 8e bc a9 3f 22 bd 40 c7 a2 bc
       0.05224845 -0.017426329 -0.039611492 -0.0198704
000280 d7 fa 8d bd 21 d8 16 3d dd 25 30 bb a1 e9 af bd
       -0.069326095 0.03682721 -0.0026878037 -0.08589483
000290 6c e8 fc bb cc 6a aa ba d5 0a 69 bd fb 07 59 be
       -0.0077181365 -0.0013001799 -0.056895096 -0.2119445
0002a0 c1 a1 58 be 1d 14 7c ba 0a 98 c6 bb c9 21 98 3d
       -0.21155454 -0.0009616034 -0.006060605 0.07428319
0002b0 83 c6 90 bb 67 14 88 bd 1f ce a8 bc 17 67 98 bb
       -0.0044181957 -0.066445164 -0.020606099 -0.004650961
0002c0 f9 e3 ab 3d 54 dd 1f bd 64 d0 9c bc dd 41 c5 3d
       0.08393092 -0.039029434 -0.019142337 0.09631703
0002d0 01 c0 d1 3c b9 b3 3f be 8a 99 06 be 15 f5 41 be
       0.02560425 -0.18720903 -0.13144508 -0.18941148
0002e0 f1 2b cb bc 9e 48 37 be 87 10 37 bd 17 69 94 bd
       -0.024801226 -0.17898795 -0.044693496 -0.07246607
0002f0 9c dc 21 bd 3f e8 20 3e d4 af 5e 3c ca 34 46 bc
       -0.03951703 0.15713595 0.013591725 -0.012097547
000300 72 9b e5 bc 82 7d 32 3d 94 cf 0e bd 16 78 8b bb
       -0.028028224 0.043576725 -0.03486593 -0.0042562587
000310 93 33 07 bd 25 55 56 3d 46 14 03 bd 65 ab 12 bb
       -0.03300817 0.052327294 -0.032001756 -0.002237999
000320 9a db a4 3d 80 07 02 3e 0a 5e 48 3d bb 37 7f bd
       0.08049698 0.12698174 0.048917808 -0.062309008
000330 ec b1 81 3d ef 5f ce bd 34 b4 50 bc 46 bc 9e bb
       0.06332764 -0.10076892 -0.012738276 -0.0048442213
000340 3e 39 2b 3d 79 37 95 3c 30 0c 1b bd 85 36 4b bd
       0.041802637 0.018214928 -0.03785342 -0.04961254
000350 c0 38 dc b9 7d 8a a8 3d 33 c3 6e 3d 62 96 5a bc
       -0.00042003952 0.082295395 0.058291625 -0.013341518
000360 b2 58 4b 3b 8d ee 38 3c 16 c5 81 3d 86 28 5d bd
       0.0031028208 0.011287344 0.06336419 -0.053993724
000370 ca 70 e5 3c 68 3e f3 bb f7 be 32 bd 32 3a ae bb
       0.028007884 -0.007423211 -0.04363915 -0.005316996
000380 39 cc a6 bc 5b 11 6a bd 1f 94 11 be 24 86 d4 bd
       -0.020361053 -0.057145458 -0.1421666 -0.10377148
000390 b7 c4 27 bd 61 c7 aa bd 98 f1 f5 b9 c1 b4 a2 bd
       -0.040959086 -0.0833881 -0.00046910043 -0.07944632
0003a0 48 1f ff bc 12 d5 37 3d e3 81 1f bd 53 75 52 3c
       -0.031142846 0.044880934 -0.03894223 0.012845355
0003b0 b5 a1 64 3c 22 5c 47 3d 24 f2 d8 bc 01 fe c7 3c
       0.01395457 0.04867185 -0.02648265 0.02441311
0003c0 df c9 aa bb 14 f3 5e bc d5 21 2e bd b7 78 13 bb
       -0.005212053 -0.013607759 -0.042512733 -0.0022502372
0003d0 42 3c 4c bd f6 4c cf 3c 18 6e 8a bd c3 68 ab bc
       -0.049862154 0.025305253 -0.0675928 -0.020923978
0003e0 19 a8 cd bd cb ff 0a 3e 83 8b e2 3d fb 74 40 3c
       -0.10041828 0.1357414 0.11061766 0.01174664
0003f0 ae 76 0f bd 46 f8 22 3c f2 07 85 bc bb 66 8c bd
       -0.03502529 0.009946888 -0.01623914 -0.06855532

Linear2.bias f4 [7]
000000 19 ed 10 3c 3b 8b 22 3c 49 5a 30 3c fe 95 03 3c
       0.008845591 0.00992089 0.010763713 0.008031366
000010 57 d0 17 3c 52 86 fd 3b 1b c6 05 3c
       0.009265981 0.0077369595 0.008164908
