epsilon_10/saved_model 4500.pth (torch, 52885 bytes, 4 tensors)

Linear1.weight f4 [256, 42]
000000 0e d9 bb bd e1 c1 04 bb 4a 8a 14 bc 2d ba ff bb
       -0.09172259 -0.0020257162 -0.009066174 -0.0078041763
000010 7f b1 65 bd 12 bb 38 bc e3 e6 c0 bd ec 9e bb bc
       -0.056077477 -0.01127507 -0.09419038 -0.022902928
000020 69 10 60 bd d7 ab a1 3b f0 52 65 bd af a5 29 3c
       -0.05470315 0.004933815 -0.0559873 0.010354443
000030 55 b2 65 3d 59 59 05 3d 03 6c 4b 3d 11 7e 9c bd
       0.056078274 0.03255591 0.049663555 -0.07641233
000040 0b db e7 3c 3f 4b 0c 3a fa ce 9c 3c be f5 87 bc
       0.02830269 0.0005351789 0.019141663 -0.016596671
000050 98 a4 9a bd ca ce dd bd 54 84 f2 bd ef 2f ed bc
       -0.07550925 -0.108304575 -0.11841646 -0.02895352
000060 9b bd 74 3c 50 15 1f 3d b7 6a 62 3d 75 04 ad bd
       0.014937784 0.038838685 0.055277552 -0.08448116
000070 9a ec 7b bc 3f e4 7e bd a4 a1 e0 3d c6 ac af 3c
       -0.015376234 -0.06222939 0.109683305 0.02144469
000080 67 71 a5 bd 5c 32 d1 3d 17 a3 5e bb a6 79 bc bd
       -0.080782704 0.102146834 -0.003397172 -0.0920289
000090 11 da 78 3c 95 a0 8e bb 4c 20 38 bd 64 b1 d1 bd
       0.01518871 -0.004352639 -0.044952676 -0.10238913
0000a0 c1 6d 80 bc 24 ce 09 3d 6c 91 4c bc 5c da e8 3c
       -0.015677335 0.033643857 -0.012485843 0.028424434
0000b0 08 03 50 3d 47 d8 45 3d 88 5d 6b 3d 61 d9 65 3d
       0.05078414 0.04830196 0.057462245 0.05611551
0000c0 67 a9 ff 3c 3f a0 34 3d a5 97 93 3d aa a6 2b 3d
       0.031208707 0.044098135 0.07206658 0.04190699
0000d0 da fd 51 3d ca ec 09 3d 7a b4 0a 3d b6 22 71 3d
       0.051267482 0.033673085 0.033863522 0.058870994
0000e0 df e6 1a 3a 66 73 93 3b 6a 4d 34 3d 50 e4 f4 3c
       0.0005909036 0.0044998406 0.04401914 0.029894024
0000f0 8a f4 70 3c 78 f9 b1 bc 8a 68 05 3d f3 90 47 3c
       0.01470674 -0.021725401 0.0325704 0.012180555
000100 0d ab 12 3d bc 18 ba 3c a3 2c 92 3d a8 72 2d bc
       0.035807658 0.022716872 0.0713742 -0.010586418
000110 5a 66 45 bc 7b 18 13 bd 6e 6c fd 3c 21 55 c0 3d
       -0.012048328 -0.03591202 0.030935492 0.09391237
000120 be b4 c5 3a e7 0a 0f 3d 76 2d 6e 3d 82 fe 8b bb
       0.0015083773 0.034922507 0.058148824 -0.004272283
000130 7b f6 37 bd 75 24 fb 3c 87 63 b0 3d 88 8c 10 bd
       -0.044912796 0.030657033 0.08612733 -0.03529027
000140 85 74 76 3d 11 60 6b 3c 43 e3 8b 3c a5 39 1a 3d
       0.060169715 0.014366166 0.01707614 0.03765263
000150 80 36 7c bb b9 c2 80 bc c2 69 91 bc 5e 50 8d bd
       -0.0038484633 -0.015717851 -0.017750625 -0.069000944
000160 a2 74 79 bd 9c 05 f2 3c 86 24 52 3d 8e ee aa 3d
       -0.060902245 0.02954369 0.051304363 0.08346282
000170 e6 b0 c2 bd 66 b9 b2 3d 8a 65 a0 bb 37 d7 13 3c
       -0.09506397 0.08726768 -0.004894917 0.009023479
000180 af 05 d0 3c 9b 79 cc bd e8 3d 6e 3d 71 c3 64 3c
       0.025393335 -0.09984132 0.058164507 0.0139626125
000190 7e 41 e5 3c 4d 34 b2 b9 d0 74 4b 3d 4d 21 87 3c
       0.02798533 -0.00033989773 0.049671948 0.016495371
0001a0 53 2f 35 3c 7b 21 9c bc 82 f9 14 3e 93 02 9b 3d
       0.011058646 -0.019058933 0.14548305 0.0756885
0001b0 5f a9 3d bd bf db 2b 3d 12 71 99 3d e9 b6 18 bd
       -0.046304103 0.041957613 0.074922696 -0.03728381
0001c0 ad e7 87 3d 74 44 3e be 3e fa 38 be 03 86 c1 3b
       0.066359855 -0.185808 -0.1806421 0.005905868
0001d0 b8 95 86 bd f3 fa 40 3e 9c 30 a4 3d 40 76 9c bc
       -0.06571525 0.1884573 0.08017084 -0.019099355
0001e0 34 f8 2c bc b3 f3 25 bd 74 ac 85 bb 85 1f ab 3d
       -0.010557223 -0.040515613 -0.004079396 0.08355621
0001f0 22 96 a0 bd fc cc 8b 3d 37 3f 7d 3d 09 19 68 bd
       -0.078411356 0.06826207 0.061827864 -0.0566645
000200 e6 12 56 3c 1f 6c ce 3d dc 3d 26 3d 8c 63 fb bc
       0.013066029 0.10079216 0.040586337 -0.030687116
000210 e3 51 ac 3d 93 12 8f 3b fc 69 59 3d fe b2 8f 3d
       0.08414056 0.004366228 0.05307959 0.07016562
000220 c1 22 81 3d a4 82 52 3c 19 03 be 3c eb 83 b7 3b
       0.06305457 0.01284853 0.023194836 0.0056004426
000230 01 92 89 bd 62 3d 5d 3e 1e bf 1d 3d ce 98 61 3c
       -0.06717301 0.21605447 0.03851234 0.013769342
000240 99 0d 1c 3b 90 1c b7 3d 22 4c b3 bd 5a 2a f1 3b
       0.0023811816 0.08940995 -0.087547556 0.007359785
000250 18 63 f4 bd 16 b1 e6 3c 90 e5 a2 3c a9 48 75 3b
       -0.11932963 0.028160613 0.019884855 0.0037427342
000260 bb ba 21 3c 8f 16 7a bd 9a 98 8c 3c c1 15 90 bd
       0.00987118 -0.06105667 0.01716261 -0.07035399
000270 f2 60 a4 bc f7 55 28 bc 02 e4 1d bd ac 7c c6 bc
       -0.020065758 -0.010274402 -0.038547523 -0.02422937
000280 80 a6 af 3d f1 14 c5 3b 6b 74 00 3e 91 78 6e bc
       0.08576679 0.0060144593 0.1254441 -0.014555112
000290 65 62 45 3d cc 10 86 bd d5 a6 54 3d b0 0a 22 bd
       0.04818954 -0.065461725 0.051916916 -0.039560974
0002a0 97 d3 21 3d e3 b1 71 3d 5d 26 32 3c 69 b8 58 bc
       0.03950843 0.059007537 0.010873404 -0.013227561
0002b0 2c 63 18 3d 1c f2 93 bc 2e 3a 0e 3d 57 84 06 bd
       0.037203953 -0.018059783 0.034723453 -0.032841053
0002c0 03 a6 e6 3b 3f dd 8f 3d d8 c0 4f 3d e8 c3 b5 3c
       0.007038833 0.07024621 0.05072102 0.022188142
0002d0 c9 1f 8b 3c 04 e3 b3 3d 33 a5 57 3d fc 50 0f 3e
       0.01698293 0.08783534 0.05264778 0.13995737
0002e0 19 6a 01 3d f2 1e 89 3d 55 4d d2 3d 28 9d 8a 3c
       0.031595323 0.066953555 0.10268656 0.016920641
0002f0 a0 8d c7 3d f1 21 9a 3d cd 61 ad bb 4d 9f d8 bc
       0.0974381 0.07526005 -0.0052912 -0.026443148
000300 19 5e ad bc 24 c1 51 bd 43 6d 8e 3c 34 75 09 3d
       -0.021163033 -0.051209584 0.017386084 0.03355904
000310 89 5c 79 3d ec 27 76 bc ac c9 52 bd 31 82 99 bd
       0.060879264 -0.015024167 -0.05146186 -0.07495535
000320 2f b7 94 3c cb 56 0f 3a f0 ac b2 3d 9d 13 9e bd
       0.018153755 0.000546795 0.087243915 -0.07718585
000330 a8 e2 14 3e 29 6e 72 3d e3 52 9c 3c a9 d3 38 bc
       0.14539587 0.05918709 0.019082492 -0.011280932
000340 a8 9f 24 bc ed 67 89 3d d5 65 b1 3c e8 a3 0e 3d
       -0.010047831 0.067092754 0.021655003 0.034824282
000350 df 8b 1b bd 2c 47 42 bb c6 fb 15 bb 9e 11 00 3c
       -0.03797519 -0.0029644473 -0.0022885664 0.0078167
000360 c1 02 c6 3c df bc 7b 3c 9e b9 b4 3c e5 f8 99 3b
       0.024171235 0.015364855 0.022061165 0.00469886
000370 fb ae 19 bc 87 c2 46 bd 06 15 f9 3b 93 76 98 3c
       -0.0093800975 -0.04852536 0.007601383 0.018611228
000380 b1 98 0c 3c bd b6 d2 3c 8b af 97 3c 68 98 6e 3c
       0.008581326 0.025721902 0.018516323 0.014562704
000390 05 7a 1c 3c 04 86 44 3d 00 7d ca bc 23 ce 3f 3d
       0.009550576 0.04797937 -0.024717808 0.046827447
0003a0 d7 61 26 3d 47 13 51 3c 46 e2 41 3c da 90 e2 3c
       0.04062065 0.012760944 0.011833733 0.027656961
0003b0 b2 a9 0a 3d 33 2d 47 3c 04 a8 9a 3b 28 0f 69 3d
       0.03385324 0.012156772 0.004719736 0.05689922
0003c0 51 3f ae 3b b5 67 67 3d a3 e2 69 3c 49 55 bd 3d
       0.0053176065 0.056495387 0.014275226 0.092447825
0003d0 a2 5f 44 3d 6f f4 41 3d dd 97 56 3d 0d ee 13 bb
       0.047942765 0.04735225 0.05239092 -0.002257231
0003e0 40 e9 4c bc 11 71 bb 3c 7d 2d c1 bb 58 64 8d 3d
       -0.012506783 0.022881063 -0.005895315 0.06903905
0003f0 c9 b0 2a bd 56 18 f2 bc 2a dd 03 3d 10 45 79 3b
       -0.0416725 -0.02955262 0.03219334 0.003803555

Linear1.bias f4 [256]
000000 27 76 18 bf 45 96 dc be 4f 9d 23 bf cb 27 06 bf
       -0.59555286 -0.43083397 -0.6391191 -0.5240447
000010 7c 24 4b bf 09 0c 01 bf 71 a0 1f bf 43 bb 14 bf
       -0.79352546 -0.5040899 -0.6235419 -0.5809824
000020 9b d2 4b bf 61 5b 12 bf 08 a6 e9 be 95 c5 24 bf
       -0.79618233 -0.57170683 -0.45634484 -0.64363986
000030 a2 c0 26 bf 0e 9f f9 be a1 bb 38 bf 75 05 f7 be
       -0.65137684 -0.48754162 -0.721613 -0.4824635
000040 3d 34 3b bf 55 0a 27 bf b3 80 f3 be a4 3d 06 bf
       -0.73126584 -0.6525014 -0.47559127 -0.52437806
000050 a9 bd 22 bf 78 71 08 bf 7a 0f fd be 0d e4 ee be
       -0.6357065 -0.5329814 -0.4942587 -0.46658364
000060 a8 2f 1e bf 1f c6 0c bf 93 cc e0 be 89 7d 16 bf
       -0.6179147 -0.5498981 -0.43906078 -0.587853
000070 94 78 3c bf aa 6f 0c bf 21 e9 ef be db d5 21 bf
       -0.7362149 -0.54857886 -0.4685755 -0.6321694
000080 5d 8e 1a bf 00 c6 f7 be 5d d3 fc be b4 82 f5 be
       -0.6037348 -0.4839325 -0.49380007 -0.4795128
000090 79 2e fb be c6 34 0d bf b8 60 06 bf 09 95 ea be
       -0.49058893 -0.5515865 -0.5249133 -0.4581683
0000a0 0f b0 0b bf 05 e7 0f bf 0c f2 09 bf 6e fe ff be
       -0.5456552 -0.5621188 -0.5388496 -0.49998802
0000b0 52 8b 25 bf 1e be 1b bf 7c 9f f0 be 58 cb 0d bf
       -0.6466571 -0.6083697 -0.46996677 -0.553884
0000c0 c1 88 21 bf fa d1 ea be 74 4d 38 bf 56 66 17 bf
       -0.63099295 -0.45863324 -0.71993184 -0.5914053
0000d0 13 2a 01 bf 13 57 16 bf 03 12 25 bf f6 e5 04 bf
       -0.50454825 -0.58726615 -0.6448061 -0.5191339
0000e0 34 b4 fc be ad d2 0d bf 29 5a 2d bf cb fd 12 bf
       -0.49356234 -0.5539959 -0.677157 -0.5741851
0000f0 7d c1 2c bf d5 1d 01 bf 67 8a 12 bf 43 f0 0e bf
       -0.6748274 -0.50436145 -0.57242435 -0.5583536
000100 ad 95 1c bf ca 4f 01 bf 9a ee 3e bf c3 c4 32 bf
       -0.6116589 -0.50512373 -0.7458283 -0.69831485
000110 1c 9e e0 be 94 07 2b bf 32 58 10 bf 82 fe eb be
       -0.43870628 -0.6680844 -0.56384575 -0.46092612
000120 bb 9b ea be cb 4e 32 bf aa a5 38 bf 78 17 22 bf
       -0.45821938 -0.6965148 -0.72127783 -0.6331706
000130 8d da 11 bf 99 06 21 bf ee cd 10 bf 0d 3b 15 bf
       -0.5697411 -0.6290069 -0.56564224 -0.5829323
000140 38 5d 0a bf bf e0 11 bf 8d 3a 05 bf a9 e4 27 bf
       -0.5404849 -0.5698356 -0.52042466 -0.6558328
000150 44 a4 0c bf d4 1b 31 bf ff c6 de be 76 bc 0d bf
       -0.5493815 -0.6918309 -0.43511197 -0.55365694
000160 63 40 d9 be 6f c8 4f bf a3 86 e9 be 23 4f f1 be
       -0.42431936 -0.8116521 -0.45610532 -0.4713069
000170 1b c8 3c bf 23 ea d3 be 9b e6 f8 be ae ab 0f bf
       -0.73742837 -0.4138957 -0.48613438 -0.5612134
000180 ea 98 1e bf b2 3c 0e bf 2d 96 0d bf 17 6b 26 bf
       -0.6195208 -0.55561364 -0.55307275 -0.65007156
000190 be bd 55 bf bb b7 22 bf e3 c9 0a bf c3 17 2b bf
       -0.8349265 -0.635616 -0.54214305 -0.6683313
0001a0 71 52 0a bf ef 64 31 bf c1 f8 33 bf 96 3c 11 bf
       -0.54032046 -0.6929464 -0.70301443 -0.5673307
0001b0 9c 08 fa be eb 2d 3b bf e3 7e 19 bf f6 c2 12 bf
       -0.48834693 -0.7311694 -0.5995924 -0.57328737
0001c0 e8 70 fe be 0d a8 05 bf a1 f5 30 bf 94 7b 45 bf
       -0.49695516 -0.5220955 -0.691248 -0.7714169
0001d0 5b 20 2c bf d9 5f f6 be 3b be 18 bf 91 d3 09 bf
       -0.6723687 -0.4812 -0.5966527 -0.5383845
0001e0 62 30 f9 be ce 57 1a bf 96 1b 1f bf 3c ea 06 bf
       -0.48669726 -0.6029023 -0.6215147 -0.52701163
0001f0 16 37 05 bf 5b fd fc be 72 4d 14 bf 37 d1 0c bf
       -0.5203718 -0.49412045 -0.5793067 -0.55006737
000200 7b da 21 bf b6 9c 16 bf 00 14 15 bf 51 65 06 bf
       -0.63224 -0.5883287 -0.5823364 -0.52498347
000210 25 0a 06 bf 00 44 e6 be e8 a4 e8 be e5 1d f0 be
       -0.5235923 -0.44973755 -0.45438313 -0.46897808
000220 76 32 0c bf 6d c6 f5 be b2 46 22 bf bf 74 1a bf
       -0.547645 -0.4800295 -0.6338912 -0.6033439
000230 96 3c f5 be bf e3 fd be 5d ea 06 bf 4c a8 15 bf
       -0.47897786 -0.4958782 -0.5270136 -0.58459926
000240 e8 ab 2d bf 49 55 17 bf a2 74 f3 be 7c 43 0b bf
       -0.67840433 -0.5911451 -0.4754992 -0.5439985
000250 32 9f d8 be 62 3e c7 be 22 61 01 bf a9 da 34 bf
       -0.42308956 -0.38914782 -0.5053884 -0.7064615
000260 30 71 35 bf e8 30 41 bf 0d cc 05 bf 60 04 15 bf
       -0.70875835 -0.7546525 -0.5226448 -0.582098
000270 91 b9 22 bf ca e6 12 bf 8f a0 51 bf 5e dd 29 bf
       -0.635644 -0.57383406 -0.8188562 -0.66353405
000280 56 cf 07 bf c6 29 13 bf 16 8f 2d bf 01 5b 1a bf
       -0.53050745 -0.57485616 -0.67796457 -0.6029511
000290 7f 6a 08 bf 8a 37 02 bf 76 24 1b bf 08 6d 1a bf
       -0.532875 -0.50865996 -0.6060251 -0.6032262
0002a0 f8 36 1c bf f9 00 24 bf c0 97 1d bf 97 7a 00 bf
       -0.61021376 -0.64063984 -0.6155968 -0.5018706
0002b0 52 98 13 bf 83 04 0b bf 8a 88 12 bf e2 86 16 bf
       -0.576543 -0.5430376 -0.5723959 -0.58799565
0002c0 a0 8f 1d bf f1 90 06 bf 84 22 28 bf 75 0b 34 bf
       -0.6154728 -0.52564913 -0.65677667 -0.7032998
0002d0 9d df 0c bf d1 73 02 bf 66 77 03 bf ba 66 07 bf
       -0.55028707 -0.5095797 -0.5135406 -0.52891123
0002e0 c6 9b 19 bf 21 a7 10 bf 02 bd 26 bf b3 67 e5 be
       -0.60003316 -0.5650502 -0.65132153 -0.4480568
0002f0 35 78 23 bf 71 22 f5 be ca de 08 bf c6 38 11 bf
       -0.63855296 -0.4787784 -0.5346495 -0.56727254
000300 80 9a 07 bf e8 6e 1d bf 36 4d 28 bf e9 92 04 bf
       -0.52970123 -0.61497355 -0.65742815 -0.5178667
000310 da 68 1e bf 3f 24 08 bf eb 01 27 bf 14 26 2d bf
       -0.6187874 -0.5318031 -0.652373 -0.6763623
000320 41 23 f3 be 2c bb 3c bf 6b 24 07 bf 5b 03 2a bf
       -0.47487834 -0.737231 -0.52789944 -0.6641137
000330 18 53 04 bf 70 43 21 bf d3 8b e1 be 8e 4b 00 bf
       -0.5168929 -0.62993526 -0.4405199 -0.5011529
000340 76 cd e8 be 4b 50 1a bf d4 1d 15 bf 97 c3 16 bf
       -0.45469254 -0.6027877 -0.5824864 -0.58892196
000350 6a 7d 2d bf 3b be 24 bf 8f b8 dd be 4e e0 50 bf
       -0.6776949 -0.6435277 -0.4330487 -0.8159226
000360 82 38 f7 be e8 05 2b bf e4 26 16 bf 3a e1 07 bf
       -0.482853 -0.6680589 -0.5865309 -0.53078043
000370 35 48 0e bf 69 32 fa be e8 e8 e5 be 13 9e 33 bf
       -0.5557893 -0.48866585 -0.44904256 -0.7016308
000380 12 0f 20 bf 9b cb 09 bf 20 6f e4 be ec 25 13 bf
       -0.62522995 -0.538263 -0.44616032 -0.5747974
000390 14 70 02 bf 5d 15 09 bf e8 df 19 bf 93 e7 20 bf
       -0.5095227 -0.5354822 -0.6010728 -0.62853354
0003a0 99 9b fd be 52 8f 48 bf c8 61 fd be 07 4f 0a bf
       -0.49532774 -0.7834369 -0.49488664 -0.54026836
0003b0 d3 83 1e bf 20 b6 14 bf 33 f1 e9 be f2 ef db be
       -0.619199 -0.580904 -0.45691833 -0.429565
0003c0 20 a7 f0 be 86 f9 0d bf 91 99 45 bf 96 6d e0 be
       -0.47002506 -0.5545887 -0.7718745 -0.43833607
0003d0 6a 3a 17 bf 12 c6 40 bf 4b 07 d9 be 13 3d 0b bf
       -0.5907351 -0.7530223 -0.42388377 -0.54390067
0003e0 85 6c eb be f3 af 10 bf 48 ef 15 bf f7 cc 36 bf
       -0.4598123 -0.5651848 -0.5856824 -0.714065
0003f0 54 89 01 bf ef d2 0c bf 9f 9d 01 bf d6 ee ff be
       -0.5060017 -0.5500936 -0.50631136 -0.49986905

Linear2.weight f4 [7, 256]
000000 85 3e 5a 3d 41 ff 47 3b 03 bb 4e 3c 4a 8f 95 bd
       0.05328228 0.0030517133 0.012617829 -0.07302721
000010 ab e5 04 bd 52 63 82 bc f6 e4 3d bd f6 31 e0 bd
       -0.03244559 -0.0159165 -0.046360932 -0.10947029
000020 f3 ea 81 bd 67 e5 13 3d 8c 20 25 be 06 08 96 3c
       -0.06343641 0.036107447 -0.16125697 0.018314373
000030 91 b0 3c bb 3a e1 4c bc a1 fd 9d bd da 8b c4 ba
       -0.0028791765 -0.01250487 -0.077143915 -0.0014995292
000040 c9 d3 8b 3d fa 88 c2 39 c4 19 42 be 78 fc 96 3b
       0.06827504 0.0003710462 -0.18955141 0.0046077333
000050 a7 3f ed bc 73 5e 19 bd 65 9c 9c 3d 86 86 27 be
       -0.028961016 -0.03744359 0.076470174 -0.1635991
000060 7f 5c 45 bd e2 0b d3 bd 37 97 04 bd 49 6e 61 bd
       -0.048183914 -0.10305001 -0.032370772 -0.055036817
000070 26 35 00 be 8d 94 9e 3d 28 af 64 3c 3e b5 c8 bd
       -0.12520275 0.077431776 0.013957776 -0.09800194
000080 19 68 92 bd 51 f4 d7 3c 74 c8 b9 3c fb a2 98 be
       -0.07148761 0.026361616 0.022678591 -0.29811844
000090 a4 cf 77 bd 0d bb 9c bd 34 a3 74 3d 5c 5b 9a bd
       -0.060500756 -0.076528646 0.059725955 -0.07536957
0000a0 8e cc 0c 3d eb 41 a0 bd 28 39 89 bc e9 d7 83 be
       0.034374766 -0.07825073 -0.016750887 -0.25750664
0000b0 20 07 38 be ce 2a 09 ba 75 a5 b1 bc db cb b4 bd
       -0.17971468 -0.00052325136 -0.021685341 -0.08827945
0000c0 f8 14 2d bd ca 1f 7a 3c 47 31 6d bd 58 16 0f 3b
       -0.042256325 0.015266368 -0.057908323 0.0021833386
0000d0 86 73 ae bc 51 a7 9b bc 0a db 8a 3b ef 60 14 3d
       -0.02129532 -0.019000681 0.0042375373 0.036225256
0000e0 c0 78 c0 bc 2f 7a eb bd 77 57 0a be 91 d9 43 3c
       -0.023495078 -0.11497914 -0.13509928 0.011953727
0000f0 c7 06 0e bc 24 6c 47 bd e9 b3 e9 3d e6 0b fd bc
       -0.008668608 -0.048687115 0.11411268 -0.030889463
000100 67 ec 21 be eb 64 a3 3d 98 32 46 3d 2d dd 08 bd
       -0.15812837 0.07978233 0.048388094 -0.033414055
000110 16 fa 7a bd f7 b5 db 3c d3 d9 77 bc 03 89 f8 bc
       -0.061273657 0.026820166 -0.015127617 -0.03033877
000120 47 8a fe bd f6 a2 af 3d 3c dd a3 3c 25 35 87 3c
       -0.12428718 0.08576004 0.020002954 0.016504833
000130 34 69 d3 bc d0 ae b5 bd 92 0b 3c bc 0b bc 3e bc
       -0.025807 -0.088712335 -0.011477368 -0.011641513
000140 43 7c 0f bc 51 93 90 bc 70 40 7b bc fb bf ae 3d
       -0.008757654 -0.017648371 -0.015335187 0.08532711
000150 ea 6d ac bb 34 0e 65 bc 74 66 3a be bd 51 0b bd
       -0.005262126 -0.013980437 -0.18203145 -0.0340135
000160 34 8a 0f bd 4c 34 02 3e 59 67 99 3b 7f cd c5 bc
       -0.03504391 0.12715262 0.0046815095 -0.02414584
000170 bb 0d 84 3d 47 d0 52 bc bf 6b fe bd db 42 49 bd
       0.064479314 -0.01286704 -0.12422895 -0.049136024
000180 93 ed a8 3d 2c c4 27 3d a6 0a f1 bd 96 cb 30 bd
       0.08248439 0.04095857 -0.11769609 -0.043162905
000190 7f 11 4d 3d 41 86 34 bd 5e bb 22 bd 58 c4 76 bd
       0.050065514 -0.044073347 -0.03972947 -0.06024584
0001a0 05 d4 b7 bc 87 1c b3 bd 8c 77 83 bd f4 ca b3 3b
       -0.022439966 -0.087456755 -0.06419286 0.0054868404
0001b0 2b d6 f4 3d 7e ae de bd 38 5a c1 3b 78 c6 1c be
       0.11954912 -0.108731255 0.0059006475 -0.15310085
0001c0 ab 3c 01 3c 60 61 15 bc 16 3b 47 bc 16 ea 1e bd
       0.0078879995 -0.009117454 -0.012160083 -0.03879746
0001d0 d4 64 c5 3d 5c c3 2a be df e6 c8 bd a9 7a f7 bc
       0.09638372 -0.16676086 -0.0980966 -0.030209856
0001e0 d4 c3 6e be 72 5a 88 bd bc ee b0 bb 16 aa 8f bd
       -0.2331689 -0.06657876 -0.005399553 -0.07014863
0001f0 7b 16 5d 3c 45 66 d4 3d 44 55 70 bd a5 ce 3c bd
       0.013494129 0.10371069 -0.058675066 -0.04609551
000200 7e 84 3b 3c 65 fd 21 bc 85 e4 4b be c5 63 d0 3b
       0.011445163 -0.009887074 -0.19911392 0.0063595497
000210 ab 4f 8a 3c 5a 94 7a bd b0 83 02 be fc 7d 8f bd
       0.016883692 -0.061176635 -0.12745547 -0.070064515
000220 2d 49 d0 bd 7a ec 50 bd ec bd ca 3c 36 dd 82 3d
       -0.10170207 -0.05100677 0.024748765 0.06389849
000230 28 10 40 3d eb 6b 8f 3c ac 58 92 bd bb ca ea bb
       0.046890408 0.017507514 -0.07145819 -0.0071652806
000240 90 59 e8 bd 82 16 28 be 86 08 0d 3b a6 e9 91 bd
       -0.11345208 -0.16414836 0.0021519973 -0.07124643
000250 c4 5b 16 be f2 49 05 be 37 7e 86 bd a7 a7 2f bd
       -0.14683443 -0.13016489 -0.06567042 -0.042884495
000260 ce 76 4b 3c 4b b6 c7 bd 22 ee cd bc a4 36 28 3d
       0.012418462 -0.097515665 -0.025137965 0.041067734
000270 8f 14 c2 3c a9 c1 8e bc 31 51 ea bd fa 71 85 3d
       0.023691444 -0.017426329 -0.11441267 0.0651588
000280 d1 30 14 be 0e d3 9e 3a 06 7f 8c bb a5 83 03 bb
       -0.14471747 0.0012117343 -0.0042876033 -0.002006748
000290 6c e8 fc bb b0 ac 8c 3d a3 f9 28 bc 32 b9 a4 3c
       -0.0077181365 0.06868875 -0.010313424 0.02010784
0002a0 ff 26 44 be c2 f7 f7 3c 9d c5 63 bc a6 d0 db bc
       -0.19155501 0.030269507 -0.013902095 -0.02683289
0002b0 40 26 db ba 5c 57 a1 bd ae 68 be 3d 37 1c 3a bd
       -0.0016719773 -0.078779906 0.0929731 -0.045437064
0002c0 37 8f 02 3e 90 1f 32 bd 96 51 c1 3d e4 ea 06 bd
       0.12749945 -0.04348713 0.094393894 -0.032938853
0002d0 d0 03 e3 bc ff 8a 84 bd e9 d8 b7 bd 30 69 02 be
       -0.027711779 -0.06471824 -0.08976919 -0.12735438
0002e0 cc 61 c5 bd 97 dc b7 bd 8b 0a 3a bd 17 69 94 bd
       -0.09637794 -0.08977621 -0.04542021 -0.07246607
0002f0 f2 8f 1c b9 55 bb c5 bc b5 14 26 3d 88 8b fc 3d
       -0.00014930943 -0.024137178 0.04054709 0.12331301
000300 64 73 76 bd a9 5e fc bc 83 18 59 bc 16 78 8b bb
       -0.06016864 -0.030806856 -0.013250473 -0.0042562587
000310 17 64 8a bc f7 7f 5e 3d f5 ff c0 bc d3 6e 67 bc
       -0.01689343 0.054321256 -0.02355955 -0.014125544
000320 f1 73 25 3d d2 27 3b 3d 01 f2 b6 3d bb 37 7f bd
       0.040393773 0.045692272 0.08932877 -0.062309008
000330 7c 62 96 3d 0b dd 34 bd 27 9c d8 bc d2 ef 00 be
       0.07343003 -0.044156116 -0.026441647 -0.12591484
000340 6d 01 b7 bd da ba b1 bc 2c 1b bb bc 53 fd 40 3c
       -0.08935819 -0.021695543 -0.022840105 0.011779147
000350 33 e3 85 bb 4d 4c d3 3c 2d 4e f6 3c 64 04 1d be
       -0.004085922 0.025793219 0.030066574 -0.15333706
000360 89 3c f9 bd 87 88 01 3b 66 83 2a 3e 86 28 5d bd
       -0.12169749 0.0019765215 0.16651687 -0.053993724
000370 bd 51 32 ba be 71 fb bd 0f f2 6b bc 32 3a ae bb
       -0.0006802341 -0.12277554 -0.014400973 -0.005316996
000380 4f 03 9b 3d 06 c0 3b bc ec 38 50 3d cb 96 2a bc
       0.075689904 -0.011459356 0.050835535 -0.010411928
000390 c8 d8 1c bd 3e d6 c3 bb 4f a0 49 3c 64 8a e7 3c
       -0.038292676 -0.0059764674 0.012306287 0.028264232
0003a0 80 8f 9c bc ba 36 cd 3c 90 5a 47 bc 6b 8e b5 bd
       -0.019111395 0.02505051 -0.012167588 -0.08865055
0003b0 c1 0c 00 3e f0 23 56 be f4 13 db bd 08 03 de bc
       0.12504865 -0.20912147 -0.10697165 -0.027101055
0003c0 2b 7f 01 be df 7a bb 3b d1 16 1f be 7e 12 f4 bc
       -0.12646167 0.0057214345 -0.15536048 -0.029793974
0003d0 9a e9 b2 bd 40 67 96 3d ac a1 0b bd 12 e4 99 3d
       -0.08735962 0.07343912 -0.03408973 0.07514204
0003e0 0d 42 19 be 38 11 3b 3d 03 59 05 bd b2 0c f1 3d
       -0.14966603 0.045670718 -0.03255559 0.117699996
0003f0 92 38 94 bb d5 92 86 bd d7 dc 12 3d e4 04 df bc
       -0.0045233453 -0.06570975 0.03585514 -0.027224012

Linear2.bias f4 [7]
000000 a7 f5 26 3c 30 6d 1c 3c 44 93 18 3c e4 26 21 3c
       0.010190404 0.009547517 0.009312455 0.009835932
000010 59 bd 13 3c 04 21 1e 3c 57 7f 16 3c
       0.009017312 0.009651426 0.009185634
