epsilon_10/saved_model 10500.pth (torch, 52891 bytes, 4 tensors)

Linear1.weight f4 [256, 42]
-0.05376817 -0.0133288065 -0.039925054 -0.0069247866 -0.045055922 0.020907179 -0.040165037 0.031373855
0.0143589545 0.037822157 -0.06640066 -0.055642176 0.045869816 -0.028234255 0.023074796 -0.0885859
0.03970499 -0.045495845 -0.0022455961 0.016074892 -0.023657955 -0.02624739 -0.047324974 -0.0039287847
0.047987062 -0.005806239 0.030101648 -0.028685072 -0.003430503 -0.0367156 0.10980788 -0.011313064
-0.073452875 0.06003489 -0.091522835 -0.028304119 0.018880224 0.011429902 0.0123392735 -0.093544245
-0.021698605 0.039729502 0.023837712 0.051266693 0.03259415 0.012047084 0.0012023337 0.033751115
0.008844337 0.0036001331 0.03581132 0.014284205 0.05588721 0.03104619 0.06088629 0.033077817
0.03691445 0.093832485 0.06915992 0.060215 -0.015214699 0.018710366 0.031882383 0.034544915
0.009343872 -0.0024238955 0.041252967 0.02153818 0.0062038493 -0.0052618813 0.008571115 0.009828883
0.028238308 0.06504371 0.0627944 -0.0312951 -0.016729975 0.053021386 0.061493836 -0.013150469
0.02565022 0.00972059 0.01783037 0.005099933 -0.07731868 0.012136419 0.057600006 -0.02922253
0.013302166 0.0047692256 0.08099146 0.0128063215 -0.05191739 0.069570795 0.040769044 0.0039539644
-0.003791437 -0.14137645 0.060008924 0.03227351 -0.023014724 -0.10843304 0.105141155 0.0937396
-0.007955773 0.10582027 0.10360366 0.04086176 -0.09708258 0.028282538 0.04114362 0.0032290951
0.005236074 -0.075302005 0.0059154197 0.08042326 0.058546867 -0.085555844 -0.015319596 0.12380411
0.013825395 -0.11664816 -0.34090883 0.14215639 0.04414733 -0.008340617 -0.037042014 0.0055771223
0.1678103 0.03700747 0.057005536 -0.042727727 0.055663493 0.014135447 0.007409182 0.20628087
-0.031983655 -0.054654695 0.024138397 -0.012297876 0.13636628 0.075613216 0.021773776 -0.14042042
0.11319891 -0.052580923 0.052110184 0.13188118 -0.0012036891 0.065379076 0.12879664 -0.088641524
0.0389891 -0.03325453 -0.09660493 0.0020228776 0.024961239 -0.01631327 -0.04041292 -0.055069152
-0.015390494 0.17061682 0.08075881 0.07245313 -0.03497379 -0.02783448 0.10752531 0.056027878
0.058561675 0.02948719 0.052995667 0.03672226 -0.0015480962 0.009062483 -0.0025340754 -0.052872032
0.03987381 0.0420133 0.087593116 0.06054075 0.013900338 0.044237543 0.07267821 0.1019084
0.037146475 0.073041074 0.0596838 0.020004028 0.05465214 0.055770252 -0.029402733 -0.030679476
-0.03546469 -0.008206265 0.015313463 0.04968549 0.018816784 -0.009030521 -0.007528996 -0.03035128
-0.016673986 0.0035981974 0.07111002 -0.034141786 0.1528255 0.079820365 0.07869445 0.019700939
-0.01111623 -0.0024064109 0.021655003 0.034824282 -0.03797519 -0.0029644473 -0.0022885664 0.0078167
0.024171235 0.015364855 0.022061165 0.00469886 -0.0093800975 -0.04852536 0.007601383 0.018611228
0.008581326 0.025721902 0.018516323 0.014562704 0.009550576 0.04797937 -0.024717808 0.046827447
0.04062065 0.012760944 0.011833733 0.027656961 0.03385324 0.012156772 0.004719736 0.05689922
0.0053176065 0.056495387 0.014275226 0.092447825 0.047942765 0.04735225 0.05239092 -0.002257231
-0.012506783 0.022881063 -0.005895315 0.06903905 -0.0416725 -0.029552458 0.03219352 0.0038037205
00000000: 033c 5cbd 1161 5abc 7488 23bd 52e9 e2bb
00000010: 8f8c 38bd 8845 ab3c 1884 24bd df81 003d
00000020: d241 6b3c 68eb 1a3d 12fd 87bd 0de9 63bd
00000030: fde1 3b3d 864b e7bc 5b07 bd3c 866c b5bd
00000040: b3a1 223d da59 3abd da2a 13bb 7eaf 833c
00000050: 54ce c1bc c404 d7bc d5d7 41bd 09bd 80bb
00000060: 158e 443d 4342 bebb bb97 f63c f5fc eabc
00000070: 4ad2 60bb 1963 16bd f4e2 e03d 6e5a 39bc
00000080: 766e 96bd 25e7 753d 5370 bbbd 0ade e7bc
00000090: b3aa 9a3c 7c44 3b3c aa2a 4a3c 2094 bfbd
000000a0: 46c1 b1bc 67bb 223d 4e47 c33c 06fd 513d
000000b0: 7281 053d 2261 453c a097 9d3a 9c3e 0a3d
000000c0: d7e7 103c 36f0 6b3b e4ae 123d 4c08 6a3c
000000d0: fde9 643d 9454 fe3c e763 793d 9b7c 073d
000000e0: 9b33 173d 3f2b c03d b7a3 8d3d 01a4 763d
000000f0: 1347 79bc 7b46 993c 1a97 023d f87e 0d3d
00000100: 0a17 193c 38da 1ebb dff8 283d d670 b03c
00000110: a949 cb3b dc6b acbb dd6d 0c3c 5309 213c
00000120: 0654 e73c a335 853d 5a9a 803d 4a2f 00bd
00000130: 4d0d 89bc f42c 593d f6e0 7b3d 1175 57bc
00000140: 6920 d23c 1c43 1f3c ff10 923c 571d a73b
00000150: 4259 9ebd d5d7 463c fced 6b3d 1664 efbc
00000160: 54f1 593c 2a47 9c3b dade a53d 9bd1 513c
00000170: 54a7 54bd 227b 8e3d 71fd 263d 4290 813b
00000180: c279 78bb fdc4 10be ebcb 753d 3a31 043d
00000190: 6089 bcbc 2412 debd 3f54 d73d 8cfa bf3d
000001a0: ee58 02bc 4cb8 d83d 282e d43d a95e 273d
000001b0: 3bd3 c6bd c8b0 e73c 3686 283d 3a9f 533b
000001c0: 5f93 ab3b f037 9abd 23d6 c13b f3b4 a43d
000001d0: d7ce 6f3d e737 afbd 0bff 7abc 028d fd3d
000001e0: e983 623c 3be5 eebd 9a8b aebe 7291 113e
000001f0: d5d3 343d 15a7 08bc 5eb9 17bd 4bc0 b63b
00000200: 77d6 2b3e 2595 173d a37e 693d 4503 2fbd
00000210: 67ff 633d 5d98 673c b9c8 f23b 4b3b 533e
00000220: 4b01 03bd 9add 5fbd e3bd c53c 087d 49bc
00000230: 9aa3 0b3e 1adb 9a3d eb5e b23c 5fca 0fbe
00000240: d5d4 e73d 185f 57bd 7d71 553d dc0b 073e
00000250: 1bc5 9dba 77e5 853d 44e3 033e b089 b5bd
00000260: 09b3 1f3d e735 08bd ced8 c5bd 4192 043b
00000270: 837b cc3c 68a3 85bc 0588 25bd 3190 61bd
00000280: 6928 7cbc 2db6 2e3e e064 a53d 4e62 943d
00000290: ad40 0fbd 2305 e4bc 3b36 dc3d 7d7d 653d
000002a0: 5ede 6f3d 1f8f f13c fc11 593d 156a 163d
000002b0: 7de9 caba cf7a 143c bb12 26bb 5890 58bd
000002c0: b852 233d 2316 2c3d 0564 b33d 94f9 773d
000002d0: 3ebe 633c 6d32 353d 50d8 943d 5ab5 d03d
000002e0: e726 183d 8f96 953d 0077 743d 7ddf a33c
000002f0: ecda 5f3d 596f 643d 00de f0bc 8653 fbbc
00000300: 6c43 11bd 9273 06bc 52e5 7a3c 0383 4b3d
00000310: a825 9a3c c0f4 13bc ccb5 f6bb 3fa3 f8bc
00000320: e297 88bc bccf 6b3b 21a2 913d 42d8 0bbd
00000330: 4a7e 1c3e dc78 a33d 8e2a a13d dd63 a13c
00000340: d920 36bc e0b4 1dbb d565 b13c e8a3 0e3d
00000350: df8b 1bbd 2c47 42bb c6fb 15bb 9e11 003c
00000360: c102 c63c dfbc 7b3c 9eb9 b43c e5f8 993b
00000370: fbae 19bc 87c2 46bd 0615 f93b 9376 983c
00000380: b198 0c3c bdb6 d23c 8baf 973c 6898 6e3c
00000390: 057a 1c3c 0486 443d 007d cabc 23ce 3f3d
000003a0: d761 263d 4713 513c 46e2 413c da90 e23c
000003b0: b2a9 0a3d 332d 473c 04a8 9a3b 280f 693d
000003c0: 513f ae3b b567 673d a3e2 693c 4955 bd3d
000003d0: a25f 443d 6ff4 413d dd97 563d 0dee 13bb
000003e0: 40e9 4cbc 1171 bb3c 7d2d c1bb 5864 8d3d
000003f0: c9b0 2abd ff17 f2bc 5add 033d d747 793b

Linear1.bias f4 [256]
-0.6927559 -0.51259583 -0.8137802 -0.8335975 -0.83652705 -0.5040899 -0.6235419 -0.8281093
-0.83569324 -0.9781518 -0.6923222 -0.70612365 -0.8026481 -0.48754162 -0.80344135 -0.6948893
-1.2059928 -0.7791034 -1.0099921 -0.6793538 -1.042099 -0.69694865 -0.77623385 -0.93706197
-0.7176683 -0.7694092 -0.8320363 -0.9746079 -1.1857152 -0.8969241 -0.6244451 -0.6321694
-0.7991174 -0.6209249 -0.6810904 -0.86731434 -0.97338706 -0.71728 -0.86755526 -0.9986274
-0.55022335 -0.8644955 -0.5641969 -0.71466213 -0.8449866 -0.6878702 -0.7048048 -0.70690274
-0.792488 -0.858031 -0.74779433 -0.7957302 -0.7891804 -0.81187224 -0.85760033 -0.79885924
-0.7619596 -0.7274388 -0.8051606 -0.8063245 -0.6748274 -0.74743706 -0.6992639 -0.5583536
-0.8211536 -0.9237766 -0.913722 -0.9493246 -0.6912185 -0.7874363 -0.7687823 -0.8133227
-0.6252456 -1.082748 -0.7833528 -0.65919673 -0.64122975 -0.8551856 -0.892926 -1.0087222
-0.75688887 -0.782847 -0.7610626 -0.92503446 -0.60895693 -0.87535423 -0.8031239 -0.76042
-0.6106674 -0.8118552 -0.70264125 -0.6953723 -0.98147404 -0.7833152 -0.8004966 -0.69154495
-0.90321606 -0.8419053 -0.7182542 -0.7283032 -0.86666524 -0.8102218 -0.65676004 -0.70769036
-0.7358344 -0.6929464 -0.79677755 -0.6014176 -0.8329691 -0.9439902 -0.6645256 -0.6634255
-0.71163255 -0.7602413 -0.8783053 -0.8492542 -0.9019557 -0.7069654 -0.9352737 -0.8036115
-0.637026 -0.7246957 -0.9273195 -0.880828 -0.6713646 -0.6993726 -0.78633976 -0.74212044
-0.63224 -0.5931983 -0.8164005 -1.1277039 -0.59364593 -0.67088616 -0.7049698 -0.791335
-0.74837947 -0.9573381 -0.9717193 -0.8754567 -0.7797149 -0.7954566 -0.6606648 -0.8552828
-0.9337144 -0.64746046 -0.6252382 -0.81018025 -0.5880334 -0.684215 -0.8187671 -1.2211457
-0.73182213 -1.1147581 -0.55973345 -0.7723178 -0.8638644 -0.6028606 -1.1644585 -0.6985576
-0.7261216 -0.9430939 -0.6820615 -0.7524969 -0.58732957 -0.71449184 -0.7406267 -0.86744976
-0.68262243 -0.71002364 -0.8002648 -0.7753848 -0.98836476 -0.72910833 -0.68379945 -0.9632411
-0.9807631 -0.78556836 -0.8036701 -1.0107224 -0.937536 -1.055122 -0.75693554 -0.83111185
-1.0489854 -0.8029043 -0.7017704 -0.4480568 -0.75808954 -0.9863374 -0.90997916 -0.743797
-0.82492715 -0.7559233 -0.88078433 -0.5485205 -0.71664035 -0.8251835 -0.7684072 -0.99633676
-0.90210855 -1.1141661 -0.7583964 -0.7246207 -0.5680203 -0.84104925 -0.7914979 -0.7461291
-0.87090737 -0.78412366 -0.78825843 -0.8034955 -0.7885664 -0.8828968 -0.7977816 -1.0028477
-0.7226844 -0.817845 -0.82271993 -0.68732625 -0.8516268 -0.7051152 -0.74468774 -0.7016308
-0.8333863 -0.72402376 -0.7859476 -0.7339833 -0.91359705 -0.8018098 -0.8764052 -0.94693434
-0.5714568 -1.0717932 -0.64276737 -0.76333284 -0.7471304 -0.76465124 -0.68979096 -0.6279337
-0.8173613 -0.7972042 -0.9547177 -0.7002507 -0.6690792 -0.92674947 -0.6723928 -0.8776034
-0.62045807 -0.8265971 -1.0463076 -1.0145785 -0.7747121 -0.8780247 -0.7893497 -0.67785454
00000000: 7358 31bf 7b39 03bf e653 50bf a566 55bf
00000010: a326 56bf 090c 01bf 71a0 1fbf f9fe 53bf
00000020: feef 55bf 2868 7abf 073c 31bf 85c4 34bf
00000030: 597a 4dbf 0e9f f9be 55ae 4dbf 44e4 31bf
00000040: f95d 9abf 5273 47bf 6c47 81bf 21ea 2dbf
00000050: 8063 85bf 3a6b 32bf 43b7 46bf 4be3 6fbf
00000060: 1cb9 37bf 00f8 44bf 5500 55bf e77f 79bf
00000070: 84c5 97bf d19c 65bf a2db 1fbf dbd5 21bf
00000080: f592 4cbf eff4 1ebf f15b 2ebf 5008 5ebf
00000090: e52f 79bf a99f 37bf 1a18 5ebf 0ca6 7fbf
000000a0: 70db 0cbf 944f 5dbf 356f 10bf 19f4 36bf
000000b0: 0b51 58bf 4318 30bf 166e 34bf 94f7 34bf
000000c0: 7ee0 4abf eba7 5bbf 736f 3fbf f9b4 4bbf
000000d0: ba07 4abf dcd6 4fbf b28b 5bbf 0a82 4cbf
000000e0: c90f 43bf 6e39 3abf 011f 4ebf 486b 4ebf
000000f0: 7dc1 2cbf 0958 3fbf f502 33bf 43f0 0ebf
00000100: 1f37 52bf a07c 6cbf afe9 69bf f006 73bf
00000110: b2f3 30bf 6d95 49bf ebce 44bf eb35 50bf
00000120: 1810 20bf 7d97 8abf cf89 48bf 1ec1 28bf
00000130: a227 24bf 72ed 5abf cc96 64bf cf1d 81bf
00000140: 78c3 41bf a968 48bf 00d5 42bf 0fcf 6cbf
00000150: 9ae4 1bbf 3717 60bf 8799 4dbf e3aa 42bf
00000160: b354 1cbf bed5 4fbf 4ce0 33bf eb03 32bf
00000170: e241 7bbf 5887 48bf 58ed 4cbf 1709 31bf
00000180: 2b39 67bf 1b87 57bf 82df 37bf 1472 3abf
00000190: c6dd 5dbf b26a 4fbf 6d21 28bf 322b 35bf
000001a0: a55f 3cbf ef64 31bf 9df9 4bbf 81f6 19bf
000001b0: 773d 55bf 57a9 71bf 5a1e 2abf 41d6 29bf
000001c0: 8d2d 36bf 2d9f 42bf 9ed8 60bf b968 59bf
000001d0: 92e6 66bf affb 34bf 196e 6fbf 7cb9 4dbf
000001e0: 2314 23bf a885 39bf d064 6dbf f27d 61bf
000001f0: 8dde 2bbf 150a 33bf 904d 49bf 9bfb 3dbf
00000200: 7bda 21bf d8db 17bf a0ff 50bf 9a58 90bf
00000210: 2ef9 17bf 32bf 2bbf e778 34bf ee94 4abf
00000220: cc95 3fbf 1c14 75bf 99c2 78bf ee1d 60bf
00000230: 659b 47bf 0ba3 4bbf 5421 29bf d0f3 5abf
00000240: e807 6fbf f8bf 25bf 9c0f 20bf f967 4fbf
00000250: 5b89 16bf b728 2fbf b89a 51bf 814e 9cbf
00000260: b258 3bbf 65b0 8ebf b14a 0fbf 9fb6 45bf
00000270: 3826 5dbf 1355 1abf fa0c 95bf acd4 32bf
00000280: 1be3 39bf 9a6e 71bf 959b 2ebf a3a3 40bf
00000290: 3b5b 16bf f0e8 36bf b699 3dbf 3011 5ebf
000002a0: 58c0 2ebf 1cc4 35bf 27de 4cbf 9e7f 46bf
000002b0: 7905 7dbf d8a6 3abf 7b0d 2fbf f896 76bf
000002c0: 4a13 7bbf 021b 49bf 53bd 4dbf 5a5f 81bf
000002d0: 5c02 70bf 3d0e 87bf 87c6 41bf bfc3 54bf
000002e0: 2745 86bf 238b 4dbf 3aa7 33bf b367 e5be
000002f0: 2812 42bf 9c80 7cbf 65f4 68bf 7b69 3ebf
00000300: 6d2e 53bf 3084 41bf 157b 61bf d76b 0cbf
00000310: be75 37bf 3a3f 53bf 56b6 44bf ed0f 7fbf
00000320: 96f0 66bf ff9c 8ebf 4426 42bf be80 39bf
00000330: c769 11bf 014f 57bf 9b9f 4abf 5102 3fbf
00000340: c9f3 5ebf 54bc 48bf 4ecb 49bf e2b1 4dbf
00000350: 7ddf 49bf 8605 62bf 6a3b 4cbf 505d 80bf
00000360: d801 39bf 4a5e 51bf c69d 52bf 9df4 2fbf
00000370: 3704 5abf 6e82 34bf dba3 3ebf 139e 33bf
00000380: ce58 55bf 9f59 39bf dd33 49bf 54e6 3bbf
00000390: 7fe1 69bf 6843 4dbf 175c 60bf 4a6a 72bf
000003a0: fe4a 12bf 8530 89bf 678c 24bf c869 43bf
000003b0: f043 3fbf 2fc0 43bf 2496 30bf 43c0 20bf
000003c0: 973e 51bf 9315 4cbf 6168 74bf a143 33bf
000003d0: c648 2bbf 743f 6dbf ef21 2cbf 9eaa 60bf
000003e0: 57d6 1ebf de9b 53bf 68ed 85bf b5dd 81bf
000003f0: 8853 46bf 3ac6 60bf d212 4abf e087 2dbf

Linear2.weight f4 [7, 256]
0.089803815 0.006331483 -0.24396618 -0.114415936 -0.050433114 -0.0159165 -0.046360932 -0.06762274
-0.03334044 -0.037080392 0.001664822 -0.066067904 0.058566347 -0.01250487 -0.1318382 -0.0009358489
0.101216786 -0.013650167 0.010206672 -0.029208876 -0.15710133 -0.09909616 -0.03892634 0.013049391
0.011822853 -0.02325133 -0.0031836813 -0.033731587 -0.02799296 -0.004387207 -0.038652364 -0.09800194
-0.08423457 -0.08084066 0.02211324 0.12076521 0.088952355 -0.06812981 -0.03838792 -0.05749328
0.034374766 0.009447696 -0.016750887 -0.08200187 -0.052574743 0.065758936 -0.13461494 0.012145905
0.042341094 -0.021657275 -0.057908323 0.22510065 -0.075166024 0.021937143 -0.118669465 0.050195314
0.081158124 -0.1127419 0.027946807 0.036393117 -0.008668608 -0.11878796 0.09952299 -0.030889463
-0.11015564 -0.04305322 0.14074935 0.040554453 -0.08276823 -0.004958614 -0.25271997 -0.060160927
-0.073669486 0.14273946 0.019930745 0.016504833 -0.07270217 -0.031431727 -0.17267725 0.027012901
-0.018331476 -0.05810092 -0.015454868 -0.060344044 0.044005584 0.014044214 -0.049033202 0.028817454
-0.027271705 0.12715262 0.026443066 0.01770078 -0.07819177 -0.030936863 -0.0799341 -0.111337505
-0.0023371507 -0.012308851 -0.16756094 0.02919333 0.022504905 0.024274701 0.029990323 -0.06024584
-0.02193482 -0.087456755 -0.07250416 0.0054868404 -0.01617622 -0.06306942 0.0059006475 -0.15310085
-0.033680342 -0.15449671 -0.044497 0.10996918 -0.0048705274 -0.043861706 0.02141359 0.011444422
-0.15873617 -0.02887959 0.01973911 -0.050524585 0.03937981 -0.11002153 -0.04110737 0.01706866
0.011445163 0.05311311 -0.019544663 0.07329357 0.02374941 0.052620858 -0.038026635 -0.0120415455
-0.13858013 -0.087116644 0.051405385 -0.08243302 -0.20603627 -0.10032203 0.016199203 -0.050666347
0.057287775 -0.12425106 -0.083106734 -0.04457575 -0.035385292 -0.061906707 -0.017476806 0.038590115
-0.019317461 -0.056659434 -0.025101595 0.027085567 0.05224845 -0.017426329 -0.0123719 0.018452121
-0.069326095 -0.05684676 -0.0026878037 -0.08589483 -0.0077181365 -0.00086161785 -0.056895096 -0.039762642
-0.21155454 -0.0009616034 -0.006060605 -0.0015719502 -0.074313074 -0.0066025876 -0.020606099 0.06936029
0.022772769 -0.0047989557 -0.019142337 0.09631703 -0.06930118 0.0030907425 0.01366922 -0.057101127
-0.032529432 -0.025787745 -0.044693496 -0.07246607 -0.0066196886 -0.00023217977 0.024951736 -0.012097547
-0.009907214 0.043576725 -0.03486593 -0.0042562587 -0.048274595 0.052327294 -0.032001756 -0.01572215
0.013098233 0.010640818 0.048917808 -0.062309008 0.06332764 -0.037386145 -0.10252001 -0.0048442213
0.024245685 0.018214928 -0.0025474245 -0.06519564 -0.00042003952 0.082295395 0.018384468 -0.013341518
-0.06556302 0.011287344 0.06336419 -0.074240595 0.028007884 0.006110765 -0.10990428 -0.005316996
-0.020361053 -0.057145458 -0.10871494 -0.07529998 -0.08992789 -0.0833881 0.0039590206 -0.07944632
-0.031142846 -0.11539103 -0.07457699 -0.039809972 0.01395457 -0.0019411194 0.105199285 0.02441311
-0.054865826 0.012191869 -0.042512733 -0.03751089 -0.049862154 -0.0062960745 0.031808745 -0.09535072
-0.071348645 0.1357414 0.02951237 0.01174664 -0.03502529 -0.021148853 0.013986557 -0.102070965
00000000: 10eb b73d 5478 cf3b 45d2 79be e752 eabd
00000010: f492 4ebd 5263 82bc f6e4 3dbd cb7d 8abd
00000020: fc8f 08bd 9ce1 17bd 2836 da3a 9c4e 87bd
00000030: 44e3 6f3d 3ae1 4cbc 9800 07be c253 75ba
00000040: bf4a cf3d f3a4 5fbc e339 273c 7447 efbc
00000050: 2cdf 20be edf2 cabd 3a71 1fbd 1dcd 553c
00000060: a4b4 413c 9379 bebc 4fa5 50bb 222a 0abd
00000070: 7e51 e5bc 8fc2 8fbb f151 1ebd 3eb5 c8bd
00000080: 2d83 acbd ca8f a5bd d326 b53c c053 f73d
00000090: a72c b63d a487 8bbd a73c 1dbd 137e 6bbd
000000a0: 8ecc 0c3d 82ca 1a3c 2839 89bc 99f0 a7bd
000000b0: 9d58 57bd 9fac 863d 80d8 09be 9eff 463c
000000c0: db6d 2d3d 996a b1bc 4731 6dbd c980 663e
000000d0: a5f0 99bd 86b5 b33c fa08 f3bd 9a99 4d3d
000000e0: 3b36 a63d 3ae5 e6bd b4f0 e43c f310 153d
000000f0: c706 0ebc 1a47 f3bd b6d2 cb3d e60b fdbc
00000100: 4899 e1bd 9358 30bd 9920 103e 6d1c 263d
00000110: 6482 a9bd de7b a2bb 8364 81be 4e6b 76bd
00000120: 07e0 96bd 4b2a 123e cd45 a33c 2535 873c
00000130: e0e4 94bd 8ebe 00bd 4ed2 30be 294a dd3c
00000140: e42b 96bc 3bfb 6dbd 6a36 7dbc 512b 77bd
00000150: 333f 343d b419 663c 0ad7 48bd 9512 ec3c
00000160: e968 dfbc 4c34 023e 219f d83c 3a01 913c
00000170: 0223 a0bd 4e6f fdbc 7db4 a3bd eb04 e4bd
00000180: e22a 19bb 10ab 49bc 1895 2bbe da26 ef3c
00000190: 355c b83c bddb c63c 44ae f53c 58c4 76bd
000001a0: a7b0 b3bc 871c b3bd 107d 94bd f4ca b33b
000001b0: fe83 84bc 8a2a 81bd 385a c13b 78c6 1cbe
000001c0: 66f4 09bd 6334 1ebe 7c42 36bd 8537 e13d
000001d0: f298 9fbb 55a8 33bd 8e6b af3c 6381 3b3c
000001e0: bc8b 22be e494 ecbc eab3 a13c def2 4ebd
000001f0: b94c 213d f852 e1bd 3460 28bd 93d3 8b3c
00000200: 7e84 3b3c 228d 593d 211c a0bc f01a 963d
00000210: 1f8e c23c f888 573d d1c1 1bbd e749 45bc
00000220: f3e7 0dbe 366a b2bd 748e 523d a5d2 a8bd
00000230: 2cfb 52be a375 cdbd 31b4 843c 8487 4fbd
00000240: 96a6 6a3d 5777 febd dd33 aabd 1095 36bd
00000250: 2bf0 10bd e391 7dbd 852b 8fbc ab10 1e3d
00000260: a73f 9ebc b913 68bd dca1 cdbc 8de2 dd3c
00000270: 7902 563d a9c1 8ebc 82b3 4abc e728 973c
00000280: d7fa 8dbd 26d8 68bd dd25 30bb a1e9 afbd
00000290: 6ce8 fcbb 32de 61ba d50a 69bd 27de 22bd
000002a0: c1a1 58be 1d14 7cba 0a98 c6bb e509 ceba
000002b0: 7431 98bd 855a d8bb 1fce a8bc c50c 8e3d
000002c0: f58d ba3c 8f40 9dbb 64d0 9cbc dd41 c53d
000002d0: c7ed 8dbd 0e8e 4a3b ddf4 5f3c dfe2 69bd
000002e0: 953d 05bd d240 d3bc 8710 37bd 1769 94bd
000002f0: f9e9 d8bb 4875 73b9 9567 cc3c ca34 46bc
00000300: de51 22bc 827d 323d 94cf 0ebd 1678 8bbb
00000310: 95bb 45bd 2555 563d 4614 03bd bdcb 80bc
00000320: f999 563c d356 2e3c 0a5e 483d bb37 7fbd
00000330: ecb1 813d 3722 19bd 03f6 d1bd 46bc 9ebb
00000340: e39e c63c 7937 953c b1f2 26bb 4b85 85bd
00000350: c038 dcb9 7d8a a83d 069b 963c 6296 5abc
00000360: e845 86bd 8dee 383c 16c5 813d 740b 98bd
00000370: ca70 e53c d03c c83b 7f15 e1bd 323a aebb
00000380: 39cc a6bc 5b11 6abd f0a5 debd e036 9abd
00000390: 1d2c b8bd 61c7 aabd acba 813b c1b4 a2bd
000003a0: 481f ffbc 2252 ecbd d2bb 98bd c80f 23bd
000003b0: b5a1 643c 296d feba b972 d73d 01fe c73c
000003c0: fdba 60bd 68c0 473c d521 2ebd 05a5 19bd
000003d0: 423c 4cbd 4d4f cebb e349 023d 3d47 c3bd
000003e0: 3d1f 92bd cbff 0a3e edc3 f13c fb74 403c
000003f0: ae76 0fbd 5c40 adbc df27 653c 950a d1bd

Linear2.bias f4 [7]
0.0045717983 0.0042329715 0.0039858655 0.0047846073 0.005374949 0.004226177 0.0049694986
00000000: 06cf 953b bdb4 8a3b dd9b 823b 32c8 9c3b
00000010: 5720 b03b be7b 8a3b 2dd7 a23b
