epsilon_10/saved_model 9000.pth (torch, 52885 bytes, 4 tensors)

Linear1.weight f4 [256, 42]
-0.05376817 -0.0133288065 -0.039925054 -0.0069247866 -0.045055922 0.020907179 -0.040165037 0.031373855
0.0143589545 0.037822157 -0.06640066 -0.055642176 0.045869816 -0.028234255 0.023074796 -0.0885859
0.03970499 -0.045495845 -0.0022455961 0.016074892 -0.023657955 -0.02624739 -0.047324974 -0.0039287847
0.047987062 -0.005806239 0.030101648 -0.028685072 -0.003430503 -0.0367156 0.10980788 -0.011313064
-0.073452875 0.06003489 -0.091522835 -0.028304119 0.018880224 0.011429902 0.0123392735 -0.093544245
-0.021698605 0.039729502 0.023837712 0.051266693 0.03259415 0.012047084 0.0012023337 0.033751115
0.008844337 0.0036001331 0.03581132 0.014284205 0.05588721 0.03104619 0.06088629 0.033077817
0.03691445 0.093832485 0.06915992 0.060215 -0.015214699 0.018710366 0.031882383 0.034544915
0.009343872 -0.0024238955 0.041252967 0.02153818 0.0062038493 -0.0052618813 0.008571115 0.009828883
0.028238308 0.06504371 0.0627944 -0.0312951 -0.016729975 0.053021386 0.061493836 -0.013150469
0.02565022 0.00972059 0.01783037 0.005099933 -0.05257133 0.057656113 0.009369106 -0.065242186
-0.006675626 0.05536579 0.04165893 0.07045979 -0.09916741 0.04691114 0.10131152 -0.04563959
0.010641206 -0.119034044 0.09151104 0.09178991 0.11930702 -0.0759553 0.06685341 0.078649946
-0.03287336 0.011638054 0.13083619 0.051399384 -0.04587025 0.039005272 -0.012062203 -0.017063126
0.061561834 -0.18560241 -0.10931549 0.009310949 0.025252333 0.029160125 -0.03694268 0.08147468
0.032978117 0.123773545 -0.22222331 0.007785141 0.09497911 0.019762931 0.032565016 0.0098081855
0.07325857 0.06933222 0.047135502 0.029925259 0.013233287 0.011118597 0.022020495 0.126934
0.06594664 0.029089037 -0.045391954 0.06129974 -0.005142532 0.052087475 0.017771149 -0.094001256
0.07221895 -0.017575625 0.02897589 0.020846106 -0.024624007 0.05447719 -0.022171553 0.012082657
0.1269533 -0.057722956 -0.057098538 0.007355077 -0.021357674 0.028091608 -0.07682761 -0.092777506
-0.032827478 0.060112588 0.113874875 0.026307851 -0.071600534 -0.02374324 0.02461508 0.07274571
0.027481632 0.060567223 0.021915622 0.0056422106 0.029531946 -0.02201755 0.028545968 -0.021791989
0.008793763 0.07309334 0.0565131 0.029460708 0.013900338 0.075317584 0.041598193 0.13298842
0.037146475 0.10412108 0.090763845 0.020004028 0.085732184 0.08685029 0.0016773024 -0.030679476
-0.06654473 -0.0392863 0.015313463 0.04968549 0.04989682 -0.009030521 -0.007528996 -0.061431307
0.014406043 0.0035981974 0.07111002 -0.06522183 0.1528255 0.079820365 0.04761444 -0.011379091
-0.01111623 -0.0024064109 0.021655003 0.034824282 -0.03797519 -0.0029644473 -0.0022885664 0.0078167
0.024171235 0.015364855 0.022061165 0.00469886 -0.0093800975 -0.04852536 0.007601383 0.018611228
0.008581326 0.025721902 0.018516323 0.014562704 0.009550576 0.04797937 -0.024717808 0.046827447
0.04062065 0.012760944 0.011833733 0.027656961 0.03385324 0.012156772 0.004719736 0.05689922
0.0053176065 0.056495387 0.014275226 0.092447825 0.047942765 0.04735225 0.05239092 -0.002257231
-0.012506783 0.022881063 -0.005895315 0.06903905 -0.0416725 -0.029552458 0.03219352 0.0038037205
00000000: 033c 5cbd 1161 5abc 7488 23bd 52e9 e2bb
00000010: 8f8c 38bd 8845 ab3c 1884 24bd df81 003d
00000020: d241 6b3c 68eb 1a3d 12fd 87bd 0de9 63bd
00000030: fde1 3b3d 864b e7bc 5b07 bd3c 866c b5bd
00000040: b3a1 223d da59 3abd da2a 13bb 7eaf 833c
00000050: 54ce c1bc c404 d7bc d5d7 41bd 09bd 80bb
00000060: 158e 443d 4342 bebb bb97 f63c f5fc eabc
00000070: 4ad2 60bb 1963 16bd f4e2 e03d 6e5a 39bc
00000080: 766e 96bd 25e7 753d 5370 bbbd 0ade e7bc
00000090: b3aa 9a3c 7c44 3b3c aa2a 4a3c 2094 bfbd
000000a0: 46c1 b1bc 67bb 223d 4e47 c33c 06fd 513d
000000b0: 7281 053d 2261 453c a097 9d3a 9c3e 0a3d
000000c0: d7e7 103c 36f0 6b3b e4ae 123d 4c08 6a3c
000000d0: fde9 643d 9454 fe3c e763 793d 9b7c 073d
000000e0: 9b33 173d 3f2b c03d b7a3 8d3d 01a4 763d
000000f0: 1347 79bc 7b46 993c 1a97 023d f87e 0d3d
00000100: 0a17 193c 38da 1ebb dff8 283d d670 b03c
00000110: a949 cb3b dc6b acbb dd6d 0c3c 5309 213c
00000120: 0654 e73c a335 853d 5a9a 803d 4a2f 00bd
00000130: 4d0d 89bc f42c 593d f6e0 7b3d 1175 57bc
00000140: 6920 d23c 1c43 1f3c ff10 923c 571d a73b
00000150: 0955 57bd d128 6c3d e180 193c b29d 85bd
00000160: 36bf dabb 3dc7 623d 8ea2 2a3d 394d 903d
00000170: 4818 cbbd e525 403d 6a7c cf3d 94f0 3abd
00000180: 7458 2e3c 1fc8 f3bd 246a bb3d 59fc bb3d
00000190: 3d57 f43d 748e 9bbd 71ea 883d 3913 a13d
000001a0: 37a6 06bd 89ad 3e3c ecf9 053e 2988 523d
000001b0: 71e2 3bbd fec3 1f3d 8ca0 45bc f8c7 8bbc
000001c0: 4328 7c3d 8f0e 3ebe cde0 dfbd f38c 183c
000001d0: fbdd ce3c 37e1 ee3c 3551 17bd 32dc a63d
000001e0: 1014 073d fc7c fd3d 828e 63be 7f1a ff3b
000001f0: 6884 c23d dfe5 a13c e562 053d 83b2 203c
00000200: 9708 963d 0dfe 8d3d 2811 413d d125 f53c
00000210: 6ed0 583c c72a 363c 5364 b43c fdfa 013e
00000220: 080f 873d 224c ee3c eaec 39bd 7015 7b3d
00000230: af82 a8bb ad59 553d cd94 913c bb83 c0bd
00000240: 87e7 933d c2fa 8fbc d85e ed3c 74c5 aa3c
00000250: 49b8 c9bc 7923 5f3d 1ea1 b5bc 56f6 453c
00000260: 0c00 023e e86e 6cbd 28e0 69bd dc02 f13b
00000270: 4af6 aebc 5f20 e63c cb57 9dbd 2202 bebd
00000280: 1b76 06bd 9e38 763d 3b37 e93d 9083 d73c
00000290: 4da3 92bd 2f81 c2bc 90a5 c93c b4fb 943d
000002a0: 2921 e13c 5615 783d 6488 b33c 4be2 b83b
000002b0: fbec f13c 265e b4bc 3cd9 e93c 1d85 b2bc
000002c0: b713 103c f6b1 953d 487a 673d 9557 f13c
000002d0: 3ebe 633c 1b40 9a3d de62 2a3d 1e2e 083e
000002e0: e726 183d 6f3d d53d 65e2 b93d 7ddf a33c
000002f0: 5b94 af3d 91de b13d eed8 db3a 8653 fbbc
00000300: 9a48 88bd acea 20bd 52e5 7a3c 0383 4b3d
00000310: 9c60 4c3d c0f4 13bc ccb5 f6bb 659f 7bbd
00000320: 5307 6c3c bccf 6b3b 21a2 913d 0693 85bd
00000330: 4a7e 1c3e dc78 a33d 5c07 433d 5e6f 3abc
00000340: d920 36bc e0b4 1dbb d565 b13c e8a3 0e3d
00000350: df8b 1bbd 2c47 42bb c6fb 15bb 9e11 003c
00000360: c102 c63c dfbc 7b3c 9eb9 b43c e5f8 993b
00000370: fbae 19bc 87c2 46bd 0615 f93b 9376 983c
00000380: b198 0c3c bdb6 d23c 8baf 973c 6898 6e3c
00000390: 057a 1c3c 0486 443d 007d cabc 23ce 3f3d
000003a0: d761 263d 4713 513c 46e2 413c da90 e23c
000003b0: b2a9 0a3d 332d 473c 04a8 9a3b 280f 693d
000003c0: 513f ae3b b567 673d a3e2 693c 4955 bd3d
000003d0: a25f 443d 6ff4 413d dd97 563d 0dee 13bb
000003e0: 40e9 4cbc 1171 bb3c 7d2d c1bb 5864 8d3d
000003f0: c9b0 2abd ff17 f2bc 5add 033d d747 793b

Linear1.bias f4 [256]
-0.6927559 -0.51259583 -0.7766982 -0.7777925 -0.8054474 -0.5040899 -0.6235419 -0.8281093
-0.83569324 -0.9781518 -0.6923222 -0.70612365 -0.8026481 -0.48754162 -0.79447806 -0.6297847
-1.0222431 -0.7791034 -0.838174 -0.66461647 -1.042099 -0.69694865 -0.7597192 -0.8436723
-0.66130126 -0.7694092 -0.72030926 -0.95080775 -1.1725334 -0.86719745 -0.6244451 -0.6321694
-0.7991174 -0.6048696 -0.6125201 -0.755611 -0.8590141 -0.71728 -0.82231134 -0.76233745
-0.55022335 -0.7280418 -0.5641969 -0.60681915 -0.76749456 -0.6878702 -0.67311496 -0.70690274
-0.792488 -0.7840788 -0.74779433 -0.7957302 -0.76795727 -0.81187224 -0.85760033 -0.7392703
-0.7130319 -0.7274388 -0.8051606 -0.7087103 -0.6748274 -0.74743706 -0.6799551 -0.5583536
-0.8211536 -0.7841339 -0.913722 -0.8263762 -0.6144106 -0.75545156 -0.7687823 -0.791439
-0.6252456 -1.082748 -0.751989 -0.65919673 -0.64122975 -0.80680716 -0.83571 -0.90250957
-0.75688887 -0.782847 -0.7415511 -0.8903792 -0.60895693 -0.87535423 -0.6822124 -0.76042
-0.5022779 -0.8118552 -0.6151 -0.63380826 -0.98147404 -0.77116853 -0.8322865 -0.69154495
-0.90321606 -0.8419053 -0.55307275 -0.7283032 -0.86666524 -0.8102218 -0.65676004 -0.70769036
-0.6878902 -0.6929464 -0.77763134 -0.6014176 -0.7477973 -0.9439902 -0.6335017 -0.6319759
-0.71163255 -0.76628363 -0.8783053 -0.7971714 -0.9019557 -0.68054533 -0.7035519 -0.8036115
-0.637026 -0.69598067 -0.8343122 -0.72369945 -0.6345764 -0.62944984 -0.7750598 -0.72595763
-0.63224 -0.5931983 -0.6972304 -0.9369767 -0.59364593 -0.6551838 -0.62315935 -0.73278624
-0.74837947 -0.925678 -0.8473499 -0.8438733 -0.7440279 -0.75770706 -0.6059236 -0.8276622
-0.86097217 -0.64746046 -0.5706428 -0.7790524 -0.5335683 -0.684215 -0.7913285 -1.1636488
-0.73182213 -1.0008794 -0.55973345 -0.6901336 -0.8332776 -0.6028606 -1.0881661 -0.7261377
-0.7261216 -0.8541042 -0.6820615 -0.7524969 -0.532875 -0.6746373 -0.7406267 -0.8364672
-0.68262243 -0.71002364 -0.8002648 -0.7256921 -0.87612456 -0.6424262 -0.68379945 -0.8273762
-0.9497404 -0.79099005 -0.7725734 -1.0107224 -0.90443116 -1.0134438 -0.64101106 -0.791702
-0.939842 -0.7108965 -0.7017704 -0.4480568 -0.7403156 -0.88870317 -0.90997916 -0.743797
-0.7200559 -0.7559233 -0.88078433 -0.5485205 -0.70786023 -0.8019064 -0.7684072 -0.8782406
-0.82239497 -0.98413897 -0.7583964 -0.7246207 -0.5680203 -0.8238799 -0.66086507 -0.71490026
-0.87090737 -0.78412366 -0.7114043 -0.75913775 -0.7885664 -0.8828968 -0.7226518 -0.9759763
-0.6381556 -0.817845 -0.82271993 -0.53078043 -0.8516268 -0.5894622 -0.68232787 -0.7016308
-0.8333863 -0.72402376 -0.7329775 -0.70240825 -0.8252453 -0.77008617 -0.8092487 -0.9153154
-0.5714568 -1.0020617 -0.6610367 -0.67148286 -0.7471304 -0.71029484 -0.6449156 -0.6279337
-0.7418002 -0.7418309 -0.9547177 -0.70440656 -0.6690792 -0.89520663 -0.59517974 -0.72158337
-0.55915177 -0.8265971 -0.8672898 -1.0145785 -0.7747121 -0.8471161 -0.7676471 -0.6536394
00000000: 7358 31bf 7b39 03bf b1d5 46bf 691d 47bf
00000010: cd31 4ebf 090c 01bf 71a0 1fbf f9fe 53bf
00000020: feef 55bf 2868 7abf 073c 31bf 85c4 34bf
00000030: 597a 4dbf 0e9f f9be ea62 4bbf 9239 21bf
00000040: ddd8 82bf 5273 47bf 9292 56bf 4e24 2abf
00000050: 8063 85bf 3a6b 32bf f57c 42bf e8fa 57bf
00000060: 0a4b 29bf 00f8 44bf 3066 38bf 2368 73bf
00000070: 9315 96bf a700 5ebf a2db 1fbf dbd5 21bf
00000080: f592 4cbf bcd8 1abf 1ece 1cbf b96f 41bf
00000090: 59e8 5bbf a99f 37bf ff82 52bf 8c28 43bf
000000a0: 70db 0cbf f360 3abf 356f 10bf 8058 1bbf
000000b0: 867a 44bf 4318 30bf 4351 2cbf 94f7 34bf
000000c0: 7ee0 4abf 63b9 48bf 736f 3fbf f9b4 4bbf
000000d0: d998 44bf dcd6 4fbf b28b 5bbf d240 3dbf
000000e0: 4289 36bf 6e39 3abf 011f 4ebf 0a6e 35bf
000000f0: 7dc1 2cbf 0958 3fbf 8a11 2ebf 43f0 0ebf
00000100: 1f37 52bf 00bd 48bf afe9 69bf 648d 53bf
00000110: 034a 1dbf 4665 41bf ebce 44bf bf9b 4abf
00000120: 1810 20bf 7d97 8abf 5a82 40bf 1ec1 28bf
00000130: a227 24bf ea8a 4ebf 17f1 55bf de0a 67bf
00000140: 78c3 41bf a968 48bf 4bd6 3dbf e4ef 63bf
00000150: 9ae4 1bbf 3717 60bf 79a5 2ebf e3aa 42bf
00000160: 4995 00bf bed5 4fbf 3277 1dbf 4241 22bf
00000170: e241 7bbf 4d6b 45bf ba10 55bf 1709 31bf
00000180: 2b39 67bf 1b87 57bf 2d96 0dbf 1472 3abf
00000190: c6dd 5dbf b26a 4fbf 6d21 28bf 322b 35bf
000001a0: 9219 30bf ef64 31bf d912 47bf 81f6 19bf
000001b0: a56f 3fbf 57a9 71bf 2b2d 22bf 2cc9 21bf
000001c0: 8d2d 36bf 2a2b 44bf 9ed8 60bf 6d13 4cbf
000001d0: 92e6 66bf 3838 2ebf fa1b 34bf 7cb9 4dbf
000001e0: 2314 23bf ca2b 32bf 7c95 55bf 5e44 39bf
000001f0: 9973 22bf a023 21bf 526a 46bf 5cd8 39bf
00000200: 7bda 21bf d8db 17bf b17d 32bf b4dd 6fbf
00000210: 2ef9 17bf 20ba 27bf 5f87 1fbf e197 3bbf
00000220: cc95 3fbf 3cf9 6cbf eceb 58bf 1508 58bf
00000230: 9d78 3ebf 17f9 41bf cf1d 1bbf ace1 53bf
00000240: ac68 5cbf f8bf 25bf a615 12bf fa6f 47bf
00000250: ef97 08bf b728 2fbf 8194 4abf 72f2 94bf
00000260: b258 3bbf d11c 80bf b14a 0fbf 98ac 30bf
00000270: ae51 55bf 1355 1abf 0749 8bbf 29e4 39bf
00000280: 1be3 39bf 93a6 5abf 959b 2ebf a3a3 40bf
00000290: 7f6a 08bf 08b5 2cbf b699 3dbf b722 56bf
000002a0: 58c0 2ebf 1cc4 35bf 27de 4cbf f5c6 39bf
000002b0: b349 60bf 0b76 24bf 7b0d 2fbf edce 53bf
000002c0: 3022 73bf 537e 4abf 5fc7 45bf 5a5f 81bf
000002d0: cd88 67bf 87b8 81bf 4d19 24bf fbac 4abf
000002e0: 7c99 70bf 50fd 35bf 3aa7 33bf b367 e5be
000002f0: 5385 3dbf 0d82 63bf 65f4 68bf 7b69 3ebf
00000300: 9555 38bf 3084 41bf 157b 61bf d76b 0cbf
00000310: 5436 35bf bd49 4dbf 56b6 44bf 60d4 60bf
00000320: 7a88 52bf 88f0 7bbf 4426 42bf be80 39bf
00000330: c769 11bf cbe9 52bf 742e 29bf b403 37bf
00000340: c9f3 5ebf 54bc 48bf 981e 36bf da56 42bf
00000350: 7ddf 49bf 8605 62bf b5ff 38bf 95d9 79bf
00000360: 2a5e 23bf 4a5e 51bf c69d 52bf 3ae1 07bf
00000370: 3704 5abf ffe6 16bf 0aad 2ebf 139e 33bf
00000380: ce58 55bf 9f59 39bf 6aa4 3bbf 07d1 33bf
00000390: 4743 53bf 5e24 45bf ec2a 4fbf 1c52 6abf
000003a0: fe4a 12bf 8f43 80bf b339 29bf 4de6 2bbf
000003b0: f043 3fbf e2d5 35bf 3019 25bf 43c0 20bf
000003c0: 9ee6 3dbf a1e8 3dbf 6168 74bf fd53 34bf
000003d0: c648 2bbf 432c 65bf b35d 18bf b0b9 38bf
000003e0: 9224 0fbf de9b 53bf b406 5ebf b5dd 81bf
000003f0: 8853 46bf 9adc 58bf 8584 44bf e954 27bf

Linear2.weight f4 [7, 256]
0.089803815 0.006331483 -0.057126753 -0.0022211503 -0.050433114 -0.0159165 -0.046360932 -0.06762274
-0.03334044 -0.037080392 0.001664822 -0.066067904 0.058566347 -0.01250487 -0.097637676 -0.045177292
0.14020109 -0.013650167 -0.08856637 -0.050868373 -0.15710133 -0.09909616 -0.14395134 -0.058349725
-0.066988155 -0.02325133 -0.055200726 -0.033731587 -0.027992178 -0.10676223 -0.038652364 -0.09800194
-0.08423457 -0.027378196 -0.11066368 -0.016452642 0.03300026 -0.06812981 0.08866298 0.006036566
0.034374766 0.014314861 -0.016750887 -0.022674832 -0.009593846 0.065758936 -0.13461494 0.012145905
0.042341094 -0.1780639 -0.057908323 0.22510065 -0.07457026 0.021937143 -0.118669465 -0.021035539
0.024498628 -0.1127419 0.027946807 -0.005030854 -0.008668608 -0.11878796 0.124009885 -0.030889463
-0.11015564 -0.020011729 0.14074935 -0.010513189 0.024220148 -0.11561505 -0.25271997 -0.05933187
-0.073669486 0.14273946 0.019930745 0.016504833 -0.07270217 -0.004680097 -0.0078542475 0.11194809
-0.018331476 -0.05810092 -0.011326433 -0.006249166 0.044005584 0.014044214 -0.095346645 0.028817454
-0.0021956535 0.12715262 0.028824562 0.01770078 -0.07819177 0.0069928714 -0.0035767525 -0.111337505
-0.0023371507 -0.012308851 -0.11769609 0.02919333 0.022504905 0.024274701 0.029990323 -0.06024584
0.0053196987 -0.087456755 -0.0050778664 0.0054868404 0.011159234 -0.06306942 0.0059006475 -0.15310085
-0.033680342 -0.14486176 -0.044497 0.14518699 -0.0048705274 0.013533214 0.169194 0.011444422
-0.15873617 0.01502271 0.02159706 -0.029080028 0.013632412 -0.20444193 -0.069064125 -0.010212402
0.011445163 0.05311311 -0.029004434 0.04218625 0.02374941 0.06874863 0.08669092 -0.014055165
-0.13858013 -0.087116644 0.0135544045 -0.08243302 -0.16663171 -0.16767791 0.003591519 -0.050666347
-0.055249315 -0.12425106 0.060156588 -0.1246911 -0.061580013 -0.061906707 -0.008233416 0.005328837
-0.019317461 -0.05998737 -0.025101595 -0.006535571 0.05224845 -0.017426329 -0.08803884 0.013017224
-0.069326095 0.10238017 -0.0026878037 -0.08589483 -0.0077181365 0.044629652 -0.056895096 -0.21641158
-0.21155454 -0.0009616034 -0.006060605 0.0510115 -0.0014475124 -0.066445164 -0.020606099 -0.0071877935
0.063612714 0.03431521 -0.019142337 0.09631703 -0.09318366 -0.25632137 -0.093157485 -0.055943727
-0.19783428 -0.11390324 -0.044693496 -0.07246607 -0.075117774 0.04907022 0.024951736 -0.012097547
-0.03943171 0.043576725 -0.03486593 -0.0042562587 -0.0045426236 0.052327294 -0.032001756 -0.052542176
0.0038294352 0.17338288 0.048917808 -0.062309008 0.06332764 -0.10076892 -0.11464049 -0.0048442213
0.024245685 0.018214928 -0.0030189662 -0.04460671 -0.00042003952 0.082295395 0.038808078 -0.013341518
-0.04362744 0.011287344 0.06336419 -0.053993724 0.028007884 -0.04209935 -0.04363915 -0.005316996
-0.020361053 -0.057145458 -0.16503908 -0.10377148 -0.048748817 -0.0833881 0.023103822 -0.07944632
-0.031142846 -0.009010906 -0.02617843 -0.0022432085 0.01395457 0.005024896 0.12784483 0.02441311
-0.09990708 -0.013607759 -0.042512733 -0.0014156571 -0.049862154 0.025305253 0.014462552 -0.010616463
-0.10041828 0.1357414 0.043525156 0.01174664 -0.03502529 0.009946888 -0.005342571 -0.069593824
00000000: 10eb b73d 5478 cf3b befd 69bd b890 11bb
00000010: f492 4ebd 5263 82bc f6e4 3dbd cb7d 8abd
00000020: fc8f 08bd 9ce1 17bd 2836 da3a 9c4e 87bd
00000030: 44e3 6f3d 3ae1 4cbc 43f6 c7bd d30b 39bd
00000040: e090 0f3e f3a4 5fbc 4962 b5bd 5b5b 50bd
00000050: 2cdf 20be edf2 cabd fb67 13be 1f00 6fbd
00000060: 1631 89bd 9379 bebc 281a 62bd 222a 0abd
00000070: da4f e5bc 28a6 dabd f151 1ebd 3eb5 c8bd
00000080: 2d83 acbd 3d48 e0bc a4a3 e2bd b1c7 86bc
00000090: 482b 073d a487 8bbd f094 b53d 63ce c53b
000000a0: 8ecc 0c3d e188 6a3c 2839 89bc 92c0 b9bc
000000b0: 822f 1dbc 9fac 863d 80d8 09be 9eff 463c
000000c0: db6d 2d3d 6256 36be 4731 6dbd c980 663e
000000d0: 4bb8 98bd 86b5 b33c fa08 f3bd b952 acbc
000000e0: 59b1 c83c 3ae5 e6bd b4f0 e43c ddd9 a4bb
000000f0: c706 0ebc 1a47 f3bd e5f8 fd3d e60b fdbc
00000100: 4899 e1bd a3ef a3bc 9920 103e 833f 2cbc
00000110: 5569 c63c 95c7 ecbd 8364 81be fa05 73bd
00000120: 07e0 96bd 4b2a 123e cd45 a33c 2535 873c
00000130: e0e4 94bd 805b 99bb 1aaf 00bc 0a45 e53d
00000140: e42b 96bc 3bfb 6dbd 8192 39bc cec5 ccbb
00000150: 333f 343d b419 663c 1a45 c3bd 9512 ec3c
00000160: f4e4 0fbb 4c34 023e 7d21 ec3c 3a01 913c
00000170: 0223 a0bd 7524 e53b f367 6abb eb04 e4bd
00000180: e22a 19bb 10ab 49bc a60a f1bd da26 ef3c
00000190: 355c b83c bddb c63c 44ae f53c 58c4 76bd
000001a0: de50 ae3b 871c b3bd 3b64 a6bb f4ca b33b
000001b0: 38d5 363c 8a2a 81bd 385a c13b 78c6 1cbe
000001c0: 66f4 09bd a456 14be 7c42 36bd e6ab 143e
000001d0: f298 9fbb 6aba 5d3c 3141 2d3e 6381 3b3c
000001e0: bc8b 22be d021 763c 51ec b03c 3d39 eebc
000001f0: 7b5a 5f3c 3a59 51be 7e71 8dbd eb51 27bc
00000200: 7e84 3b3c 228d 593d b59a edbc 7dcb 2c3d
00000210: 1f8e c23c 15cc 8c3d 028b b13d a347 66bc
00000220: f3e7 0dbe 366a b2bd 4b13 5e3c a5d2 a8bd
00000230: 81a1 2abe c2b3 2bbe b15f 6b3b 8487 4fbd
00000240: 1b4d 62bd 5777 febd c166 763d 0c5e ffbd
00000250: 533b 7cbd e391 7dbd 73e5 06bc 869d ae3b
00000260: a73f 9ebc 51b5 75bd dca1 cdbc 5828 d6bb
00000270: 7902 563d a9c1 8ebc b54d b4bd 3246 553c
00000280: d7fa 8dbd b2ac d13d dd25 30bb a1e9 afbd
00000290: 6ce8 fcbb 95cd 363d d50a 69bd ff9a 5dbe
000002a0: c1a1 58be 1d14 7cba 0a98 c6bb 6ff1 503d
000002b0: 75ba bdba 6714 88bd 1fce a8bc 9587 ebbb
000002c0: 6247 823d 1b8e 0c3d 64d0 9cbc dd41 c53d
000002d0: 13d7 bebd 8e3c 83be 5ac9 bebd 4025 65bd
000002e0: 1295 4abe 1a46 e9bd 8710 37bd 1769 94bd
000002f0: 59d7 99bd dbfd 483d 9567 cc3c ca34 46bc
00000300: 2583 21bd 827d 323d 94cf 0ebd 1678 8bbb
00000310: 4ada 94bb 2555 563d 4614 03bd 7736 57bd
00000320: 43f7 7a3b 488b 313e 0a5e 483d bb37 7fbd
00000330: ecb1 813d ef5f cebd a2c8 eabd 46bc 9ebb
00000340: e39e c63c 7937 953c d9d9 45bb 87b5 36bd
00000350: c038 dcb9 7d8a a83d 38f5 1e3d 6296 5abc
00000360: b0b2 32bd 8dee 383c 16c5 813d 8628 5dbd
00000370: ca70 e53c 5e70 2cbd f7be 32bd 323a aebb
00000380: 39cc a6bc 5b11 6abd 0100 29be 2486 d4bd
00000390: d7ac 47bd 61c7 aabd 3a44 bd3c c1b4 a2bd
000003a0: 481f ffbc 7ba2 13bc 2674 d6bc cb02 13bb
000003b0: b5a1 643c e2a7 a43b c1e9 023e 01fe c73c
000003c0: 159c ccbd 14f3 5ebc d521 2ebd 928d b9ba
000003d0: 423c 4cbd f64c cf3c 57f4 6c3c acf0 2dbc
000003e0: 19a8 cdbd cbff 0a3e 6f47 323d fb74 403c
000003f0: ae76 0fbd 46f8 223c bc10 afbb 3587 8ebd

Linear2.bias f4 [7]
0.007537602 0.009247386 0.0077202655 0.007447856 0.0074360715 0.007873025 0.008442738
00000000: fdfd f63b 5982 173c 48fa fc3b 250d f43b
00000010: 4aaa f33b dcfd 003c 6953 0a3c
