epsilon_10/saved_model 9500.pth (torch, 52885 bytes, 4 tensors)

Linear1.weight f4 [256, 42]
-0.05376817 -0.0133288065 -0.039925054 -0.0069247866 -0.045055922 0.020907179 -0.040165037 0.031373855
0.0143589545 0.037822157 -0.06640066 -0.055642176 0.045869816 -0.028234255 0.023074796 -0.0885859
0.03970499 -0.045495845 -0.0022455961 0.016074892 -0.023657955 -0.02624739 -0.047324974 -0.0039287847
0.047987062 -0.005806239 0.030101648 -0.028685072 -0.003430503 -0.0367156 0.10980788 -0.011313064
-0.073452875 0.06003489 -0.091522835 -0.028304119 0.018880224 0.011429902 0.0123392735 -0.093544245
-0.021698605 0.039729502 0.023837712 0.051266693 0.03259415 0.012047084 0.0012023337 0.033751115
0.008844337 0.0036001331 0.03581132 0.014284205 0.05588721 0.03104619 0.06088629 0.033077817
0.03691445 0.093832485 0.06915992 0.060215 -0.015214699 0.018710366 0.031882383 0.034544915
0.009343872 -0.0024238955 0.041252967 0.02153818 0.0062038493 -0.0052618813 0.008571115 0.009828883
0.028238308 0.06504371 0.0627944 -0.0312951 -0.016729975 0.053021386 0.061493836 -0.013150469
0.02565022 0.00972059 0.01783037 0.005099933 -0.046766546 0.03923277 0.03167023 -0.059151042
-0.011524898 0.04452552 0.046185803 0.039487462 -0.08147168 0.120567635 0.09101165 -0.031539198
0.0068756575 -0.10683526 0.021370275 0.08336431 0.03883739 -0.088776045 0.07003398 0.08710812
-0.030797686 0.12918366 0.11053742 0.024024125 -0.08466255 0.03445507 0.02580554 0.023053125
-0.09315899 -0.07343778 -0.010103071 0.081664786 0.0069510043 0.08229613 -0.06336339 0.17478354
0.01822258 0.055763923 -0.36610642 0.046311222 -0.03087584 0.042020615 -0.002979371 0.030433772
0.13742459 0.06706121 -0.005461769 0.001897506 0.014541015 0.09776523 0.022842424 0.22363815
-0.1002494 -0.029061016 -0.014490155 0.027866809 0.057314724 0.06581324 -0.0084920665 -0.20720452
0.08281185 -0.013016667 0.023754412 0.12763904 -0.03760396 0.07099307 0.005197307 -0.060421832
0.12276535 0.009760223 -0.09789727 0.029570209 0.046357427 0.008071885 -0.07375494 -0.08829789
-0.06234844 0.19644964 0.095214866 0.07423737 -0.034022976 -0.06673381 0.06731081 0.10211151
0.058561675 0.02948719 0.052995667 0.03672226 -0.0015480962 0.009062483 -0.0025340754 -0.052872032
0.03987381 0.0420133 0.087593116 0.06054075 0.013900338 0.044237543 0.07267821 0.1019084
0.037146475 0.073041074 0.0596838 0.020004028 0.05465214 0.055770252 -0.029402733 -0.030679476
-0.03546469 -0.008206265 0.015313463 0.04968549 0.018816784 -0.009030521 -0.007528996 -0.03035128
-0.016673986 0.0035981974 0.07111002 -0.034141786 0.1528255 0.079820365 0.07869445 0.019700939
-0.01111623 -0.0024064109 0.021655003 0.034824282 -0.03797519 -0.0029644473 -0.0022885664 0.0078167
0.024171235 0.015364855 0.022061165 0.00469886 -0.0093800975 -0.04852536 0.007601383 0.018611228
0.008581326 0.025721902 0.018516323 0.014562704 0.009550576 0.04797937 -0.024717808 0.046827447
0.04062065 0.012760944 0.011833733 0.027656961 0.03385324 0.012156772 0.004719736 0.05689922
0.0053176065 0.056495387 0.014275226 0.092447825 0.047942765 0.04735225 0.05239092 -0.002257231
-0.012506783 0.022881063 -0.005895315 0.06903905 -0.0416725 -0.029552458 0.03219352 0.0038037205
00000000: 033c 5cbd 1161 5abc 7488 23bd 52e9 e2bb
00000010: 8f8c 38bd 8845 ab3c 1884 24bd df81 003d
00000020: d241 6b3c 68eb 1a3d 12fd 87bd 0de9 63bd
00000030: fde1 3b3d 864b e7bc 5b07 bd3c 866c b5bd
00000040: b3a1 223d da59 3abd da2a 13bb 7eaf 833c
00000050: 54ce c1bc c404 d7bc d5d7 41bd 09bd 80bb
00000060: 158e 443d 4342 bebb bb97 f63c f5fc eabc
00000070: 4ad2 60bb 1963 16bd f4e2 e03d 6e5a 39bc
00000080: 766e 96bd 25e7 753d 5370 bbbd 0ade e7bc
00000090: b3aa 9a3c 7c44 3b3c aa2a 4a3c 2094 bfbd
000000a0: 46c1 b1bc 67bb 223d 4e47 c33c 06fd 513d
000000b0: 7281 053d 2261 453c a097 9d3a 9c3e 0a3d
000000c0: d7e7 103c 36f0 6b3b e4ae 123d 4c08 6a3c
000000d0: fde9 643d 9454 fe3c e763 793d 9b7c 073d
000000e0: 9b33 173d 3f2b c03d b7a3 8d3d 01a4 763d
000000f0: 1347 79bc 7b46 993c 1a97 023d f87e 0d3d
00000100: 0a17 193c 38da 1ebb dff8 283d d670 b03c
00000110: a949 cb3b dc6b acbb dd6d 0c3c 5309 213c
00000120: 0654 e73c a335 853d 5a9a 803d 4a2f 00bd
00000130: 4d0d 89bc f42c 593d f6e0 7b3d 1175 57bc
00000140: 6920 d23c 1c43 1f3c ff10 923c 571d a73b
00000150: 478e 3fbd 8bb2 203d a5b8 013d 5d48 72bd
00000160: edd2 3cbc 6460 363d 532d 3d3d 9bbd 213d
00000170: a0da a6bd 2aec f63d 5164 ba3d 3f2f 01bd
00000180: 324d e13b 72cc dabd b710 af3c e8ba aa3d
00000190: f413 1f3d 37d0 b5bd fa6d 8f3d be65 b23d
000001a0: 6e4b fcbc b948 043e 7161 e23d 3ece c43c
000001b0: 8f63 adbd c220 0d3d 2466 d33c e8d9 bc3c
000001c0: 24ca bebd 8c66 96bd 5a87 25bc de3f a73d
000001d0: 40c5 e33b e08a a83d aac4 81bd 75fa 323e
000001e0: 8547 953c b668 643d 4d72 bbbe d6b0 3d3d
000001f0: 54ef fcbc cf1d 2c3d 8d41 43bb 3f50 f93c
00000200: 08b9 0c3e 6357 893d a4f8 b2bb bcb5 f83a
00000210: 703d 6e3c 2339 c83d 0920 bb3c 6601 653e
00000220: 8f4f cdbd 5e11 eebc 1d68 6dbc ef48 e43c
00000230: d8c2 6a3d 18c9 863d 4f22 0bbc 6c2d 54be
00000240: 4299 a93d dc43 55bc 9d98 c23c cfb3 023e
00000250: 9c06 1abd d164 913d 2c4e aa3b e27c 77bd
00000260: 666c fb3d 58e9 1f3c 5d7e c8bd 393d f23c
00000270: 49e1 3d3d f13f 043c d40c 97bd 86d5 b4bd
00000280: 1461 7fbd 182a 493e 0300 c33d c309 983d
00000290: ad5b 0bbd bcab 88bd 40da 893d d71f d13d
000002a0: 5ede 6f3d 1f8f f13c fc11 593d 156a 163d
000002b0: 7de9 caba cf7a 143c bb12 26bb 5890 58bd
000002c0: b852 233d 2316 2c3d 0564 b33d 94f9 773d
000002d0: 3ebe 633c 6d32 353d 50d8 943d 5ab5 d03d
000002e0: e726 183d 8f96 953d 0077 743d 7ddf a33c
000002f0: ecda 5f3d 596f 643d 00de f0bc 8653 fbbc
00000300: 6c43 11bd 9273 06bc 52e5 7a3c 0383 4b3d
00000310: a825 9a3c c0f4 13bc ccb5 f6bb 3fa3 f8bc
00000320: e297 88bc bccf 6b3b 21a2 913d 42d8 0bbd
00000330: 4a7e 1c3e dc78 a33d 8e2a a13d dd63 a13c
00000340: d920 36bc e0b4 1dbb d565 b13c e8a3 0e3d
00000350: df8b 1bbd 2c47 42bb c6fb 15bb 9e11 003c
00000360: c102 c63c dfbc 7b3c 9eb9 b43c e5f8 993b
00000370: fbae 19bc 87c2 46bd 0615 f93b 9376 983c
00000380: b198 0c3c bdb6 d23c 8baf 973c 6898 6e3c
00000390: 057a 1c3c 0486 443d 007d cabc 23ce 3f3d
000003a0: d761 263d 4713 513c 46e2 413c da90 e23c
000003b0: b2a9 0a3d 332d 473c 04a8 9a3b 280f 693d
000003c0: 513f ae3b b567 673d a3e2 693c 4955 bd3d
000003d0: a25f 443d 6ff4 413d dd97 563d 0dee 13bb
000003e0: 40e9 4cbc 1171 bb3c 7d2d c1bb 5864 8d3d
000003f0: c9b0 2abd ff17 f2bc 5add 033d d747 793b

Linear1.bias f4 [256]
-0.6927559 -0.51259583 -0.791582 -0.7818204 -0.83652705 -0.5040899 -0.6235419 -0.8281093
-0.83569324 -0.9781518 -0.6923222 -0.70612365 -0.8026481 -0.48754162 -0.79447806 -0.6354768
-1.1455442 -0.7791034 -0.9793037 -0.66923565 -1.042099 -0.69694865 -0.7642693 -0.86623377
-0.67521644 -0.7694092 -0.7755974 -0.9746079 -1.1857152 -0.8780576 -0.6244451 -0.6321694
-0.7991174 -0.60658693 -0.63940895 -0.7957688 -0.97338706 -0.71728 -0.83712536 -0.8329334
-0.55022335 -0.81643486 -0.5641969 -0.696871 -0.7924234 -0.6878702 -0.7048048 -0.70690274
-0.792488 -0.7740076 -0.74779433 -0.7957302 -0.7891804 -0.81187224 -0.85760033 -0.75399613
-0.7499152 -0.7274388 -0.8051606 -0.7489232 -0.6748274 -0.74743706 -0.6799551 -0.5583536
-0.8211536 -0.82421476 -0.913722 -0.87474865 -0.6322694 -0.76519036 -0.7687823 -0.8133227
-0.6252456 -1.082748 -0.751989 -0.65919673 -0.64122975 -0.8506358 -0.8510245 -0.90878797
-0.75688887 -0.782847 -0.743528 -0.89567286 -0.60895693 -0.87535423 -0.7301597 -0.76042
-0.554616 -0.8118552 -0.6653092 -0.66553515 -0.98147404 -0.7561628 -0.85013974 -0.69154495
-0.90321606 -0.8419053 -0.62972784 -0.7283032 -0.86666524 -0.8102218 -0.65676004 -0.70769036
-0.7003941 -0.6929464 -0.80219996 -0.6014176 -0.8056582 -0.9439902 -0.6335017 -0.6634255
-0.71163255 -0.7851727 -0.8783053 -0.8492542 -0.9019557 -0.6861407 -0.84218454 -0.8036115
-0.637026 -0.69598067 -0.8567777 -0.80656 -0.63941336 -0.64437824 -0.77951413 -0.7348256
-0.63224 -0.5931983 -0.74952936 -1.0061225 -0.59364593 -0.66109335 -0.6250013 -0.7493178
-0.74837947 -0.9573381 -0.87525344 -0.8754567 -0.7409204 -0.7954566 -0.6177496 -0.8276622
-0.8917292 -0.64746046 -0.5779178 -0.78700244 -0.54404277 -0.684215 -0.8187671 -1.2070587
-0.73182213 -1.0292599 -0.55973345 -0.74586105 -0.8638644 -0.6028606 -1.1011245 -0.77314323
-0.7261216 -0.8897665 -0.6820615 -0.7524969 -0.532875 -0.69099164 -0.7406267 -0.87227994
-0.68262243 -0.71002364 -0.8002648 -0.7675711 -0.98836476 -0.6424262 -0.68379945 -0.86914647
-0.9517657 -0.7523324 -0.7725734 -1.0107224 -0.907504 -1.0301284 -0.66452277 -0.8238954
-0.9604072 -0.71876264 -0.7017704 -0.4480568 -0.73945576 -0.8886246 -0.90997916 -0.743797
-0.7743399 -0.7559233 -0.88078433 -0.5485205 -0.709586 -0.8251835 -0.7684072 -0.9919847
-0.8423436 -1.0823498 -0.7583964 -0.7246207 -0.5680203 -0.8185669 -0.65807337 -0.7461291
-0.87090737 -0.78412366 -0.78154856 -0.76717085 -0.7885664 -0.8828968 -0.7604797 -1.0028477
-0.6627066 -0.817845 -0.82271993 -0.62090045 -0.8516268 -0.60949636 -0.68232787 -0.7016308
-0.8333863 -0.72402376 -0.75606745 -0.7339833 -0.8846539 -0.8018098 -0.8653716 -0.9153154
-0.5714568 -1.0069463 -0.66213137 -0.7293617 -0.7471304 -0.7466108 -0.68263483 -0.6279337
-0.8173613 -0.729594 -0.9547177 -0.6809468 -0.6690792 -0.92674947 -0.62915194 -0.7942278
-0.55915177 -0.8265971 -0.9830767 -1.0145785 -0.7747121 -0.8780247 -0.764177 -0.6624795
00000000: 7358 31bf 7b39 03bf 1ea5 4abf 6225 48bf
00000010: a326 56bf 090c 01bf 71a0 1fbf f9fe 53bf
00000020: feef 55bf 2868 7abf 073c 31bf 85c4 34bf
00000030: 597a 4dbf 0e9f f9be ea62 4bbf 9cae 22bf
00000040: 31a1 92bf 5273 47bf a6b3 7abf 0753 2bbf
00000050: 8063 85bf 3a6b 32bf 27a7 43bf 7fc1 5dbf
00000060: fcda 2cbf 00f8 44bf 8d8d 46bf e77f 79bf
00000070: 84c5 97bf 62c8 60bf a2db 1fbf dbd5 21bf
00000080: f592 4cbf 4849 1bbf 4eb0 23bf 81b7 4bbf
00000090: e52f 79bf a99f 37bf d94d 56bf 203b 55bf
000000a0: 70db 0cbf e001 51bf 356f 10bf 2366 32bf
000000b0: 43dc 4abf 4318 30bf 166e 34bf 94f7 34bf
000000c0: 7ee0 4abf 5d25 46bf 736f 3fbf f9b4 4bbf
000000d0: ba07 4abf dcd6 4fbf b28b 5bbf e405 41bf
000000e0: 71fa 3fbf 6e39 3abf 011f 4ebf 6eb9 3fbf
000000f0: 7dc1 2cbf 0958 3fbf 8a11 2ebf 43f0 0ebf
00000100: 1f37 52bf bdff 52bf afe9 69bf 87ef 5fbf
00000110: 68dc 21bf 84e3 43bf ebce 44bf eb35 50bf
00000120: 1810 20bf 7d97 8abf 5a82 40bf 1ec1 28bf
00000130: a227 24bf 45c3 59bf bedc 59bf 54a6 68bf
00000140: 78c3 41bf a968 48bf da57 3ebf d14a 65bf
00000150: 9ae4 1bbf 3717 60bf bfeb 3abf e3aa 42bf
00000160: 50fb 0dbf bed5 4fbf b451 2abf 8360 2abf
00000170: e241 7bbf e393 41bf c2a2 59bf 1709 31bf
00000180: 2b39 67bf 1b87 57bf d835 21bf 1472 3abf
00000190: c6dd 5dbf b26a 4fbf 6d21 28bf 322b 35bf
000001a0: 074d 33bf ef64 31bf fa5c 4dbf 81f6 19bf
000001b0: 9e3f 4ebf 57a9 71bf 2b2d 22bf 41d6 29bf
000001c0: 8d2d 36bf 1401 49bf 9ed8 60bf b968 59bf
000001d0: 92e6 66bf eba6 2fbf 6899 57bf 7cb9 4dbf
000001e0: 2314 23bf ca2b 32bf c955 5bbf b77a 4ebf
000001f0: 98b0 23bf f9f5 24bf 3d8e 47bf 881d 3cbf
00000200: 7bda 21bf d8db 17bf 28e1 3fbf 9fc8 80bf
00000210: 2ef9 17bf 6a3d 29bf 1600 20bf 4bd3 3fbf
00000220: cc95 3fbf 1c14 75bf 9c10 60bf ee1d 60bf
00000230: f6ac 3dbf 0ba3 4bbf d624 1ebf ace1 53bf
00000240: 5d48 64bf f8bf 25bf 6cf2 13bf fe78 49bf
00000250: 6346 0bbf b728 2fbf b89a 51bf e680 9abf
00000260: b258 3bbf cabe 83bf b14a 0fbf c0f0 3ebf
00000270: 3826 5dbf 1355 1abf a6f1 8cbf b7ec 45bf
00000280: 1be3 39bf bdc7 63bf 959b 2ebf a3a3 40bf
00000290: 7f6a 08bf d4e4 30bf b699 3dbf bd4d 5fbf
000002a0: 58c0 2ebf 1cc4 35bf 27de 4cbf 8a7f 44bf
000002b0: 7905 7dbf 0b76 24bf 7b0d 2fbf 6280 5ebf
000002c0: eba6 73bf db98 40bf 5fc7 45bf 5a5f 81bf
000002d0: 2f52 68bf 3fdb 83bf 2a1e 2abf cfea 52bf
000002e0: 3fdd 75bf d400 38bf 3aa7 33bf b367 e5be
000002f0: f94c 3dbf e77c 63bf 65f4 68bf 7b69 3ebf
00000300: 243b 46bf 3084 41bf 157b 61bf d76b 0cbf
00000310: 6ea7 35bf 3a3f 53bf 56b6 44bf b6f2 7dbf
00000320: d5a3 57bf 708a 8abf 4426 42bf be80 39bf
00000330: c769 11bf 9a8d 51bf 7f77 28bf 5102 3fbf
00000340: c9f3 5ebf 54bc 48bf 9113 48bf 4f65 44bf
00000350: 7ddf 49bf 8605 62bf ccae 42bf 505d 80bf
00000360: 24a7 29bf 4a5e 51bf c69d 52bf 55f3 1ebf
00000370: 3704 5abf f407 1cbf 0aad 2ebf 139e 33bf
00000380: ce58 55bf 9f59 39bf a38d 41bf 54e6 3bbf
00000390: ae78 62bf 6843 4dbf fe88 5dbf 1c52 6abf
000003a0: fe4a 12bf 9ee3 80bf 7181 29bf 73b7 3abf
000003b0: f043 3fbf e321 3fbf 28c1 2ebf 43c0 20bf
000003c0: 973e 51bf acc6 3abf 6168 74bf 8852 2ebf
000003d0: c648 2bbf 743f 6dbf 1a10 21bf 8352 4bbf
000003e0: 9224 0fbf de9b 53bf eaaa 7bbf b5dd 81bf
000003f0: 8853 46bf 3ac6 60bf 1ba1 43bf 4298 29bf

Linear2.weight f4 [7, 256]
0.089803815 0.006331483 -0.05871543 0.072011806 -0.050433114 -0.0159165 -0.046360932 -0.06762274
-0.03334044 -0.037080392 0.001664822 -0.066067904 0.058566347 -0.01250487 -0.097637676 -0.004893915
0.11453146 -0.013650167 0.013091142 -0.046302866 -0.15710133 -0.09909616 -0.11568229 -0.060388215
-0.04229453 -0.02325133 -0.032236926 -0.033731587 -0.02799296 -0.04529064 -0.038652364 -0.09800194
-0.08423457 -0.10159987 -0.0076428656 -0.014740512 0.088952355 -0.06812981 0.17582145 0.030725563
0.034374766 -0.0009499025 -0.016750887 -0.026227036 -0.018222913 0.065758936 -0.13461494 0.012145905
0.042341094 -0.15121382 -0.057908323 0.22510065 -0.075166024 0.021937143 -0.118669465 -0.06349465
0.09004966 -0.1127419 0.027946807 0.013428009 -0.008668608 -0.11878796 0.124009885 -0.030889463
-0.11015564 -0.020842614 0.14074935 0.0015410586 -0.018770041 -0.06010083 -0.25271997 -0.060160927
-0.073669486 0.14273946 0.019930745 0.016504833 -0.07270217 -0.03001997 -0.054135125 0.05701025
-0.018331476 -0.05810092 -0.09011258 -0.063171335 0.044005584 0.014044214 -0.12680288 0.028817454
-0.098224886 0.12715262 0.004390461 0.01770078 -0.07819177 -0.020855842 -0.0083972085 -0.111337505
-0.0023371507 -0.012308851 -0.10280689 0.02919333 0.022504905 0.024274701 0.029990323 -0.06024584
-0.02814256 -0.087456755 -0.027501578 0.0054868404 -0.011746902 -0.06306942 0.0059006475 -0.15310085
-0.033680342 -0.13453348 -0.044497 0.10996918 -0.0048705274 0.09771663 0.031976007 0.011444422
-0.15873617 0.01502271 0.08555379 -0.018993119 0.07673587 -0.17800054 -0.16610883 -0.042978194
0.011445163 0.05311311 -0.009435213 0.090824984 0.02374941 -0.025273237 0.09013627 -0.1467577
-0.13858013 -0.087116644 0.017185837 -0.08243302 -0.27385935 -0.10032203 0.047791053 -0.050666347
-0.0058056805 -0.12425106 0.09508266 -0.058498025 -0.043361735 -0.061906707 -0.017476806 0.013229442
-0.019317461 -0.02662054 -0.025101595 0.0048718397 0.05224845 -0.017426329 0.0005452112 -0.0070974575
-0.069326095 0.01648086 -0.0026878037 -0.08589483 -0.0077181365 -0.00011814781 -0.056895096 -0.21381319
-0.21155454 -0.0009616034 -0.006060605 -0.0018475439 -0.074313074 -0.066445164 -0.020606099 0.02458791
0.054908607 -0.031263195 -0.019142337 0.09631703 -0.0522272 -0.22088212 -0.022583527 0.0738568
-0.14416912 0.025108125 -0.044693496 -0.07246607 -0.028041357 0.063968524 0.024951736 -0.012097547
-0.012184996 0.043576725 -0.03486593 -0.0042562587 -0.06512961 0.052327294 -0.032001756 0.011447592
-0.017006317 0.03990388 0.048917808 -0.062309008 0.06332764 -0.0690337 -0.122122854 -0.0048442213
0.024245685 0.018214928 -0.0025474245 -0.10082768 -0.00042003952 0.082295395 0.057700127 -0.013341518
-0.07502131 0.011287344 0.06336419 -0.018417457 0.028007884 -0.018494934 -0.04363915 -0.005316996
-0.020361053 -0.057145458 -0.114246 -0.07529998 -0.033707604 -0.0833881 0.009491107 -0.07944632
-0.031142846 -0.13144337 -0.06347028 0.016205808 0.01395457 -0.0019411194 0.10922061 0.02441311
-0.054865826 -0.052989315 -0.042512733 -0.07233318 -0.049862154 -0.0062960745 -0.020491699 -0.017422667
-0.10041828 0.1357414 0.114788696 0.01174664 -0.03502529 -0.021148853 -0.07729471 -0.022594513
00000000: 10eb b73d 5478 cf3b 977f 70bd ed7a 933d
00000010: f492 4ebd 5263 82bc f6e4 3dbd cb7d 8abd
00000020: fc8f 08bd 9ce1 17bd 2836 da3a 9c4e 87bd
00000030: 44e3 6f3d 3ae1 4cbc 43f6 c7bd 225d a0bb
00000040: 788f ea3d f3a4 5fbc 3b7c 563c 13a8 3dbd
00000050: 2cdf 20be edf2 cabd d6ea ecbd a259 77bd
00000060: 073d 2dbd 9379 bebc de0a 04bd 222a 0abd
00000070: 7e51 e5bc ae82 39bd f151 1ebd 3eb5 c8bd
00000080: 2d83 acbd 9813 d0bd 0171 fabb 3082 71bc
00000090: a72c b63d a487 8bbd 8a0a 343e 2db4 fb3c
000000a0: 8ecc 0c3d e102 79ba 2839 89bc 15da d6bc
000000b0: 3848 95bc 9fac 863d 80d8 09be 9eff 463c
000000c0: db6d 2d3d ccd7 1abe 4731 6dbd c980 663e
000000d0: a5f0 99bd 86b5 b33c fa08 f3bd 7c09 82bd
000000e0: f56b b83d 3ae5 e6bd b4f0 e43c 2701 5c3c
000000f0: c706 0ebc 1a47 f3bd e5f8 fd3d e60b fdbc
00000100: 4899 e1bd 21be aabc 9920 103e 59fd c93a
00000110: a1c3 99bc 4a2c 76bd 8364 81be 4e6b 76bd
00000120: 07e0 96bd 4b2a 123e cd45 a33c 2535 873c
00000130: e0e4 94bd 71ec f5bc cbbc 5dbd 9483 693d
00000140: e42b 96bc 3bfb 6dbd f28c b8bd f95f 81bd
00000150: 333f 343d b419 663c 9dd8 01be 9512 ec3c
00000160: 212a c9bd 4c34 023e dbdd 8f3b 3a01 913c
00000170: 0223 a0bd dfd9 aabc 7294 09bc eb04 e4bd
00000180: e22a 19bb 10ab 49bc 6b8c d2bd da26 ef3c
00000190: 355c b83c bddb c63c 44ae f53c 58c4 76bd
000001a0: 3a8b e6bc 871c b3bd fd4a e1bc f4ca b33b
000001b0: 1476 40bc 8a2a 81bd 385a c13b 78c6 1cbe
000001c0: 66f4 09bd 25c3 09be 7c42 36bd 8537 e13d
000001d0: f298 9fbb a81f c83d 46f9 023d 6381 3b3c
000001e0: bc8b 22be d021 763c d336 af3d 7597 9bbc
000001f0: b227 9d3d c645 36be 6f18 2abe e709 30bd
00000200: 7e84 3b3c 228d 593d 2796 1abc 7302 ba3d
00000210: 1f8e c23c d209 cfbc 5d99 b83d a747 16be
00000220: f3e7 0dbe 366a b2bd 50c9 8c3c a5d2 a8bd
00000230: 4b37 8cbe a375 cdbd 8dc0 433d 8487 4fbd
00000240: 943d bebb 5777 febd b3ba c23d a09b 6fbd
00000250: 139c 31bd e391 7dbd 852b 8fbc 4dc0 583c
00000260: a73f 9ebc 5213 dabc dca1 cdbc f4a3 9f3b
00000270: 7902 563d a9c1 8ebc 81ec 0e3a ca91 e8bb
00000280: d7fa 8dbd de02 873c dd25 30bb a1e9 afbd
00000290: 6ce8 fcbb 1fc6 f7b8 d50a 69bd d8f1 5abe
000002a0: c1a1 58be 1d14 7cba 0a98 c6bb 4929 f2ba
000002b0: 7431 98bd 6714 88bd 1fce a8bc 966c c93c
000002c0: d9e7 603d d60d 00bd 64d0 9cbc dd41 c53d
000002d0: 30ec 55bd ec2e 62be 1701 b9bc 3c42 973d
000002e0: 12a1 13be 8eaf cd3c 8710 37bd 1769 94bd
000002f0: fdb6 e5bc ee01 833d 9567 cc3c ca34 46bc
00000300: 94a3 47bc 827d 323d 94cf 0ebd 1678 8bbb
00000310: ac62 85bd 2555 563d 4614 03bd ae8e 3b3c
00000320: d550 8bbc 4072 233d 0a5e 483d bb37 7fbd
00000330: ecb1 813d 8a61 8dbd 8c1b fabd 46bc 9ebb
00000340: e39e c63c 7937 953c b1f2 26bb be7e cebd
00000350: c038 dcb9 7d8a a83d f856 6c3d 6296 5abc
00000360: c6a4 99bd 8dee 383c 16c5 813d 35e0 96bc
00000370: ca70 e53c b082 97bc f7be 32bd 323a aebb
00000380: 39cc a6bc 5b11 6abd cff9 e9bd e036 9abd
00000390: fc10 0abd 61c7 aabd 9780 1b3c c1b4 a2bd
000003a0: 481f ffbc 1799 06be b5fc 81bd 0bc2 843c
000003b0: b5a1 643c 296d feba 0eaf df3d 01fe c73c
000003c0: fdba 60bd 530b 59bd d521 2ebd 6b23 94bd
000003d0: 423c 4cbd 4d4f cebb 35de a7bc fbb9 8ebc
000003e0: 19a8 cdbd cbff 0a3e 5616 eb3d fb74 403c
000003f0: ae76 0fbd 5c40 adbc b04c 9ebd 2118 b9bc

Linear2.bias f4 [7]
0.0071498314 0.008178136 0.008050745 0.0052485922 0.0073928065 0.007981647 0.008064056
00000000: 2249 ea3b 97fd 053c 46e7 033c 62fc ab3b
00000010: 5b3f f23b 74c5 023c 1a1f 043c
