epsilon_10/saved_model 5500.pth (torch, 52885 bytes, 4 tensors)

Linear1.weight f4 [256, 42]
-0.06616362 -0.032162376 -0.04078494 0.01045937 -0.05649159 0.015402872 -0.053810984 0.033772416
-0.044844244 0.06813573 -0.066453 -0.063226864 0.1011428 -0.015209806 0.041188855 -0.08492533
0.011951806 -0.05386372 0.0072152144 -0.017048499 -0.031248212 -0.06662928 -0.10042646 0.005666076
0.059656475 -0.010557419 0.062136415 -0.021866422 0.010750246 -0.04550629 0.10694375 -0.02675904
-0.053922012 0.07362117 -0.0920865 -0.10644719 0.05197062 -0.024923906 0.028133117 -0.11828229
-0.050475236 0.05270756 0.023837712 0.051266693 0.03259415 0.012047084 0.0012023337 0.033751115
0.008844337 0.0036001331 0.03581132 0.014284205 0.05588721 0.03104619 0.06088629 0.033077817
0.03691445 0.093832485 0.06915992 0.060215 -0.015214699 0.018710366 0.031882383 0.034544915
0.009343872 -0.0024238955 0.041252967 0.02153818 0.0062038493 -0.0052618813 0.008571115 0.009828883
0.028238308 0.06504371 0.0627944 -0.0312951 -0.016729975 0.053021386 0.061493836 -0.013150469
0.02565022 0.00972059 0.01783037 0.005099933 -0.073103435 0.045048308 0.009033281 -0.105014265
-0.03723082 0.04204963 0.06958349 0.10619006 -0.019707274 0.07094929 0.08502307 0.009405087
-0.014072218 -0.11405929 0.03982522 0.04541896 0.037703563 -0.010079563 0.04577003 0.10212861
-0.0011960235 -0.043454695 0.14553078 0.045105442 -0.038673017 0.040448442 -0.017797092 -0.06087406
0.03444185 -0.12616554 -0.14469221 0.038398497 -0.0054287775 0.12800665 0.11548914 0.015673261
-0.06195773 -0.034496885 -0.08115478 0.06841674 -0.09093155 -0.014606648 0.06482382 -0.047817193
0.026298707 0.10799756 0.012793871 0.009048883 0.07798917 0.009542119 0.053487428 0.06011785
0.05477775 0.016762786 -0.0066750846 0.0027163231 -0.059222717 0.1472455 0.05341129 0.017624669
0.03076176 0.05468322 -0.03126507 0.009568577 -0.048929244 0.006050062 0.016566576 -0.004143254
-0.01650972 -0.021455832 0.018527346 0.03607659 0.0010341138 0.010680116 -0.026797842 -0.043561798
0.056240745 0.0015920622 0.07519352 -0.0036324058 0.030106701 -0.074326806 -0.0033502013 -0.0073475842
0.029581388 0.06266961 0.019814929 0.0040436676 0.031127136 -0.023869185 0.030141123 -0.023892682
0.009046909 0.07519558 0.066040725 0.031057565 0.013901161 0.07741745 0.043698896 0.13298771
0.028140377 0.08416356 0.09286363 0.020003213 0.08783283 0.08474957 0.001678113 -0.039833453
-0.048079856 -0.041386046 0.015314287 0.0405965 0.051997524 -0.0090297125 -0.016679225 -0.101928845
0.014152997 0.0035973678 0.08019909 -0.06732161 0.15282479 0.10197764 0.031931 -0.011379898
-0.011115407 -0.009250172 0.021655003 0.034824282 -0.03797519 -0.0029644473 -0.0022885664 0.0078167
0.024171235 0.015364855 0.022061165 0.00469886 -0.0093800975 -0.04852536 0.007601383 0.018611228
0.008581326 0.025721902 0.018516323 0.014562704 0.009550576 0.04797937 -0.024717808 0.046827447
0.04062065 0.012760944 0.011833733 0.027656961 0.03385324 0.012156772 0.004719736 0.05689922
0.0053176065 0.056495387 0.014275226 0.092447825 0.047942765 0.04735225 0.05239092 -0.002257231
-0.012506783 0.022881063 -0.005895315 0.06903905 -0.0416725 -0.029552458 0.03219352 0.0038037205
00000000: cb80 87bd b2bc 03bd 1c0e 27bd c75d 2b3c
00000010: ba63 67bd 545c 7c3c e868 5cbd f254 0a3d
00000020: 99ae 37bd bf8a 8b3d 8318 88bd 167d 81bd
00000030: f523 cf3d 8d32 79bc a5b5 283d 55ed adbd
00000040: 82d1 433c 34a0 5cbd 9b6d ec3b 4ba9 8bbc
00000050: 40fc ffbc ef74 88bd 63ac cdbd 7eaa b93b
00000060: 595a 743d 06f9 2cbc c182 7e3d 3621 b3bc
00000070: cd21 303c ce64 3abd 5305 db3d c635 dbbc
00000080: 54dd 5cbd b2c6 963d d997 bcbd fc00 dabd
00000090: 25df 543d 382d ccbc 6c77 e63c fc3d f2bd
000000a0: 1fbf 4ebd e2e3 573d 4e47 c33c 06fd 513d
000000b0: 7281 053d 2261 453c a097 9d3a 9c3e 0a3d
000000c0: d7e7 103c 36f0 6b3b e4ae 123d 4c08 6a3c
000000d0: fde9 643d 9454 fe3c e763 793d 9b7c 073d
000000e0: 9b33 173d 3f2b c03d b7a3 8d3d 01a4 763d
000000f0: 1347 79bc 7b46 993c 1a97 023d f87e 0d3d
00000100: 0a17 193c 38da 1ebb dff8 283d d670 b03c
00000110: a949 cb3b dc6b acbb dd6d 0c3c 5309 213c
00000120: 0654 e73c a335 853d 5a9a 803d 4a2f 00bd
00000130: 4d0d 89bc f42c 593d f6e0 7b3d 1175 57bc
00000140: 6920 d23c 1c43 1f3c ff10 923c 571d a73b
00000150: 41b7 95bd 9384 383d 5400 143c b811 d7bd
00000160: 587f 18bd 3c3c 2c3d ca81 8e3d 2d7a d93d
00000170: 2671 a1bc dd4d 913d 9320 ae3d cb17 1a3c
00000180: 298f 66bc eb97 e9bd c51f 233d 3b09 3a3d
00000190: 0d6f 1a3d c024 25bc 5b79 3b3d ce28 d13d
000001a0: e4c3 9cba 8dfd 31bd 0506 153e 7cc0 383d
000001b0: 9967 1ebd 44ad 253d 35cb 91bc 1457 79bd
000001c0: e612 0d3d 8a31 01be 322a 14be be47 1d3d
000001d0: e3e3 b1bb 2d14 033e 9285 ec3d 3665 803c
000001e0: 64c7 7dbd 9b4c 0dbd 7a34 a6bd 131e 8c3d
000001f0: 523a babd b950 6fbc 5ac2 843d f6db 43bd
00000200: 6370 d73c d32d dd3d 629d 513c c441 143c
00000210: c9b8 9f3d 8c56 1c3c a215 5b3d 223e 763d
00000220: a25e 603d 1c52 893c abba dabb 5704 323b
00000230: 8593 72bd 86c7 163e ccc5 5a3d 9c61 903c
00000240: 1600 fc3c 83fb 5f3d cd0f 00bd 85c5 1c3c
00000250: 086a 48bd 993f c63b a1b6 873c 22c4 87bb
00000260: 643f 87bc 24c4 afbc a9c6 973c 0cc5 133d
00000270: 1a8b 873a a7fb 2e3c 2687 dbbc db6d 32bd
00000280: b25c 663d beac d03a 0fff 993d a80d 6ebb
00000290: 54a2 f63c a738 98bd 0d8f 5bbb 01c4 f0bb
000002a0: ab54 f23c ed58 803d eb52 a23c be80 843b
000002b0: 56fe fe3c 4f89 c3bc 84ea f63c 96ba c3bc
000002c0: 7d39 143c 2400 9a3d 5c40 873d 6f6c fe3c
000002d0: b2c1 633c 0a8d 9e3d 9dfd 323d ee2d 083e
000002e0: a686 e63c f25d ac3d 492f be3d c7dd a33c
000002f0: b3e1 b33d 2f91 ad3d 21f4 db3a 6728 23bd
00000300: 62ef 44bd 6a84 29bd c6e8 7a3c 8448 263d
00000310: 5bfb 543d 5cf1 13bc dfa2 88bc 12c0 d0bd
00000320: f9e1 673c d1c1 6b3b 6c3f a43d eadf 89bd
00000330: 1a7e 1c3e a7d9 d03d 15ca 023d c072 3abc
00000340: 651d 36bc 098e 17bc d565 b13c e8a3 0e3d
00000350: df8b 1bbd 2c47 42bb c6fb 15bb 9e11 003c
00000360: c102 c63c dfbc 7b3c 9eb9 b43c e5f8 993b
00000370: fbae 19bc 87c2 46bd 0615 f93b 9376 983c
00000380: b198 0c3c bdb6 d23c 8baf 973c 6898 6e3c
00000390: 057a 1c3c 0486 443d 007d cabc 23ce 3f3d
000003a0: d761 263d 4713 513c 46e2 413c da90 e23c
000003b0: b2a9 0a3d 332d 473c 04a8 9a3b 280f 693d
000003c0: 513f ae3b b567 673d a3e2 693c 4955 bd3d
000003d0: a25f 443d 6ff4 413d dd97 563d 0dee 13bb
000003e0: 40e9 4cbc 1171 bb3c 7d2d c1bb 5864 8d3d
000003f0: c9b0 2abd ff17 f2bc 5add 033d d747 793b

Linear1.bias f4 [256]
-0.6670113 -0.51259583 -0.70322174 -0.59645647 -0.8033479 -0.5040899 -0.6235419 -0.61698735
-0.80418146 -0.6232534 -0.4917228 -0.64363986 -0.7365602 -0.48754162 -0.79447806 -0.52664244
-0.83045363 -0.6917493 -0.58748513 -0.52437806 -0.67876863 -0.65240055 -0.59250385 -0.5158178
-0.64993715 -0.58912337 -0.52429706 -0.61924565 -0.843613 -0.62857157 -0.56245404 -0.6321694
-0.60343736 -0.5517037 -0.5239212 -0.52357 -0.55242276 -0.58051884 -0.63537943 -0.52082974
-0.55022335 -0.5906572 -0.5388496 -0.5180862 -0.6868236 -0.6878702 -0.5456034 -0.6227455
-0.65273637 -0.4973943 -0.72044736 -0.6940123 -0.5712187 -0.62904996 -0.75507736 -0.55128396
-0.54925996 -0.6164141 -0.75653654 -0.5741851 -0.6748274 -0.519592 -0.6469101 -0.5583536
-0.628769 -0.5917851 -0.7862035 -0.6886314 -0.5035326 -0.71618205 -0.61266327 -0.5587429
-0.53576195 -0.7828463 -0.751989 -0.65919673 -0.61358833 -0.6452362 -0.63442796 -0.61303896
-0.6142639 -0.6544695 -0.6339871 -0.7069314 -0.5493815 -0.79684025 -0.52851063 -0.6524765
-0.42431936 -0.8118552 -0.55087936 -0.5296434 -0.7684741 -0.51476234 -0.547107 -0.69154495
-0.74667364 -0.6634485 -0.55307275 -0.70159745 -0.86666524 -0.72892594 -0.6141463 -0.67152214
-0.546917 -0.6929464 -0.7741879 -0.5673307 -0.5087648 -0.7882845 -0.6335017 -0.6035447
-0.51933956 -0.56232905 -0.8252539 -0.7158186 -0.87028915 -0.5093863 -0.65910465 -0.5650842
-0.5761651 -0.6644364 -0.681296 -0.5492615 -0.55407137 -0.5697228 -0.6754435 -0.60208476
-0.63224 -0.5883287 -0.6685164 -0.5985551 -0.59364593 -0.4880992 -0.48323753 -0.56431293
-0.56377494 -0.524181 -0.75638646 -0.6282384 -0.5202739 -0.5171609 -0.555607 -0.6715344
-0.73149955 -0.5998307 -0.5127655 -0.592534 -0.48532936 -0.5589971 -0.602069 -0.7960286
-0.73182213 -0.805223 -0.55973345 -0.67762876 -0.7031701 -0.6028606 -0.8978159 -0.6577911
-0.55660856 -0.61712426 -0.6788874 -0.6922936 -0.532875 -0.54353553 -0.73615533 -0.6193544
-0.68262243 -0.6480996 -0.6602814 -0.53675616 -0.67947584 -0.6424262 -0.63252574 -0.7149548
-0.7145896 -0.6492915 -0.7472082 -0.81960696 -0.61735964 -0.6027653 -0.5633641 -0.592358
-0.64258075 -0.63391644 -0.7017704 -0.4480568 -0.6472452 -0.5763108 -0.74624807 -0.6596884
-0.62187046 -0.6337305 -0.8655266 -0.5178667 -0.63022935 -0.673196 -0.7368834 -0.715772
-0.68089193 -0.88652974 -0.6532402 -0.6641137 -0.5680203 -0.7167064 -0.55908495 -0.6139415
-0.5293656 -0.78412366 -0.6401037 -0.7192356 -0.7728255 -0.7254283 -0.47189167 -0.8836673
-0.5621504 -0.7453694 -0.66364306 -0.53078043 -0.69491965 -0.5265933 -0.5796214 -0.7016308
-0.79614866 -0.64535916 -0.47244945 -0.6179969 -0.65158 -0.5973183 -0.7018449 -0.7772051
-0.49532774 -0.85019237 -0.50244266 -0.6568039 -0.7252651 -0.61113846 -0.49022517 -0.44735104
-0.54530513 -0.6396776 -0.8217895 -0.5364002 -0.6690792 -0.8530903 -0.4608164 -0.59953856
-0.55221134 -0.60190827 -0.6093387 -0.9573555 -0.605915 -0.62135136 -0.53901255 -0.5390471
00000000: 41c1 2abf 7b39 03bf 5706 34bf 5fb1 18bf
00000010: 35a8 4dbf 090c 01bf 71a0 1fbf e2f2 1dbf
00000020: d6de 4dbf 898d 1fbf 17c3 fbbe 95c5 24bf
00000030: 368f 3cbf 0e9f f9be ea62 4bbf 0ad2 06bf
00000040: 9c98 54bf 7b16 31bf 6d65 16bf a43d 06bf
00000050: c8c3 2dbf b903 27bf 55ae 17bf a30c 04bf
00000060: 4862 26bf cad0 16bf 5538 06bf e286 1ebf
00000070: 06f7 57bf 11ea 20bf fdfc 0fbf dbd5 21bf
00000080: df7a 1abf 743c 0dbf b31f 06bf af08 06bf
00000090: 946b 0dbf e29c 14bf 3aa8 22bf 1955 05bf
000000a0: 70db 0cbf 4f35 17bf 0cf2 09bf 4ca1 04bf
000000b0: acd3 2fbf 4318 30bf aaac 0bbf 406c 1fbf
000000c0: bb19 27bf 77aa febe 3d6f 38bf caaa 31bf
000000d0: 643b 12bf 6b09 21bf c04c 41bf f220 0dbf
000000e0: 4d9c 0cbf 51cd 1dbf 61ac 41bf cbfd 12bf
000000f0: 7dc1 2cbf fb03 05bf e69b 25bf 43f0 0ebf
00000100: 01f7 20bf 3a7f 17bf a244 49bf 264a 30bf
00000110: 83e7 00bf b557 37bf 80d7 1cbf c609 0fbf
00000120: b227 09bf 9d68 48bf 5a82 40bf 1ec1 28bf
00000130: 2014 1dbf 332e 25bf df69 22bf 1ff0 1cbf
00000140: 6640 1dbf 508b 27bf fb4c 22bf 75f9 34bf
00000150: 44a4 0cbf b9fd 4bbf 794c 07bf b308 27bf
00000160: 6340 d9be bed5 4fbf 6e06 0dbf b696 07bf
00000170: b8ba 44bf 77c7 03bf 340f 0cbf 1709 31bf
00000180: 0126 3fbf c3d7 29bf 2d96 0dbf e49b 33bf
00000190: c6dd 5dbf e49a 3abf b138 1dbf e0e8 2bbf
000001a0: c102 0cbf ef64 31bf 2e31 46bf 963c 11bf
000001b0: 693e 02bf 03cd 49bf 2b2d 22bf e881 1abf
000001c0: 70f3 04bf ccf4 0fbf d743 53bf e33f 37bf
000001d0: 45cb 5ebf 2467 02bf 15bb 28bf 5ca9 10bf
000001e0: 8e7f 13bf 8118 2abf 6a69 2ebf 679c 0cbf
000001f0: 9fd7 0dbf 5ad9 11bf dde9 2cbf 3a22 1abf
00000200: 7bda 21bf b69c 16bf e423 2bbf e83a 19bf
00000210: 2ef9 17bf 23e8 f9be e96a f7be d076 10bf
00000220: 8e53 10bf ba30 06bf 8ba2 41bf 3bd4 20bf
00000230: ac30 05bf a864 04bf 433c 0ebf aee9 2bbf
00000240: 8e43 3bbf 818e 19bf 9a44 03bf 4fb0 17bf
00000250: 177d f8be 6f1a 0fbf 3221 1abf 88c8 4bbf
00000260: b258 3bbf 1823 4ebf b14a 0fbf 1479 2dbf
00000270: f502 34bf 1355 1abf 43d7 65bf ff64 28bf
00000280: e67d 0ebf dbfb 1dbf 91cb 2dbf 273a 31bf
00000290: 7f6a 08bf 2525 0bbf ad74 3cbf 038e 1ebf
000002a0: 58c0 2ebf dbe9 25bf 3408 29bf da68 09bf
000002b0: 21f2 2dbf 0b76 24bf 35ed 21bf 4707 37bf
000002c0: 58ef 36bf f837 26bf 0949 3fbf c3d1 51bf
000002d0: 480b 1ebf d44e 1abf a138 10bf c6a4 17bf
000002e0: 2c80 24bf 5948 22bf 3aa7 33bf b367 e5be
000002f0: ddb1 25bf 1b89 13bf 1d0a 3fbf 57e1 28bf
00000300: e732 1fbf 293c 22bf 2793 5dbf e992 04bf
00000310: b656 21bf 9356 2cbf 64a4 3cbf d53c 37bf
00000320: ef4e 2ebf 9df3 62bf c03a 27bf 5b03 2abf
00000330: c769 11bf 127a 37bf 3120 0fbf 452b 1dbf
00000340: 8184 07bf 54bc 48bf d6dd 23bf d31f 38bf
00000350: e4d7 45bf abb5 39bf c99b f1be 0538 62bf
00000360: 17e9 0fbf 87d0 3ebf 83e4 29bf 3ae1 07bf
00000370: 41e6 31bf d2ce 06bf 1162 14bf 139e 33bf
00000380: 66d0 4bbf 4236 25bf e5e4 f1be 0b35 1ebf
00000390: f2cd 26bf dae9 18bf 1bac 33bf eaf6 46bf
000003a0: 999b fdbe 35a6 59bf 15a0 00bf 4d24 28bf
000003b0: f9aa 39bf 9273 1cbf cbfe fabe 320b e5be
000003c0: 1e99 0bbf e9c1 23bf cc60 52bf 8651 09bf
000003d0: c648 2bbf 2064 5abf 21f0 ebbe 5c7b 19bf
000003e0: b95d 0dbf a916 1abf 9ffd 1bbf 4015 75bf
000003f0: 3f1d 1bbf e210 1fbf bafc 09bf fefe 09bf

Linear2.weight f4 [7, 256]
0.08668878 0.006331483 -0.18160018 -0.1180389 -0.0504651 -0.0159165 -0.046360932 -0.048279226
-0.063895926 -0.0389231 -0.118329175 0.018314373 0.07467761 -0.01250487 -0.097637676 -0.020822339
0.1332642 -0.026955243 0.019330364 0.0046077333 -0.018723663 -0.11312252 -0.04362408 -0.14302577
-0.034205973 -0.03052383 -0.03419258 -0.1078609 0.117077656 -0.011750698 -0.008780955 -0.09800194
-0.115297884 -0.08399491 0.025588872 -0.22473764 0.021114428 -0.099061616 -0.050171945 -0.068001054
0.034374766 -0.10269689 -0.016750887 -0.2053045 -0.04928388 0.065758936 -0.0050809574 0.0024840343
-0.071354136 0.019152949 -0.057908323 0.14810127 -0.0034776512 -0.011939634 0.08905712 -0.036481652
0.1231322 -0.15099858 -0.021348959 0.011953727 -0.008668608 -0.07419059 0.12551098 -0.030889463
-0.06551044 0.071874954 0.013066074 -0.0330578 0.0069304863 0.023674956 -0.09182427 -0.11542548
-0.15739581 0.04758936 0.019930745 0.016504833 -0.09747827 -0.25227144 -0.010273832 -0.017997934
-0.01064411 -0.04533476 0.039727982 0.0780374 -0.005262126 -0.045822512 -0.085780285 -0.11215432
-0.03504391 0.12715262 -0.03630405 -0.01614901 -0.007945075 -0.019091979 -0.049301088 -0.111337505
0.053771287 -0.027916163 -0.11769609 -0.006126682 0.022504905 -0.0027048844 0.0030193988 -0.06024584
-0.0076293647 -0.087456755 -0.1356865 0.0054868404 -0.022250764 -0.07055768 0.0059006475 -0.15310085
-0.06789659 -0.043764893 -0.0854612 -0.009206823 -0.0048705274 -0.05027159 -0.03343124 -0.00031497376
-0.10584073 0.01502271 -0.00023599093 -0.03924977 -0.052667547 -0.061829034 -0.03596793 -0.05154461
0.011445163 -0.009887074 -0.12519792 0.045012314 0.02374941 0.0013372159 -0.07772839 -0.13865858
-0.06403202 -0.06967653 -0.04078583 0.018531308 0.095075294 -0.0051058214 0.030018512 -0.05278123
-0.078087635 -0.14225842 -0.009502084 -0.05051392 -0.121200986 -0.073060304 0.04720195 0.016911546
-0.019317461 -0.055742543 -0.025101595 0.03352297 -0.01663778 -0.017426329 -0.043966908 0.10012646
-0.11376842 0.03771525 -0.0042876033 -0.05189316 -0.0077181365 0.035920326 -0.07725999 -0.012966001
-0.21155454 -0.018262679 -0.00074939016 -0.009416446 -0.112248234 -0.066445164 -0.07176711 -0.06406069
-0.035100456 -0.086741574 -0.019142337 -0.013007211 0.0025507829 -0.13508795 -0.0121934535 -0.16625285
-0.081864186 -0.041737236 -0.044693496 -0.07246607 -0.00014930943 -0.00042971788 0.023270551 -0.01273373
-0.02754027 -0.06759354 -0.03486593 -0.0042562587 -0.008029061 0.001320184 -0.032001756 0.047839347
0.011077417 0.0028498222 0.0028912232 -0.062309008 0.06332764 -0.057247788 0.041857447 -0.11767108
0.07579287 0.018214928 -0.10058573 0.071104884 -0.018886888 -0.0064295204 0.00013159619 -0.002951546
-0.011087485 0.02433727 0.13206735 -0.053993724 0.069303595 -0.12239301 -0.011000972 -0.005316996
0.008114759 -0.006638455 -0.027259056 -0.040903658 -0.030823123 -0.07665393 -0.006873541 -0.13483039
-0.019111395 0.05864088 0.0021357858 -0.060674068 0.01395457 -0.12487224 -0.1544207 -0.0936394
0.09296511 0.0441014 -0.1816435 0.0021399602 -0.049862154 0.040947285 0.05025827 0.04384289
-0.10037038 -0.006372442 0.006453512 0.08092754 -0.06463665 -0.012081552 0.058931906 -0.053904757
00000000: e389 b13d 5478 cf3b 66f5 39be 61be f1bd
00000010: 7eb4 4ebd 5263 82bc f6e4 3dbd 70c0 45bd
00000020: dedb 82bd d46d 1fbd 9156 f2bd 0608 963c
00000030: 93f0 983d 3ae1 4cbc 43f6 c7bd 9c93 aabc
00000040: 6976 083e 3ed1 dcbc b65a 9e3c 78fc 963b
00000050: 5e62 99bc c8ac e7bd 2aaf 32bd 5975 12be
00000060: 901b 0cbd 1c0d fabc 850d 0cbd 2de6 dcbd
00000070: 69c6 ef3d 0086 40bc ffdd 0fbc 3eb5 c8bd
00000080: 4c21 ecbd 8605 acbd c19f d13c a021 66be
00000090: 2af8 ac3c d1e0 cabd 1981 4dbd 2344 8bbd
000000a0: 8ecc 0c3d bf52 d2bd 2839 89bc 583b 52be
000000b0: e5dd 49bd 9fac 863d 297e a6bb 2ecb 223b
000000c0: 1e22 92bd a5e6 9c3c 4731 6dbd dca7 173e
000000d0: 4ee9 63bb 749e 43bc 9463 b63d c96d 15bd
000000e0: bc2c fc3d 5f9f 1abe 03e4 aebc 91d9 433c
000000f0: c706 0ebc 3cf1 97bd f385 003e e60b fdbc
00000100: 562a 86bd 2d33 933d 1613 563c 9e67 07bd
00000110: 2219 e33b fbf1 c13c 5d0e bcbd 3264 ecbd
00000120: 5e2c 21be 10ed 423d cd45 a33c 2535 873c
00000130: b0a2 c7bd b929 81be 9353 28bc 6770 93bc
00000140: a264 2ebc f1b0 39bd cfb9 223d 13d2 9f3d
00000150: ea6d acbb 63b0 3bbd 93ad afbd 2ab1 e5bd
00000160: 348a 0fbd 4c34 023e 8eb3 14bd ee4a 84bc
00000170: 0f2c 02bc c866 9cbc f0ef 49bd eb04 e4bd
00000180: 483f 5c3d 70b0 e4bc a60a f1bd 55c2 c8bb
00000190: 355c b83c 6e44 31bb 1be1 453b 58c4 76bd
000001a0: c0ff f9bb 871c b3bd 67f1 0abe f4ca b33b
000001b0: 3c47 b6bc 8c80 90bd 385a c13b 78c6 1cbe
000001c0: 5e0d 8bbd d142 33bd 4806 afbd 37d8 16bc
000001d0: f298 9fbb 95e9 4dbd 32ef 08bd 1023 a5b9
000001e0: 06c3 d8bd d021 763c 5574 77b9 5ec4 20bd
000001f0: edb9 57bd 7140 7dbd 1c53 13bd 7120 53bd
00000200: 7e84 3b3c 65fd 21bc e233 00be d55e 383d
00000210: 1f8e c23c 8545 af3a 1030 9fbd 84fc 0dbe
00000220: 3823 83bd 92b2 8ebd 0b0f 27bd f8ce 973c
00000230: d6b6 c23d bc4e a7bb 62e9 f53c 2231 58bd
00000240: 69ec 9fbd 31ac 11be a1ae 1bbc afe7 4ebd
00000250: 3938 f8bd a4a0 95bd d556 413d 158a 8a3c
00000260: a73f 9ebc 4b52 64bd dca1 cdbc 624f 093d
00000270: f44b 88bc a9c1 8ebc a516 34bd 1a0f cd3d
00000280: 6bff e8bd 4e7b 1a3d 067f 8cbb ec8d 54bd
00000290: 6ce8 fcbb 3121 133d 7c3a 9ebd 5a6f 54bc
000002a0: c1a1 58be 9d9b 95bc b972 44ba 7047 1abc
000002b0: 67e2 e5bd 6714 88bd a2fa 92bd 4032 83bd
000002c0: 7fc5 0fbd 91a5 b1bd 64d0 9cbc 321c 55bc
000002d0: 092b 273b 7f54 0abe 0dc7 47bc 303e 2abe
000002e0: 69a8 a7bd aaf4 2abd 8710 37bd 1769 94bd
000002f0: f28f 1cb9 c24b e1b9 e2a1 be3c 22a1 50bc
00000300: 229c e1bc 7b6e 8abd 94cf 0ebd 1678 8bbb
00000310: 538c 03bc 060a ad3a 4614 03bd 31f3 433d
00000320: 0e7e 353c 15c4 3a3b ad7a 3d3b bb37 7fbd
00000330: ecb1 813d a87c 6abd b772 2b3d 89fd f0bd
00000340: 4b39 9b3d 7937 953c e4ff cdbd 709f 913d
00000350: adb8 9abc baae d2bb 15fd 0939 ba6e 41bb
00000360: 48a8 35bc f45e c73c aa3c 073e 8628 5dbd
00000370: 0bef 8d3d 30a9 fabd 6c3d 34bc 323a aebb
00000380: c4f3 043c 6687 d9bb 624e dfbc 988a 27bd
00000390: c680 fcbc bcfc 9cbd 713b e1bb fa10 0abe
000003a0: 808f 9cbc 6b31 703d 8af8 0b3b 5f85 78bd
000003b0: b5a1 643c 04bd ffbd 7620 1ebe 04c6 bfbd
000003c0: 7e64 be3d aba3 343d c100 3abe 933e 0c3b
000003d0: 423c 4cbd 57b8 273d 9edb 4d3d 9a94 333d
000003e0: fc8e cdbd ebcf d0bb fb77 d33b 57bd a53d
000003f0: 3860 84bd b4f1 45bc 9562 713d 3ccb 5cbd

Linear2.bias f4 [7]
0.0079601 0.00786595 0.008077772 0.007827595 0.008558501 0.011474933 0.008377708
00000000: 146b 023c 30e0 003c a258 043c 503f 003c
00000010: f438 0c3c 5b01 3c3c a742 093c
