epsilon_10/saved_model 1500.pth (torch, 52885 bytes, 4 tensors)

Linear1.weight f4 [256, 42]
-0.07732709 -0.01564826 -0.044844713 -0.03946815 -0.05789326 -0.08469551 -0.11785573 -0.06939639
-0.027608544 -0.0070201 -0.05575893 -0.03051008 0.0024400656 0.03521347 0.0010620373 -0.002135596
0.04719721 0.02271406 -0.00612929 -0.015449905 0.07826999 0.015033402 -0.030731946 0.011988096
0.036824428 0.08125172 0.05901816 -0.042779177 -0.08829546 -0.04789665 -0.026147377 0.016372269
0.1037753 0.058389783 0.0014222087 -0.05252643 -0.05523208 -0.15045562 -0.04068351 -0.010682829
0.14383474 -0.0096838605 0.00061756634 0.017256051 0.021384314 0.021225303 0.038662963 0.062352616
-0.015121875 0.03146596 0.06126109 0.042911526 0.06767142 0.022974463 0.033502843 0.071325175
0.022537647 -0.10224654 0.013246141 0.07500005 -0.02887188 -0.054260444 0.072119296 0.010531318
0.080222055 0.0067049856 0.09447445 -0.029993579 -0.014603144 -0.048893366 0.029878803 0.20618795
0.014380177 -0.01102842 0.031556398 -0.114574835 -0.043248877 0.058693584 0.03477997 -0.03847747
0.0054665757 0.037202034 0.1700114 -0.0020113548 -0.084030904 0.05034291 -0.02651226 -0.035715982
0.020802487 0.023803758 -0.07935563 -0.06091831 -0.062027607 0.0380146 -0.04307456 0.020348933
-0.04739848 -0.09401892 0.02085387 0.075523 0.049967904 0.06301956 0.014392662 0.10770545
0.012955341 0.018232048 0.08247515 -0.05721979 -0.06483776 0.062004253 0.0660116 -0.0043550213
-0.036720242 -0.09982074 -0.047352917 0.025125317 0.013756455 0.1536511 0.07833136 -0.028456682
0.113193184 -0.020028511 -0.044961967 0.07112315 -0.030919163 0.0548406 -0.02467972 -0.012921318
0.014909763 0.036372934 -0.027620481 0.0044039143 0.013232948 -0.019631777 0.06773294 -0.044334307
-0.010401522 0.011104659 -0.03818101 0.018561203 0.04867811 0.13372618 0.092136525 -0.018946277
-0.03170898 0.06709854 0.021180505 0.07308056 -0.04736343 0.030574473 0.036377657 -0.005101534
0.11964892 0.008805214 -0.05830703 -0.102447405 -0.011633222 0.10448641 -0.11615537 0.02319215
0.010948012 0.02514188 -0.07519023 0.00803572 0.053744607 0.019834874 -0.06449291 0.03231787
-0.05874827 0.04989867 -0.0012738033 -0.11506034 0.04558722 -0.06503346 0.056288287 0.020077396
0.09854193 -0.011125713 0.02257086 0.05409146 0.020710679 0.041155394 0.027405476 0.08509743
0.007408022 0.07831582 -0.0032237933 -0.039867617 0.023570763 0.036168423 0.1514415 -0.07122019
0.052434802 0.04872637 0.10690505 0.06869186 0.035478868 -0.025096035 0.107191585 -0.07288022
-0.049522188 -0.16019274 0.09119312 -0.010360692 -0.03813598 0.020624332 -0.07160248 -0.028973235
0.0725551 0.077314526 0.014529045 0.015014002 0.008771391 -0.0034486928 -0.023588907 0.014081558
0.014115005 0.019217255 -0.0057749995 0.027899789 -0.020316614 -0.07047659 0.006816429 -0.0368433
0.06568831 0.020889178 -0.058629602 -0.061369725 0.016780717 -0.03226451 -0.04449431 0.011723103
0.066682376 -0.047218315 -0.03122051 0.027112657 0.1031152 0.06495032 0.037508078 0.0988904
0.054015167 -0.00291629 0.013131267 0.1310271 0.10437511 0.017433155 0.13210845 -0.034206275
-0.066854954 0.08849653 0.035442084 0.085797295 -0.048415236 -0.016305543 -0.04148387 0.026212867
00000000: aa5d 9ebd c830 80bc 17af 37bd 5ba9 21bd
00000010: 7c21 6dbd d774 adbd 585e f1bd b21f 8ebd
00000020: 502b e2bc de08 e6bb 7a63 64bd 46f0 f9bc
00000030: 82e9 1f3b 003c 103d 0f34 8b3a 5bf5 0bbb
00000040: dd51 413d d612 ba3c 36d8 c8bb 9921 7dbc
00000050: 044c a03d a84e 763c 90c1 fbbc b869 443c
00000060: 36d5 163d 4d67 a63d 07bd 713d 3839 2fbd
00000070: 40d4 b4bd 472f 44bd 0633 d6bc 231f 863c
00000080: 2588 d43d 202a 6f3d 6869 ba3a f425 57bd
00000090: 093b 62bd 0a11 1abe c1a3 26bd 0807 2fbc
000000a0: 6a49 133e 0ea9 1ebc 2de4 213a 905c 8d3c
000000b0: 282e af3c b0e0 ad3c 0e5d 1e3d 7565 7f3d
000000c0: bec1 77bc 73e2 003d e9ec 7a3d ffc3 2f3d
000000d0: 5097 8a3d f134 bc3c 473a 093d ef12 923d
000000e0: dfa0 b83c a266 d1bd 5806 593c a099 993d
000000f0: b984 ecbc 3340 5ebd 48b3 933d 8d8b 2c3c
00000100: 764b a43d 7fb5 db3b d27b c13d 18b5 f5bc
00000110: 0642 6fbc 6944 48bd 64c4 f43c ef22 533e
00000120: d59a 6b3c 8cb0 34bc 4841 013d 36a6 eabd
00000130: bc25 31bd af68 703d 7175 0e3d 8d9a 1dbd
00000140: f620 b33b 2961 183d 7817 2e3e efd0 03bb
00000150: 6518 acbd 5e34 4e3d 3d30 d9bc ec4a 12bd
00000160: fa69 aa3c 1900 c33c 3485 a2bd 7a85 79bd
00000170: a910 7ebd 32b5 1b3d f36e 30bd ceb2 a63c
00000180: e924 42bd fe8c c0bd bcd5 aa3c cdab 9a3d
00000190: 25ab 4c3d 6610 813d 33cf 6b3c ad94 dc3d
000001a0: a342 543c 605b 953c bbe8 a83d 4c5f 6abd
000001b0: a9c9 84bd 2cf8 7d3d 1731 873d 91b4 8ebb
000001c0: f767 16bd d16e ccbd 22f5 41bd 9cd3 cd3c
000001d0: c162 613c b756 1d3e 316c a03d fd1d e9bc
000001e0: d4d1 e73d d512 a4bc 0a2a 38bd 04a9 913d
000001f0: 2f4a fdbc 89a0 603d 202d cabc f0b3 53bc
00000200: 1448 743c c9fb 143d 5944 e2bc b64e 903b
00000210: 02cf 583c d2d2 a0bc 91b7 8a3d e497 35bd
00000220: 256b 2abc 51f0 353c b163 1cbd aa0d 983c
00000230: b362 473d 84ef 083e 13b2 bc3d 3935 9bbc
00000240: 47e1 01bd f66a 893d bd82 ad3c 43ab 953d
00000250: 2800 42bd 5177 fa3c bd00 153d c52a a7bb
00000260: 7e0a f53d bf43 103c 5ad3 6ebd f2cf d1bd
00000270: 4599 3ebc f9fc d53d dee2 edbd 77fd bd3c
00000280: 4a5f 333c 58f6 cd3c 56fd 99bd 41a8 033c
00000290: 4e23 5c3d bf7c a23c dc14 84bd be5f 043d
000002a0: 07a2 70bd 8c62 4c3d bff5 a6ba c1a4 ebbd
000002b0: aab9 3a3d 4330 85bd 8c8e 663d 5a79 a43c
000002c0: 5ad0 c93d 9f48 36bc 86e6 b83c 028f 5d3d
000002d0: 71a9 a93c 8f92 283d 7381 e03c 9047 ae3d
000002e0: febe f23b 0b64 a03d 4746 53bb 3a4c 23bd
000002f0: 7917 c13c 5725 143d 7b13 1b3e e4db 91bd
00000300: e0c5 563d 4d95 473d 09f1 da3d 51ae 8c3d
00000310: 4a52 113d 3396 cdbc 4387 db3d 3a42 95bd
00000320: c7d7 4abd 9109 24be 75c3 ba3d e4bf 29bc
00000330: 7934 1cbd 5cf4 a83c 52a4 92bd 4759 edbc
00000340: c597 943d 1457 9e3d 3b0b 6e3c 4afd 753c
00000350: e1b5 0f3c 7703 62bb 863d c1bc 56b6 663c
00000360: 9f42 673c 816d 9d3c 353c bdbb 198e e43c
00000370: 076f a6bc 0856 90bd 5a5c df3b 00e9 16bd
00000380: 9887 863d c81f ab3c 9825 70bd d25e 7bbd
00000390: b777 893c ca27 04bd aa3f 36bd 4212 403c
000003a0: c590 883d fe67 41bd 28c2 ffbc 5d1b de3c
000003b0: 102e d33d ac04 853d 12a2 193d 0d87 ca3d
000003c0: 023f 5d3d 3a1f 3fbb 8724 573c f82b 063e
000003d0: 9ec2 d53d facf 8e3c 7047 073e e11b 0cbd
000003e0: 40eb 88bd ab3d b53d b82b 113d 7eb6 af3d
000003f0: 0e4f 46bd 3493 85bc feea 29bd 5ebc d63c

Linear1.bias f4 [256]
-0.40339047 -0.31198934 -0.41651753 -0.29751602 -0.46688512 -0.4086177 -0.29784188 -0.32264468
-0.4469613 -0.31643823 -0.18539712 -0.3530965 -0.38565582 -0.4213707 -0.1604905 -0.253305
-0.41412812 -0.42766005 -0.2524537 -0.38699764 -0.35906762 -0.3288657 -0.2957231 -0.14053492
-0.35562375 -0.3379067 -0.28322977 -0.3760223 -0.25663924 -0.32841042 -0.3579536 -0.28280854
-0.35248172 -0.4002369 -0.26504347 -0.34782225 -0.079434685 -0.32579264 -0.28404582 -0.30379128
-0.34381667 -0.3227341 -0.35950342 -0.2837324 -0.34931806 -0.3549606 -0.30259976 -0.33997077
-0.37721232 -0.33624694 -0.38781053 -0.31726813 -0.3317258 -0.36405748 -0.3595521 -0.3388668
-0.29661554 -0.41590846 -0.47453225 -0.44874096 -0.42913848 -0.25850028 -0.11059476 -0.30079925
-0.36248368 -0.29717427 -0.3513127 -0.39761975 -0.24540323 -0.38560256 -0.34033328 -0.29152313
-0.28308088 -0.35055622 -0.42309073 -0.33713126 -0.3674988 -0.3744325 -0.35167167 -0.2681524
-0.3638354 -0.38160577 -0.32528672 -0.3668794 -0.36555445 -0.32802242 -0.38470727 -0.28293225
-0.33105257 -0.38638982 -0.31050944 -0.33608416 -0.36286497 -0.3460275 -0.18510231 -0.34160757
-0.23607472 -0.3330355 -0.31569412 -0.38113192 -0.4591052 -0.37347257 -0.2975011 -0.47217226
-0.026667744 -0.36337623 -0.3522112 -0.35155758 -0.33138534 -0.36218518 -0.34107387 -0.42606768
-0.33418113 -0.3890792 -0.414707 -0.37314507 -0.32049188 -0.34133872 -0.32430595 -0.08761675
-0.2638486 -0.34506238 -0.35827163 -0.35592768 -0.33795285 -0.27373785 -0.38341352 -0.29648563
-0.3841431 -0.43782443 -0.21982257 -0.13017187 -0.35538444 -0.27536055 -0.28131193 -0.21850556
-0.315524 -0.08084102 -0.14268164 -0.38862246 -0.3052697 -0.29793665 -0.351255 -0.27830076
-0.2160263 -0.4103706 -0.35307038 -0.3503724 -0.2608375 -0.19262873 -0.26649278 -0.43338948
-0.3203592 -0.37408447 -0.23032784 -0.3446923 -0.48569372 -0.29912436 -0.45303074 -0.375002
-0.38889796 -0.33113894 -0.37600264 -0.28439978 -0.29018396 -0.36663976 -0.38148937 -0.3116411
-0.14291777 -0.4077158 -0.28912652 -0.32360336 -0.36418986 -0.37965363 -0.15939428 -0.2775473
-0.32001534 -0.3299889 -0.27540794 -0.33018133 -0.38487625 -0.20251584 -0.2754224 -0.2473168
-0.39254698 -0.28522012 -0.32863995 -0.28977892 -0.41369337 -0.24601658 -0.3092296 -0.3667469
-0.3069249 -0.4439842 -0.30929795 -0.40833873 -0.34166956 -0.3854186 -0.35818976 -0.4196478
-0.2886295 -0.32964537 -0.31775728 -0.3676757 -0.34560415 -0.41334996 -0.3140942 -0.18973844
-0.29704675 -0.40205234 -0.42195433 -0.36667743 -0.33745846 -0.4521343 -0.29048944 -0.42897108
-0.2949886 -0.4625464 -0.30172235 -0.3483859 -0.33636492 -0.3739082 -0.35967398 -0.38299897
-0.3344572 -0.39344853 -0.26862118 -0.40132546 -0.35043868 -0.29015175 -0.4019983 -0.35697103
-0.4090035 -0.47181505 -0.3519622 -0.28962207 -0.26759356 -0.36691114 -0.4013028 -0.23199743
-0.26501912 -0.37111083 -0.31740814 -0.2896397 -0.34991473 -0.43414018 -0.26213968 -0.27115586
-0.30515862 -0.3957446 -0.31765458 -0.45859668 -0.27190846 -0.41280386 -0.3382329 -0.24071348
00000000: 3289 cebe 11bd 9fbe c941 d5be 0554 98be
00000010: 910b efbe 5736 d1be bb7e 98be af31 a5be
00000020: 1dd8 e4be 3104 a2be bed8 3dbe 10c9 b4be
00000030: ae74 c5be e6bd d7be 9f57 24be 31b1 81be
00000040: 9a08 d4be 42f6 dabe 9d41 81be 8e24 c6be
00000050: b6d7 b7be 1661 a8be 0569 97be 63e8 0fbe
00000060: 5114 b6be 1b02 adbe 7e03 91be ff85 c0be
00000070: 3866 83be 6925 a8be b245 b7be 48cc 90be
00000080: 7c78 b4be daeb ccbe c7b3 87be c215 b2be
00000090: a7ae a2bd 4bce a6be 746e 91be 888a 9bbe
000000a0: bd08 b0be 673d a5be d510 b8be 6045 91be
000000b0: d1d9 b2be 65bd b5be 5bee 9abe a610 aebe
000000c0: f921 c1be 8f28 acbe 1a8f c6be f870 a2be
000000d0: f7d7 a9be be65 babe 3617 b8be f37f adbe
000000e0: fedd 97be f4f1 d4be e4f5 f2be 60c1 e5be
000000f0: 0ab8 dbbe 265a 84be 817f e2bd 5c02 9abe
00000100: 7697 b9be 3a27 98be 42df b3be d194 cbbe
00000110: fc4a 7bbe b36d c5be 2a40 aebe 8542 95be
00000120: faef 90be 1b7c b3be 599f d8be 789c acbe
00000130: cd28 bcbe 9eb5 bfbe 4f0e b4be 454b 89be
00000140: a248 babe d561 c3be fb8b a6be 9ed7 bbbe
00000150: f429 bbbe 8ef2 a7be 5af8 c4be 7fdc 90be
00000160: b97f a9be e3d4 c5be 18fb 9ebe 3913 acbe
00000170: 70c9 b9be 842a b1be 768b 3dbe 30e7 aebe
00000180: 92bd 71be a183 aabe a9a2 a1be b923 c3be
00000190: d60f ebbe cc37 bfbe 1052 98be 90c0 f1be
000001a0: 5076 dabc 730c babe 0755 b4be 5bff b3be
000001b0: 57ab a9be 5670 b9be 3ca1 aebe 8b25 dabe
000001c0: ca19 abbe 6435 c7be 7a54 d4be df0c bfbe
000001d0: 8317 a4be f3c3 aebe 6e0b a6be 6970 b3bd
000001e0: 2a17 87be 04ac b0be 616f b7be 273c b6be
000001f0: 2808 adbe 5e27 8cbe c74e c4be f7cc 97be
00000200: 68ae c4be 862a e0be 2b19 61be c64b 05be
00000210: f3f4 b5be 0ffc 8cbe 1e08 90be ecbf 5fbe
00000220: 5d8c a1be fa8f a5bd 231b 12be 86f9 c6be
00000230: 4f4c 9cbe 278b 98be b2d7 b3be 707d 8ebe
00000240: 0036 5dbe 181c d2be a4c5 b4be 0364 b3be
00000250: 7e8c 85be 7740 45be be71 88be 3ae5 ddbe
00000260: 1f06 a4be 0088 bfbe 10db 6bbe 827b b0be
00000270: d9ac f8be d426 99be a5f3 e7be 4300 c0be
00000280: a21d c7be 0b8b a9be 6b83 c0be d99c 91be
00000290: fe92 94be 35b8 bbbe 9352 c3be 6c8f 9fbe
000002a0: 0959 12be 20c0 d0be 6408 94be 57af a5be
000002b0: 1877 babe f661 c2be 4138 23be ae1a 8ebe
000002c0: 0dd9 a3be 4ef4 a8be 4502 8dbe 870d a9be
000002d0: 800e c5be 5060 4fbe 2a04 8dbe 9d40 7dbe
000002e0: ebfb c8be 5f08 92be 7f43 a8be e75d 94be
000002f0: 9ecf d3be c5eb 7bbe 5853 9ebe 40c6 bbbe
00000300: 4325 9dbe e651 e3be 4d5c 9ebe c611 d1be
00000310: 50ef aebe 9655 c5be a664 b7be 14dc d6be
00000320: 3fc7 93be 47c7 a8be 15b1 a2be fd3f bcbe
00000330: 07f3 b0be 9ba2 d3be f4d0 a0be cb4a 42be
00000340: 8316 98be ced9 cdbe 660a d8be 25bd bbbe
00000350: 5bc7 acbe 267e e7be 08bb 94be 19a2 dbbe
00000360: bf08 97be e2d2 ecbe 5a7b 9abe a35f b2be
00000370: 0638 acbe e570 bfbe 3027 b8be 7118 c4be
00000380: f93d abbe 1672 c9be b788 89be 887a cdbe
00000390: b36c b3be c58e 94be b9d2 cdbe e8c4 b6be
000003a0: e868 d1be be91 f1be 6434 b4be 5849 94be
000003b0: 0602 89be c7db bbbe 9077 cdbe bc90 6dbe
000003c0: 96b0 87be 3d02 bebe 5283 a2be a84b 94be
000003d0: 0628 b3be 9f47 debe 2c37 86be f1d4 8abe
000003e0: c03d 9cbe 099f cabe 9fa3 a2be 2fcd eabe
000003f0: 9637 8bbe 075b d3be dd2c adbe 987d 76be

Linear2.weight f4 [7, 256]
-0.020503815 -0.020144343 0.017299773 -0.007756202 0.030018978 -0.005038457 -0.010805113 -0.0032146221
0.0020401333 -0.021519331 -0.003766504 -0.0011655147 -0.024524359 -0.010541203 -0.0003126842 0.0032378277
-0.045350246 -0.0017462099 0.00014439816 0.13215499 0.005797881 -0.06070397 -0.08204152 -0.0155080175
-0.0010379511 -0.0059345053 0.023492526 9.507589e-05 0.014614856 -0.0024214305 -0.009572034 0.041367855
-0.004206648 -0.034151796 0.0020893216 -0.108449765 -0.003322569 -0.010683585 0.0060991403 -0.008530753
-0.0064147655 0.03946998 0.017640242 0.0054054065 -0.013966088 -0.000535059 0.011134425 -0.043734435
-0.036295265 0.0024502284 -0.002177497 -5.8795238e-05 0.014232717 0.003526102 0.008639473 0.0029589373
-0.007519381 -0.055575464 -0.008379228 0.004881361 -0.02940307 0.008853346 -0.0022672103 0.0032150561
-0.017816035 0.007262023 -0.00052749197 -0.0010720628 -0.0030951607 0.0053018094 0.0003375139 0.009838976
-0.046890903 0.008789418 -0.0064293365 -0.054788798 0.00049125246 -0.05695004 -0.01638633 -0.011720725
0.0018841277 0.002326506 0.0041358043 -0.008747782 -0.02824667 -0.0012619351 -0.04236729 -0.045967143
0.0029591066 -0.022978054 -0.001983625 -0.048194643 0.011710909 -0.027154371 2.0317722e-05 -0.0019940773
-0.0061188093 0.0003667162 -0.015358772 -0.009325657 0.010651471 0.032414023 -0.028054511 -0.01808679
-0.011083054 0.02408018 0.004932769 -0.011642953 0.013966565 0.015062156 -0.017088978 0.044816997
-0.018929813 -0.0008551663 -0.04793298 -0.033006832 0.00029762983 -0.021637755 -0.0017105901 -0.0010637606
-0.0068135415 0.0005328417 -0.0007438264 0.04178104 0.0016726524 -0.0013785341 -0.009453552 -0.0011976962
0.020201622 -0.036623828 0.0026743398 -0.015950536 0.0071929777 0.00038075334 0.0490491 0.0014007282
0.0062896437 -0.0024856576 -0.0012794924 -0.11204343 0.012978283 0.0044328226 -0.0016270989 -0.0013316973
-0.0027684579 -0.008564008 0.0044592386 0.0023981025 -0.0010166632 -0.00092414423 0.024788016 -0.03146662
0.0037457664 0.0037896521 -0.0135112135 -0.038293116 0.008044319 -0.028771348 0.0222506 0.00032732444
-0.021092232 -0.013616448 0.0015936136 -0.002498854 -0.00072236033 -0.0010351259 -0.01635315 0.0021097441
-0.0024629864 0.0028359124 -0.011302544 0.0066441586 0.006486284 -0.045198563 -0.0025283734 0.00020339672
-0.0014186446 0.007453031 -0.0016693221 -0.017548129 -0.0040202257 -0.002421974 -0.011183525 -0.007183099
-0.011108293 -0.001982583 -0.043213833 -0.054803815 0.04119771 0.012657144 -0.008977797 -0.0028424154
-0.010642412 -0.012097271 -0.005843414 -0.09034509 -0.018975826 0.0054935557 -0.013730428 -0.02182276
-0.010415793 0.012324829 -0.025881074 -0.016127747 0.00097290444 0.0033465386 -0.0037563436 -0.004153183
-0.001245321 -0.02898325 0.002514542 0.019323096 -0.0028281356 0.0002869825 -0.005017789 0.09804346
-0.0021718482 -0.013943298 -0.00034085906 -0.023571474 -0.025600912 -0.011216745 -0.002580774 -0.00025727678
-0.0050289216 0.033856057 -0.0011001716 -0.010991809 -0.016344404 0.0127634285 -0.070865825 0.026132649
0.037752178 -0.03586354 -0.010831164 0.0012340377 -0.0057966164 -0.08702702 0.0052168765 -0.002300237
0.0035517754 -0.005868106 -0.0524698 -0.00019209417 -0.027974147 -0.0030735328 -0.0026891236 -0.0014882083
-0.05179483 -0.072847076 0.00011364706 -0.060793426 -0.00085472106 -0.014669867 -0.019985853 -0.0184546
00000000: 9ef7 a7bc c005 a5bc 41b8 8d3c bd27 febb
00000010: 5cea f53c a419 a5bb ee07 31bc 69ac 52bb
00000020: c2b3 053b 4f49 b0bc 74d7 76bb 2fc4 98ba
00000030: 4fe7 c8bc 03b5 2cbc c3ef a3b9 bc31 543b
00000040: 2ec1 39bd 15e1 e4ba 9669 1739 a353 073e
00000050: 27fc bd3b baa4 78bd 6205 a8bd 5715 7ebc
00000060: dc0b 88ba 3d76 c2bb 6673 c03c 7b63 c738
00000070: 2673 6f3c ddb0 1ebb 05d4 1cbc 5771 293d
00000080: ecd7 89bb c1e2 0bbd 00ed 083b e91a debd
00000090: 75bf 59bb 340a 2fbc 4cdb c73b 92c4 0bbc
000000a0: f432 d2bb 46ab 213d 4582 903c d61f b13b
000000b0: 05d2 64bc 3443 0cba 2a6d 363c e122 33bd
000000c0: 58aa 14bd 0394 203b 56b4 0ebb e89a 76b8
000000d0: 5830 693c 2d16 673b 938c 0d3c bbea 413b
000000e0: 2465 f6bb 19a3 63bd 0849 09bc d3f3 9f3b
000000f0: b5de f0bc a00d 113c 7a95 14bb b1b3 523b
00000100: eff2 91bc 44f6 ed3b 6347 0aba 7584 8cba
00000110: 2ed8 4abb cdba ad3b 59f4 b039 a833 213c
00000120: ad10 40bd 7e01 103c 2fad d2bb 386a 60bd
00000130: 65c7 003a 7244 69bd a03c 86bc 4908 40bc
00000140: d6f4 f63a 4b78 183b a485 873b db52 0fbc
00000150: 8f65 e7bc 8467 a5ba 5389 2dbd 0b48 3cbd
00000160: 92ed 413b 793c bcbc b5ff 01bb bf67 45bd
00000170: 1ddf 3f3c d872 debc fa6f aa37 11af 02bb
00000180: 4b80 c8bb d143 c039 5ca3 7bbc a4ca 18bc
00000190: 8283 2e3c 91c4 043d 93d2 e5bc bf2a 94bc
000001a0: b395 35bc cc43 c53c 11a3 a13b 16c2 3ebc
000001b0: 05d4 643c 43c7 763c 2ffe 8bbc 0792 373d
000001c0: b212 9bbc 3d2d 60ba 5f55 44bd 2c32 07bd
000001d0: 330b 9c39 a941 b1bc e135 e0ba e26d 8bba
000001e0: 2144 dfbb 67ae 0b3a 58fd 42ba 9922 2b3d
000001f0: e73c db3a eeaf b4ba 12e3 1abc 04fc 9cba
00000200: df7d a53c de02 16bd fa43 2f3b b3aa 82bc
00000210: 12b3 eb3b d99f c739 b6e7 483d a498 b73a
00000220: 5b19 ce3b 6ae6 22bb a4b4 a7ba 0777 e5bd
00000230: dda2 543c 3641 913b 6144 d5ba 598c aeba
00000240: 046f 35bb 0e50 0cbc ce1e 923b 7c29 1d3b
00000250: 8e41 85ba 4542 72ba 3d10 cb3c 24e3 00bd
00000260: 887b 753b d05b 783b 235e 5dbc 3ed9 1cbd
00000270: 52cc 033c e4b1 ebbc e446 b63c be9c ab39
00000280: 9ec9 acbc 8617 5fbc cde0 d03a d0c3 23bb
00000290: c85c 3dba 10ad 87ba 0bf7 85bc a243 0a3b
000002a0: 0e6a 21bb b7da 393b 4e2e 39bc 3eb7 d93b
000002b0: e58a d43b 2122 39bd 11b3 25bb e446 5539
000002c0: d0f1 b9ba 8e38 f43b 28cd daba 18c1 8fbc
000002d0: 19bc 83bb fbb9 1ebb 1b3b 37bc 3460 ebbb
000002e0: 8fff 35bc 39ee 01bb fd00 31bd f779 60bd
000002f0: eebe 283d e95f 4f3c 9c17 13bc d147 3abb
00000300: 835d 2ebc a233 46bc 1c7a bfbb d906 b9bd
00000310: 3173 9bbc 4903 b43b 97f5 60bc a5c5 b2bc
00000320: 01a7 2abc 14ee 493c 8c04 d4bc 561e 84bc
00000330: 830a 7f3a 9a51 5b3b fd2c 76bb 6d17 88bb
00000340: 0a3a a3ba 486e edbc 04cb 243b 784b 9e3c
00000350: 3e58 39bb 2476 9639 446c a4bb 02cb c83d
00000360: 9155 0ebb 6e72 64bc 54b5 b2b9 f718 c1bc
00000370: 01b9 d1bc 70c6 37bc 3422 29bb 1be3 86b9
00000380: a7c9 a4bb a6ac 0a3d a233 90ba fd16 34bc
00000390: b3e4 85bc b31d 513c 1a22 91bd 2314 d63c
000003a0: 07a2 1a3d a6e5 12bd 3275 31bc 6fbf a13a
000003b0: 8bf1 bdbb 393b b2bd 55f2 aa3b 93bf 16bb
000003c0: e7c4 683b 3e49 c0bb 93ea 56bd e36c 49b9
000003d0: 0a2a e5bc 536d 49bb 023c 30bb fc0f c3ba
000003e0: d126 54bd d930 95bd cd55 ee38 8702 79bd
000003f0: 5c0f 60ba e259 70bc 5fb9 a3bc 1a2e 97bc

Linear2.bias f4 [7]
0.030508643 -0.006733127 0.030020837 0.031333018 0.028708482 -0.007744411 0.013767552
00000000: 43ed f93c 90a1 dcbb 42ee f53c 0d57 003d
00000010: 0d2e eb3c d4c4 fdbb 4c91 613c
