epsilon_10/saved_model 10000.pth (torch, 52891 bytes, 4 tensors)

Linear1.weight f4 [256, 42]
000000 03 3c 5c bd 11 61 5a bc 74 88 23 bd 52 e9 e2 bb
       -0.05376817 -0.0133288065 -0.039925054 -0.0069247866
000010 8f 8c 38 bd 88 45 ab 3c 18 84 24 bd df 81 00 3d
       -0.045055922 0.020907179 -0.040165037 0.031373855
000020 d2 41 6b 3c 68 eb 1a 3d 12 fd 87 bd 0d e9 63 bd
       0.0143589545 0.037822157 -0.06640066 -0.055642176
000030 fd e1 3b 3d 86 4b e7 bc 5b 07 bd 3c 86 6c b5 bd
       0.045869816 -0.028234255 0.023074796 -0.0885859
000040 b3 a1 22 3d da 59 3a bd da 2a 13 bb 7e af 83 3c
       0.03970499 -0.045495845 -0.0022455961 0.016074892
000050 54 ce c1 bc c4 04 d7 bc d5 d7 41 bd 09 bd 80 bb
       -0.023657955 -0.02624739 -0.047324974 -0.0039287847
000060 15 8e 44 3d 43 42 be bb bb 97 f6 3c f5 fc ea bc
       0.047987062 -0.005806239 0.030101648 -0.028685072
000070 4a d2 60 bb 19 63 16 bd f4 e2 e0 3d 6e 5a 39 bc
       -0.003430503 -0.0367156 0.10980788 -0.011313064
000080 76 6e 96 bd 25 e7 75 3d 53 70 bb bd 0a de e7 bc
       -0.073452875 0.06003489 -0.091522835 -0.028304119
000090 b3 aa 9a 3c 7c 44 3b 3c aa 2a 4a 3c 20 94 bf bd
       0.018880224 0.011429902 0.0123392735 -0.093544245
0000a0 46 c1 b1 bc 67 bb 22 3d 4e 47 c3 3c 06 fd 51 3d
       -0.021698605 0.039729502 0.023837712 0.051266693
0000b0 72 81 05 3d 22 61 45 3c a0 97 9d 3a 9c 3e 0a 3d
       0.03259415 0.012047084 0.0012023337 0.033751115
0000c0 d7 e7 10 3c 36 f0 6b 3b e4 ae 12 3d 4c 08 6a 3c
       0.008844337 0.0036001331 0.03581132 0.014284205
0000d0 fd e9 64 3d 94 54 fe 3c e7 63 79 3d 9b 7c 07 3d
       0.05588721 0.03104619 0.06088629 0.033077817
0000e0 9b 33 17 3d 3f 2b c0 3d b7 a3 8d 3d 01 a4 76 3d
       0.03691445 0.093832485 0.06915992 0.060215
0000f0 13 47 79 bc 7b 46 99 3c 1a 97 02 3d f8 7e 0d 3d
       -0.015214699 0.018710366 0.031882383 0.034544915
000100 0a 17 19 3c 38 da 1e bb df f8 28 3d d6 70 b0 3c
       0.009343872 -0.0024238955 0.041252967 0.02153818
000110 a9 49 cb 3b dc 6b ac bb dd 6d 0c 3c 53 09 21 3c
       0.0062038493 -0.0052618813 0.008571115 0.009828883
000120 06 54 e7 3c a3 35 85 3d 5a 9a 80 3d 4a 2f 00 bd
       0.028238308 0.06504371 0.0627944 -0.0312951
000130 4d 0d 89 bc f4 2c 59 3d f6 e0 7b 3d 11 75 57 bc
       -0.016729975 0.053021386 0.061493836 -0.013150469
000140 69 20 d2 3c 1c 43 1f 3c ff 10 92 3c 57 1d a7 3b
       0.02565022 0.00972059 0.01783037 0.005099933
000150 f4 25 96 bd 15 b1 f1 3b ab 9e 7d 3d 05 a7 d1 bc
       -0.07331458 0.007375846 0.061918896 -0.025592336
000160 cf e8 c4 3c 8a 6d 61 3c e6 8e a7 3d 00 f8 e4 3a
       0.024036793 0.013759026 0.081815526 0.0017468929
000170 e9 8b a3 bd 87 cd ad 3d 25 c7 59 3d 8d b1 68 3b
       -0.0798567 0.08486467 0.053168435 0.003550622
000180 be 79 01 3c ba 94 0c be b9 f3 5e 3d c1 53 a4 3d
       0.007902561 -0.1372861 0.05443165 0.08023787
000190 15 bb 28 3c c3 ca e4 bd 35 34 7e 3d d2 e4 b5 3d
       0.01029851 -0.11171486 0.062061507 0.08881535
0001a0 ba 36 1c bb 9b 5b c6 3d 8a 3e db 3d aa ca b8 3b
       -0.002383633 0.09685441 0.10705288 0.005639394
0001b0 ee 46 80 bd c6 1b 6a 3d 26 cf 2e 3d 18 f9 7b bc
       -0.06263529 0.057155393 0.04267802 -0.015379213
0001c0 6e e1 83 bd 36 81 92 bd 59 7c 34 3d f1 9a 62 3d
       -0.06439482 -0.07153551 0.0440639 0.055323545
0001d0 b7 02 35 3d 42 23 ca bb f0 1c fa bc 84 bc 4a 3e
       0.044192042 -0.006168754 -0.030531377 0.19798476
0001e0 fc d5 93 3c 94 5b ca bd ff f1 aa be fa c6 b2 3d
       0.018046372 -0.098807484 -0.33387753 0.08729358
0001f0 7f 98 1d 3d e1 dd 3d 3c 11 19 13 bd 93 e2 50 39
       0.03847551 0.011588545 -0.035912577 0.00019920831
000200 9c fa 31 3e 29 21 11 3d 91 08 4d 3d aa 8f 48 bd
       0.17380756 0.035432015 0.050056998 -0.048965134
000210 92 80 60 3d d1 f1 f5 3b dd b5 0b 3c a1 de 50 3e
       0.054810114 0.0075056334 0.008527246 0.20397426
000220 4c db 0c bd 49 25 77 bd 59 e4 22 3d 07 0f 11 bc
       -0.034388825 -0.060338292 0.03976855 -0.00885368
000230 1d 8d 09 3e 0a 0a 85 3d 59 fc cb 3c bc 14 11 be
       0.13432737 0.064960554 0.024900602 -0.14168066
000240 c3 51 ee 3d 25 a6 9a bd ef 43 5f 3d fa 02 a9 3d
       0.116366886 -0.07551221 0.054508146 0.08252521
000250 8b c2 cb bb 58 43 82 3d 8f 23 0c 3e 07 88 d7 bd
       -0.0062182597 0.06360501 0.1368544 -0.10523992
000260 44 6c c0 3d bf 46 d4 bc a4 d9 10 be 40 ba 9d 3c
       0.0939565 -0.02591264 -0.14145523 0.01925385
000270 c9 07 04 3d 2b e6 de bb 25 8b df bc 42 c8 ad bd
       0.032233987 -0.0068023405 -0.027288029 -0.08485462
000280 54 61 c9 bc de e1 6b 3e c9 4e ab 3d d7 6f 86 3d
       -0.024582542 0.2303538 0.083646365 0.065643005
000290 59 fc 1e bd 83 cf d7 bc 34 0e 70 3c c3 f5 9e 3d
       -0.038814876 -0.026344066 0.014651824 0.07761719
0002a0 5e de 6f 3d 1f 8f f1 3c fc 11 59 3d 15 6a 16 3d
       0.058561675 0.02948719 0.052995667 0.03672226
0002b0 7d e9 ca ba cf 7a 14 3c bb 12 26 bb 58 90 58 bd
       -0.0015480962 0.009062483 -0.0025340754 -0.052872032
0002c0 b8 52 23 3d 23 16 2c 3d 05 64 b3 3d 94 f9 77 3d
       0.03987381 0.0420133 0.087593116 0.06054075
0002d0 3e be 63 3c 6d 32 35 3d 50 d8 94 3d 5a b5 d0 3d
       0.013900338 0.044237543 0.07267821 0.1019084
0002e0 e7 26 18 3d 8f 96 95 3d 00 77 74 3d 7d df a3 3c
       0.037146475 0.073041074 0.0596838 0.020004028
0002f0 ec da 5f 3d 59 6f 64 3d 00 de f0 bc 86 53 fb bc
       0.05465214 0.055770252 -0.029402733 -0.030679476
000300 6c 43 11 bd 92 73 06 bc 52 e5 7a 3c 03 83 4b 3d
       -0.03546469 -0.008206265 0.015313463 0.04968549
000310 a8 25 9a 3c c0 f4 13 bc cc b5 f6 bb 3f a3 f8 bc
       0.018816784 -0.009030521 -0.007528996 -0.03035128
000320 e2 97 88 bc bc cf 6b 3b 21 a2 91 3d 42 d8 0b bd
       -0.016673986 0.0035981974 0.07111002 -0.034141786
000330 4a 7e 1c 3e dc 78 a3 3d 8e 2a a1 3d dd 63 a1 3c
       0.1528255 0.079820365 0.07869445 0.019700939
000340 d9 20 36 bc e0 b4 1d bb d5 65 b1 3c e8 a3 0e 3d
       -0.01111623 -0.0024064109 0.021655003 0.034824282
000350 df 8b 1b bd 2c 47 42 bb c6 fb 15 bb 9e 11 00 3c
       -0.03797519 -0.0029644473 -0.0022885664 0.0078167
000360 c1 02 c6 3c df bc 7b 3c 9e b9 b4 3c e5 f8 99 3b
       0.024171235 0.015364855 0.022061165 0.00469886
000370 fb ae 19 bc 87 c2 46 bd 06 15 f9 3b 93 76 98 3c
       -0.0093800975 -0.04852536 0.007601383 0.018611228
000380 b1 98 0c 3c bd b6 d2 3c 8b af 97 3c 68 98 6e 3c
       0.008581326 0.025721902 0.018516323 0.014562704
000390 05 7a 1c 3c 04 86 44 3d 00 7d ca bc 23 ce 3f 3d
       0.009550576 0.04797937 -0.024717808 0.046827447
0003a0 d7 61 26 3d 47 13 51 3c 46 e2 41 3c da 90 e2 3c
       0.04062065 0.012760944 0.011833733 0.027656961
0003b0 b2 a9 0a 3d 33 2d 47 3c 04 a8 9a 3b 28 0f 69 3d
       0.03385324 0.012156772 0.004719736 0.05689922
0003c0 51 3f ae 3b b5 67 67 3d a3 e2 69 3c 49 55 bd 3d
       0.0053176065 0.056495387 0.014275226 0.092447825
0003d0 a2 5f 44 3d 6f f4 41 3d dd 97 56 3d 0d ee 13 bb
       0.047942765 0.04735225 0.05239092 -0.002257231
0003e0 40 e9 4c bc 11 71 bb 3c 7d 2d c1 bb 58 64 8d 3d
       -0.012506783 0.022881063 -0.005895315 0.06903905
0003f0 c9 b0 2a bd ff 17 f2 bc 5a dd 03 3d d7 47 79 3b
       -0.0416725 -0.029552458 0.03219352 0.0038037205

Linear1.bias f4 [256]
000000 73 58 31 bf 7b 39 03 bf f2 28 53 bf ad 44 53 bf
       -0.6927559 -0.51259583 -0.8248435 -0.82526666
000010 a3 26 56 bf 09 0c 01 bf 71 a0 1f bf f9 fe 53 bf
       -0.83652705 -0.5040899 -0.6235419 -0.8281093
000020 fe ef 55 bf 28 68 7a bf 07 3c 31 bf 85 c4 34 bf
       -0.83569324 -0.9781518 -0.6923222 -0.70612365
000030 59 7a 4d bf 0e 9f f9 be de cc 48 bf bc c5 27 bf
       -0.8026481 -0.48754162 -0.784376 -0.65536094
000040 09 b0 98 bf 52 73 47 bf 6c 47 81 bf e4 c8 2b bf
       -1.1928722 -0.7791034 -1.0099921 -0.6710341
000050 80 63 85 bf 3a 6b 32 bf c8 6e 45 bf 05 3e 6e bf
       -1.042099 -0.69694865 -0.77122164 -0.93063384
000060 40 d5 30 bf 00 f8 44 bf cb d9 51 bf e7 7f 79 bf
       -0.69075394 -0.7694092 -0.8197295 -0.9746079
000070 84 c5 97 bf 7e bb 64 bf a2 db 1f bf db d5 21 bf
       -1.1857152 -0.8934859 -0.6244451 -0.6321694
000080 f5 92 4c bf 4b ec 1d bf 5d b6 2d bf 04 68 50 bf
       -0.7991174 -0.6168868 -0.6785639 -0.81408715
000090 e5 2f 79 bf a9 9f 37 bf 05 1d 59 bf 41 5e 74 bf
       -0.97338706 -0.71728 -0.84809905 -0.9545632
0000a0 70 db 0c bf 25 e1 55 bf 35 6f 10 bf ef d7 34 bf
       -0.55022335 -0.8354667 -0.5641969 -0.7064199
0000b0 f2 80 52 bf 43 18 30 bf 16 6e 34 bf 94 f7 34 bf
       -0.82228005 -0.6878702 -0.7048048 -0.70690274
0000c0 7e e0 4a bf c5 5a 5b bf 73 6f 3f bf f9 b4 4b bf
       -0.792488 -0.8568538 -0.74779433 -0.7957302
0000d0 ba 07 4a bf dc d6 4f bf b2 8b 5b bf d6 0d 49 bf
       -0.7891804 -0.81187224 -0.85760033 -0.78536737
0000e0 c9 0f 43 bf 6e 39 3a bf 01 1f 4e bf 06 fa 4e bf
       -0.7619596 -0.7274388 -0.8051606 -0.80850255
0000f0 7d c1 2c bf 09 58 3f bf 8a 11 2e bf 43 f0 0e bf
       -0.6748274 -0.74743706 -0.6799551 -0.5583536
000100 1f 37 52 bf 44 f2 6b bf af e9 69 bf 86 25 5f bf
       -0.8211536 -0.92166543 -0.913722 -0.8716663
000110 7f 17 27 bf f3 ee 44 bf eb ce 44 bf eb 35 50 bf
       -0.6527023 -0.7692711 -0.7687823 -0.8133227
000120 18 10 20 bf 7d 97 8a bf 5a 82 40 bf 1e c1 28 bf
       -0.6252456 -1.082748 -0.751989 -0.65919673
000130 a2 27 24 bf b8 ac 60 bf d2 cd 62 bf 59 42 77 bf
       -0.64122975 -0.8776355 -0.88595307 -0.96585613
000140 78 c3 41 bf a9 68 48 bf 29 cf 3f bf f8 61 69 bf
       -0.75688887 -0.782847 -0.74925476 -0.91165113
000150 9a e4 1b bf 37 17 60 bf cb 22 41 bf e3 aa 42 bf
       -0.60895693 -0.87535423 -0.75443715 -0.76042
000160 c1 00 13 bf be d5 4f bf 4e b0 32 bf 83 60 2a bf
       -0.57423025 -0.8118552 -0.6980027 -0.66553515
000170 e2 41 7b bf 1a ca 45 bf e0 d2 49 bf 17 09 31 bf
       -0.98147404 -0.7726151 -0.78837395 -0.69154495
000180 2b 39 67 bf 1b 87 57 bf 25 b5 34 bf 14 72 3a bf
       -0.90321606 -0.8419053 -0.70588905 -0.7283032
000190 c6 dd 5d bf b2 6a 4f bf 6d 21 28 bf 32 2b 35 bf
       -0.86666524 -0.8102218 -0.65676004 -0.70769036
0001a0 f1 a9 38 bf ef 64 31 bf 4b 07 48 bf 81 f6 19 bf
       -0.7213431 -0.6929464 -0.7813613 -0.6014176
0001b0 dc bc 4f bf 57 a9 71 bf 5a 1e 2a bf 41 d6 29 bf
       -0.8114755 -0.9439902 -0.6645256 -0.6634255
0001c0 8d 2d 36 bf 96 8c 51 bf 9e d8 60 bf b9 68 59 bf
       -0.71163255 -0.8185514 -0.8783053 -0.8492542
0001d0 92 e6 66 bf 7a 0b 33 bf 15 e6 68 bf 7c b9 4d bf
       -0.9019557 -0.69939387 -0.9097608 -0.8036115
0001e0 23 14 23 bf ca 2b 32 bf 18 b2 5e bf a9 6b 4c bf
       -0.637026 -0.69598067 -0.869905 -0.79851776
0001f0 36 ef 22 bf d2 ad 2c bf 2f 44 48 bf b6 8b 3d bf
       -0.63646257 -0.6745273 -0.7822904 -0.74041307
000200 7b da 21 bf d8 db 17 bf 18 79 4a bf 1b c3 83 bf
       -0.63224 -0.5931983 -0.79091024 -1.0293916
000210 2e f9 17 bf bd 86 2a bf df 7a 22 bf 0b f3 47 bf
       -0.59364593 -0.66611844 -0.63468736 -0.7810523
000220 cc 95 3f bf 1c 14 75 bf 05 9e 65 bf ee 1d 60 bf
       -0.74837947 -0.9573381 -0.89694244 -0.8754567
000230 45 ca 46 bf 0b a3 4b bf 0c 31 23 bf ac e1 53 bf
       -0.7765239 -0.7954566 -0.63746715 -0.8276622
000240 a4 d8 6e bf f8 bf 25 bf c1 90 16 bf 27 63 4c bf
       -0.9329932 -0.64746046 -0.58814627 -0.79838794
000250 a3 1e 0f bf b7 28 2f bf b8 9a 51 bf 46 20 9c bf
       -0.5590612 -0.684215 -0.8187671 -1.2197349
000260 b2 58 3b bf 44 cd 86 bf b1 4a 0f bf f8 d1 3f bf
       -0.73182213 -1.0531392 -0.55973345 -0.7492976
000270 38 26 5d bf 13 55 1a bf fd 07 93 bf 37 2f 4a bf
       -0.8638644 -0.6028606 -1.1486813 -0.78978294
000280 1b e3 39 bf db 5e 6b bf 95 9b 2e bf a3 a3 40 bf
       -0.7261216 -0.9194161 -0.6820615 -0.7524969
000290 7f 6a 08 bf cd be 37 bf b6 99 3d bf c8 36 56 bf
       -0.532875 -0.71775514 -0.7406267 -0.8367734
0002a0 58 c0 2e bf 1c c4 35 bf 27 de 4c bf 9e 7f 46 bf
       -0.68262243 -0.71002364 -0.8002648 -0.7753848
0002b0 79 05 7d bf 0b 76 24 bf 7b 0d 2f bf 4b 53 5f bf
       -0.98836476 -0.6424262 -0.68379945 -0.8723647
0002c0 4a 13 7b bf 16 65 42 bf 53 bd 4d bf 5a 5f 81 bf
       -0.9807631 -0.75935495 -0.8036701 -1.0107224
0002d0 64 f7 6a bf 26 f4 85 bf d6 69 35 bf b3 0c 54 bf
       -0.9178374 -1.0465133 -0.7086462 -0.8283188
0002e0 87 73 7e bf 3a 67 45 bf 3a a7 33 bf b3 67 e5 be
       -0.9939503 -0.77110636 -0.7017704 -0.4480568
0002f0 f5 87 3f bf c5 f2 6c bf 65 f4 68 bf 7b 69 3e bf
       -0.7481683 -0.92557937 -0.90997916 -0.743797
000300 5d d3 48 bf 30 84 41 bf 15 7b 61 bf d7 6b 0c bf
       -0.78447515 -0.7559233 -0.88078433 -0.5485205
000310 d3 e2 35 bf 3a 3f 53 bf 56 b6 44 bf ed 0f 7f bf
       -0.7104923 -0.8251835 -0.7684072 -0.99633676
000320 0e 38 5d bf ff 9c 8e bf 44 26 42 bf be 80 39 bf
       -0.8641366 -1.1141661 -0.7583964 -0.7246207
000330 c7 69 11 bf de 34 54 bf da 16 3a bf 51 02 3f bf
       -0.5680203 -0.8289317 -0.7269112 -0.7461291
000340 c9 f3 5e bf 54 bc 48 bf 4e cb 49 bf 83 2d 46 bf
       -0.87090737 -0.78412366 -0.78825843 -0.77413195
000350 7d df 49 bf 86 05 62 bf 43 80 46 bf 50 5d 80 bf
       -0.7885664 -0.8828968 -0.7753946 -1.0028477
000360 60 d5 2c bf 4a 5e 51 bf c6 9d 52 bf 0a 57 26 bf
       -0.67513084 -0.817845 -0.82271993 -0.6497656
000370 37 04 5a bf 0e 35 21 bf c8 9d 2c bf 13 9e 33 bf
       -0.8516268 -0.6297158 -0.67428255 -0.7016308
000380 ce 58 55 bf 9f 59 39 bf dd 33 49 bf 54 e6 3b bf
       -0.8333863 -0.72402376 -0.7859476 -0.7339833
000390 08 7f 67 bf 68 43 4d bf 17 5c 60 bf 1c 52 6a bf
       -0.9042821 -0.8018098 -0.8764052 -0.9153154
0003a0 fe 4a 12 bf a9 d8 88 bf 59 a2 2a bf f0 a3 40 bf
       -0.5714568 -1.069112 -0.6665397 -0.7525015
0003b0 f0 43 3f bf 2f c0 43 bf 24 96 30 bf 43 c0 20 bf
       -0.7471304 -0.76465124 -0.68979096 -0.6279337
0003c0 97 3e 51 bf 8b 69 42 bf 61 68 74 bf d7 b5 30 bf
       -0.8173613 -0.75942296 -0.9547177 -0.69027466
0003d0 c6 48 2b bf 74 3f 6d bf 3d 07 27 bf 27 09 71 bf
       -0.6690792 -0.92674947 -0.6524542 -0.9415459
0003e0 92 24 0f bf de 9b 53 bf 0b 09 85 bf b5 dd 81 bf
       -0.55915177 -0.8265971 -1.0393385 -1.0145785
0003f0 88 53 46 bf 3a c6 60 bf 32 db 44 bf ab ff 2c bf
       -0.7747121 -0.8780247 -0.76896966 -0.6757762

Linear2.weight f4 [7, 256]
000000 10 eb b7 3d 54 78 cf 3b 97 3c 6e be fe 56 93 ba
       0.089803815 0.006331483 -0.232653 -0.0011241136
000010 f4 92 4e bd 52 63 82 bc f6 e4 3d bd cb 7d 8a bd
       -0.050433114 -0.0159165 -0.046360932 -0.06762274
000020 fc 8f 08 bd 9c e1 17 bd 28 36 da 3a 9c 4e 87 bd
       -0.03334044 -0.037080392 0.001664822 -0.066067904
000030 44 e3 6f 3d 3a e1 4c bc 3b 2f 04 be de 10 f1 ba
       0.058566347 -0.01250487 -0.12908642 -0.0018391868
000040 be 16 14 3e f3 a4 5f bc e3 39 27 3c 08 b2 d1 bd
       0.144618 -0.013650167 0.010206672 -0.10239035
000050 2c df 20 be ed f2 ca bd e9 15 a9 bd 92 25 de 3c
       -0.15710133 -0.09909616 -0.08256132 0.027117524
000060 a6 4f ee bc 93 79 be bc 4b eb 20 3d 22 2a 0a bd
       -0.029090714 -0.02325133 0.039286893 -0.033731587
000070 7e 51 e5 bc 74 ee 9b bd f1 51 1e bd 3e b5 c8 bd
       -0.02799296 -0.07613841 -0.038652364 -0.09800194
000080 2d 83 ac bd b2 d9 c4 bd 45 b2 0a bd 36 12 81 3d
       -0.08423457 -0.096118346 -0.033861417 0.063023016
000090 a7 2c b6 3d a4 87 8b bd 4d ae a9 bb 13 7e 6b bd
       0.088952355 -0.06812981 -0.005178249 -0.05749328
0000a0 8e cc 0c 3d 4f c6 00 3c 28 39 89 bc b1 11 9e bd
       0.034374766 0.00785978 -0.016750887 -0.07718218
0000b0 2e 08 b5 bc 9f ac 86 3d 80 d8 09 be 9e ff 46 3c
       -0.022098627 0.065758936 -0.13461494 0.012145905
0000c0 db 6d 2d 3d 2a 90 eb bd 47 31 6d bd c9 80 66 3e
       0.042341094 -0.115021065 -0.057908323 0.22510065
0000d0 a5 f0 99 bd 86 b5 b3 3c fa 08 f3 bd e9 56 c2 3c
       -0.075166024 0.021937143 -0.118669465 0.023723083
0000e0 3b 36 a6 3d 3a e5 e6 bd b4 f0 e4 3c 85 11 15 3d
       0.081158124 -0.1127419 0.027946807 0.03639366
0000f0 c7 06 0e bc 1a 47 f3 bd e5 f8 fd 3d e6 0b fd bc
       -0.008668608 -0.11878796 0.124009885 -0.030889463
000100 48 99 e1 bd a8 94 52 bc 99 20 10 3e 1a 60 b4 bc
       -0.11015564 -0.012852825 0.14074935 -0.022018481
000110 dc 35 5b bd eb c6 7a bd 83 64 81 be 4e 6b 76 bd
       -0.05351816 -0.06122486 -0.25271997 -0.060160927
000120 07 e0 96 bd 4b 2a 12 3e cd 45 a3 3c 25 35 87 3c
       -0.073669486 0.14273946 0.019930745 0.016504833
000130 e0 e4 94 bd 1a a5 21 bd 4e d2 30 be b6 80 2b 3d
       -0.07270217 -0.039464094 -0.17267725 0.041870795
000140 e4 2b 96 bc 3b fb 6d bd cc f8 b1 3b 4f cf 6f bd
       -0.018331476 -0.05810092 0.00543127 -0.058547314
000150 33 3f 34 3d b4 19 66 3c 7b 19 4c bd 95 12 ec 3c
       0.044005584 0.014044214 -0.049828988 0.028817454
000160 dd 6e 1b be 4c 34 02 3e dc f8 82 bc 3a 01 91 3c
       -0.1517901 0.12715262 -0.015987806 0.01770078
000170 02 23 a0 bd d8 97 12 bd 6f ef d3 bd eb 04 e4 bd
       -0.07819177 -0.03578934 -0.10348403 -0.111337505
000180 e2 2a 19 bb 10 ab 49 bc c5 1a 1a be da 26 ef 3c
       -0.0023371507 -0.012308851 -0.15049274 0.02919333
000190 35 5c b8 3c bd db c6 3c 44 ae f5 3c 58 c4 76 bd
       0.022504905 0.024274701 0.029990323 -0.06024584
0001a0 d3 9f 5d bc 87 1c b3 bd ff 4a ed bd f4 ca b3 3b
       -0.013526875 -0.087456755 -0.1158657 0.0054868404
0001b0 c6 ba 08 bd 8a 2a 81 bd 38 5a c1 3b 78 c6 1c be
       -0.033381246 -0.06306942 0.0059006475 -0.15310085
0001c0 66 f4 09 bd 8e c5 f6 bd 7c 42 36 bd 85 37 e1 3d
       -0.033680342 -0.12049399 -0.044497 0.10996918
0001d0 f2 98 9f bb a6 19 af 3c 86 57 c8 bd 63 81 3b 3c
       -0.0048705274 0.021374535 -0.09782319 0.011444422
0001e0 bc 8b 22 be d0 21 76 3c 15 de 91 3d c0 b3 aa bd
       -0.15873617 0.01502271 0.07122437 -0.08335066
0001f0 fa 1e a0 3b e9 f7 89 be 2e be 7d bd d8 66 52 bd
       0.004886505 -0.26946953 -0.061948948 -0.05136761
000200 7e 84 3b 3c 22 8d 59 3d 41 f1 88 bc ce 1c bd 3c
       0.011445163 0.05311311 -0.016716601 0.023085024
000210 1f 8e c2 3c ca 3f fc bc 0b da 19 3c 34 0a 74 bd
       0.02374941 -0.030792136 0.009390364 -0.059580043
000220 f3 e7 0d be 36 6a b2 bd d2 b7 f7 3c a5 d2 a8 bd
       -0.13858013 -0.087116644 0.03023902 -0.08243302
000230 2c fb 52 be a3 75 cd bd 02 44 6e 3d 84 87 4f bd
       -0.20603627 -0.10032203 0.058170326 -0.050666347
000240 12 70 00 3d 57 77 fe bd 60 94 fd 3c cc e0 35 3c
       0.03135688 -0.12425106 0.03095454 0.011100959
000250 81 7b 0c bd e3 91 7d bd 85 2b 8f bc c0 4f 4a 3d
       -0.03429747 -0.061906707 -0.017476806 0.04939246
000260 a7 3f 9e bc 8f 77 9c bd dc a1 cd bc 6b 41 ee 3d
       -0.019317461 -0.076399915 -0.025101595 0.11633571
000270 79 02 56 3d a9 c1 8e bc b8 2b 45 bc 3d d6 dd bb
       0.05224845 -0.017426329 -0.012034349 -0.006769924
000280 d7 fa 8d bd 62 08 35 ba dd 25 30 bb a1 e9 af bd
       -0.069326095 -0.0006905851 -0.0026878037 -0.08589483
000290 6c e8 fc bb 1d d1 09 3b d5 0a 69 bd 9e 64 40 be
       -0.0077181365 0.0021029182 -0.056895096 -0.18788382
0002a0 c1 a1 58 be 1d 14 7c ba 0a 98 c6 bb e5 09 ce ba
       -0.21155454 -0.0009616034 -0.006060605 -0.0015719502
0002b0 74 31 98 bd 67 14 88 bd 1f ce a8 bc 14 51 21 3d
       -0.074313074 -0.066445164 -0.020606099 0.039383963
0002c0 f5 8d ba 3c 23 c1 60 bd 64 d0 9c bc dd 41 c5 3d
       0.022772769 -0.05487169 -0.019142337 0.09631703
0002d0 3e 85 40 bd 7e 4f c8 bc 70 60 51 bc 05 f5 02 3d
       -0.04700207 -0.024451967 -0.01277934 0.03197195
0002e0 15 95 08 be b4 b9 09 bd 87 10 37 bd 17 69 94 bd
       -0.1333812 -0.033624366 -0.044693496 -0.07246607
0002f0 4e db 3f bd 8c 28 cb 3c 95 67 cc 3c ca 34 46 bc
       -0.046840005 0.024799608 0.024951736 -0.012097547
000300 52 21 91 bc 82 7d 32 3d 94 cf 0e bd 16 78 8b bb
       -0.017716084 0.043576725 -0.03486593 -0.0042562587
000310 ef 7f f0 bc 25 55 56 3d 46 14 03 bd bd cb 80 bc
       -0.029357878 0.052327294 -0.032001756 -0.01572215
000320 1f 08 56 bd d3 56 2e 3c 0a 5e 48 3d bb 37 7f bd
       -0.05225384 0.010640818 0.048917808 -0.062309008
000330 ec b1 81 3d 37 22 19 bd b7 87 df bd 46 bc 9e bb
       0.06332764 -0.037386145 -0.109145574 -0.0048442213
000340 e3 9e c6 3c 79 37 95 3c b1 f2 26 bb fe e0 af bd
       0.024245685 0.018214928 -0.0025474245 -0.08587836
000350 c0 38 dc b9 7d 8a a8 3d 08 ea 5c 3d 62 96 5a bc
       -0.00042003952 0.082295395 0.053934127 -0.013341518
000360 d6 df 23 bd 8d ee 38 3c 16 c5 81 3d 20 5d 89 ba
       -0.04000839 0.011287344 0.06336419 -0.0010480024
000370 ca 70 e5 3c 46 50 3b bc 8f af 1b bd 32 3a ae bb
       0.028007884 -0.011432713 -0.038009223 -0.005316996
000380 39 cc a6 bc 5b 11 6a bd f0 a5 de bd e0 36 9a bd
       -0.020361053 -0.057145458 -0.10871494 -0.07529998
000390 a4 75 ac bc 61 c7 aa bd ac ba 81 3b c1 b4 a2 bd
       -0.02105219 -0.0833881 0.0039590206 -0.07944632
0003a0 48 1f ff bc 12 e6 7d bd a5 4b 02 bd bd a1 b7 3c
       -0.031142846 -0.06198699 -0.03181042 0.02241599
0003b0 b5 a1 64 3c 29 6d fe ba b9 72 d7 3d 01 fe c7 3c
       0.01395457 -0.0019411194 0.105199285 0.02441311
0003c0 fd ba 60 bd c5 e2 4e 3d d5 21 2e bd b6 87 84 bd
       -0.054865826 0.050509233 -0.042512733 -0.06471197
0003d0 42 3c 4c bd 4d 4f ce bb ab 56 d5 bb 40 c2 7b bc
       -0.049862154 -0.0062960745 -0.006510576 -0.015366137
0003e0 19 a8 cd bd cb ff 0a 3e 28 c3 53 3d fb 74 40 3c
       -0.10041828 0.1357414 0.051699787 0.01174664
0003f0 ae 76 0f bd 5c 40 ad bc a4 9a b6 bd 13 1d 94 bc
       -0.03502529 -0.021148853 -0.08916214 -0.01808027

Linear2.bias f4 [7]
000000 e8 9d 98 3b a6 d2 c6 3b 21 21 da 3b a6 80 bd 3b
       0.0046574958 0.0060675917 0.0066567813 0.0057831584
000010 b7 5f ce 3b 07 05 c5 3b f0 41 9e 3b
       0.006298031 0.006012562 0.0048296377
