epsilon_10/saved_model 2500.pth (torch, 52885 bytes, 4 tensors)

Linear1.weight f4 [256, 42]
0	0xbcd17611	-0.025568994
1	0xbd8e9428	-0.06961852
2	0xbd0d1197	-0.034440603
3	0xbd5dda14	-0.054163054
4	0xbd2bdac4	-0.041956678
5	0xbd7c290a	-0.061562575
6	0xbdf1cd56	-0.11806743
7	0xbd5caf8d	-0.053878356
8	0xbde8f8dd	-0.11375592
9	0xbccc6c2f	-0.02495393
10	0xbceecd73	-0.0291507
11	0xbc3da31c	-0.011574533
12	0xbd33c3a2	-0.043887742
13	0x3cd6d493	0.02622441
14	0xbbbf0d6b	-0.005830457
15	0xbe2a3c03	-0.16624455
16	0xbb2706ab	-0.0025486152
17	0x3b467de5	0.0030287441
18	0x3c8230ca	0.015892405
19	0x3e1754c4	0.1477843
20	0x3cfe0a27	0.0310107
21	0xbc23b7a4	-0.009992514
22	0x3c1c48b1	0.009538815
23	0x3c8b8101	0.017029287
24	0x3d540d55	0.051770527
25	0x3d813b0b	0.0631009
26	0xbda709e6	-0.08156185
27	0xbcbcd525	-0.023050854
28	0xbd3bf8ed	-0.04589169
29	0xbd266bc6	-0.040630125
30	0xbbb7a928	-0.005604882
31	0x3cd2acbe	0.025717136
32	0x3da96732	0.08271636
33	0x3ba4e203	0.0050318255
34	0x3b6ef13c	0.0036459705
35	0xbdaf4e6f	-0.08559882
36	0x3e11e917	0.14249073
37	0xbd70ccf2	-0.0587892
38	0xbd4bc765	-0.049750704
39	0xbc5461db	-0.012962784
40	0x3d3f207e	0.046661846
41	0xbca9fb09	-0.020749586
42	0xbc4c916c	-0.012485843
43	0x3ce8da5c	0.028424434
44	0x3d500308	0.05078414
45	0x3d45d847	0.04830196
46	0x3d6b5d88	0.057462245
47	0x3d65d961	0.05611551
48	0x3cffa967	0.031208707
49	0x3d34a03f	0.044098135
50	0x3d9397a5	0.07206658
51	0x3d2ba6aa	0.04190699
52	0x3d51fdda	0.051267482
53	0x3d09ecca	0.033673085
54	0x3d0ab47a	0.033863522
55	0x3d7122b6	0.058870994
56	0x3a1ae6df	0.0005909036
57	0x3b937366	0.0044998406
58	0x3d344d6a	0.04401914
59	0x3cf4e450	0.029894024
60	0x3c70f48a	0.01470674
61	0xbcb1f978	-0.021725401
62	0x3d05688a	0.0325704
63	0x3c4790f3	0.012180555
64	0x3d12ab0d	0.035807658
65	0x3cba18bc	0.022716872
66	0x3d922ca3	0.0713742
67	0xbc2d72a8	-0.010586418
68	0xbc45665a	-0.012048328
69	0xbd13187b	-0.03591202
70	0x3cfd6c6e	0.030935492
71	0x3dc05521	0.09391237
72	0x3ac5b4be	0.0015083773
73	0x3d0f0ae7	0.034922507
74	0x3d6e2d76	0.058148824
75	0xbb8bfe82	-0.004272283
76	0xbd37f67b	-0.044912796
77	0x3cfb2475	0.030657033
78	0x3db06387	0.08612733
79	0xbd108c88	-0.03529027
80	0x3d767485	0.060169715
81	0x3c6b6011	0.014366166
82	0x3c8be343	0.01707614
83	0x3d1a39a5	0.03765263
84	0xbd60535a	-0.05476699
85	0x3ca9220e	0.020646121
86	0xbcb298da	-0.0218014
87	0xbd8d6d05	-0.069055595
88	0x3bd11147	0.0063802334
89	0x3d80edc6	0.06295352
90	0xbd8938c2	-0.06700279
91	0xbce05c5e	-0.027387794
92	0xbdb1995c	-0.08671829
93	0x3d170770	0.036872327
94	0xbcd6ec30	-0.02623567
95	0x3ccfb5fa	0.025355328
96	0xbd4c2460	-0.049839377
97	0xbcbd50b0	-0.023109764
98	0x3d27a0dd	0.040924896
99	0x3cc80321	0.024415554
100	0x3d85a03b	0.06524702
101	0x3d2c4006	0.042053245
102	0x3c90aa97	0.017659469
103	0x3e110738	0.1416291
104	0xbd74e5ea	-0.059789576
105	0x3ccff5fe	0.025385853
106	0x3df2140c	0.1182023
107	0xbc8980a7	-0.016784979
108	0xbd56e2c1	-0.052462343
109	0x3c55bed6	0.013045987
110	0xbd73c0da	-0.05951009
111	0x3d121f04	0.03567411
112	0xbd705c10	-0.058681548
113	0xbe301881	-0.17196847
114	0xbd55e9ea	-0.05222503
115	0x3bb3b7dd	0.0054845647
116	0xbcf27f7f	-0.02960181
117	0x3e872aa1	0.2639971
118	0x3b5b08f6	0.003342209
119	0x3c5fc448	0.013657637
120	0x3e2310b7	0.15924345
121	0xbcc39bce	-0.023878004
122	0xbd958548	-0.07300812
123	0x3beece7c	0.0072877984
124	0xbe3ffbd7	-0.18748413
125	0x3e0c1749	0.13680758
126	0x3cd9920b	0.026558897
127	0xbd013c2b	-0.03155152
128	0x3c32bacd	0.010908795
129	0x3de3c84e	0.111221895
130	0x3d894713	0.067030095
131	0xbd2db544	-0.042409196
132	0x3db5f178	0.08883947
133	0xbc6f302a	-0.014598886
134	0x3db2c124	0.08728245
135	0x3d5ca3a5	0.053867
136	0x3d922bd7	0.07137268
137	0xbc4e5a55	-0.012594779
138	0xbca3472c	-0.019931398
139	0xbb1a47d7	-0.0023541355
140	0xbcb2f02a	-0.021843035
141	0x3e84bbd8	0.25924563
142	0x3bf07b1d	0.007338895
143	0xbb947461	-0.004530475
144	0xbd98dbc4	-0.07463792
145	0x3e2099dd	0.15683694
146	0xbdb384bf	-0.08765554
147	0x3beafb7f	0.007171094
148	0xbe13b979	-0.14426221
149	0x3d3f8062	0.046753295
150	0x3d4fb204	0.05070688
151	0x3cff7cae	0.031187382
152	0xbccb9ad4	-0.024854101
153	0xbaa842a4	-0.0012837243
154	0xbd6c273a	-0.057654597
155	0xbe105ef7	-0.14098726
156	0xbd41b239	-0.047289107
157	0xbc239c61	-0.009986014
158	0xbd1248c7	-0.035713937
159	0xbd0d1bb6	-0.034450255
160	0x3caf7583	0.021418339
161	0x3d9104f4	0.07081023
162	0x3d7a28c6	0.06107404
163	0x3a93ff6b	0.001129133
164	0x3a574849	0.00082123704
165	0xbd652b06	-0.055949233
166	0x3da42a2f	0.080158584
167	0xbd47aa86	-0.04874661
168	0xbb309a37	-0.0026947388
169	0x3db26bfb	0.08712002
170	0xbd7edb97	-0.062221136
171	0xbd140cfa	-0.036145188
172	0x3d0ce89d	0.034401525
173	0xbda72cc2	-0.08162834
174	0xbb091a4a	-0.002092021
175	0xbd6b10de	-0.057389133
176	0x3da209d5	0.079120316
177	0x3d4ff33f	0.050769087
178	0x3cf27809	0.029598253
179	0x3c755262	0.014973255
180	0x3c9fe3b9	0.019517766
181	0x3d285e22	0.041105397
182	0x3d84afc4	0.06478837
183	0x3d8cf648	0.06882912
184	0x3bec25d2	0.007206657
185	0x3c04c126	0.008102691
186	0x3d5ae650	0.0534423
187	0xbd9dc685	-0.0770388
188	0x3d03dc5a	0.032192566
189	0x3dc3ba12	0.095569745
190	0x3d45af5c	0.04826294
191	0xbcbb06f5	-0.022830466
192	0x3d6a97ee	0.057273798
193	0xbc79df45	-0.0152509855
194	0x3d562ca2	0.05228866
195	0x3d6a0135	0.057130057
196	0xbacde7a7	-0.0015709297
197	0x3c6bcd38	0.01439219
198	0x3d394a67	0.04523697
199	0xbd83e506	-0.06440167
200	0xbcf22c2e	-0.029562082
201	0x3c62ff38	0.013854794
202	0x3dce9766	0.10087471
203	0x3c9f14a2	0.019419018
204	0x3dabcd43	0.0838876
205	0x3c7934e3	0.015210363
206	0xbc947690	-0.018122941
207	0xbc746437	-0.014916471
208	0xbbd1bf65	-0.00640099
209	0x3cea82bf	0.028626798
210	0xbc0e079a	-0.008668805
211	0x3bbc86b2	0.0057533616
212	0xbc2da24a	-0.010597775
213	0xbcccf0c8	-0.025017157
214	0xbd20f9e3	-0.03930081
215	0xbcab3e06	-0.020903599
216	0xbc3ef71d	-0.011655596
217	0x3d648af8	0.055796593
218	0xbb3034f6	-0.0026887036
219	0x3d0d24e2	0.034459002
220	0x3ca45e18	0.020064399
221	0xbcbd00a6	-0.023071598
222	0x3d218729	0.03943554
223	0xbc5e9478	-0.013585202
224	0x3cb522ea	0.022111375
225	0x3d3452fd	0.044024456
226	0xbd8a0719	-0.06739635
227	0xbca4550d	-0.020060087
228	0x3d1fd1af	0.03901833
229	0x3cfb83d3	0.030702507
230	0xbd7b86dd	-0.061407913
231	0x3d111444	0.035419717
232	0x3c663e25	0.014052902
233	0xbc60890d	-0.01370455
234	0x3a61474f	0.00085936947
235	0x3ae30d37	0.0017322664
236	0x3d03b38d	0.032153655
237	0x3d3d6e70	0.0462479
238	0x3c937054	0.017997898
239	0x3daadf5b	0.08343383
240	0x3d02b362	0.031909354
241	0x3bb9d598	0.0056712143
242	0x3d246b0d	0.040141154
243	0x3dc13bbf	0.09435224
244	0x3d888774	0.06666461
245	0x3d1186ff	0.035529133
246	0x3da19c98	0.07891196
247	0xbcd9ddd5	-0.026595036
248	0xbcba635e	-0.02275246
249	0x3d031b82	0.032008655
250	0xbc23e81f	-0.010004072
251	0x3d4e368b	0.050344985
252	0xbc9774b9	-0.018488275
253	0x3c2eef42	0.010677161
254	0xbbccb7a0	-0.0062474757
255	0x3bf167d4	0.0073671136

Linear1.bias f4 [256]
0	0xbeeb445c	-0.45950592
1	0xbedc9645	-0.43083397
2	0xbf0af7bc	-0.5428426
3	0xbecfe37d	-0.40603247
4	0xbf0b3da5	-0.5439094
5	0xbeee8b3c	-0.46590602
6	0xbed8f436	-0.42373818
7	0xbee6f5ba	-0.4510935
8	0xbf0fb11c	-0.5612962
9	0xbee6ae25	-0.45054737
10	0xbec209aa	-0.37897998
11	0xbef6d58d	-0.482098
12	0xbf10fa5b	-0.5663201
13	0xbef99f0e	-0.48754162
14	0xbed02f8c	-0.40661275
15	0xbeb89650	-0.3605218
16	0xbecfc9c9	-0.40583637
17	0xbf074b93	-0.5284969
18	0xbeccce57	-0.40001175
19	0xbefe34e2	-0.4964972
20	0xbedec5f6	-0.43510407
21	0xbec99dfd	-0.39378348
22	0xbed36183	-0.41285333
23	0xbe9a3c5d	-0.3012418
24	0xbf11fbf3	-0.5702507
25	0xbeef6db7	-0.46763393
26	0xbec75956	-0.38935345
27	0xbefcc7e7	-0.49371263
28	0xbedc8ba7	-0.43075296
29	0xbed134b6	-0.40860528
30	0xbeefe921	-0.4685755
31	0xbee4931b	-0.44643483
32	0xbefca3ec	-0.49343812
33	0xbede1e44	-0.43382466
34	0xbeba7708	-0.3641894
35	0xbed80665	-0.4219238
36	0xbeaa7c65	-0.3329803
37	0xbecde5f1	-0.40214494
38	0xbec5cd91	-0.38633397
39	0xbeb6d1c3	-0.3570691
40	0xbf039073	-0.51392287
41	0xbed9670c	-0.4246143
42	0xbed20ebc	-0.41026866
43	0xbecc2374	-0.398708
44	0xbed6ffc7	-0.41992018
45	0xbef0224d	-0.4690117
46	0xbee50003	-0.4472657
47	0xbed8a5a3	-0.4231387
48	0xbeec0c2f	-0.46103045
49	0xbed4152d	-0.41422406
50	0xbf0e2a50	-0.55533314
51	0xbeccd071	-0.40002778
52	0xbebb1a8f	-0.365437
53	0xbefbdc33	-0.49191436
54	0xbefd03f9	-0.49417093
55	0xbedefaad	-0.43550625
56	0xbee38586	-0.44437808
57	0xbef07e60	-0.46971416
58	0xbf172772	-0.59044564
59	0xbf0317b7	-0.5120806
60	0xbf190617	-0.5977492
61	0xbec3f1a8	-0.38270307
62	0xbebf031b	-0.37307057
63	0xbee50fa4	-0.44738495
64	0xbef1f1f5	-0.4725491
65	0xbebdd4c3	-0.37076387
66	0xbef095a0	-0.46989155
67	0xbf06c66c	-0.5264652
68	0xbeb7b345	-0.3587896
69	0xbf0c7ba4	-0.5487616
70	0xbec8f4e8	-0.3924935
71	0xbebf927d	-0.3741645
72	0xbeba963f	-0.36442754
73	0xbf0b98d1	-0.54530054
74	0xbf15dc6f	-0.5853948
75	0xbec980fe	-0.39356226
76	0xbee6b843	-0.45062456
77	0xbef035bb	-0.46915993
78	0xbed37406	-0.41299456
79	0xbecf0aa4	-0.40437806
80	0xbedb62db	-0.42848858
81	0xbed5e8c7	-0.41779158
82	0xbeca9d83	-0.39573297
83	0xbf06b77f	-0.5262374
84	0xbeff6cae	-0.49887604
85	0xbed44703	-0.41460428
86	0xbed3f7b5	-0.41399923
87	0xbed4f25a	-0.4159115
88	0xbed94063	-0.42431936
89	0xbf0ff7b3	-0.56237334
90	0xbed7d4ca	-0.42154533
91	0xbec98d83	-0.39365777
92	0xbeeea773	-0.4661213
93	0xbebda92a	-0.37043124
94	0xbed48962	-0.41511065
95	0xbee560d7	-0.44800445
96	0xbec7eb5f	-0.3904676
97	0xbed5c306	-0.41750354
98	0xbecf5a3b	-0.40498528
99	0xbeefe5f0	-0.46855116
100	0xbf23fd8e	-0.6405877
101	0xbeed858b	-0.46390948
102	0xbef24b70	-0.4732318
103	0xbefd009d	-0.4941453
104	0xbec58c00	-0.38583374
105	0xbf0d9af2	-0.5531455
106	0xbeff481c	-0.49859703
107	0xbedc50f5	-0.43030515
108	0xbeec8425	-0.46194568
109	0xbf0167e8	-0.50549173
110	0xbefd4c82	-0.49472433
111	0xbf026fdb	-0.5095193
112	0xbeb0a3c4	-0.34499943
113	0xbee4db60	-0.4469862
114	0xbf178646	-0.5918926
115	0xbf06f1fc	-0.5271299
116	0xbee25d7a	-0.44211942
117	0xbed38d51	-0.41318753
118	0xbee5976b	-0.44842085
119	0xbeb81ed1	-0.3596101
120	0xbeb91cb7	-0.3615472
121	0xbeed11bf	-0.46302602
122	0xbeee733b	-0.4657229
123	0xbeecf801	-0.46282962
124	0xbed59abf	-0.41719624
125	0xbeb7de44	-0.35911763
126	0xbf015b98	-0.50530386
127	0xbec6ec9b	-0.3885239
128	0xbf19ba92	-0.6005031
129	0xbeedf405	-0.46475235
130	0xbebf489d	-0.37360087
131	0xbeb01f9c	-0.34399116
132	0xbed59381	-0.417141
133	0xbece5b5c	-0.40304077
134	0xbec9aacc	-0.3938812
135	0xbeb686e2	-0.35649782
136	0xbeeac652	-0.4585443
137	0xbeb6d0da	-0.35706216
138	0xbec8becc	-0.39208066
139	0xbf037d9c	-0.5136354
140	0xbebd0c82	-0.36923605
141	0xbedf2e71	-0.4359012
142	0xbf053173	-0.5202858
143	0xbeceec58	-0.4041469
144	0xbec3135d	-0.3810071
145	0xbf034c54	-0.5128834
146	0xbebdab22	-0.37044626
147	0xbeed0db8	-0.4629953
148	0xbebb9294	-0.36635268
149	0xbeaabe6c	-0.33348405
150	0xbeeb1c54	-0.4592005
151	0xbf1b6daf	-0.6071424
152	0xbee47dab	-0.44627127
153	0xbf124d82	-0.5714952
154	0xbeb1cfe7	-0.3472893
155	0xbee2d50f	-0.44303176
156	0xbef06dcc	-0.46958768
157	0xbee48b8c	-0.44637716
158	0xbf19b278	-0.60037947
159	0xbf058b14	-0.5216534
160	0xbec2bc08	-0.3803408
161	0xbee51922	-0.44745737
162	0xbf00ad71	-0.5026465
163	0xbeb3a06e	-0.35083336
164	0xbefadbd4	-0.4899584
165	0xbecdff3e	-0.40233797
166	0xbef03ca5	-0.46921268
167	0xbeee7a2b	-0.46577582
168	0xbe9fafa5	-0.31188694
169	0xbf087bd6	-0.5331396
170	0xbeddb63a	-0.4330309
171	0xbec3bae4	-0.38228524
172	0xbee711b9	-0.4513071
173	0xbee0f5eb	-0.4393762
174	0xbedbfe92	-0.4296766
175	0xbecedf98	-0.40404963
176	0xbee03f1b	-0.43798146
177	0xbee21a0b	-0.44160494
178	0xbef02f01	-0.4691086
179	0xbf05f5ed	-0.5232838
180	0xbf01a854	-0.50647473
181	0xbee767e1	-0.4519644
182	0xbed09006	-0.4073488
183	0xbeab8f48	-0.33507752
184	0xbf0367d7	-0.5133032
185	0xbee950fc	-0.455696
186	0xbef685e9	-0.4814904
187	0xbeb460b3	-0.35230026
188	0xbf009470	-0.502265
189	0xbee5d1f3	-0.4488674
190	0xbee9da48	-0.45674348
191	0xbeed1693	-0.46306285
192	0xbed25342	-0.41079146
193	0xbf14ffdf	-0.5820293
194	0xbee13504	-0.4398576
195	0xbef95c65	-0.48703304
196	0xbed23d3a	-0.41062337
197	0xbee36900	-0.44416046
198	0xbed90747	-0.42388365
199	0xbef8a9ec	-0.4856714
200	0xbea656f7	-0.32488224
201	0xbefa8e14	-0.48936522
202	0xbebf587a	-0.3737219
203	0xbf05cc61	-0.5226498
204	0xbed70d24	-0.42002213
205	0xbf016884	-0.50550103
206	0xbec4e7e6	-0.38458174
207	0xbed3ad3e	-0.4134311
208	0xbed213a5	-0.41030613
209	0xbef313c9	-0.47476032
210	0xbf024dc5	-0.50899917
211	0xbf06d18b	-0.5266349
212	0xbeee0ae5	-0.46492687
213	0xbef3cf07	-0.47618887
214	0xbec32ba8	-0.38119245
215	0xbf31dcb9	-0.6947742
216	0xbec1720e	-0.3778233
217	0xbf04d4ba	-0.51887095
218	0xbeccb3b1	-0.39980844
219	0xbefc0f37	-0.49230358
220	0xbee6bac0	-0.45064354
221	0xbee86a25	-0.45393482
222	0xbeb0aeb0	-0.34508276
223	0xbef9ac9a	-0.48764497
224	0xbee93c6f	-0.4555392
225	0xbef8ecc3	-0.48618135
226	0xbebab858	-0.36468768
227	0xbf020886	-0.50794256
228	0xbedf97e9	-0.43670586
229	0xbee0690e	-0.4383015
230	0xbefc773d	-0.49309722
231	0xbef7a805	-0.48370376
232	0xbed9b62c	-0.425218
233	0xbf08d7c9	-0.5345426
234	0xbed24d1d	-0.41074458
235	0xbee4376e	-0.4457354
236	0xbedca720	-0.43096256
237	0xbef9096f	-0.4864001
238	0xbed8ab60	-0.4231825
239	0xbec4098f	-0.38288543
240	0xbeca1f85	-0.39477172
241	0xbeea7e5d	-0.45799533
242	0xbeeffda4	-0.468732
243	0xbecf1dcb	-0.40452418
244	0xbed2c819	-0.41168287
245	0xbf10c045	-0.5654338
246	0xbea52659	-0.3225582
247	0xbecc8163	-0.39942464
248	0xbed0a194	-0.40748274
249	0xbef9f56d	-0.48820058
250	0xbee37295	-0.44423357
251	0xbeff5ece	-0.49877018
252	0xbef4d6ae	-0.47820038
253	0xbeffb60e	-0.49943584
254	0xbf019d9f	-0.50631136
255	0xbeac9730	-0.33709097

Linear2.weight f4 [7, 256]
0	0xbc82b1d4	-0.015953936
1	0x3b47ff41	0.0030517133
2	0xbc187e16	-0.009307405
3	0xbd91c822	-0.071182504
4	0x3d8553fc	0.065101594
5	0x3cc2dbfd	0.02378654
6	0xbdebe7e2	-0.115188375
7	0x3e069561	0.13142921
8	0xbd98391b	-0.07432767
9	0x3cc7c580	0.024386168
10	0x3d693add	0.056940902
11	0x3d52ff44	0.05151297
12	0x3d2a20cf	0.041535195
13	0xbc4ce13a	-0.01250487
14	0xbd852c7e	-0.06502627
15	0xbad43823	-0.0016191046
16	0xbda29c2d	-0.079399444
17	0xbe11b5de	-0.14229533
18	0xbd4b1a34	-0.049585536
19	0x3dc22e5c	0.094814986
20	0xba812d7c	-0.0009855474
21	0xbdb15851	-0.08659423
22	0x3c479164	0.01218066
23	0x3c25a490	0.010110036
24	0xbe00134c	-0.12507361
25	0x3cf7a124	0.030228205
26	0x3c6b31e0	0.014355153
27	0xbc4e897e	-0.012606023
28	0x3cd13aa0	0.02554065
29	0xbcaee2ec	-0.02134844
30	0x3c64af28	0.013957776
31	0xbd74a007	-0.059722926
32	0xbcd48ff5	-0.02594755
33	0xbdfaa1fc	-0.12237927
34	0xbd98a607	-0.07453542
35	0xbe48661e	-0.19570205
36	0x3da3985f	0.07988047
37	0xbd6d747b	-0.057972413
38	0x3d91a06b	0.071106754
39	0xbcb13c55	-0.021635214
40	0x3d0ccc8e	0.034374766
41	0xbaa74068	-0.0012760283
42	0xbcac3c0a	-0.021024723
43	0xbb087a4e	-0.0020824852
44	0xbdd021e4	-0.10162714
45	0xbdad81b9	-0.08472008
46	0xbe1df11b	-0.15424006
47	0xbdaaadd9	-0.0833394
48	0x3ce2b2dc	0.027673177
49	0xbb251746	-0.0025190874
50	0xbb8e35a7	-0.004339892
51	0x3af49e1a	0.0018662841
52	0xbc99ead5	-0.018788734
53	0xbd2ec7a3	-0.042670857
54	0xbc95d75d	-0.01829117
55	0x3db233f6	0.08701317
56	0x3dffacff	0.12484168
57	0x3aeb3fcd	0.0017948091
58	0xbdd57b45	-0.104239024
59	0x3d9ea2b9	0.07745881
60	0xbdba4b2e	-0.09096371
61	0xbb3b9c2a	-0.0028627017
62	0x3be877ed	0.0070943744
63	0xbc35c99b	-0.01109543
64	0xbd461241	-0.048357252
65	0x3d8228af	0.06355416
66	0x3dedd4e5	0.11612872
67	0xbe13367b	-0.14376251
68	0xbc61956d	-0.013768536
69	0x3cea6fbe	0.028617736
70	0x3c282f18	0.010265134
71	0xbd223279	-0.039598916
72	0xbd86e3eb	-0.06586441
73	0xbd196056	-0.03744539
74	0xbc1263b9	-0.008934909
75	0x3bc4eb79	0.006009516
76	0xb908b9cd	-0.00013039187
77	0x3d8f5b7c	0.06999871
78	0x3ceba983	0.028767353
79	0x3d5c1ee5	0.0537404
80	0x3d9afbe5	0.07567576
81	0xbdd94120	-0.10608125
82	0x3cfc8591	0.030825408
83	0x3c2d6bd5	0.010584791
84	0xbc2436d4	-0.010022838
85	0xba955b21	-0.0011394956
86	0xbcce14d5	-0.025156418
87	0xbc3d2962	-0.011545511
88	0xbd0f8a34	-0.03504391
89	0x3c687894	0.014188904
90	0xbc156adf	-0.009119718
91	0xbd1a5437	-0.03767797
92	0xbb54eda3	-0.0032490275
93	0xbdf257be	-0.11833142
94	0x3c99b61f	0.0187636
95	0xbcdc8101	-0.026916983
96	0x3e1590b6	0.14605984
97	0x3bea6afa	0.007153866
98	0xbdcf0589	-0.101084776
99	0xbd694839	-0.056953643
100	0x3cd954b9	0.026529657
101	0x3e1d7330	0.15375972
102	0x3a642e14	0.0008704376
103	0x3ce63fee	0.028106656
104	0xbdaf8c2e	-0.08571659
105	0xbd5860c1	-0.052826647
106	0xbd5301c2	-0.05151535
107	0xbd57d2a6	-0.052691124
108	0x3cf7547b	0.03019165
109	0x3dac192c	0.08403239
110	0x3d647064	0.055771247
111	0xbe2101c4	-0.1572333
112	0xbb6da717	-0.0036262923
113	0xbd174a07	-0.036935832
114	0xbe27e00f	-0.16394065
115	0xbce8f7d4	-0.028438486
116	0x3c07b435	0.008282711
117	0xbe79ba25	-0.24387415
118	0x3d2258e2	0.039635547
119	0x3bc8e662	0.0061309794
120	0xbd30d93c	-0.04317592
121	0x3c524291	0.0128332535
122	0xbc419fd4	-0.011817891
123	0xbcab10ef	-0.020882098
124	0xbc42005d	-0.011840907
125	0x3c2bb1ab	0.010479371
126	0xbcb9484b	-0.02261748
127	0x3cc2a099	0.02375822
128	0x3d30cdab	0.04316489
129	0xbad475b3	-0.0016209394
130	0xbd24e42a	-0.040256657
131	0x3a811571	0.0009848309
132	0x3ced9f5f	0.029006658
133	0x3ac80789	0.0015261035
134	0x3cda8ef4	0.026679493
135	0x3c2a2efd	0.010387179
136	0xbc3d1a64	-0.011541937
137	0xbc87cf23	-0.016578263
138	0x3e08d8df	0.1336398
139	0xbd801de2	-0.062557
140	0x3d2a948a	0.041645564
141	0x3d42013b	0.047364455
142	0xbdbe4b7f	-0.092917435
143	0xbd477b37	-0.04870149
144	0xbc126955	-0.008936246
145	0x3cc569a2	0.024098221
146	0xbb9f9e6a	-0.0048711793
147	0xbd166f85	-0.036727447
148	0xbd0ba1c0	-0.034089804
149	0xbc084132	-0.008316325
150	0x3d48ffe1	0.04907215
151	0xbb9e8cd1	-0.004838564
152	0x3b2a5965	0.0025993225
153	0xbd9c4b24	-0.076315194
154	0x3c058555	0.008149465
155	0x3da032cc	0.07822189
156	0xbd5767a5	-0.052589078
157	0xbca37145	-0.019951472
158	0x3d57a9ff	0.052652355
159	0xbc027bf5	-0.007964124
160	0xb9bea90f	-0.00036365582
161	0xbac661a9	-0.0015135306
162	0x3b8cf867	0.004302073
163	0x3ca5403a	0.020172227
164	0xbbe13566	-0.0068728207
165	0xb99b481e	-0.00029617635
166	0x3cc17539	0.023615466
167	0x3d37b6f4	0.044852212
168	0xbcccba5b	-0.024991205
169	0x3d45708f	0.048203047
170	0x3c06d130	0.008228585
171	0xbdd612ea	-0.10452826
172	0xbc2902e4	-0.010315631
173	0xbd925ebb	-0.07146975
174	0xbd2dc62b	-0.042425316
175	0xbd55a507	-0.052159335
176	0xba8fe7fa	-0.0010979169
177	0x3cb94ba2	0.022619072
178	0x3d0ea573	0.034825753
179	0xbd018e5c	-0.031629905
180	0xbcb17060	-0.02166003
181	0x3d7098ca	0.05873946
182	0xbe04c32d	-0.12965079
183	0xbd051124	-0.03248705
184	0xbda31697	-0.07963293
185	0xbd669628	-0.056295544
186	0xbcb2e65c	-0.02183836
187	0xbd1c4600	-0.038152695
188	0xbd2f5bda	-0.042812206
189	0xbcda734e	-0.02666631
190	0xbcdfa921	-0.027302327
191	0xbdb6fb58	-0.08934659
192	0xbd1e64fd	-0.03867053
193	0x3b38b723	0.002818533
194	0x3b131dff	0.00224483
195	0xbb8b7816	-0.0042562587
196	0xbd605b07	-0.05477431
197	0xbd32696d	-0.043557573
198	0xbb3f3bb4	-0.0029179873
199	0xbda8cf92	-0.08242716
200	0x3c43408c	0.011917245
201	0x3d5c08f2	0.05371947
202	0xbcda21ce	-0.026627447
203	0xbce85947	-0.028362883
204	0xbc8ac798	-0.016940877
205	0xbc87ffa3	-0.01660139
206	0x3c56ba10	0.013105884
207	0x3dbd01a4	0.092288285
208	0x3d097b22	0.033564694
209	0xbca1ffe4	-0.019775338
210	0x3cd3e2b2	0.025864933
211	0xbd4fee3e	-0.050764315
212	0xbb506f37	-0.003180457
213	0xbda3f914	-0.08006492
214	0x3af19460	0.001843106
215	0x3cd85cbe	0.02641141
216	0xbdc19b0a	-0.094533995
217	0x3d9750ba	0.07388444
218	0xbda3caf6	-0.07997696
219	0xbdccda27	-0.10002547
220	0x3c62e1d4	0.013847787
221	0xbb6c58ed	-0.0036063746
222	0xbd59f53d	-0.053212393
223	0xbbc4de05	-0.006007912
224	0x3e104fd8	0.14092958
225	0x3d4ac072	0.049499936
226	0x3d4b1317	0.049578752
227	0xbd3c08e2	-0.04590691
228	0xbb07001e	-0.0020599435
229	0x3d197387	0.03746369
230	0x3c164211	0.009171025
231	0x3af04d9b	0.0018333675
232	0x3d2c5b2f	0.042079147
233	0xbd1f91f4	-0.03895755
234	0xbd07b5ed	-0.033132482
235	0x3ca56661	0.02019042
236	0x3dc89270	0.09793556
237	0x3d875e35	0.066097654
238	0xbddf4a6e	-0.10902868
239	0xbcc5bdad	-0.024138296
240	0x3b7e9ef2	0.0038852063
241	0xbbee7434	-0.007277036
242	0xbd4b6d90	-0.049665034
243	0xbdbf9bf4	-0.093559176
244	0xbcaa85c2	-0.020815734
245	0x3da5c2c9	0.08093793
246	0xbd404d7e	-0.046948902
247	0x3bcc0a21	0.0062267934
248	0xbdfac9aa	-0.122454956
249	0xbcc0a719	-0.023517178
250	0x3ddd911a	0.108186916
251	0x3d0dc630	0.034612834
252	0xbd61b78f	-0.055106696
253	0xbd03e913	-0.0322047
254	0x3d12dcd7	0.03585514
255	0x3cac86a3	0.021060294

Linear2.bias f4 [7]
0	0x3c57ca72	0.013170825
1	0x3b1f8783	0.0024342246
2	0x3c6ff52b	0.014645855
3	0x3c65d41f	0.014027624
4	0x3c6de170	0.0145190805
5	0x3b5c4067	0.0033607723
6	0x3c6fb5a4	0.014630709
