epsilon_10/saved_model 6500.pth (torch, 52885 bytes, 4 tensors)

Linear1.weight f4 [256, 42]
00000000: 033c 5cbd 1161 5abc 7488 23bd 52e9 e2bb
00000010: 8f8c 38bd 8845 ab3c 1884 24bd df81 003d
00000020: d241 6b3c 68eb 1a3d 12fd 87bd 0de9 63bd
00000030: fde1 3b3d 864b e7bc 5b07 bd3c 866c b5bd
00000040: b3a1 223d da59 3abd da2a 13bb 7eaf 833c
00000050: 54ce c1bc c404 d7bc d5d7 41bd 09bd 80bb
00000060: 158e 443d 4342 bebb bb97 f63c f5fc eabc
00000070: 4ad2 60bb 1963 16bd f4e2 e03d 6e5a 39bc
00000080: 766e 96bd 25e7 753d 5370 bbbd 0ade e7bc
00000090: b3aa 9a3c 7c44 3b3c aa2a 4a3c 2094 bfbd
000000a0: 46c1 b1bc 67bb 223d 4e47 c33c 06fd 513d
000000b0: 7281 053d 2261 453c a097 9d3a 9c3e 0a3d
000000c0: d7e7 103c 36f0 6b3b e4ae 123d 4c08 6a3c
000000d0: fde9 643d 9454 fe3c e763 793d 9b7c 073d
000000e0: 9b33 173d 3f2b c03d b7a3 8d3d 01a4 763d
000000f0: 1347 79bc 7b46 993c 1a97 023d f87e 0d3d
00000100: 0a17 193c 38da 1ebb dff8 283d d670 b03c
00000110: a949 cb3b dc6b acbb dd6d 0c3c 5309 213c
00000120: 0654 e73c a335 853d 5a9a 803d 4a2f 00bd
00000130: 4d0d 89bc f42c 593d f6e0 7b3d 1175 57bc
00000140: 6920 d23c 1c43 1f3c ff10 923c 571d a73b
00000150: 5547 183c 4661 a03d 3c36 e13c b0fe e0bd
00000160: eb79 0dbd 8674 a8bb 54c7 8f3d 583e bd3d
00000170: 9513 39bd f32b 743d ecbb 0f3e 8305 d3bc
00000180: 1970 b83d bc19 0fbe 82f0 843d efa8 ad3c
00000190: 07ba f53d 0d0d bcbd c15a 9e3d 695a 8f3d
000001a0: 5c54 b33b 74d1 f5bb 57ae 343e db12 c03d
000001b0: ef73 c0bd cecf 0b3d ccc8 6d3c be21 0fbd
000001c0: 77c9 123d 4ccc 22be 5fc8 35be dcac 55bc
000001d0: 65a2 743d fda7 003e aa29 e83d bd8e 713d
000001e0: a6a8 6cbd d551 a23d a891 06be 84c2 373d
000001f0: e7e6 6dbd e8b6 1fbd 6c28 993d 1baa f9bc
00000200: 9d8d d73d 1414 8c3d 3e31 5e3d 0117 ec3c
00000210: b440 b33d 6832 60bd 7365 5fbc 1bcc 1b3e
00000220: d96c 033e 92e6 7cbc 45a2 a9bd 0af5 543c
00000230: 8f0f 353c 39c6 083e 8dfb 413d 565f 24be
00000240: 126c 6b3d 9e87 0c3d f3f9 863c 4a1e 73bc
00000250: 4703 efbc 8f4c 3c3d b077 4f3e fe83 e2bc
00000260: 3dbf adbc 3a22 7bbd 4d90 65bd c971 203d
00000270: be24 2dbd d9fd e9bc a4f6 30bd e236 713d
00000280: 4987 9c3d 44f0 823d 2b38 8a3d 4496 d93c
00000290: dc43 ddbc bd85 c3bd f766 913c d31d e93c
000002a0: 2921 e13c 5615 783d 6488 b33c 4be2 b83b
000002b0: fbec f13c 265e b4bc 3cd9 e93c 1d85 b2bc
000002c0: b713 103c f6b1 953d 487a 673d 9557 f13c
000002d0: 3ebe 633c 1b40 9a3d de62 2a3d 1e2e 083e
000002e0: e726 183d 6f3d d53d 65e2 b93d 7ddf a33c
000002f0: 5b94 af3d 91de b13d eed8 db3a 8653 fbbc
00000300: 9a48 88bd acea 20bd 52e5 7a3c 0383 4b3d
00000310: 9c60 4c3d c0f4 13bc ccb5 f6bb 659f 7bbd
00000320: 5307 6c3c bccf 6b3b 21a2 913d 0693 85bd
00000330: 4a7e 1c3e dc78 a33d 5c07 433d 5e6f 3abc
00000340: d920 36bc e0b4 1dbb d565 b13c e8a3 0e3d
00000350: df8b 1bbd 2c47 42bb c6fb 15bb 9e11 003c
00000360: c102 c63c dfbc 7b3c 9eb9 b43c e5f8 993b
00000370: fbae 19bc 87c2 46bd 0615 f93b 9376 983c
00000380: b198 0c3c bdb6 d23c 8baf 973c 6898 6e3c
00000390: 057a 1c3c 0486 443d 007d cabc 23ce 3f3d
000003a0: d761 263d 4713 513c 46e2 413c da90 e23c
000003b0: b2a9 0a3d 332d 473c 04a8 9a3b 280f 693d
000003c0: 513f ae3b b567 673d a3e2 693c 4955 bd3d
000003d0: a25f 443d 6ff4 413d dd97 563d 0dee 13bb
000003e0: 40e9 4cbc 1171 bb3c 7d2d c1bb 5864 8d3d
000003f0: c9b0 2abd ff17 f2bc 5add 033d d747 793b
-0.05376817 -0.0133288065 -0.039925054 -0.0069247866 -0.045055922 0.020907179 -0.040165037 0.031373855
0.0143589545 0.037822157 -0.06640066 -0.055642176 0.045869816 -0.028234255 0.023074796 -0.0885859
0.03970499 -0.045495845 -0.0022455961 0.016074892 -0.023657955 -0.02624739 -0.047324974 -0.0039287847
0.047987062 -0.005806239 0.030101648 -0.028685072 -0.003430503 -0.0367156 0.10980788 -0.011313064
-0.073452875 0.06003489 -0.091522835 -0.028304119 0.018880224 0.011429902 0.0123392735 -0.093544245
-0.021698605 0.039729502 0.023837712 0.051266693 0.03259415 0.012047084 0.0012023337 0.033751115
0.008844337 0.0036001331 0.03581132 0.014284205 0.05588721 0.03104619 0.06088629 0.033077817
0.03691445 0.093832485 0.06915992 0.060215 -0.015214699 0.018710366 0.031882383 0.034544915
0.009343872 -0.0024238955 0.041252967 0.02153818 0.0062038493 -0.0052618813 0.008571115 0.009828883
0.028238308 0.06504371 0.0627944 -0.0312951 -0.016729975 0.053021386 0.061493836 -0.013150469
0.02565022 0.00972059 0.01783037 0.005099933 0.009294351 0.078310534 0.027491681 -0.10986078
-0.0345401 -0.005140844 0.07020441 0.09240407 -0.04518469 0.059612226 0.1403653 -0.025759464
0.09005756 -0.1397466 0.06491186 0.021198718 0.119983725 -0.09182177 0.07732154 0.06999666
0.005472703 -0.0075017754 0.1764463 0.093785964 -0.093971126 0.034133725 0.014513206 -0.03494429
0.035836663 -0.15898246 -0.17752217 -0.013041701 0.059725184 0.12564082 0.11336072 0.058974016
-0.057778023 0.079257645 -0.13141501 0.04486324 -0.058081534 -0.038992792 0.07478413 -0.03047662
0.105250575 0.06839767 0.05424618 0.028819563 0.087525755 -0.05473557 -0.013635027 0.15214579
0.12834491 -0.015435832 -0.082829036 0.012997875 0.011051073 0.13356866 0.04735904 -0.16051993
0.05747611 0.034309022 0.016476607 -0.014838764 -0.029176367 0.04597145 0.20260501 -0.02765083
-0.021209354 -0.061311938 -0.05604582 0.039171014 -0.04227137 -0.028563427 -0.043203965 0.05889023
0.07642991 0.06393483 0.067489944 0.02656091 -0.027009897 -0.09546993 0.017749293 0.028456604
0.027481632 0.060567223 0.021915622 0.0056422106 0.029531946 -0.02201755 0.028545968 -0.021791989
0.008793763 0.07309334 0.0565131 0.029460708 0.013900338 0.075317584 0.041598193 0.13298842
0.037146475 0.10412108 0.090763845 0.020004028 0.085732184 0.08685029 0.0016773024 -0.030679476
-0.06654473 -0.0392863 0.015313463 0.04968549 0.04989682 -0.009030521 -0.007528996 -0.061431307
0.014406043 0.0035981974 0.07111002 -0.06522183 0.1528255 0.079820365 0.04761444 -0.011379091
-0.01111623 -0.0024064109 0.021655003 0.034824282 -0.03797519 -0.0029644473 -0.0022885664 0.0078167
0.024171235 0.015364855 0.022061165 0.00469886 -0.0093800975 -0.04852536 0.007601383 0.018611228
0.008581326 0.025721902 0.018516323 0.014562704 0.009550576 0.04797937 -0.024717808 0.046827447
0.04062065 0.012760944 0.011833733 0.027656961 0.03385324 0.012156772 0.004719736 0.05689922
0.0053176065 0.056495387 0.014275226 0.092447825 0.047942765 0.04735225 0.05239092 -0.002257231
-0.012506783 0.022881063 -0.005895315 0.06903905 -0.0416725 -0.029552458 0.03219352 0.0038037205

Linear1.bias f4 [256]
00000000: 7358 31bf 7b39 03bf 8348 3abf e107 23bf
00000010: cd31 4ebf 090c 01bf 71a0 1fbf 6cb5 30bf
00000020: d6de 4dbf b581 21bf cd49 16bf 95c5 24bf
00000030: ef58 45bf 0e9f f9be ea62 4bbf d16a 10bf
00000040: 606b 6abf 9629 3ebf 86e2 23bf 2055 0ebf
00000050: 7e29 38bf 3a6b 32bf 84ce 32bf 1a4c 38bf
00000060: 263d 30bf 24bf 21bf 6adc 14bf d30f 38bf
00000070: d0b9 79bf 3020 3bbf fe26 1ebf dbd5 21bf
00000080: bf09 21bf f2d5 11bf f196 0bbf ea5e 0abf
00000090: 2c84 16bf a23d 17bf ba54 2fbf 7b55 14bf
000000a0: 70db 0cbf b700 29bf b46e 10bf 20f6 06bf
000000b0: 0bb0 30bf 4318 30bf c38e 1bbf 33c1 2ebf
000000c0: 1eb8 2abf 4e2b 10bf 3d6f 38bf ff44 34bf
000000d0: 8c11 32bf 347e 35bf 20dc 44bf bfa3 1cbf
000000e0: 1ac2 13bf 6e39 3abf 011f 4ebf 8612 21bf
000000f0: 7dc1 2cbf 4a25 0dbf 8a11 2ebf 43f0 0ebf
00000100: 1221 27bf 8997 28bf 4a0b 61bf be89 35bf
00000110: a381 11bf 8943 3cbf b3aa 29bf 5533 1ebf
00000120: b8e4 19bf 0d15 52bf 5a82 40bf 1ec1 28bf
00000130: a227 24bf 0c45 3fbf b39d 38bf 3e23 31bf
00000140: 5526 18bf 8461 25bf fb4c 22bf 34d3 43bf
00000150: 44a4 0cbf e99d 4bbf b006 22bf 1d3d 2abf
00000160: 6340 d9be bed5 4fbf 15a3 0cbf 1981 17bf
00000170: 24f1 5abf 534f 1cbf dedd 0fbf 1709 31bf
00000180: faca 4ebf 46f8 44bf 2d96 0dbf 1472 3abf
00000190: c6dd 5dbf b857 3fbf 6d21 28bf 322b 35bf
000001a0: 5398 14bf ef64 31bf a572 32bf 81f6 19bf
000001b0: 3b95 1ebf 57a9 71bf 2b2d 22bf 2cc9 21bf
000001c0: d77f 10bf 77eb 11bf d3b8 58bf 49a6 3bbf
000001d0: 45cb 5ebf 5152 19bf 9d0b 33bf 89e1 1bbf
000001e0: 7e50 21bf ca2b 32bf a81b 39bf 07ec 20bf
000001f0: ded7 10bf f4d6 19bf 21e5 4cbf e3be 34bf
00000200: 7bda 21bf b69c 16bf 25c7 23bf f642 3fbf
00000210: 2ef9 17bf ca15 07bf 66c3 febe d14b 12bf
00000220: 9ccf 1fbf 66bd 24bf ce7d 4bbf ebf9 16bf
00000230: 654a 27bf 0f8a 10bf 3655 16bf 433a 2cbf
00000240: 1f09 43bf f8bf 25bf 2f59 0dbf b08c 29bf
00000250: 263d 04bf f109 27bf 7140 2ebf a8e6 53bf
00000260: b258 3bbf e0cd 77bf b14a 0fbf 5e8d 3fbf
00000270: 39f6 3ebf 1355 1abf 8bfe 73bf 05eb 2bbf
00000280: e67d 0ebf 96f4 31bf 959b 2ebf 073f 3fbf
00000290: 7f6a 08bf 37f1 1abf b699 3dbf a78b 2ebf
000002a0: 58c0 2ebf 1fa4 2cbf 1573 3cbf 6057 28bf
000002b0: 85ad 32bf 0b76 24bf 56b5 2ebf 0e9d 5abf
000002c0: 82cb 49bf 2101 20bf 5fc7 45bf 924d 81bf
000002d0: 045e 28bf bfda 3fbf b5fe 23bf 7f19 11bf
000002e0: f2c0 2abf bd1b 2abf 3aa7 33bf b367 e5be
000002f0: 65e1 1cbf b352 2abf 5125 45bf 7b69 3ebf
00000300: d983 24bf b748 25bf 157b 61bf d76b 0cbf
00000310: d0ad 29bf ff49 37bf 64a4 3cbf e74f 3abf
00000320: b792 3ebf 239a 6cbf 2166 2bbf be80 39bf
00000330: c769 11bf 847b 40bf 321a 18bf 265d 27bf
00000340: d5ff 20bf 54bc 48bf ba78 27bf 528f 36bf
00000350: 51da 45bf 1e9f 41bf fcad 06bf 809a 6abf
00000360: 4d64 19bf 4a5e 51bf cb83 4abf 3ae1 07bf
00000370: 84e0 4bbf cfdd 15bf e420 24bf 139e 33bf
00000380: ce58 55bf 18c4 2fbf 9af8 02bf e532 20bf
00000390: a9ec 31bf 121a 2abf 3d41 3ebf face 4cbf
000003a0: 999b fdbe df35 64bf deaf 04bf 56d4 35bf
000003b0: f9aa 39bf 4d97 1dbf 43b7 fdbe 9e17 edbe
000003c0: e87d 16bf a1e8 3dbf 2a7f 6dbf 9b73 0ebf
000003d0: c648 2bbf 432c 65bf 967b fbbe 4d24 1ebf
000003e0: 9224 0fbf b137 38bf 5027 2bbf b5dd 81bf
000003f0: a35c 45bf 9e4e 24bf c090 1fbf 53f1 11bf
-0.6927559 -0.51259583 -0.72766894 -0.636839 -0.8054474 -0.5040899 -0.6235419 -0.6902683
-0.80418146 -0.6308854 -0.5870636 -0.64363986 -0.77088827 -0.48754162 -0.79447806 -0.5641299
-0.9157009 -0.74282205 -0.6401752 -0.5559864 -0.7193831 -0.69694865 -0.6984637 -0.7199112
-0.68843305 -0.6318228 -0.58148825 -0.71899146 -0.9754915 -0.7309599 -0.6177825 -0.6321694
-0.62905496 -0.5696708 -0.54527193 -0.5405108 -0.5879543 -0.5907842 -0.6848866 -0.5794293
-0.55022335 -0.66016716 -0.5641892 -0.52719307 -0.6901862 -0.6878702 -0.6076471 -0.6826355
-0.6668719 -0.5631608 -0.72044736 -0.7041778 -0.69558024 -0.70895696 -0.76898384 -0.61187357
-0.5771805 -0.7274388 -0.8051606 -0.6291889 -0.6748274 -0.55135024 -0.6799551 -0.5583536
-0.65284836 -0.65856224 -0.8790785 -0.709133 -0.56838435 -0.7354055 -0.6627609 -0.61797076
-0.6011462 -0.8206337 -0.751989 -0.65919673 -0.64122975 -0.7471473 -0.7211563 -0.691944
-0.5943349 -0.6460192 -0.6339871 -0.76494145 -0.5493815 -0.79537827 -0.63291454 -0.664995
-0.42431936 -0.8118552 -0.54936343 -0.5918136 -0.855242 -0.6105854 -0.5619792 -0.69154495
-0.8077847 -0.76941335 -0.55307275 -0.7283032 -0.86666524 -0.74743223 -0.65676004 -0.70769036
-0.5804493 -0.6929464 -0.69706184 -0.6014176 -0.6194646 -0.9439902 -0.6335017 -0.6319759
-0.5644507 -0.56999916 -0.8465702 -0.73300606 -0.87028915 -0.5989123 -0.69939595 -0.60891014
-0.63013446 -0.69598067 -0.72307825 -0.6286015 -0.5657939 -0.6009362 -0.8003712 -0.7060377
-0.63224 -0.5883287 -0.63975745 -0.7471155 -0.59364593 -0.5276762 -0.49758452 -0.57146937
-0.6242616 -0.643515 -0.7948884 -0.58975095 -0.6534789 -0.5646066 -0.5872377 -0.672764
-0.7618579 -0.64746046 -0.5521421 -0.662303 -0.51655805 -0.65249544 -0.6806708 -0.8277383
-0.73182213 -0.96798515 -0.55973345 -0.74825084 -0.74594456 -0.6028606 -0.95310277 -0.67155486
-0.55660856 -0.69513834 -0.6820615 -0.7470555 -0.532875 -0.60524315 -0.7406267 -0.6818184
-0.68262243 -0.6743793 -0.736131 -0.65758324 -0.6979602 -0.6424262 -0.68245447 -0.85395896
-0.78826153 -0.6250172 -0.7725734 -1.0101798 -0.65768456 -0.74943155 -0.6406053 -0.5667953
-0.6670066 -0.66448575 -0.7017704 -0.4480568 -0.61281425 -0.6653244 -0.77010065 -0.743797
-0.64263684 -0.6456408 -0.88078433 -0.5485205 -0.6628084 -0.71597284 -0.7368834 -0.7277817
-0.7444262 -0.92422694 -0.6695271 -0.7246207 -0.5680203 -0.7518847 -0.5941497 -0.6537651
-0.6289037 -0.78412366 -0.6541859 -0.7131244 -0.7728625 -0.7563342 -0.5260923 -0.91642
-0.5991867 -0.817845 -0.7910735 -0.53078043 -0.7963946 -0.5854158 -0.6411269 -0.7016308
-0.8333863 -0.6865859 -0.51160586 -0.6257766 -0.6950174 -0.6644603 -0.74318296 -0.8000332
-0.49532774 -0.891447 -0.5183085 -0.71027124 -0.7252651 -0.6155899 -0.4955388 -0.4630708
-0.5878587 -0.7418309 -0.9277216 -0.5564515 -0.6690792 -0.89520663 -0.49117726 -0.6177414
-0.55915177 -0.7195998 -0.6685686 -1.0145785 -0.7709448 -0.6418246 -0.62330246 -0.57008857

Linear2.weight f4 [7, 256]
00000000: 10eb b73d 5478 cf3b 7082 77bd 8e2e b9bb
00000010: f492 4ebd 5263 82bc f6e4 3dbd 5959 04be
00000020: dedb 82bd e616 0abe 3ec0 17bc 0608 963c
00000030: 44e3 6f3d 3ae1 4cbc 43f6 c7bd 7485 fabb
00000040: 04e7 7b3d 8b16 a93c 1f62 88bd cf6a 99bd
00000050: 3163 96ba edf2 cabd 0c0f 29bd 3e15 d4bc
00000060: a441 ffb9 1507 9e3d e104 7d3d 28c9 eebd
00000070: 6e27 0c3e f82a 40bd f2de 21bd 3eb5 c8bd
00000080: 4c16 9abd 71be 0abe 4d12 cb3d 7463 15be
00000090: c0d5 893d 0f82 eebd 419f 6ebd 581f 38bd
000000a0: 8ecc 0c3d 1550 1cbe 2839 89bc 43ab 13be
000000b0: 013d d4bc 9fac 863d eb88 2ebe 3cbe ac3c
000000c0: 5dff 9c3d 350a 8cbd 4731 6dbd 7684 5d3e
000000d0: 8a64 2dbd 93f7 c7b9 4636 41bd 5efd d8bd
000000e0: bfa3 99bd 3ae5 e6bd b4f0 e43c 9aa2 ccbd
000000f0: c706 0ebc e01b 39bd e5f8 fd3d e60b fdbc
00000100: fa12 25bc e7cd 84bc f970 063e e5a5 75ba
00000110: b6b1 d33c d4c5 eabc 1f1f 8bbe ef17 d4bd
00000120: 1ae7 01be faeb be3d cd45 a33c 2535 873c
00000130: e0e4 94bd 4a5f 1cbe 4135 9abc 452f 863d
00000140: ce03 403d 304e 72bb cfb9 223d 0beb a13d
00000150: ea6d acbb 9ce5 10ba 9115 f2bd 518e 36bd
00000160: 348a 0fbd 4c34 023e ffab 0c3a d9c5 a33b
00000170: e5e0 2cbc 1cd6 1dbd 80e4 73bd eb04 e4bd
00000180: 106a d838 0476 b7bd a60a f1bd da26 ef3c
00000190: 355c b83c bddb c63c 44ae f53c 58c4 76bd
000001a0: f1ff 8abd 871c b3bd c94f 0abe f4ca b33b
000001b0: 91fd afbd 8a2a 81bd 385a c13b 78c6 1cbe
000001c0: ddc7 e2bd 5fbf 56be 7c42 36bd bb55 59bd
000001d0: f298 9fbb fe06 49be b317 bebc c5a2 5dbc
000001e0: bc8b 22be d021 763c b0ba bc3c 17bb c5bd
000001f0: 7bd4 18be f3e2 343c 96de ecbc 57ab 143c
00000200: 7e84 3b3c 65fd 21bc 30d6 0dbd 52e8 10be
00000210: 1f8e c23c 4869 b639 2aa6 f3bb 49f3 bebd
00000220: de93 ddbd d7f6 2abd c34c 0f3d 1dd6 39bd
00000230: 3bfa 89bc ae2a fbbd 7523 f8bc 9831 9cbb
00000240: 96bf 40bd 5777 febd 905f 85bc b03d 9dbd
00000250: 1871 1cbe e391 7dbd 72d7 a5bc eda1 bcbd
00000260: a73f 9ebc 3883 46be dca1 cdbc 0cfb d4bc
00000270: 45ff 55bc a9c1 8ebc 49fa ccbd eb1a 963d
00000280: 6bff e8bd aa7d 3b3d dd25 30bb a1e9 afbd
00000290: 6ce8 fcbb 720b 30bd d50a 69bd a21d cbbb
000002a0: c1a1 58be 4c0a fa3c a5ab fb3c df10 b23d
000002b0: 4e33 33be 6714 88bd 1fce a8bc e214 15bd
000002c0: c74a 2ebc 05dd 413d 64d0 9cbc dd41 c53d
000002d0: 2b55 cd3d bbcc 58be 1687 a13c 4681 bcbd
000002e0: 340e 95bd 9f4d 82bd 8710 37bd 1769 94bd
000002f0: 7f4d 143d d4e9 84bc b87b 83bc ca34 46bc
00000300: 095e cdbd f006 15bb 94cf 0ebd 1678 8bbb
00000310: aaa7 bebc 3af8 843d 4614 03bd fb2d 203d
00000320: 5e4c 483d 7231 b0bc 34e2 c73d bb37 7fbd
00000330: ecb1 813d 74db 8dbd b54e c1b9 56fa babd
00000340: d251 853d 7937 953c 8c91 32be 1d5a 52bd
00000350: 0460 99bc 32c0 323a 0294 efbb 8839 0f3b
00000360: 6a1b efbc 8dee 383c 39c0 d73d 8628 5dbd
00000370: 8ea9 12bc c133 c53c 84f6 93bd 323a aebb
00000380: 39cc a6bc 7207 99bd 8aac 9abd c561 15be
00000390: 9293 51bd 160f d4bc a186 0f3d 335e e7bd
000003a0: 808f 9cbc 1c05 18bd aaa7 d0bb 24cc adbc
000003b0: b5a1 643c 6f10 93bd 0ddb 87bc 2c05 e3bd
000003c0: 8b90 afbd 14f3 5ebc dc78 9abd 4eb6 93bd
000003d0: 423c 4cbd f64c cf3c 78cb cabc 1119 72bd
000003e0: 19a8 cdbd d54e 1c3e f8f8 b83c fb74 403c
000003f0: 7916 12bd 6d73 113d efed e73d 85d5 73bd
0.089803815 0.006331483 -0.06042713 -0.0056513017 -0.050433114 -0.0159165 -0.046360932 -0.12924708
-0.063895926 -0.13485298 -0.009262143 0.018314373 0.058566347 -0.01250487 -0.097637676 -0.0076453034
0.06149961 0.020640632 -0.0665934 -0.07491075 -0.0011473653 -0.09909616 -0.041274115 -0.025889035
-0.00048686296 0.077161945 0.06177223 -0.11659461 0.13686916 -0.04691598 -0.039519258 -0.09800194
-0.07523784 -0.1354921 0.099156 -0.1458872 0.06730223 -0.116459005 -0.058257345 -0.044951767
0.034374766 -0.15264924 -0.016750887 -0.144208 -0.025907995 0.065758936 -0.17044418 0.021086805
0.07665894 -0.06837884 -0.057908323 0.21632561 -0.04233221 -0.00038140695 -0.0471709 -0.10595201
-0.07501935 -0.1127419 0.027946807 -0.09991951 -0.008668608 -0.0451926 0.124009885 -0.030889463
-0.010075325 -0.016211463 0.13129033 -0.00093707285 0.025841575 -0.028658785 -0.2717218 -0.103561275
-0.12685814 0.09322353 0.019930745 0.016504833 -0.07270217 -0.15270725 -0.018824222 0.06551985
0.04687863 -0.0036972873 0.039727982 0.07906159 -0.005262126 -0.00055273785 -0.1182052 -0.044569317
-0.03504391 0.12715262 0.00053662056 0.0049979505 -0.010551666 -0.03853427 -0.059544086 -0.111337505
0.00010319438 -0.089580566 -0.11769609 0.02919333 0.022504905 0.024274701 0.029990323 -0.06024584
-0.06787098 -0.087456755 -0.13506998 0.0054868404 -0.08593286 -0.06306942 0.0059006475 -0.15310085
-0.11073277 -0.2097144 -0.044497 -0.053060275 -0.0048705274 -0.19631574 -0.02320466 -0.013527577
-0.15873617 0.01502271 0.023038238 -0.09654825 -0.14924805 0.011040437 -0.028914731 0.009074054
0.011445163 -0.009887074 -0.034628093 -0.14151123 0.02374941 0.00034792186 -0.00743558 -0.09323747
-0.10819219 -0.04173931 0.034985315 -0.04537021 -0.016842952 -0.12264 -0.030290345 -0.004766654
-0.04705771 -0.12425106 -0.01628092 -0.076777816 -0.15277517 -0.061906707 -0.020244334 -0.092105724
-0.019317461 -0.19385993 -0.025101595 -0.025998615 -0.013061349 -0.017426329 -0.100086756 0.07329353
-0.11376842 0.04577414 -0.0026878037 -0.08589483 -0.0077181365 -0.042979665 -0.056895096 -0.006198601
-0.21155454 0.030522488 0.030721495 0.08694624 -0.1750004 -0.066445164 -0.020606099 -0.03639687
-0.0106379455 0.04732992 -0.019142337 0.09631703 0.1002601 -0.21171848 0.019717734 -0.092043445
-0.072781 -0.06362461 -0.044693496 -0.07246607 0.03620672 -0.01622478 -0.016050205 -0.012097547
-0.100277014 -0.002273973 -0.03486593 -0.0042562587 -0.023273308 0.06492658 -0.032001756 0.03910635
0.048900954 -0.021507952 0.09759942 -0.062309008 0.06332764 -0.06926623 -0.0003687047 -0.09129779
0.065097466 0.018214928 -0.17438334 -0.05135547 -0.018722542 0.00068188005 -0.007311345 0.002185436
-0.029187877 0.011287344 0.105347104 -0.053993724 -0.008951558 0.02407253 -0.072247535 -0.005316996
-0.020361053 -0.07472123 -0.075524405 -0.14588077 -0.051166125 -0.0258861 0.0350405 -0.11297264
-0.019111395 -0.037114248 -0.0063676434 -0.021215506 0.01395457 -0.07180869 -0.016583944 -0.11084971
-0.08572491 -0.013607759 -0.07542583 -0.07212506 -0.049862154 0.025305253 -0.024755225 -0.059105936
-0.10041828 0.15264447 0.022579655 0.01174664 -0.035665963 0.03551047 0.11324679 -0.0595298

Linear2.bias f4 [7]
00000000: 0188 e93b 884b c53b bdc2 e63b eb75 e73b
00000010: 4ef3 d23b d8ab e33b eedb c13b
0.0071268086 0.006020967 0.0070422576 0.0070636175 0.0064376956 0.0069479756 0.0059161102
