epsilon_10/saved_model 3500.pth (torch, 52885 bytes, 4 tensors)

Linear1.weight f4 [256, 42]
000000 7c 2e 42 bd 29 c5 98 bb 8d 18 ed 3b 3e 88 07 bd
       -0.047407612 -0.004662175 0.0072355927 -0.033088915
000010 33 b0 81 bd d6 38 9d 3a 0a 8e cf bd f4 68 c7 bd
       -0.063324355 0.0011995088 -0.10134514 -0.09736815
000020 94 b0 61 bd 54 ee 39 3d eb d2 80 bd d5 5b aa 3c
       -0.05510004 0.045393303 -0.062902294 0.020795742
000030 e3 7c a8 bd 28 99 48 3c 34 b3 49 3d ca f0 1a be
       -0.08226945 0.012243547 0.049243167 -0.15130916
000040 e4 81 0b 3d 2c ac 02 bd b0 20 ab 3c be 4f 4c 3b
       0.03405942 -0.031902477 0.02088961 0.003117546
000050 3b b2 14 bc 93 0f e7 bd 5b 90 62 bc 37 80 9d 3c
       -0.009075697 -0.112822674 -0.013828362 0.019226177
000060 54 22 81 3d dd 5f 99 3c 64 60 b9 bd 7d 13 c0 bd
       0.06305376 0.018722469 -0.09051588 -0.09378717
000070 f1 7c fc 3b 8e fd c4 bd ce d5 00 3d 40 40 29 bc
       0.007705324 -0.09618674 0.0314539 -0.01033026
000080 06 08 17 3c bc 99 15 3d 4f 22 bd 3c 1e 9e c6 bd
       0.0092182215 0.036523566 0.023087649 -0.09698127
000090 ff 5e c4 3d 51 24 7c bd d5 2e ba bc 8a 8f 8a 3b
       0.095884316 -0.06155807 -0.02272741 0.004228537
0000a0 97 ca e5 3d 41 a2 d4 3a 6c 91 4c bc 5c da e8 3c
       0.112202816 0.0016222672 -0.012485843 0.028424434
0000b0 08 03 50 3d 47 d8 45 3d 88 5d 6b 3d 61 d9 65 3d
       0.05078414 0.04830196 0.057462245 0.05611551
0000c0 67 a9 ff 3c 3f a0 34 3d a5 97 93 3d aa a6 2b 3d
       0.031208707 0.044098135 0.07206658 0.04190699
0000d0 da fd 51 3d ca ec 09 3d 7a b4 0a 3d b6 22 71 3d
       0.051267482 0.033673085 0.033863522 0.058870994
0000e0 df e6 1a 3a 66 73 93 3b 6a 4d 34 3d 50 e4 f4 3c
       0.0005909036 0.0044998406 0.04401914 0.029894024
0000f0 8a f4 70 3c 78 f9 b1 bc 8a 68 05 3d f3 90 47 3c
       0.01470674 -0.021725401 0.0325704 0.012180555
000100 0d ab 12 3d bc 18 ba 3c a3 2c 92 3d a8 72 2d bc
       0.035807658 0.022716872 0.0713742 -0.010586418
000110 5a 66 45 bc 7b 18 13 bd 6e 6c fd 3c 21 55 c0 3d
       -0.012048328 -0.03591202 0.030935492 0.09391237
000120 be b4 c5 3a e7 0a 0f 3d 76 2d 6e 3d 82 fe 8b bb
       0.0015083773 0.034922507 0.058148824 -0.004272283
000130 7b f6 37 bd 75 24 fb 3c 87 63 b0 3d 88 8c 10 bd
       -0.044912796 0.030657033 0.08612733 -0.03529027
000140 85 74 76 3d 11 60 6b 3c 43 e3 8b 3c a5 39 1a 3d
       0.060169715 0.014366166 0.01707614 0.03765263
000150 23 5e 1c bd 1f cc d7 3c e0 c5 b4 bc 6c cc 7f bd
       -0.038175713 0.02634245 -0.02206701 -0.06245081
000160 19 19 00 3c 11 97 70 3d a9 e6 50 bd 27 4d a2 bc
       0.007818484 0.05873782 -0.051001225 -0.01981218
000170 7f d5 82 bd 9e 0e de 3c 69 21 c4 bc b8 44 dc 3c
       -0.063883774 0.02710658 -0.023941712 0.026888236
000180 11 78 53 bd b3 1c cc bc 6e 8a fa 3c eb aa 85 3c
       -0.051628176 -0.024916029 0.030583587 0.016316852
000190 ff 9b b0 3d f5 1e 22 3d 4f 3d 67 3c f8 88 fe 3d
       0.08623504 0.039580304 0.014113738 0.124284685
0001a0 df 92 78 bd 58 9e 64 3c ee f5 eb 3d ba 4f 14 bd
       -0.060686942 0.013953768 0.11521517 -0.036208846
0001b0 8a 80 53 bd 19 8b 7b 3c 1c 47 10 bd c3 d5 35 3d
       -0.051636256 0.015352988 -0.035224065 0.044393312
0001c0 ba 60 1d bd 02 79 2f be ae bf 4e bd dc f4 dd 3b
       -0.038422324 -0.17136005 -0.05047577 0.0067735743
0001d0 47 31 1b bd 7d cc 6f 3e a8 03 f3 bb a5 9d d7 ba
       -0.03788879 0.2341785 -0.0074162073 -0.001645018
0001e0 2e 6a 0e 3e 1b 96 1f bd f2 f0 45 bd 85 3a 80 3c
       0.13907692 -0.03896151 -0.048325486 0.015652904
0001f0 d8 a2 21 be 94 7a 0c 3e 34 e1 8d 3d 0c 71 7a bd
       -0.15784776 0.13718635 0.0692772 -0.061142966
000200 95 46 2b 3c 70 93 e9 3d 85 50 15 3d 20 d5 5d bd
       0.01045384 0.114050746 0.036453743 -0.05415833
000210 f7 e0 b8 3d f5 3b ae 3c d6 12 4a 3d 0d d7 a6 3d
       0.09027284 0.021268824 0.04933437 0.081464864
000220 46 4a 38 3d 93 40 4c 3c 52 23 0f 3c 71 00 cc bb
       0.044992708 0.012466568 0.008736448 -0.0062256386
000230 2e 4d af bd 11 3e 76 3e bd 3d 32 3d c0 f6 87 3c
       -0.08559643 0.24047114 0.04351591 0.016597152
000240 02 3f ef 3b 3b 39 a9 3d 12 77 af bd c9 6c b5 3c
       0.0073012123 0.08262869 -0.08567633 0.0221466
000250 95 10 17 be 4d 62 03 3d 51 55 7c 3b f5 82 3b bb
       -0.1475242 0.03207617 0.0038503 -0.0028611992
000260 6a 96 55 3c 85 86 91 bd 4d f6 9e 3c 3d 87 84 bd
       0.01303635 -0.07105736 0.019404555 -0.06471107
000270 6c d4 5b bc 75 e0 4f 3c d2 c9 2b bd 46 95 f6 bc
       -0.013417345 0.012687792 -0.041940518 -0.030100476
000280 49 2e da 3d a4 17 b3 bb cb c3 08 3e 84 dc a0 bb
       0.106533594 -0.0054654647 0.13355939 -0.0049091
000290 8f 71 20 3d ff ea 81 bd e1 a4 9b 3d 67 f3 62 bd
       0.039170798 -0.0634365 0.075998075 -0.055407908
0002a0 1d ac 18 3c 17 6f 96 3d 47 ca 4c bd 28 3f 38 bd
       0.009318379 0.073454075 -0.049997594 -0.044982105
0002b0 9a 0e 7b 3a b6 c5 4f bd b2 7c 95 3c 6d 80 71 3c
       0.0009577066 -0.05072566 0.018247936 0.014740092
0002c0 19 d9 cb 3d 71 06 04 3e 72 dc cf 3d bf 66 d1 3c
       0.099535175 0.12893082 0.101494685 0.025561688
0002d0 8a 40 8a bd cf e1 9a 3d fa 9f e9 3d 35 db 92 3d
       -0.06750591 0.07562601 0.11407466 0.07170717
0002e0 42 b2 b9 3c a0 ac a4 3d 19 26 34 3d a7 f1 61 bd
       0.022668008 0.08040738 0.043981645 -0.0551621
0002f0 32 60 c1 3d f1 71 5d 3d 35 88 4d 3d 1d a8 f8 bc
       0.09442176 0.05406374 0.050178725 -0.0303536
000300 3b b9 58 bd d8 c2 2b 3b 77 f9 f0 3d c3 ac 3a bc
       -0.052911025 0.0026208665 0.11766332 -0.011393729
000310 f4 79 01 3d cf b1 2c be f7 ba 0f 3c 9c 9c 5d bd
       0.031610444 -0.16864704 0.008772603 -0.054104432
000320 bf 83 c1 bc 75 66 91 3c d7 f2 b0 3d 3e 97 70 bd
       -0.023622392 0.01774905 0.08640068 -0.058737986
000330 3d b5 11 3e 7e 9c 9b 3d 5e d8 4e bd ec fc d4 bc
       0.14229293 0.07598208 -0.050499313 -0.025999509
000340 57 96 75 3c 0b ab be bb 72 fc b8 3c d6 13 18 3d
       0.014989457 -0.0058187298 0.022581313 0.037128292
000350 b5 68 2b bd 8e 6b d4 3b 2e cc f1 bb 52 08 56 3c
       -0.041847903 0.006482548 -0.0073790764 0.013063507
000360 57 50 a5 3c 67 0b c7 3c c6 fe ea 3c 4d f3 2b 3b
       0.02017991 0.02429743 0.028685939 0.0026237548
000370 6a 44 37 bc 77 80 5e bd 97 d0 5d 3b 36 76 93 3c
       -0.011185745 -0.054321732 0.0033846253 0.018000703
000380 eb e9 93 3b f3 09 9e 3c 89 a8 11 bd 7e 56 37 3c
       0.004513969 0.019291854 -0.03556112 0.011190055
000390 c8 5e f6 3b ce 0b 53 3d d5 41 f2 bc 7b 28 59 3d
       0.007518623 0.05152493 -0.029572407 0.05301712
0003a0 8c dd 1e 3d 7b 7c 92 3c 06 f6 f8 bc 3d 14 08 3d
       0.038785502 0.017881623 -0.03039075 0.033222426
0003b0 8d b3 03 3d e5 21 6c 3c d2 74 e1 39 b5 70 70 3d
       0.032153655 0.014412378 0.00043002382 0.058701236
0003c0 a3 46 9a 38 d7 3a 17 3d c2 bc 0d 3c bf 3b c1 3d
       7.356449e-05 0.03692135 0.00865096 0.09435224
0003d0 02 c5 3b 3d dc a8 59 3d 31 eb 5d 3d 38 28 bd bb
       0.04584218 0.053139552 0.054179374 -0.0057726167
0003e0 d3 31 5d bd 4a 56 49 3a 1f e8 23 bc 32 c0 91 3d
       -0.054002594 0.00076803996 -0.010004072 0.071167365
0003f0 00 51 97 bc 72 66 88 bd 0a 9c 62 3d 24 cf 26 3d
       -0.018471241 -0.06660165 0.05532459 0.04072489

Linear1.bias f4 [256]
000000 b4 ec 0f bf 45 96 dc be 4b 21 11 bf 66 bf fd be
       -0.56220555 -0.43083397 -0.56691426 -0.49560088
000010 04 7b 28 bf f8 03 ff be b6 22 07 bf 7e ed 01 bf
       -0.65812707 -0.49807715 -0.5278734 -0.5075301
000020 a8 dd 32 bf de b5 04 bf ad f8 da be 8d d5 f6 be
       -0.6986947 -0.5184001 -0.4276785 -0.482098
000030 35 0b 22 bf 0e 9f f9 be 32 b5 0f bf 7e c9 db be
       -0.6329835 -0.48754162 -0.5613586 -0.42927164
000040 2e d4 0d bf b4 af 0e bf 93 99 db be a4 3d 06 bf
       -0.55401886 -0.5573685 -0.42890605 -0.52437806
000050 3a a5 0b bf 03 ab e2 be fc 9b d4 be 1f 24 cf be
       -0.5454899 -0.44271097 -0.41525257 -0.40457246
000060 d1 28 18 bf 00 cc 08 bf ce 26 d1 be f5 93 10 bf
       -0.5943728 -0.5343628 -0.40849918 -0.56475765
000070 da c1 25 bf 7f 23 01 bf 21 e9 ef be 53 e7 0d bf
       -0.6474892 -0.5044479 -0.4685755 -0.554311
000080 6d b6 11 bf 8c dd ec be 93 3d cf be d0 c3 ed be
       -0.56918985 -0.46262777 -0.40476665 -0.46438456
000090 20 6e c0 be 37 52 ed be c4 96 e4 be 7c 52 e2 be
       -0.3758402 -0.46351787 -0.44646275 -0.44203556
0000a0 73 90 03 bf cd 72 00 bf 1b 9f fa be bb c6 e0 be
       -0.51392287 -0.5017517 -0.48949513 -0.4390162
0000b0 18 be ec be 5e ef 12 bf 76 14 df be e9 a0 f2 be
       -0.4623878 -0.57396495 -0.43570298 -0.4738839
0000c0 b6 5f 1e bf 18 b3 dc be 1f 37 1b bf 38 47 09 bf
       -0.61864793 -0.43105388 -0.60630983 -0.53624296
0000d0 fb 51 e2 be 68 14 18 bf 02 5d 17 bf 57 e8 05 bf
       -0.4420317 -0.5940614 -0.59126294 -0.5230765
0000e0 0b 2c ef be 92 77 05 bf 42 a2 1e bf cb fd 12 bf
       -0.4671329 -0.52135575 -0.61966336 -0.5741851
0000f0 86 28 26 bf d5 63 ea be 5d a2 fb be 2d 59 07 bf
       -0.64905584 -0.4577929 -0.4914731 -0.52870446
000100 93 55 10 bf cf e9 de be fe 67 0c bf 14 84 30 bf
       -0.56380576 -0.43537757 -0.5484618 -0.68951535
000110 9a 62 d1 be 91 91 1f bf c4 5e f0 be da 1c db be
       -0.4089554 -0.6233149 -0.469473 -0.4279545
000120 cf 5c c2 be 28 37 1e bf 3f 39 27 bf de 46 17 bf
       -0.37961432 -0.6180291 -0.65321726 -0.5909251
000130 61 b6 fa be 64 4a 16 bf 43 75 e9 be 85 c3 f2 be
       -0.4896727 -0.5870726 -0.45597276 -0.47414795
000140 fd c7 04 bf fc 51 e4 be e3 9b d7 be b5 43 11 bf
       -0.5186766 -0.445938 -0.4211112 -0.5674394
000150 44 a4 0c bf 23 da 07 bf 7b 0a db be 88 46 eb be
       -0.5493815 -0.53067225 -0.42781433 -0.4595225
000160 63 40 d9 be a0 42 2f bf 6a 99 d0 be 9c 93 dd be
       -0.42431936 -0.68461037 -0.40742046 -0.4327668
000170 0f 2c 0f bf 6d 61 c6 be 0b fe e1 be 90 1d 08 bf
       -0.55926603 -0.38746205 -0.44139132 -0.5317011
000180 a6 aa f9 be 22 48 06 bf 2d 96 0d bf 06 75 1b bf
       -0.48763007 -0.52453816 -0.55307275 -0.6072544
000190 50 8f 34 bf 7c fe 04 bf ad 1c 08 bf c1 8c 13 bf
       -0.7053118 -0.5195081 -0.53168756 -0.5763665
0001a0 a0 69 fa be ef 64 31 bf c3 c7 1e bf 96 3c 11 bf
       -0.4890871 -0.6929464 -0.6202356 -0.5673307
0001b0 b6 ef ef be b3 d6 2e bf c3 ea 01 bf f6 c2 12 bf
       -0.46862572 -0.68296355 -0.5074884 -0.57328737
0001c0 f2 ee d1 be 6e a3 f7 be 6a 7e 28 bf 51 19 24 bf
       -0.41002613 -0.48366874 -0.6581789 -0.6410113
0001d0 d9 4a 15 bf 8b 30 f7 be b9 4a 11 bf 46 db c5 be
       -0.58317333 -0.48279223 -0.5675464 -0.38643855
0001e0 21 e9 eb be fb 4e 0b bf fb 8f 04 bf 8c 1a 04 bf
       -0.460763 -0.5441739 -0.51782197 -0.5160301
0001f0 5f 37 ed be 86 87 ea be 0b 27 1a bf 32 6b f0 be
       -0.46331307 -0.4580652 -0.60215825 -0.46956784
000200 7b da 21 bf 27 cb 01 bf 64 a5 f5 be 1a cd df be
       -0.63224 -0.5070061 -0.47977746 -0.43711168
000210 81 93 d5 be 7e 68 d7 be dc 02 c4 be 7b 52 d0 be
       -0.417141 -0.4207191 -0.38283432 -0.40687928
000220 b3 40 09 bf 7b e5 d6 be 5c ca 03 bf 8c f6 11 bf
       -0.5361435 -0.41971955 -0.5148065 -0.57016826
000230 d2 b9 e7 be 5a 43 f0 be 5d ea 06 bf bc 37 f9 be
       -0.45258957 -0.46926385 -0.5270136 -0.48675334
000240 86 90 11 bf 94 0d 0f bf d6 fb d0 be d1 e0 06 bf
       -0.5686115 -0.55880094 -0.40817136 -0.5268679
000250 4e 97 d0 be ca 69 b5 be 69 10 f5 be 07 01 39 bf
       -0.40740436 -0.35432273 -0.47864082 -0.7226719
000260 d8 a0 17 bf 04 37 36 bf 8e a0 e2 be ea 8b 0d bf
       -0.59229803 -0.711777 -0.44263119 -0.55291617
000270 5a 90 07 bf 6b 89 fc be 9f 91 45 bf a5 03 12 bf
       -0.5295464 -0.49323592 -0.77175325 -0.5703681
000280 57 3d ec be 06 70 03 bf 88 16 17 bf 1a 75 f2 be
       -0.4614055 -0.5134281 -0.59018755 -0.47354966
000290 7f 6a 08 bf 39 6f e9 be 95 11 09 bf e0 88 02 bf
       -0.532875 -0.4559267 -0.53542453 -0.50990105
0002a0 2e 0e e0 be 19 f1 19 bf 91 f8 fb be ac 41 dc be
       -0.43760818 -0.6013351 -0.4921308 -0.43018854
0002b0 7b b4 01 bf ed 13 02 bf 1e 80 09 bf 72 04 e9 be
       -0.50666016 -0.50811654 -0.53711116 -0.45511204
0002c0 db 37 05 bf bc 3a f4 be 92 65 11 bf 4c a7 1d bf
       -0.52038354 -0.4770106 -0.5679561 -0.615834
0002d0 ff 1c 04 bf 9f a5 ee be 09 64 f0 be ae 63 d2 be
       -0.51606745 -0.46610734 -0.4695132 -0.41091675
0002e0 a0 03 0a bf 5e 71 f9 be 5c 6b 13 bf 81 fe d6 be
       -0.5391178 -0.48719305 -0.5758569 -0.41991046
0002f0 15 99 14 bf 34 44 dd be 44 73 f9 be 91 a1 05 bf
       -0.58046085 -0.43216097 -0.48720753 -0.52199656
000300 47 bf da be b3 fd 1f bf 89 92 18 bf 65 5c f9 be
       -0.42724058 -0.6249649 -0.59598595 -0.48703304
000310 88 9c f2 be d6 55 fe be 3e 9c 04 bf 57 c0 0e bf
       -0.4738505 -0.49674863 -0.51800907 -0.5576224
000320 dd f8 cd be 94 92 31 bf 70 2a f2 be cf dc 16 bf
       -0.4022893 -0.69364285 -0.47298002 -0.5893068
000330 63 37 ea be 9d cb 05 bf ec be d2 be d4 a1 00 bf
       -0.45745382 -0.52263814 -0.41161287 -0.5024693
000340 44 09 e1 be 18 75 12 bf fd 95 08 bf a3 8b 0b bf
       -0.43952382 -0.5720992 -0.53353864 -0.54509944
000350 ff f9 03 bf a7 69 08 bf 12 da d0 be 7e 21 3a bf
       -0.5155334 -0.5328621 -0.40791374 -0.72707355
000360 6c 17 00 bf 02 db 1b bf ed b5 e9 be 3a e1 07 bf
       -0.5003574 -0.60881054 -0.4564661 -0.53078043
000370 5c 82 f0 be 53 b6 f7 be 42 78 c5 be 39 98 0f bf
       -0.46974456 -0.4838129 -0.38568312 -0.5609165
000380 1a f8 07 bf b9 a5 06 bf e4 20 df be 7c f9 08 bf
       -0.5311295 -0.5259662 -0.4357978 -0.5350568
000390 4c 99 f1 be 69 3a f8 be c1 ce 07 bf 5f 5d 0b bf
       -0.4718727 -0.48482063 -0.53049856 -0.5443935
0003a0 99 9b fd be ac e7 27 bf 1d 84 ef be a7 2c 02 bf
       -0.49532774 -0.6558788 -0.46780482 -0.50849384
0003b0 a8 35 05 bf 90 bd 15 bf 63 bf e5 be 86 3e c9 be
       -0.52035 -0.58492374 -0.4487258 -0.39305514
0003c0 e8 e8 e8 be f5 20 f5 be 25 cb 33 bf 96 6d e0 be
       -0.45490193 -0.47876707 -0.7023185 -0.43833607
0003d0 80 ea 0c bf 66 9d 26 bf 72 94 bc be 7e f0 ec be
       -0.5504532 -0.6508392 -0.36832005 -0.4627723
0003e0 ec 43 d2 be ba 0e 0b bf b6 d2 04 bf 32 e2 16 bf
       -0.41067445 -0.54319346 -0.5188402 -0.58938897
0003f0 ff 8c e9 be 5a c3 04 bf 9f 9d 01 bf f0 fa da be
       -0.45615384 -0.5186058 -0.50631136 -0.42769575

Linear2.weight f4 [7, 256]
000000 76 fa 2d 3d 41 ff 47 3b bc 7a d2 bc 57 b2 a6 bd
       0.042475186 0.0030517133 -0.02569329 -0.081394844
000010 c4 6c 5c 3c 9e fa 01 bc a9 63 eb 3b 48 fd f7 3d
       0.013453666 -0.007933287 0.0071835113 0.121088564
000020 78 26 fd bd dc 32 63 bd f4 36 18 bd 44 ff 52 3d
       -0.12360853 -0.055468425 -0.037161782 0.05151297
000030 75 da 80 3a 3a e1 4c bc ba 1d 9f ba ca e7 bc ba
       0.000983073 -0.01250487 -0.0012139597 -0.001441234
000040 0a 11 fd 3d bd a1 27 bd f2 d9 47 be 78 fc 96 3b
       0.123567656 -0.04092573 -0.19516733 0.0046077333
000050 6c 2a 2a 3d f4 b4 1a bd ba 08 62 3d 28 5f 0c bd
       0.041544363 -0.037770227 0.055184104 -0.034270436
000060 51 f8 50 bd e4 62 7c bd 12 49 3b bd c9 63 65 bd
       -0.051018063 -0.061617747 -0.045723982 -0.056003366
000070 d6 c6 a3 3c 34 4b 28 bc 28 af 64 3c 3f 91 4e bd
       0.019992273 -0.010271836 0.013957776 -0.050431486
000080 ff be a2 bd 39 2d 5e bd 50 fb b4 bd 12 7b 2d be
       -0.07946586 -0.054242346 -0.088369966 -0.16941479
000090 a9 7e 06 bd 0e 3a 40 bd 89 95 3a bd 8d cc 2b bb
       -0.032835636 -0.046930365 -0.045552764 -0.002621445
0000a0 8e cc 0c 3d 2d d0 30 bc ba 09 ff bd 24 3e e5 bd
       0.034374766 -0.0107918205 -0.12453027 -0.11193493
0000b0 2e 4b a8 bd 6a b2 11 3c 16 33 9d bc 13 0d 4d 3c
       -0.082174644 0.008892635 -0.019189399 0.012515324
0000c0 50 f1 17 3c 1f 55 1e 3d e0 e5 96 bd c6 bc e4 bc
       0.009273842 0.038655397 -0.07368064 -0.027922045
0000d0 62 df 2a bd d5 f9 a9 3c 15 08 97 bd 22 eb 15 bd
       -0.04171694 0.020749012 -0.073745884 -0.036601193
0000e0 e7 bf c3 3d d9 fd 4a bd 4a eb bc bd 91 d9 43 3c
       0.09558087 -0.049558494 -0.09224565 0.011953727
0000f0 49 ca 83 3c b7 cf 15 3c 0f 62 7e 3d 08 0d 88 bd
       0.016087668 0.009143761 0.062105235 -0.066431105
000100 53 1c 05 be a6 4e c3 3c 37 26 26 3d 44 10 cf bc
       -0.12999086 0.023841213 0.04056379 -0.02527631
000110 20 1b 0e be 2b 9f f9 3c e7 78 2f 3d af 17 da bd
       -0.13877535 0.030471405 0.04283991 -0.106490485
000120 b5 e4 c3 bd fb f6 14 bc fc 55 1c 3c 9b 23 09 bc
       -0.09565107 -0.009092088 0.009541985 -0.008370305
000130 14 3d d8 bc 9a 23 24 3b 3e 98 77 3d 7b e4 ef bc
       -0.026396312 0.0025045634 0.060447924 -0.029283753
000140 c8 aa 8a 3b be 10 96 bb ab db 40 3d 86 5e 76 3d
       0.0042317845 -0.0045796325 0.04708449 0.06014874
000150 ea 6d ac bb 4e 4c ed 3d 0f 4b 0d bd 2c 19 e9 3b
       -0.005262126 0.115868196 -0.03449541 0.0071135964
000160 34 8a 0f bd 97 24 22 3e ec 6c 27 bd 03 7c 9b bc
       -0.03504391 0.1583427 -0.04087536 -0.018980032
000170 54 e9 9e 3c df 2f be bb 62 1e 1c be 3e ee 96 bd
       0.019398369 -0.0058040465 -0.15245965 -0.0736966
000180 c6 03 bb 3d 25 14 48 bd a6 0a f1 bd bf 56 9d bd
       0.09131579 -0.048847336 -0.11769609 -0.07682561
000190 b2 ae 32 3d 6c 6a df 3c 1b 4d 52 bd 52 28 26 bd
       0.043623634 0.027272426 -0.051343065 -0.040565796
0001a0 16 ae 1a 3d 87 1c b3 bd 0d b8 0b 3d f4 ca b3 3b
       0.037763678 -0.087456755 0.03411107 0.0054868404
0001b0 1b 94 1a 3e 8f 99 b1 bd 16 92 cb 3c 78 c6 1c be
       0.1509556 -0.08671867 0.024849933 -0.15310085
0001c0 f3 1d 8d 3d 93 d4 4c bd 92 c1 93 bd dc 2b 4c bd
       0.06890478 -0.050007414 -0.07214655 -0.049846515
0001d0 e3 e9 c0 bc 9c 7e 9b be 4f 27 09 be 09 57 1e 3d
       -0.023549026 -0.30370033 -0.13393901 0.038657222
0001e0 9a a5 ea bd b4 05 20 ba b2 0e 05 bd ee 31 e1 bc
       -0.11457367 -0.00061043655 -0.032484718 -0.027489629
0001f0 dd 22 73 bb 19 9b 5e bd 1f 79 e6 bb 59 ca 46 3b
       -0.0037099638 -0.05434713 -0.0070334817 0.003033301
000200 7e 84 3b 3c c7 e9 39 3d 97 13 e2 bd 4e b3 01 3d
       0.011445163 0.045388963 -0.11038893 0.03166514
000210 5f 9f ed 3c 77 e7 c7 bd 1a 12 28 bd ef 74 76 bd
       0.029006658 -0.09760945 -0.041032888 -0.06017011
000220 70 5e e4 bd 7e 6a 7f bc d1 2c f2 3d 2a 5d 88 3c
       -0.11150825 -0.015589355 0.11824954 0.016645987
000230 88 9a 1b bc 71 15 a6 bc ac 58 92 bd bd 64 0a bd
       -0.009497292 -0.020273896 -0.07145819 -0.033787478
000240 25 36 89 bc 5d ae 97 bd 0a 6d 68 3d eb fa a4 bd
       -0.016749451 -0.07406304 0.056744613 -0.08055671
000250 76 53 09 be 1e ba ad ba 12 e6 f5 3c 87 95 9e bd
       -0.13410744 -0.001325432 0.030016933 -0.07743364
000260 98 2f 87 bc 66 08 5d bd 9e 8c 31 bd 2e e7 6f 3d
       -0.016502187 -0.053963087 -0.043346994 0.05857008
000270 e9 8c c0 bb cc 30 8a bd e8 44 f4 3c 6d 07 fb 3c
       -0.005876173 -0.067475885 0.029818013 0.03064319
000280 24 96 d4 bd 67 78 89 bd 82 49 b4 3c b7 74 00 3c
       -0.103801996 -0.06712418 0.022007708 0.007840327
000290 6c e8 fc bb dc cb 08 bd e3 27 fe 3c fe 69 27 bb
       -0.0077181365 -0.03339754 0.031024879 -0.0025545354
0002a0 15 7a 7a bd 54 db cf bb 8a 17 5c be ac f9 86 3c
       -0.061151583 -0.0063432846 -0.21493354 0.016476475
0002b0 26 0f a2 bd 4e da c7 bd b2 22 4a 3d 01 fe a7 39
       -0.079130456 -0.09758435 0.049349494 0.0003204197
0002c0 f1 ef 12 bc 8c 8a 29 3c 14 17 01 3e a5 ab 0a 3d
       -0.008968339 0.010347974 0.1260646 0.0338551
0002d0 69 33 0c bd fe 04 85 bd 2b cc 6f bd d4 ea 15 be
       -0.034228716 -0.06495093 -0.05854432 -0.14640361
0002e0 58 29 e1 bd 54 4f 67 bc e4 14 9e bd 57 f6 2a bd
       -0.10994214 -0.014118034 -0.07718828 -0.041738834
0002f0 bc b2 40 bd c2 54 ce bc 91 d5 ca 3d ce 7f 51 bd
       -0.047045454 -0.0251869 0.09904016 -0.051147275
000300 93 63 a2 bd 98 d7 9f 3c b9 98 0a bd 16 78 8b bb
       -0.079291485 0.019511983 -0.033837054 -0.0042562587
000310 92 e3 ed bc 12 da 8a bb 1b 89 80 bc ac 50 71 bd
       -0.029039178 -0.004237422 -0.015690377 -0.058914825
000320 fb e3 49 bd 17 97 8e 3c 08 e2 9b bd 5c cb 3b bd
       -0.049289685 0.01740603 -0.076114714 -0.045848235
000330 e2 5d b4 bc fc 1f a2 bd 23 be a4 3d 89 55 a3 ba
       -0.022017423 -0.07916257 0.08044078 -0.0012461405
000340 d7 e0 45 bb 98 6e a0 bd 4a 5c 5b bd c7 7c 0c 3a
       -0.003019383 -0.07833594 -0.05355481 0.00053591694
000350 a3 4e 9e 3c 1a 76 c2 bb 92 b0 be 3c d2 5c 35 bd
       0.019324606 -0.005934489 0.023277555 -0.044277973
000360 df c6 1f bd fc 3c 93 3c 29 08 f5 bc 86 28 5d bd
       -0.039008018 0.017973416 -0.029911118 -0.053993724
000370 58 eb 17 3d 50 26 77 bd 89 9e 2d 39 2c 36 1c be
       0.037089676 -0.060339272 0.00016557625 -0.1525504
000380 b8 f9 b6 3d 1c 12 39 3d 94 43 08 be 09 cf c0 bd
       0.08934349 0.045183286 -0.13307029 -0.09414489
000390 1e a2 e8 bd fe 59 04 bd 0a b4 ed 3c ab 14 68 bc
       -0.113590464 -0.032312386 0.029016513 -0.014165084
0003a0 80 8f 9c bc 07 62 98 bc 7a 55 a1 bc 27 c6 f0 bd
       -0.019111395 -0.01860143 -0.019694079 -0.117565446
0003b0 44 b3 8e 3d 70 0d 8c bd 22 bf a1 bd 50 93 33 3d
       0.06967786 -0.068385005 -0.07897784 0.04384166
0003c0 99 63 b3 bd 36 e1 07 3c 27 c5 ef bc 7e 12 f4 bc
       -0.08759231 0.008293441 -0.029268814 -0.029793974
0003d0 dc 67 d8 bd 6f 0d 0a bd 7c 2d 2b 39 64 3d c7 bc
       -0.105666846 -0.033704218 0.00016324775 -0.024321266
0003e0 70 eb 0b be 6e 25 2f be 32 0e 03 3e cc 19 13 3d
       -0.13664031 -0.17104122 0.12798384 0.035913274
0003f0 37 8e b4 bc 15 31 84 bd d7 dc 12 3d a8 9f 90 3d
       -0.02204047 -0.06454674 0.03585514 0.07061702

Linear2.bias f4 [7]
000000 c4 09 3b 3c 11 12 1e 3c 69 14 25 3c 8f d1 3d 3c
       0.0114159025 0.009647862 0.010075667 0.011585607
000010 34 91 28 3c 0b 5d ce 3b 26 94 3b 3c
       0.010288525 0.0062977127 0.011448896
