epsilon_10/saved_model 8000.pth (torch, 52885 bytes, 4 tensors)

Linear1.weight f4 [256, 42]
0	0xbd5c3c03	-0.05376817
1	0xbc5a6111	-0.0133288065
2	0xbd238874	-0.039925054
3	0xbbe2e952	-0.0069247866
4	0xbd388c8f	-0.045055922
5	0x3cab4588	0.020907179
6	0xbd248418	-0.040165037
7	0x3d0081df	0.031373855
8	0x3c6b41d2	0.0143589545
9	0x3d1aeb68	0.037822157
10	0xbd87fd12	-0.06640066
11	0xbd63e90d	-0.055642176
12	0x3d3be1fd	0.045869816
13	0xbce74b86	-0.028234255
14	0x3cbd075b	0.023074796
15	0xbdb56c86	-0.0885859
16	0x3d22a1b3	0.03970499
17	0xbd3a59da	-0.045495845
18	0xbb132ada	-0.0022455961
19	0x3c83af7e	0.016074892
20	0xbcc1ce54	-0.023657955
21	0xbcd704c4	-0.02624739
22	0xbd41d7d5	-0.047324974
23	0xbb80bd09	-0.0039287847
24	0x3d448e15	0.047987062
25	0xbbbe4243	-0.005806239
26	0x3cf697bb	0.030101648
27	0xbceafcf5	-0.028685072
28	0xbb60d24a	-0.003430503
29	0xbd166319	-0.0367156
30	0x3de0e2f4	0.10980788
31	0xbc395a6e	-0.011313064
32	0xbd966e76	-0.073452875
33	0x3d75e725	0.06003489
34	0xbdbb7053	-0.091522835
35	0xbce7de0a	-0.028304119
36	0x3c9aaab3	0.018880224
37	0x3c3b447c	0.011429902
38	0x3c4a2aaa	0.0123392735
39	0xbdbf9420	-0.093544245
40	0xbcb1c146	-0.021698605
41	0x3d22bb67	0.039729502
42	0x3cc3474e	0.023837712
43	0x3d51fd06	0.051266693
44	0x3d058172	0.03259415
45	0x3c456122	0.012047084
46	0x3a9d97a0	0.0012023337
47	0x3d0a3e9c	0.033751115
48	0x3c10e7d7	0.008844337
49	0x3b6bf036	0.0036001331
50	0x3d12aee4	0.03581132
51	0x3c6a084c	0.014284205
52	0x3d64e9fd	0.05588721
53	0x3cfe5494	0.03104619
54	0x3d7963e7	0.06088629
55	0x3d077c9b	0.033077817
56	0x3d17339b	0.03691445
57	0x3dc02b3f	0.093832485
58	0x3d8da3b7	0.06915992
59	0x3d76a401	0.060215
60	0xbc794713	-0.015214699
61	0x3c99467b	0.018710366
62	0x3d02971a	0.031882383
63	0x3d0d7ef8	0.034544915
64	0x3c19170a	0.009343872
65	0xbb1eda38	-0.0024238955
66	0x3d28f8df	0.041252967
67	0x3cb070d6	0.02153818
68	0x3bcb49a9	0.0062038493
69	0xbbac6bdc	-0.0052618813
70	0x3c0c6ddd	0.008571115
71	0x3c210953	0.009828883
72	0x3ce75406	0.028238308
73	0x3d8535a3	0.06504371
74	0x3d809a5a	0.0627944
75	0xbd002f4a	-0.0312951
76	0xbc890d4d	-0.016729975
77	0x3d592cf4	0.053021386
78	0x3d7be0f6	0.061493836
79	0xbc577511	-0.013150469
80	0x3cd22069	0.02565022
81	0x3c1f431c	0.00972059
82	0x3c9210ff	0.01783037
83	0x3ba71d57	0.005099933
84	0xbdc92688	-0.098218024
85	0x3d656c58	0.056011528
86	0x3c87047b	0.016481629
87	0xbd8ce0cc	-0.06878814
88	0xbc613e8e	-0.013747824
89	0xbb031473	-0.0020001202
90	0x3d40695d	0.046975482
91	0x3e192394	0.14954978
92	0xbdcf0541	-0.10108424
93	0x3d659b37	0.056056228
94	0x3dcaa03d	0.09893844
95	0xbd727a1a	-0.059198476
96	0x3d90158e	0.07035361
97	0xbe069e8d	-0.1314642
98	0xbb6b7fd7	-0.0035934353
99	0x3db23b25	0.08702687
100	0x3e01136d	0.12605067
101	0xbd9e5334	-0.077307135
102	0x3dbfda78	0.093678415
103	0x3c025d6b	0.007956843
104	0xbc07545a	-0.008259857
105	0x3ced3aaf	0.028958647
106	0x3e03cb76	0.12870583
107	0x3d65bbe0	0.056087375
108	0xbdde3c21	-0.108513124
109	0x3cc38ce1	0.023870887
110	0x3d880ee1	0.06643463
111	0xbc243c58	-0.010024153
112	0xbc70f776	-0.014707437
113	0xbe3fbd87	-0.18724643
114	0xbde7eb65	-0.11324195
115	0xbb02b2f7	-0.0019943097
116	0x3d083245	0.033251066
117	0x3caa4ad7	0.02078764
118	0xbda21a8a	-0.07915218
119	0x3e27d4e2	0.16389802
120	0x3d0430a8	0.032272965
121	0x3df9876b	0.12184032
122	0xbd37eb6d	-0.044902254
123	0xbbc26dad	-0.0059334845
124	0x3e1d169e	0.15340659
125	0x3d8a7631	0.067608245
126	0x3d80f81e	0.062973246
127	0xbafedc5b	-0.0019444333
128	0x3dc740f9	0.097291894
129	0x3d9c34f9	0.07627291
130	0x3d46ac4c	0.04850416
131	0xbb2c8419	-0.0026323854
132	0x3cdf163d	0.027232284
133	0xbd95cd5d	-0.073145606
134	0x3d24295f	0.040078517
135	0x3e24cbbc	0.16093343
136	0x3dcaec7f	0.09908389
137	0xbbd4718e	-0.0064832633
138	0xbd8dfc79	-0.06932921
139	0x3c26e52d	0.010186476
140	0xbc98cce0	-0.01865238
141	0x3d53a9e9	0.05167571
142	0x39e12b50	0.00042947615
143	0xbe0b0451	-0.13575865
144	0x3dcc14b5	0.09964887
145	0xbc855e18	-0.016280219
146	0x3c97db27	0.018537117
147	0xbc2dae42	-0.010600628
148	0xbcf03e24	-0.029326506
149	0x3d9dddda	0.077083305
150	0x3e142e5d	0.14470811
151	0x3c1941c6	0.0093540605
152	0x3d800f43	0.06252911
153	0x38fdfd3d	0.000121111494
154	0xbdd51310	-0.104040265
155	0xbd14ab05	-0.03629591
156	0xbd4dc3a5	-0.05023541
157	0xbc819105	-0.015816221
158	0xbdb2f40e	-0.08737956
159	0xbbe056c8	-0.0068462826
160	0xbc838392	-0.016053949
161	0x3d1e268e	0.038610987
162	0x3e17682a	0.14785829
163	0x3d3efa28	0.046625286
164	0x3d209416	0.039203726
165	0xbcf9eba2	-0.030507866
166	0xbcd1bd9e	-0.025603112
167	0x3d0e5d95	0.034757216
168	0x3ce12129	0.027481632
169	0x3d781556	0.060567223
170	0x3cb38864	0.021915622
171	0x3bb8e24b	0.0056422106
172	0x3cf1ecfb	0.029531946
173	0xbcb45e26	-0.02201755
174	0x3ce9d93c	0.028545968
175	0xbcb2851d	-0.021791989
176	0x3c1013b7	0.008793763
177	0x3d95b1f6	0.07309334
178	0x3d677a48	0.0565131
179	0x3cf15795	0.029460708
180	0x3c63be3e	0.013900338
181	0x3d9a401b	0.075317584
182	0x3d2a62de	0.041598193
183	0x3e082e1e	0.13298842
184	0x3d1826e7	0.037146475
185	0x3dd53d6f	0.10412108
186	0x3db9e265	0.090763845
187	0x3ca3df7d	0.020004028
188	0x3daf945b	0.085732184
189	0x3db1de91	0.08685029
190	0x3adbd8ee	0.0016773024
191	0xbcfb5386	-0.030679476
192	0xbd88489a	-0.06654473
193	0xbd20eaac	-0.0392863
194	0x3c7ae552	0.015313463
195	0x3d4b8303	0.04968549
196	0x3d4c609c	0.04989682
197	0xbc13f4c0	-0.009030521
198	0xbbf6b5cc	-0.007528996
199	0xbd7b9f65	-0.061431307
200	0x3c6c0753	0.014406043
201	0x3b6bcfbc	0.0035981974
202	0x3d91a221	0.07111002
203	0xbd859306	-0.06522183
204	0x3e1c7e4a	0.1528255
205	0x3da378dc	0.079820365
206	0x3d43075c	0.04761444
207	0xbc3a6f5e	-0.011379091
208	0xbc3620d9	-0.01111623
209	0xbb1db4e0	-0.0024064109
210	0x3cb165d5	0.021655003
211	0x3d0ea3e8	0.034824282
212	0xbd1b8bdf	-0.03797519
213	0xbb42472c	-0.0029644473
214	0xbb15fbc6	-0.0022885664
215	0x3c00119e	0.0078167
216	0x3cc602c1	0.024171235
217	0x3c7bbcdf	0.015364855
218	0x3cb4b99e	0.022061165
219	0x3b99f8e5	0.00469886
220	0xbc19aefb	-0.0093800975
221	0xbd46c287	-0.04852536
222	0x3bf91506	0.007601383
223	0x3c987693	0.018611228
224	0x3c0c98b1	0.008581326
225	0x3cd2b6bd	0.025721902
226	0x3c97af8b	0.018516323
227	0x3c6e9868	0.014562704
228	0x3c1c7a05	0.009550576
229	0x3d448604	0.04797937
230	0xbcca7d00	-0.024717808
231	0x3d3fce23	0.046827447
232	0x3d2661d7	0.04062065
233	0x3c511347	0.012760944
234	0x3c41e246	0.011833733
235	0x3ce290da	0.027656961
236	0x3d0aa9b2	0.03385324
237	0x3c472d33	0.012156772
238	0x3b9aa804	0.004719736
239	0x3d690f28	0.05689922
240	0x3bae3f51	0.0053176065
241	0x3d6767b5	0.056495387
242	0x3c69e2a3	0.014275226
243	0x3dbd5549	0.092447825
244	0x3d445fa2	0.047942765
245	0x3d41f46f	0.04735225
246	0x3d5697dd	0.05239092
247	0xbb13ee0d	-0.002257231
248	0xbc4ce940	-0.012506783
249	0x3cbb7111	0.022881063
250	0xbbc12d7d	-0.005895315
251	0x3d8d6458	0.06903905
252	0xbd2ab0c9	-0.0416725
253	0xbcf217ff	-0.029552458
254	0x3d03dd5a	0.03219352
255	0x3b7947d7	0.0038037205

Linear1.bias f4 [256]
0	0xbf315873	-0.6927559
1	0xbf03397b	-0.51259583
2	0xbf447dba	-0.76754344
3	0xbf3726fb	-0.71543854
4	0xbf4e31cd	-0.8054474
5	0xbf010c09	-0.5040899
6	0xbf1fa071	-0.6235419
7	0xbf53fef9	-0.8281093
8	0xbf55effe	-0.83569324
9	0xbf49ab18	-0.78776693
10	0xbf174ed7	-0.59104675
11	0xbf24c595	-0.64363986
12	0xbf4d7a59	-0.8026481
13	0xbef99f0e	-0.48754162
14	0xbf4b62ea	-0.79447806
15	0xbf1c440e	-0.61041343
16	0xbf70061b	-0.93759316
17	0xbf477352	-0.7791034
18	0xbf3eca9c	-0.7452791
19	0xbf293d08	-0.6610875
20	0xbf78e795	-0.97228366
21	0xbf326b3a	-0.69694865
22	0xbf3e39c1	-0.74306875
23	0xbf406559	-0.75154644
24	0xbf2504fb	-0.64460725
25	0xbf44f800	-0.7694092
26	0xbf30a21e	-0.6899737
27	0xbf601a56	-0.87540185
28	0xbf85ca4e	-1.0452363
29	0xbf4e0275	-0.804725
30	0xbf1fdba2	-0.6244451
31	0xbf21d5db	-0.6321694
32	0xbf4478f4	-0.7674706
33	0xbf13f566	-0.57796323
34	0xbf17b957	-0.5926718
35	0xbf2a1ccf	-0.6645021
36	0xbf414685	-0.7549823
37	0xbf2eed20	-0.68330574
38	0xbf3835f2	-0.71957314
39	0xbf1ff417	-0.62481827
40	0xbf0cdb70	-0.55022335
41	0xbf3168aa	-0.6930033
42	0xbf106f35	-0.5641969
43	0xbf0cfb4d	-0.55070955
44	0xbf3d934c	-0.7405288
45	0xbf301843	-0.6878702
46	0xbf2c5143	-0.67311496
47	0xbf34f794	-0.70690274
48	0xbf4ae07e	-0.792488
49	0xbf2c2573	-0.6724464
50	0xbf386f3d	-0.72044736
51	0xbf438ba8	-0.76384974
52	0xbf34de48	-0.70651674
53	0xbf41ee28	-0.7575402
54	0xbf5b8bb2	-0.85760033
55	0xbf2b6779	-0.6695476
56	0xbf222ad6	-0.6334661
57	0xbf3a396e	-0.7274388
58	0xbf4e1f01	-0.8051606
59	0xbf282e42	-0.65695584
60	0xbf2cc17d	-0.6748274
61	0xbf2fecd7	-0.68720764
62	0xbf2e118a	-0.6799551
63	0xbf0ef043	-0.5583536
64	0xbf492686	-0.7857441
65	0xbf345e9d	-0.7045687
66	0xbf69e9af	-0.913722
67	0xbf3f8343	-0.74809664
68	0xbf18b0fc	-0.59645057
69	0xbf3f6c26	-0.74774396
70	0xbf36c168	-0.71388865
71	0xbf3329e2	-0.69985783
72	0xbf201018	-0.6252456
73	0xbf857720	-1.0426979
74	0xbf40825a	-0.751989
75	0xbf28c11e	-0.65919673
76	0xbf2427a2	-0.64122975
77	0xbf461148	-0.7737012
78	0xbf39aee1	-0.7253247
79	0xbf4f364c	-0.80942225
80	0xbf41c378	-0.75688887
81	0xbf3fc68c	-0.74912333
82	0xbf3a130b	-0.7268531
83	0xbf611520	-0.8792286
84	0xbf0ca444	-0.5493815
85	0xbf601737	-0.87535423
86	0xbf288b14	-0.65837216
87	0xbf35fdaf	-0.71090215
88	0xbeeaaf1f	-0.45836732
89	0xbf4fd5be	-0.8118552
90	0xbf1750a6	-0.59107435
91	0xbf193d65	-0.59859306
92	0xbf6aa274	-0.91654134
93	0xbf384d3c	-0.7199285
94	0xbf386adb	-0.7203805
95	0xbf310917	-0.69154495
96	0xbf67392b	-0.90321606
97	0xbf57871b	-0.8419053
98	0xbf0d962d	-0.55307275
99	0xbf3a7214	-0.7283032
100	0xbf5dddc6	-0.86666524
101	0xbf4f6ab2	-0.8102218
102	0xbf28216d	-0.65676004
103	0xbf352b32	-0.70769036
104	0xbf282105	-0.65675384
105	0xbf3164ef	-0.6929464
106	0xbf43ba51	-0.7645617
107	0xbf19f681	-0.6014176
108	0xbf240ff1	-0.64086825
109	0xbf71a957	-0.9439902
110	0xbf222d2b	-0.6335017
111	0xbf21c92c	-0.6319759
112	0xbf2d60e6	-0.6772598
113	0xbf34261e	-0.7037066
114	0xbf60d89e	-0.8783053
115	0xbf41a3a8	-0.75640345
116	0xbf5ecb45	-0.87028915
117	0xbf22a999	-0.63540035
118	0xbf2f9e94	-0.68601346
119	0xbf3e0886	-0.74231756
120	0xbf231423	-0.637026
121	0xbf322bca	-0.69598067
122	0xbf46eb54	-0.7770283
123	0xbf34aec6	-0.70579183
124	0xbf1835af	-0.59456915
125	0xbf1bf33c	-0.6091802
126	0xbf4ce521	-0.8003712
127	0xbf36d013	-0.71411246
128	0xbf21da7b	-0.63224
129	0xbf17dbd8	-0.5931983
130	0xbf2c4623	-0.6729452
131	0xbf4ac3f3	-0.79205245
132	0xbf17f92e	-0.59364593
133	0xbf25c1b9	-0.6474872
134	0xbf08ec3d	-0.5348547
135	0xbf302397	-0.68804306
136	0xbf3f95cc	-0.74837947
137	0xbf4af799	-0.79284054
138	0xbf500edd	-0.8127268
139	0xbf4e178e	-0.8050469
140	0xbf2dccab	-0.67890424
141	0xbf2a8cf5	-0.66621333
142	0xbf13a4dd	-0.57673436
143	0xbf3a454c	-0.7276199
144	0xbf55cd60	-0.835165
145	0xbf25bff8	-0.64746046
146	0xbf0e7d22	-0.5565969
147	0xbf3bc37a	-0.7334515
148	0xbf1a8913	-0.6036541
149	0xbf2f28b7	-0.684215
150	0xbf27bf6e	-0.65526474
151	0xbf7fdc54	-0.9994557
152	0xbf3b58b2	-0.73182213
153	0xbf7c6ea6	-0.98606336
154	0xbf0f4ab1	-0.55973345
155	0xbf3f8d5e	-0.74825084
156	0xbf4b4c89	-0.7941366
157	0xbf1a5513	-0.6028606
158	0xbf84cafb	-1.0374445
159	0xbf376246	-0.7163433
160	0xbf39e31b	-0.7261216
161	0xbf47e4e6	-0.78083646
162	0xbf2e9b95	-0.6820615
163	0xbf40a3a3	-0.7524969
164	0xbf086a7f	-0.532875
165	0xbf20bbb2	-0.627864
166	0xbf3d99b6	-0.7406267
167	0xbf3bb585	-0.7332385
168	0xbf2ec058	-0.68262243
169	0xbf35c41c	-0.71002364
170	0xbf4cde27	-0.8002648
171	0xbf3960b4	-0.7241318
172	0xbf4b9f27	-0.7953972
173	0xbf24760b	-0.6424262
174	0xbf2f0d7b	-0.68379945
175	0xbf4bca0f	-0.7960519
176	0xbf5babef	-0.85809225
177	0xbf32377c	-0.6961591
178	0xbf45c75f	-0.7725734
179	0xbf815f5a	-1.0107224
180	0xbf6f0e6f	-0.933814
181	0xbf76bbd2	-0.9638034
182	0xbf289b06	-0.65861547
183	0xbf22287f	-0.6334304
184	0xbf43876a	-0.763785
185	0xbf2aeef3	-0.6677086
186	0xbf33a73a	-0.7017704
187	0xbee567b3	-0.4480568
188	0xbf3492ae	-0.70536315
189	0xbf34ffe3	-0.7070295
190	0xbf5d5677	-0.8646006
191	0xbf3e697b	-0.743797
192	0xbf314725	-0.6924918
193	0xbf418430	-0.7559233
194	0xbf617b15	-0.88078433
195	0xbf0c6bd7	-0.5485205
196	0xbf344c5f	-0.70429033
197	0xbf4ba042	-0.7954141
198	0xbf44b656	-0.7684072
199	0xbf4f2b59	-0.8092552
200	0xbf48fb29	-0.7850824
201	0xbf6b97eb	-0.92028683
202	0xbf422644	-0.7583964
203	0xbf3980be	-0.7246207
204	0xbf1169c7	-0.5680203
205	0xbf50e3db	-0.8159768
206	0xbf259f1f	-0.64695925
207	0xbf3703b4	-0.71490026
208	0xbf495f09	-0.7866064
209	0xbf48bc54	-0.78412366
210	0xbf2f7f8f	-0.68554014
211	0xbf464964	-0.77455735
212	0xbf49df7d	-0.7885664
213	0xbf54800b	-0.8300788
214	0xbf23f98b	-0.6405265
215	0xbf78db95	-0.97210056
216	0xbf1f0c98	-0.6212859
217	0xbf515e4a	-0.817845
218	0xbf529dc6	-0.82271993
219	0xbf07e13a	-0.53078043
220	0xbf5a0437	-0.8516268
221	0xbf201773	-0.6253578
222	0xbf2ead0a	-0.68232787
223	0xbf339e13	-0.7016308
224	0xbf5558ce	-0.8333863
225	0xbf39599f	-0.72402376
226	0xbf2770b5	-0.6540635
227	0xbf2e64e7	-0.68122715
228	0xbf3def4c	-0.74193263
229	0xbf3c2886	-0.73499334
230	0xbf47b671	-0.7801276
231	0xbf6a521c	-0.9153154
232	0xbf1071dd	-0.5642374
233	0xbf6f247a	-0.93415034
234	0xbf1853cd	-0.5950287
235	0xbf1ffcab	-0.62494916
236	0xbf39aaf9	-0.7252651
237	0xbf27457e	-0.6534041
238	0xbf0bec4f	-0.54657453
239	0xbf20c043	-0.6279337
240	0xbf23392f	-0.6375913
241	0xbf3de8a1	-0.7418309
242	0xbf746861	-0.9547177
243	0xbf205c68	-0.62641
244	0xbf2b48c6	-0.6690792
245	0xbf652c43	-0.89520663
246	0xbf0e902c	-0.5568874
247	0xbf23e06e	-0.6401433
248	0xbf0f2492	-0.55915177
249	0xbf539bde	-0.8265971
250	0xbf373c37	-0.71576256
251	0xbf81ddb5	-1.0145785
252	0xbf465388	-0.7747121
253	0xbf58178b	-0.84410924
254	0xbf386dc0	-0.72042465
255	0xbf224fbf	-0.6340293

Linear2.weight f4 [7, 256]
0	0x3db7eb10	0.089803815
1	0x3bcf7854	0.006331483
2	0xbe0f7290	-0.14008546
3	0xbc182254	-0.009285528
4	0xbd4e92f4	-0.050433114
5	0xbc826352	-0.0159165
6	0xbd3de4f6	-0.046360932
7	0xbd8a7dcb	-0.06762274
8	0xbd088ffc	-0.03334044
9	0xba7cc97c	-0.00096430606
10	0xbc83a1a1	-0.016068282
11	0x3c960806	0.018314373
12	0x3d6fe344	0.058566347
13	0xbc4ce13a	-0.01250487
14	0xbdc7f643	-0.097637676
15	0xbc37dc12	-0.011221902
16	0x3d8d7289	0.069066115
17	0xbc5fa4f3	-0.013650167
18	0xbdd487ba	-0.1037745
19	0xbd8c1799	-0.068404384
20	0xbe74f482	-0.23921397
21	0xbdcaf2ed	-0.09909616
22	0xbdcbd355	-0.09952418
23	0xbce86cc8	-0.028372183
24	0xbd4a3465	-0.049366374
25	0xbcbe7993	-0.02325133
26	0xbd35f90d	-0.044426966
27	0xbe1d71c1	-0.15375425
28	0xbd9f8e81	-0.07790852
29	0xbd09ede5	-0.03367414
30	0xbd1e51f1	-0.038652364
31	0xbdc8b53e	-0.09800194
32	0xbdac832d	-0.08423457
33	0xbd8cb8b2	-0.06871165
34	0xbc9e91b7	-0.019356592
35	0xbde70f3b	-0.11282202
36	0x3e22c5bd	0.15895744
37	0xbdd4f594	-0.10398403
38	0xbdef422f	-0.116825454
39	0x3d0e7201	0.03477669
40	0x3d0ccc8e	0.034374766
41	0xbc9ab312	-0.018884216
42	0xbc893928	-0.016750887
43	0xbd0c9ff1	-0.03433222
44	0xbd1a8958	-0.037728637
45	0x3d86ac9f	0.065758936
46	0xbe09d880	-0.13461494
47	0x3c46ff9e	0.012145905
48	0x3d2d6ddb	0.042341094
49	0xbd78a069	-0.060699854
50	0xbd6d3147	-0.057908323
51	0x3e6bd872	0.23031786
52	0x3c52bf3e	0.0128629785
53	0xbca3a8f0	-0.019978017
54	0xbdf308fa	-0.118669465
55	0xbe16a474	-0.14711171
56	0xbc387674	-0.01125871
57	0xbde6e53a	-0.1127419
58	0x3ce4f0b4	0.027946807
59	0xbd99b490	-0.07505143
60	0xbc0e06c7	-0.008668608
61	0xbe1e16ec	-0.15438432
62	0x3dfdf8e5	0.124009885
63	0xbcfd0be6	-0.030889463
64	0xbde19948	-0.11015564
65	0x3d33dd4f	0.04391223
66	0x3e102099	0.14074935
67	0x3cb3c720	0.021945536
68	0xbd46e62a	-0.048559345
69	0xbdfe9a4e	-0.12431775
70	0xbe9e461e	-0.3091287
71	0xbba3bf5c	-0.004997177
72	0xbd96e007	-0.073669486
73	0x3e0cfc5e	0.13768145
74	0x3ca345cd	0.019930745
75	0x3c873525	0.016504833
76	0xbd94e4e0	-0.07270217
77	0xbda5c657	-0.08094471
78	0x3c82c9e2	0.015965406
79	0x3dad6e9b	0.08468362
80	0xbc962be4	-0.018331476
81	0xbd71fca6	-0.059078835
82	0x3e2a0543	0.1660357
83	0xbcc90b4b	-0.024541518
84	0xbbac6dea	-0.005262126
85	0x3c6619b4	0.014044214
86	0xbe486cfc	-0.19572824
87	0x3cd41301	0.025887968
88	0xbd47bc75	-0.04876371
89	0x3e02344c	0.12715262
90	0x3cd7a692	0.026324544
91	0x3bf35501	0.0074259047
92	0x3bf5672d	0.007489106
93	0xbd5a87b0	-0.053352058
94	0x3e01cdd9	0.12676181
95	0xbde404eb	-0.111337505
96	0xbb192ae2	-0.0023371507
97	0xbc49ab10	-0.012308851
98	0xbdf10aa6	-0.11769609
99	0x3cef26da	0.02919333
100	0x3cb85c35	0.022504905
101	0x3cc6dbbd	0.024274701
102	0x3cf5ae44	0.029990323
103	0xbd76c458	-0.06024584
104	0x3bb0d366	0.0053962944
105	0xbdb31c87	-0.087456755
106	0xbcfd13a1	-0.030893149
107	0x3bb3caf4	0.0054868404
108	0xbd81978f	-0.06327736
109	0xbd812a8a	-0.06306942
110	0x3bc15a38	0.0059006475
111	0xbe1cc678	-0.15310085
112	0xbb73d71c	-0.0037207073
113	0xbe4834fb	-0.1955146
114	0xbd36427c	-0.044497
115	0xbdf01a70	-0.117237926
116	0xbb9f98f2	-0.0048705274
117	0xbd7cf19d	-0.061753858
118	0xbd629afb	-0.055323582
119	0x3b2ba9b4	0.002619368
120	0xbe228bbc	-0.15873617
121	0x3c7621d0	0.01502271
122	0xbd650956	-0.055917107
123	0xbdcc05bb	-0.099620305
124	0xbe02a7bb	-0.12759297
125	0xbc5021aa	-0.012703339
126	0xbcecde96	-0.028914731
127	0xbd7314ad	-0.05934589
128	0x3c3b847e	0.011445163
129	0x3d598d22	0.05311311
130	0xbd6741cd	-0.056459237
131	0xbe100652	-0.14064911
132	0x3cc28e1f	0.02374941
133	0x3d30158d	0.042989302
134	0xbd2a7686	-0.04161694
135	0xba6970c2	-0.0008905047
136	0xbe0de7f3	-0.13858013
137	0x3cf7c19c	0.030243687
138	0xbb9f1dfa	-0.0048558684
139	0xbda8dcf3	-0.08245268
140	0xbe823891	-0.25433782
141	0xbd20fa4a	-0.039301194
142	0xbc93343d	-0.017969245
143	0xbcc1cbed	-0.02365681
144	0xbdcd6e65	-0.10030822
145	0xbdfe7757	-0.12425106
146	0xbc855f90	-0.01628092
147	0xbd0556c2	-0.03255344
148	0xbcac4c5b	-0.021032503
149	0xbd7d91e3	-0.061906707
150	0xbd457aaf	-0.048212703
151	0x3d5334cd	0.051564027
152	0xbc9e3fa7	-0.019317461
153	0xbe2e5cd5	-0.170276
154	0xbccda1dc	-0.025101595
155	0xbcd4fb0c	-0.025998615
156	0x3d718952	0.05896885
157	0xbc8ec1a9	-0.017426329
158	0xbded81b6	-0.11597006
159	0xbc96d5e2	-0.018412534
160	0xbd8dfad7	-0.069326095
161	0x3da2ea7d	0.07954881
162	0xbb3025dd	-0.0026878037
163	0xbdafe9a1	-0.08589483
164	0xbbfce86c	-0.0077181365
165	0xbd2b5bb2	-0.041835494
166	0xbd690ad5	-0.056895096
167	0xbce5fb00	-0.028073788
168	0xbe58a1c1	-0.21155454
169	0xba7c141d	-0.0009616034
170	0xbbc6980a	-0.006060605
171	0x3d9821c9	0.07428319
172	0x3d336143	0.043793928
173	0xbd881467	-0.066445164
174	0xbca8ce1f	-0.020606099
175	0xbd077da7	-0.033078816
176	0x3d9b88d4	0.07594457
177	0xbdc18a26	-0.09450178
178	0xbc9cd064	-0.019142337
179	0x3dc541dd	0.09631703
180	0xbd6e0538	-0.058110446
181	0xbe1a4814	-0.15066558
182	0xbd7b316e	-0.061326437
183	0x3cae54a3	0.021280592
184	0xbc1fb320	-0.009747297
185	0xbd3b1bc0	-0.04568076
186	0xbd371087	-0.044693496
187	0xbd946917	-0.07246607
188	0xbd4f5537	-0.050618377
189	0x3deeda0e	0.116626844
190	0x3d44cb87	0.04804566
191	0xbc4634ca	-0.012097547
192	0xbd3743a0	-0.044742227
193	0x3d327d82	0.043576725
194	0xbd0ecf94	-0.03486593
195	0xbb8b7816	-0.0042562587
196	0xbd684d55	-0.056714375
197	0x3dbbc565	0.091685094
198	0xbd031446	-0.032001756
199	0xbb3705d7	-0.0027927065
200	0x3cce5c40	0.025190473
201	0x3a605968	0.00085582444
202	0x3d485e0a	0.048917808
203	0xbd7f37bb	-0.062309008
204	0x3d81b1ec	0.06332764
205	0xbdda9574	-0.10673037
206	0x3d72e325	0.059298653
207	0xbb9ebc46	-0.0048442213
208	0x3d2f6d28	0.04282871
209	0x3c953779	0.018214928
210	0xbd785cd3	-0.0606354
211	0xbc86decc	-0.01646366
212	0xb9dc38c0	-0.00042003952
213	0xbbe404f5	-0.0069585987
214	0x3c1d5a4d	0.009604049
215	0xbcaad02a	-0.020851213
216	0xbd7bfc34	-0.061519817
217	0x3c38ee8d	0.011287344
218	0x3d81c516	0.06336419
219	0xbd5d2886	-0.053993724
220	0x3ce570ca	0.028007884
221	0x3b350301	0.0027620199
222	0xbd32bef7	-0.04363915
223	0xbbae3a32	-0.005316996
224	0xbca6cc39	-0.020361053
225	0xbd6a115b	-0.057145458
226	0xbdf81987	-0.12114244
227	0xbdef08a3	-0.11671569
228	0xbd8b2495	-0.06794087
229	0xbdc1e524	-0.09467533
230	0x3cd12341	0.025529506
231	0xbda2b4c1	-0.07944632
232	0xbcff1f48	-0.031142846
233	0x3d4c0877	0.04981276
234	0xbd7c8a6a	-0.06165544
235	0xbd0dd513	-0.03462703
236	0x3c64a1b5	0.01395457
237	0x3d39eb7b	0.045390587
238	0x3aac8451	0.0013161992
239	0x3cc7fe01	0.02441311
240	0xbb02bd74	-0.0019949349
241	0xbc5ef314	-0.013607759
242	0xbd2e21d5	-0.042512733
243	0xbc118506	-0.008881813
244	0xbd4c3c42	-0.049862154
245	0x3ccf4cf6	0.025305253
246	0xbdd09d2e	-0.1018623
247	0xbd1cb2fa	-0.038256623
248	0xbdcda819	-0.10041828
249	0x3e0affcb	0.1357414
250	0x3cf28dc7	0.02960862
251	0x3c4074fb	0.01174664
252	0xbd0f76ae	-0.03502529
253	0x3c22f846	0.009946888
254	0x3c5be53f	0.013421356
255	0xbde294b8	-0.11063522

Linear2.bias f4 [7]
0	0x3bfa1cdf	0.0076328362
1	0x3c1bc385	0.009507065
2	0x3c18c085	0.009323244
3	0x3c1023ef	0.00879763
4	0x3c03c68b	0.008042942
5	0x3c0f6624	0.00875238
6	0x3be7227a	0.0070536705
