epsilon_10/saved_model 7000.pth (torch, 52885 bytes, 4 tensors)

Linear1.weight f4 [256, 42]
00000000: 033c 5cbd 1161 5abc 7488 23bd 52e9 e2bb
00000010: 8f8c 38bd 8845 ab3c 1884 24bd df81 003d
00000020: d241 6b3c 68eb 1a3d 12fd 87bd 0de9 63bd
00000030: fde1 3b3d 864b e7bc 5b07 bd3c 866c b5bd
00000040: b3a1 223d da59 3abd da2a 13bb 7eaf 833c
00000050: 54ce c1bc c404 d7bc d5d7 41bd 09bd 80bb
00000060: 158e 443d 4342 bebb bb97 f63c f5fc eabc
00000070: 4ad2 60bb 1963 16bd f4e2 e03d 6e5a 39bc
00000080: 766e 96bd 25e7 753d 5370 bbbd 0ade e7bc
00000090: b3aa 9a3c 7c44 3b3c aa2a 4a3c 2094 bfbd
000000a0: 46c1 b1bc 67bb 223d 4e47 c33c 06fd 513d
000000b0: 7281 053d 2261 453c a097 9d3a 9c3e 0a3d
000000c0: d7e7 103c 36f0 6b3b e4ae 123d 4c08 6a3c
000000d0: fde9 643d 9454 fe3c e763 793d 9b7c 073d
000000e0: 9b33 173d 3f2b c03d b7a3 8d3d 01a4 763d
000000f0: 1347 79bc 7b46 993c 1a97 023d f87e 0d3d
00000100: 0a17 193c 38da 1ebb dff8 283d d670 b03c
00000110: a949 cb3b dc6b acbb dd6d 0c3c 5309 213c
00000120: 0654 e73c a335 853d 5a9a 803d 4a2f 00bd
00000130: 4d0d 89bc f42c 593d f6e0 7b3d 1175 57bc
00000140: 6920 d23c 1c43 1f3c ff10 923c 571d a73b
00000150: fc7c 08bb 3d02 7f3d b579 083d c8b6 bbbd
00000160: 01b8 f2bc 299b 9ebc b3af 9c3d 6b24 d43d
00000170: 1eeb dfbd 0724 6d3d efee fc3d 7b37 c5bb
00000180: c00f a23d 5b94 f3bd b7b9 553d 52cb d73d
00000190: 91d7 013e 89a5 9bbd 004d a83d e017 6f3d
000001a0: ca6d a1b9 8373 b93b 8a06 3f3e bed8 a73d
000001b0: 0eef d2bd 959c 6d3d bc3d 073d 3921 11bc
000001c0: 7904 a83c 1cf1 79be 104d 29be ee09 71bc
000001d0: ce5e 383d 214f 0d3e f92d d53d f3b4 413d
000001e0: 1a87 51bd 069c 8f3d 7c55 0bbe 36be d53c
000001f0: 952d 8fbd 3f85 34bd 58d3 933d 7773 dbbc
00000200: d99c d73d 03f3 813d 472d 4b3d 3877 d33c
00000210: f513 c03d 1210 51bd a35a 22bc cf1f 133e
00000220: 9da2 e43d 3240 5cbc 06df 9cbd 754c 973c
00000230: 158d 863c d493 073e 6069 593d 7ff6 12be
00000240: 50dc 7e3d 3d06 f23c b54c 8d3c 58ac c8bc
00000250: 8434 20bd bf5b 1e3d 079e 393e 899f f5bc
00000260: 4cc7 97bc 30c8 9bbd bf92 4fbd 9e15 b3bd
00000270: 3ca4 14bd 9340 84bc 61dd 04bd cb3c 573d
00000280: fe6b cf3d ac36 793d 67bf 263e 9173 e03c
00000290: 18b2 d3bc 4a8f c5bd 64f3 b03c 78f5 9d3b
000002a0: 2921 e13c 5615 783d 6488 b33c 4be2 b83b
000002b0: fbec f13c 265e b4bc 3cd9 e93c 1d85 b2bc
000002c0: b713 103c f6b1 953d 487a 673d 9557 f13c
000002d0: 3ebe 633c 1b40 9a3d de62 2a3d 1e2e 083e
000002e0: e726 183d 6f3d d53d 65e2 b93d 7ddf a33c
000002f0: 5b94 af3d 91de b13d eed8 db3a 8653 fbbc
00000300: 9a48 88bd acea 20bd 52e5 7a3c 0383 4b3d
00000310: 9c60 4c3d c0f4 13bc ccb5 f6bb 659f 7bbd
00000320: 5307 6c3c bccf 6b3b 21a2 913d 0693 85bd
00000330: 4a7e 1c3e dc78 a33d 5c07 433d 5e6f 3abc
00000340: d920 36bc e0b4 1dbb d565 b13c e8a3 0e3d
00000350: df8b 1bbd 2c47 42bb c6fb 15bb 9e11 003c
00000360: c102 c63c dfbc 7b3c 9eb9 b43c e5f8 993b
00000370: fbae 19bc 87c2 46bd 0615 f93b 9376 983c
00000380: b198 0c3c bdb6 d23c 8baf 973c 6898 6e3c
00000390: 057a 1c3c 0486 443d 007d cabc 23ce 3f3d
000003a0: d761 263d 4713 513c 46e2 413c da90 e23c
000003b0: b2a9 0a3d 332d 473c 04a8 9a3b 280f 693d
000003c0: 513f ae3b b567 673d a3e2 693c 4955 bd3d
000003d0: a25f 443d 6ff4 413d dd97 563d 0dee 13bb
000003e0: 40e9 4cbc 1171 bb3c 7d2d c1bb 5864 8d3d
000003f0: c9b0 2abd ff17 f2bc 5add 033d d747 793b
-0.05376817 -0.0133288065 -0.039925054 -0.0069247866 -0.045055922 0.020907179 -0.040165037 0.031373855
0.0143589545 0.037822157 -0.06640066 -0.055642176 0.045869816 -0.028234255 0.023074796 -0.0885859
0.03970499 -0.045495845 -0.0022455961 0.016074892 -0.023657955 -0.02624739 -0.047324974 -0.0039287847
0.047987062 -0.005806239 0.030101648 -0.028685072 -0.003430503 -0.0367156 0.10980788 -0.011313064
-0.073452875 0.06003489 -0.091522835 -0.028304119 0.018880224 0.011429902 0.0123392735 -0.093544245
-0.021698605 0.039729502 0.023837712 0.051266693 0.03259415 0.012047084 0.0012023337 0.033751115
0.008844337 0.0036001331 0.03581132 0.014284205 0.05588721 0.03104619 0.06088629 0.033077817
0.03691445 0.093832485 0.06915992 0.060215 -0.015214699 0.018710366 0.031882383 0.034544915
0.009343872 -0.0024238955 0.041252967 0.02153818 0.0062038493 -0.0052618813 0.008571115 0.009828883
0.028238308 0.06504371 0.0627944 -0.0312951 -0.016729975 0.053021386 0.061493836 -0.013150469
0.02565022 0.00972059 0.01783037 0.005099933 -0.002082645 0.062257994 0.033319194 -0.09165722
-0.029628756 -0.019361096 0.076506995 0.10358509 -0.10933517 0.057895686 0.123502605 -0.0060185767
0.0791316 -0.11893531 0.052179065 0.10536827 0.12679888 -0.07599933 0.082178116 0.05837238
-0.00030790112 0.005659522 0.18654838 0.08195637 -0.10299502 0.058010656 0.03301786 -0.008858019
0.020509945 -0.24408382 -0.16533303 -0.01471184 0.045012288 0.13799717 0.10409159 0.047291707
-0.051154234 0.07012181 -0.13606828 0.026091676 -0.06991116 -0.044072386 0.07218045 -0.026788456
0.10527963 0.06345179 0.049603727 0.025813684 0.093788065 -0.051040716 -0.009909305 0.14367603
0.111638285 -0.01344304 -0.07659726 0.018469075 0.016424695 0.13239986 0.05307901 -0.14351843
0.062221825 0.02954399 0.01724849 -0.024496242 -0.039112583 0.038661715 0.18126689 -0.029983299
-0.01852765 -0.07606542 -0.050677057 -0.087443575 -0.03628944 -0.016144073 -0.032437686 0.05254821
0.1012802 0.060843155 0.16283952 0.027398856 -0.025841758 -0.09646471 0.021600433 0.004820522
0.027481632 0.060567223 0.021915622 0.0056422106 0.029531946 -0.02201755 0.028545968 -0.021791989
0.008793763 0.07309334 0.0565131 0.029460708 0.013900338 0.075317584 0.041598193 0.13298842
0.037146475 0.10412108 0.090763845 0.020004028 0.085732184 0.08685029 0.0016773024 -0.030679476
-0.06654473 -0.0392863 0.015313463 0.04968549 0.04989682 -0.009030521 -0.007528996 -0.061431307
0.014406043 0.0035981974 0.07111002 -0.06522183 0.1528255 0.079820365 0.04761444 -0.011379091
-0.01111623 -0.0024064109 0.021655003 0.034824282 -0.03797519 -0.0029644473 -0.0022885664 0.0078167
0.024171235 0.015364855 0.022061165 0.00469886 -0.0093800975 -0.04852536 0.007601383 0.018611228
0.008581326 0.025721902 0.018516323 0.014562704 0.009550576 0.04797937 -0.024717808 0.046827447
0.04062065 0.012760944 0.011833733 0.027656961 0.03385324 0.012156772 0.004719736 0.05689922
0.0053176065 0.056495387 0.014275226 0.092447825 0.047942765 0.04735225 0.05239092 -0.002257231
-0.012506783 0.022881063 -0.005895315 0.06903905 -0.0416725 -0.029552458 0.03219352 0.0038037205

Linear1.bias f4 [256]
00000000: 7358 31bf 7b39 03bf ebd9 3dbf 3fd0 26bf
00000010: cd31 4ebf 090c 01bf 71a0 1fbf 1b9e 3dbf
00000020: d6de 4dbf 2fac 25bf d74e 17bf 95c5 24bf
00000030: ef58 45bf 0e9f f9be ea62 4bbf a5c3 29bf
00000040: 119f 6abf 5273 47bf 4199 29bf 1cc8 27bf
00000050: 0111 5bbf 3a6b 32bf 2c62 32bf 9a75 39bf
00000060: ac63 30bf 927f 32bf bdf2 25bf 4de3 4dbf
00000070: 04e2 7fbf 717a 43bf a2db 1fbf dbd5 21bf
00000080: 45a8 28bf 349c 19bf 1fcf 13bf 7755 13bf
00000090: 5b14 1abf 60d9 1bbf 2e3e 32bf 5470 15bf
000000a0: 70db 0cbf 4483 2ebf 356f 10bf 311e 0abf
000000b0: 0bb0 30bf 4318 30bf a118 2cbf 94f7 34bf
000000c0: 8df1 30bf 0cdb 13bf 3d6f 38bf 8fe8 3fbf
000000d0: 9e7c 29bf 05cd 36bf 27f4 46bf e70c 1fbf
000000e0: b041 18bf 6e39 3abf 011f 4ebf 5daf 22bf
000000f0: 7dc1 2cbf 628b 19bf 8a11 2ebf 43f0 0ebf
00000100: f175 29bf 610b 30bf 5846 61bf 62a3 37bf
00000110: 1ad0 24bf 7d74 3dbf dee0 29bf ec1e 22bf
00000120: 1810 20bf e49a 63bf 5a82 40bf 1ec1 28bf
00000130: a227 24bf 4811 46bf ea01 36bf 85f4 39bf
00000140: a89f 23bf d7fa 24bf 69c3 36bf 40c1 5cbf
00000150: 44a4 0cbf 0621 4dbf 69ef 23bf a1a5 2bbf
00000160: 2bc1 e6be bed5 4fbf bec1 14bf 653d 19bf
00000170: 0f33 5cbf 60bf 24bf 2b9d 16bf 1709 31bf
00000180: 2e55 59bf b467 4ebf 2d96 0dbf 1472 3abf
00000190: c6dd 5dbf b857 3fbf 6d21 28bf 322b 35bf
000001a0: f443 17bf ef64 31bf f2e0 35bf 81f6 19bf
000001b0: 9cd0 21bf 57a9 71bf 2b2d 22bf 2cc9 21bf
000001c0: b724 10bf d315 1fbf 9ed8 60bf 5546 3dbf
000001d0: 45cb 5ebf fcec 1cbf 80c2 2abf 0743 28bf
000001e0: decf 21bf ca2b 32bf 8551 3ebf 5ea1 23bf
000001f0: a3ef 11bf b427 18bf 21e5 4cbf c424 35bf
00000200: 7bda 21bf f462 15bf 283c 27bf 7af3 47bf
00000210: 2ef9 17bf 0452 11bf 8177 00bf 07fa 21bf
00000220: 65a7 35bf 1f43 37bf 8080 50bf 9298 20bf
00000230: 7d6f 2ebf cfba 10bf 9ea2 10bf db04 2ebf
00000240: 66fd 44bf f8bf 25bf 227d 0ebf e02a 31bf
00000250: 03dd 03bf f109 27bf bb58 2ebf 904b 5ebf
00000260: b258 3bbf 751e 79bf b14a 0fbf 5e8d 3fbf
00000270: 738f 41bf 1355 1abf 0d5e 7bbf 05ee 2ebf
00000280: e67d 0ebf 0199 3ebf 959b 2ebf a3a3 40bf
00000290: 7f6a 08bf 1324 20bf b699 3dbf 3cd0 33bf
000002a0: 58c0 2ebf 6efe 2dbf bac6 44bf 12e1 34bf
000002b0: eac7 39bf 0b76 24bf 7b0d 2fbf 8945 49bf
000002c0: e7bb 50bf a78c 28bf 5fc7 45bf 5a5f 81bf
000002d0: d814 38bf 615d 64bf 1a5f 22bf d3f4 14bf
000002e0: afef 32bf b9ce 28bf 3aa7 33bf b367 e5be
000002f0: e7a5 20bf 6fa0 2cbf a36c 4ebf 7b69 3ebf
00000300: a926 2abf bc5d 2dbf 157b 61bf d76b 0cbf
00000310: 3d85 2abf 1b4d 39bf 64a4 3cbf 14a3 47bf
00000320: 0d99 38bf 87d2 65bf b5de 38bf be80 39bf
00000330: c769 11bf beea 44bf 89ed 1bbf 6f7a 2bbf
00000340: e774 24bf 54bc 48bf 11f3 28bf 657e 38bf
00000350: 51da 45bf 66c9 45bf 947e 09bf 523e 76bf
00000360: 7682 1bbf 4a5e 51bf 4f95 4ebf 3ae1 07bf
00000370: 9d0f 59bf 0f43 11bf 8fbc 2ebf 139e 33bf
00000380: ce58 55bf 9f59 39bf 5c4d 09bf ede1 23bf
00000390: 3770 32bf 9e27 2ebf 520f 3fbf da23 4fbf
000003a0: dd71 10bf 4562 69bf 1602 07bf ea96 36bf
000003b0: f9aa 39bf a5bb 22bf fb89 ffbe 9ea7 f4be
000003c0: 92fd 18bf a1e8 3dbf 6168 74bf a4f7 12bf
000003d0: c648 2bbf 432c 65bf d7f4 07bf 70d9 1fbf
000003e0: 9224 0fbf de9b 53bf 8191 32bf b5dd 81bf
000003f0: 8853 46bf 4586 2dbf 75d3 1abf 71ae 1abf
-0.6927559 -0.51259583 -0.7416064 -0.6516151 -0.8054474 -0.5040899 -0.6235419 -0.74069375
-0.80418146 -0.64715856 -0.59104675 -0.64363986 -0.77088827 -0.48754162 -0.79447806 -0.66314155
-0.91648966 -0.7791034 -0.6624947 -0.6553972 -0.8557282 -0.69694865 -0.6968105 -0.7244507
-0.6890209 -0.69725907 -0.64823514 -0.8042496 -0.9995425 -0.76358706 -0.6244451 -0.6321694
-0.6588176 -0.6000397 -0.57737917 -0.57552284 -0.6018731 -0.6087856 -0.6962613 -0.58374524
-0.55022335 -0.68169045 -0.5641969 -0.5395232 -0.6901862 -0.6878702 -0.6722508 -0.70690274
-0.6911858 -0.57756114 -0.72044736 -0.7496423 -0.66205776 -0.71406585 -0.77716297 -0.6212906
-0.5947523 -0.7274388 -0.8051606 -0.63548833 -0.6748274 -0.59978306 -0.6799551 -0.5583536
-0.6619559 -0.6876736 -0.8799796 -0.7173368 -0.6438004 -0.7400587 -0.66358745 -0.63328433
-0.6252456 -0.8890822 -0.751989 -0.65919673 -0.64122975 -0.7737012 -0.7109667 -0.7263873
-0.6391549 -0.6444525 -0.7139192 -0.86232376 -0.5493815 -0.80128515 -0.64037186 -0.67049605
-0.4506925 -0.8118552 -0.5810813 -0.59859306 -0.8601541 -0.64354515 -0.5883357 -0.69154495
-0.848956 -0.8062699 -0.55307275 -0.7283032 -0.86666524 -0.74743223 -0.65676004 -0.70769036
-0.59088063 -0.6929464 -0.71046364 -0.6014176 -0.6320894 -0.9439902 -0.6335017 -0.6319759
-0.5630602 -0.62142676 -0.8783053 -0.73935443 -0.87028915 -0.6129911 -0.66703033 -0.65727276
-0.63207805 -0.69598067 -0.7434314 -0.639181 -0.5700628 -0.5943558 -0.8003712 -0.70759225
-0.63224 -0.58354115 -0.65326166 -0.7810589 -0.59364593 -0.5676577 -0.5018235 -0.63272136
-0.7095855 -0.71586794 -0.81446075 -0.62732804 -0.6813887 -0.5653505 -0.56498134 -0.6797616
-0.76949155 -0.64746046 -0.5565969 -0.6920605 -0.5150911 -0.65249544 -0.6810414 -0.8683405
-0.73182213 -0.973121 -0.55973345 -0.74825084 -0.7560951 -0.6028606 -0.98190385 -0.6833194
-0.55660856 -0.74452215 -0.6820615 -0.7524969 -0.532875 -0.62555045 -0.7406267 -0.70239615
-0.68262243 -0.67966354 -0.7686573 -0.7065593 -0.7257067 -0.6424262 -0.68379945 -0.7862173
-0.81536716 -0.6583962 -0.7725734 -1.0107224 -0.71906805 -0.89204985 -0.63426363 -0.5818607
-0.6989698 -0.65940434 -0.7017704 -0.4480568 -0.62753147 -0.674323 -0.80634516 -0.743797
-0.6646524 -0.6772115 -0.88078433 -0.5485205 -0.66609555 -0.7238328 -0.7368834 -0.7798321
-0.72108537 -0.89774364 -0.72214824 -0.7246207 -0.5680203 -0.7692069 -0.60909325 -0.66983694
-0.6424088 -0.78412366 -0.6599589 -0.7206786 -0.7728625 -0.77260435 -0.5370877 -0.96188843
-0.6074594 -0.817845 -0.80696577 -0.53078043 -0.8478945 -0.5674295 -0.6825647 -0.7016308
-0.8333863 -0.72402376 -0.53633666 -0.6401661 -0.69702476 -0.680292 -0.7463275 -0.8091408
-0.5642374 -0.9116557 -0.5273756 -0.71324027 -0.7252651 -0.6356757 -0.49909958 -0.47784132
-0.5976192 -0.7418309 -0.9547177 -0.5740912 -0.6690792 -0.89520663 -0.5310797 -0.6244116
-0.55915177 -0.8265971 -0.6975327 -1.0145785 -0.7747121 -0.67783004 -0.6047891 -0.60422426

Linear2.weight f4 [7, 256]
00000000: 10eb b73d 5478 cf3b 1b0d 85bd 53e6 c1bc
00000010: f492 4ebd 5263 82bc f6e4 3dbd c89f b0bd
00000020: dedb 82bd 6648 01be a1a1 83bc 0608 963c
00000030: 44e3 6f3d 3ae1 4cbc 43f6 c7bd 01bc 22bc
00000040: fb83 cd3d f3a4 5fbc 9bcd 113d 0acd 00be
00000050: 2567 32be edf2 cabd 3d2c 95bd 5914 7bbb
00000060: 68e5 56bd bdc2 383d 9436 00bd 2dd4 4cbe
00000070: e1de 8f3d 678a 92bd f151 1ebd 3eb5 c8bd
00000080: d916 97bd b26e e9bd 20c1 063e 9e87 a1bd
00000090: 3feb 173e fa7a 0bbe 5ec0 9f3d b86b cf3d
000000a0: 8ecc 0c3d 2e9e 8bbb 2839 89bc 2cc1 87bd
000000b0: 013d d4bc 9fac 863d 80d8 09be 9eff 463c
000000c0: 01ad 903d e3cc a3bc 4731 6dbd c5e7 503e
000000d0: e10a 4ebb 334e a3bc 966e 3ebe a634 21be
000000e0: dcc8 73bd 3ae5 e6bd b4f0 e43c 5137 10be
000000f0: c706 0ebc 6432 3d3c e5f8 fd3d e60b fdbc
00000100: 8cd5 42bd 25c5 07bc a542 083e 7e2f 1dbe
00000110: c7e8 933d a0a0 e6bd 2a2d a0be 55ad 4ebd
00000120: 07e0 96bd e8e7 933d cd45 a33c 2535 873c
00000130: e0e4 94bd 57c6 a5bd 88f1 903d 24d5 f23c
00000140: bf6c 3fbd efb0 dbbd efec e93d a553 ba3d
00000150: ea6d acbb 1c8a 52bd aaa8 18be 4c65 683d
00000160: cca3 8d3a 4c34 023e b519 79bd 0155 f33b
00000170: d476 adbd 2fd9 a5bc 1b93 ba3c eb04 e4bd
00000180: 676a 363c 459f 53bc a60a f1bd da26 ef3c
00000190: 355c b83c bddb c63c 44ae f53c 58c4 76bd
000001a0: 03e0 0cbd 871c b3bd b28c fdbc f4ca b33b
000001b0: 829c bcbd 8a2a 81bd 385a c13b 78c6 1cbe
000001c0: c51b 523d b1e8 5cbe 7c42 36bd 4211 ccbd
000001d0: f298 9fbb 27a6 72be fb68 9ebc 74b9 883d
000001e0: bc8b 22be d021 763c 42aa cd3c 4d06 08be
000001f0: 25f2 37be badb 403d 96de ecbc 0a73 033c
00000200: 7e84 3b3c c107 ac3d 897b 5bbd 3524 4bbe
00000210: 1f8e c23c c44d 34bc 8471 51bd 82d4 903d
00000220: 8f15 f6bd b775 65bc c895 373d 2613 ee3b
00000230: 7cea 94bd e256 98bd aee9 32bd 802a c1bd
00000240: e475 80bd 5777 febd 905f 85bc 8094 3bbd
00000250: 9ab5 d9bd e391 7dbd 72d7 a5bc 5b92 58bd
00000260: a73f 9ebc 00df 17be dca1 cdbc 0cfb d4bc
00000270: 5dae e8bc a9c1 8ebc 95d9 4cbe e496 d4bc
00000280: 6bff e8bd 055c 873d dd25 30bb a1e9 afbd
00000290: 6ce8 fcbb 6116 9c3b d50a 69bd 0be3 b9bb
000002a0: c1a1 58be 1d14 7cba 0a98 c6bb 5a9e a03d
000002b0: 8eca adbd 6714 88bd 1fce a8bc 1eb0 b0bd
000002c0: 1f7a be3d aea1 2f3d 64d0 9cbc dd41 c53d
000002d0: 2776 c5bb 51bc 0bbe 719b 2abd c2a3 02be
000002e0: f625 16bd ca6d 99bd 8710 37bd 1769 94bd
000002f0: 0d92 44bd 60c9 d6bb 04aa 0bbd ca34 46bc
00000300: 206b 9fbd 809f 9cbc 94cf 0ebd 1678 8bbb
00000310: 9f98 21bd a3a1 fa3d 4614 03bd 3059 193d
00000320: 34ef a937 3b96 07bd 5459 c53d bb37 7fbd
00000330: ecb1 813d 7684 313c 7f86 e8bc c7b8 64bd
00000340: 64cf 1d3d 7937 953c 7261 eabd 4213 dbbc
00000350: 0460 99bc 16d5 8dbc 3cbe 793d 815b 15bd
00000360: afef 79bc 8dee 383c 99be ba3d 8628 5dbd
00000370: 9018 f73c eea4 dfbb f7be 32bd 323a aebb
00000380: 39cc a6bc 5b11 6abd fe46 20be 7ed0 eebd
00000390: 2f87 04be 448a 19bd 3ddb 3d3d 40fe 8cbd
000003a0: 481f ffbc b8bb 2dbd 3da5 97bd a8a2 9f3b
000003b0: b5a1 643c 5e4f 9abd 00cc 1cbd e776 dfbc
000003c0: 7462 8ebd 14f3 5ebc d521 2ebd 45e7 2bbe
000003d0: 423c 4cbd f64c cf3c ceb4 06be fb9d 5cbd
000003e0: 19a8 cdbd cbff 0a3e 6839 613c fb74 403c
000003f0: ae76 0fbd 5d12 82bd 08c4 0a3e d560 aabd
0.089803815 0.006331483 -0.0649664 -0.023669397 -0.050433114 -0.0159165 -0.046360932 -0.08624226
-0.063895926 -0.12625274 -0.016068282 0.018314373 0.058566347 -0.01250487 -0.097637676 -0.009932519
0.10034939 -0.013650167 0.03559647 -0.12578216 -0.17422159 -0.09909616 -0.072838284 -0.0038311689
-0.052464873 0.045107592 -0.03130205 -0.20002814 0.07024933 -0.071553044 -0.038652364 -0.09800194
-0.07377405 -0.113980666 0.13159609 -0.07887195 0.14835833 -0.1362113 0.07800363 0.101279676
0.034374766 -0.0042608 -0.016750887 -0.066286415 -0.025907995 0.065758936 -0.13461494 0.012145905
0.07064248 -0.019995159 -0.057908323 0.20400913 -0.003143959 -0.01993475 -0.18596873 -0.1574274
-0.059517726 -0.1127419 0.027946807 -0.14083602 -0.008668608 0.011547659 0.124009885 -0.030889463
-0.047566935 -0.008286749 0.13306673 -0.15350148 0.07222133 -0.112611055 -0.31284457 -0.05045827
-0.073669486 0.07221967 0.019930745 0.016504833 -0.07270217 -0.08094471 0.070773184 0.029642649
-0.046734568 -0.10727107 0.114221446 0.09097985 -0.005262126 -0.051401243 -0.1490809 0.05673723
0.0010806262 0.12715262 -0.06081553 0.0074259047 -0.0846993 -0.020245163 0.022775223 -0.111337505
0.011133767 -0.012916391 -0.11769609 0.02919333 0.022504905 0.024274701 0.029990323 -0.06024584
-0.03439332 -0.087456755 -0.030950878 0.0054868404 -0.09209539 -0.06306942 0.0059006475 -0.15310085
0.051296014 -0.2157314 -0.044497 -0.09964229 -0.0048705274 -0.23696195 -0.019337168 0.066759974
-0.15873617 0.01502271 0.0251056 -0.13283654 -0.17963465 0.047084548 -0.028914731 0.008023033
0.011445163 0.083999164 -0.05358461 -0.1983803 0.02374941 -0.011004869 -0.051133648 0.07071783
-0.12015831 -0.014005116 0.044820577 0.0072654663 -0.07271287 -0.074384466 -0.043679886 -0.09431934
-0.06272486 -0.12425106 -0.01628092 -0.045795918 -0.10630341 -0.061906707 -0.020244334 -0.05287395
-0.019317461 -0.14831161 -0.025101595 -0.025998615 -0.028403455 -0.017426329 -0.20004876 -0.025950857
-0.11376842 0.06609348 -0.0026878037 -0.08589483 -0.0077181365 0.00476341 -0.056895096 -0.0056728176
-0.21155454 -0.0009616034 -0.006060605 0.07842703 -0.084859 -0.066445164 -0.020606099 -0.08627342
0.093006365 0.0428788 -0.019142337 0.09631703 -0.0060260477 -0.13646056 -0.041652147 -0.12757781
-0.036657296 -0.07491644 -0.044693496 -0.07246607 -0.047990847 -0.0065547675 -0.034097686 -0.012097547
-0.07784104 -0.019119024 -0.03486593 -0.0042562587 -0.03945219 0.12237861 -0.032001756 0.03743857
2.0257758e-05 -0.033102255 0.096361786 -0.062309008 0.06332764 0.010834804 -0.028384445 -0.05584028
0.03852786 0.018214928 -0.114443675 -0.026742581 -0.018722542 -0.017313521 0.060972437 -0.036464218
-0.015254899 0.011287344 0.09118385 -0.053993724 0.03016308 -0.006825081 -0.04363915 -0.005316996
-0.020361053 -0.057145458 -0.15652081 -0.116608605 -0.12942193 -0.037485376 0.04635166 -0.06884432
-0.031142846 -0.04241535 -0.074045636 0.004871685 0.01395457 -0.07534669 -0.038280487 -0.027278377
-0.06952372 -0.013607759 -0.042512733 -0.16787441 -0.049862154 0.025305253 -0.13154909 -0.0538616
-0.10041828 0.1357414 0.013746597 0.01174664 -0.03502529 -0.06351159 0.13551342 -0.083192505

Linear2.bias f4 [7]
00000000: eb2c 173c c3b5 ea3b 696e 0f3c a75a 053c
00000010: 5753 073c a8e3 f23b 6380 f93b
0.009227018 0.007162781 0.008754351 0.008139289 0.008259616 0.0074123926 0.007614182
