first_net/saved_model 4500.pth (torch, 52885 bytes, 4 tensors)

Linear1.weight f4 [256, 42]
0.015959421 0.06034259 -0.044435836 0.058210082 0.030066447 -0.038717534 -0.00040720866 0.10184731
0.07499671 -0.09913171 -0.024980754 -0.014542357 0.0003418811 -0.048165455 0.08370592 0.009126414
-0.072036125 0.068803474 0.07710157 0.040920537 -0.052094396 -0.013427264 -0.012214007 -0.08933296
0.06937188 -0.035847858 0.040260952 0.02459517 -0.023087991 -0.061270636 0.07307489 0.035450388
0.0720861 0.0060593346 -0.15642956 -0.05752252 0.108778 0.0032051038 -0.035197023 -0.00021755442
-0.07014026 -0.012740801 -0.024104526 -0.084866874 0.011680481 0.011356686 0.04947996 0.01618874
-0.014587262 -0.0467412 0.03485676 0.018477596 0.010280827 -0.041851368 -0.0088019045 0.028987726
0.06535676 -0.015769867 0.029896548 -0.16363572 -0.018780652 -0.061110046 0.06290759 0.017281946
0.035730608 0.0030136525 0.18669094 0.093668334 0.011823527 0.11599656 -0.040019676 0.039830927
0.08939593 -0.017237179 0.032755256 0.018690106 -0.092600696 0.042271607 -0.05915123 -0.089753605
-0.2231556 0.06800233 -0.019089695 -0.056269474 0.08383186 -0.011123161 -0.010331495 0.07810923
0.051251687 -0.02163984 -0.08661902 -0.023133995 -0.09341177 -0.09375971 0.14831704 -0.10650966
0.016304333 0.022348491 -0.014434764 0.032772366 -0.023397414 0.21116638 0.0924866 0.040758535
0.024785263 0.009466204 0.22018592 -0.0833815 -0.026460538 -0.02626698 -0.015015966 -0.01097535
0.09956783 0.1793863 0.060578234 0.058986425 -0.024353286 0.09793187 0.038214736 -0.06866706
0.0021985134 -0.08851327 -0.023707382 -0.0006355029 0.051071003 0.046892066 -0.033089746 0.01847286
-0.06728917 0.019915717 0.016576473 -0.04950517 0.032502774 -0.0017339783 0.019232687 -0.055432808
-0.07111273 -0.07624193 0.036306147 -0.036533486 -0.017357543 0.06581626 -0.026251877 0.07629843
0.107172154 -0.0006262565 0.066936806 0.04604397 -0.14346963 -0.10273876 -0.016427089 -0.0135230785
-0.07759136 -0.012761916 0.044243436 0.0010127767 0.04441066 0.055104315 0.076603465 -0.0719414
-0.045587026 0.008855676 -0.2502499 -0.075938486 -0.06571315 -0.08348086 0.010532436 -0.032980118
-0.029592073 0.081793316 0.011424756 -0.12826662 -0.06967302 -0.03264254 0.07954383 0.03677858
0.0705767 -0.14436828 0.062174555 -0.055480003 -0.02123889 -0.0077499 -0.037339136 0.012929593
0.12847011 -0.061633494 0.09271896 0.04671876 0.112700745 0.06953287 0.11543287 0.08454817
-0.07173482 -0.13374539 0.1370293 0.088758945 -0.062060524 0.09060157 0.12517661 0.09895442
0.30026567 -0.0048414916 0.028728656 -0.13836819 -0.24120352 -0.009910863 0.016939633 -0.292515
-0.09391672 0.010451154 -0.022432545 -0.0047804504 -0.0062247645 -0.025250923 -0.06256702 -0.021741914
-0.04756461 -0.028392497 -0.021294279 0.024703369 -0.0068036243 0.030133503 -0.06290423 -0.0022492264
-0.050148502 -0.02001148 -0.010018651 0.059623174 -0.01626705 -0.017287865 -0.0018490467 -0.08837515
-0.01955514 -0.0043551484 -0.03144402 -0.022656456 -0.043676157 -0.041084558 -0.061319493 0.0030846938
-0.032177582 0.0009346869 0.009853172 -0.040517706 -0.059902277 0.01775026 -0.07252593 -0.052427106
-0.0207525 -0.027122563 -0.036687348 -0.11463043 -0.10591735 0.018715745 0.053513106 0.1555246
00000000: 55bd 823c cb29 773d 5a02 36bd b26d 6e3d
00000010: e94d f63c 4796 1ebd 9f7e d5b9 5395 d03d
00000020: e097 993d 9105 cbbd 70a4 ccbc 1143 6ebc
00000030: 813e b339 2449 45bd 026e ab3d f486 153c
00000040: ad87 93bd d6e8 8c3d 6ee7 9d3d 4b9c 273d
00000050: ef60 55bd 07fe 5bbc 421d 48bc 33f4 b6bd
00000060: d812 8e3d 34d5 12bd abe8 243d cf7b c93c
00000070: 0723 bdbc ebf6 7abd 4aa8 953d 6d34 113d
00000080: e1a1 933d 628d c63b 122f 20be bc9c 6bbd
00000090: 00c7 de3d b80c 523b c12a 10bd 521f 64b9
000000a0: b2a5 8fbd cbbe 50bc db76 c5bc afce adbd
000000b0: 7d5f 3f3c 6511 3a3c 80ab 4a3d 409e 843c
000000c0: 69ff 6ebc b373 3fbd f6c5 0e3d 545e 973c
000000d0: ea70 283c 576c 2bbd dd35 10bc ab77 ed3c
000000e0: c4d9 853d cf2f 81bc 9be9 f43c 1f90 27be
000000f0: e2d9 99bc 874e 7abd b2d5 803d de92 8d3c
00000100: 425a 123d b380 453b e92b 3f3e 2fd5 bf3d
00000110: 77b7 413c 9b8f ed3d aceb 23bd c125 233d
00000120: 3715 b73d fc34 8dbc 602a 063d fe1b 993c
00000130: 6fa5 bdbd fe24 2d3d 8f48 72bd bdd0 b7bd
00000140: e782 64be ce44 8b3d fe61 9cbc d27a 66bd
00000150: 0ab0 ab3d eb3d 36bc 6e45 29bc bbf7 9f3d
00000160: 4aed 513d 0946 b1bc 5065 b1bd 8183 bdbc
00000170: ac4e bfbd 1705 c0bd 6ce0 173e bd21 dabd
00000180: aa90 853c 2f14 b73c ca7f 6cbc 513c 063d
00000190: efab bfbc 003c 583e 9d69 bd3d 6cf2 263d
000001a0: 770a cb3c 2318 1b3c 6b78 613e ebc3 aabd
000001b0: c5c3 d8bc da2d d7bc 8705 76bc f4d1 33bc
000001c0: 38ea cb3d 0bb1 373e e220 783d c09b 713d
000001d0: 8b80 c7bc 8190 c83d 0e87 1c3d 51a1 8cbd
000001e0: ef14 103b 7246 b5bd fc35 c2bc e197 26ba
000001f0: d42f 513d e511 403d 1d89 07bd 6554 973c
00000200: e8ce 89bd 4926 a33c 62cb 873c efc5 4abd
00000210: a121 053d a846 e3ba de8d 9d3c 830d 63bd
00000220: 8da3 91bd bb24 9cbd c1b5 143d 23a4 15bd
00000230: 6831 8ebc adca 863d 2d0e d7bc 5a42 9c3d
00000240: 137d db3d 5d2b 24ba 2a16 893d 9a98 3c3d
00000250: b4e9 12be b368 d2bd 1a92 86bc e78f 5dbc
00000260: 38e8 9ebd 5b17 51bc 9b38 353d 26bf 843a
00000270: f4e7 353d 10b5 613d 47e2 9c3d 0356 93bd
00000280: 76b9 3abd 6617 113c c120 80be a385 9bbd
00000290: 9e94 86bd 03f8 aabd 3d90 2c3c 2916 07bd
000002a0: 136b f2bc 4183 a73d e62e 3b3c 5358 03be
000002b0: bab0 8ebd 2fb4 05bd e0e7 a23d 23a5 163d
000002c0: 848a 903d 47d5 13be bfaa 7e3d 003f 63bd
000002d0: 2efd adbc e0f2 fdbb ecf0 18bd a5d6 533c
000002e0: ab8d 033e 6773 7cbd 70e3 bd3d 2c5c 3f3d
000002f0: a6cf e63d 4067 8e3d 1268 ec3d 9727 ad3d
00000300: b5e9 92bd 8df4 08be 6951 0c3e 40c7 b53d
00000310: 2d33 7ebd 518d b93d 4c2e 003e 9da8 ca3d
00000320: 6cbc 993e 60a5 9ebb 5c58 eb3c 64b0 0dbe
00000330: 0efe 76be 2c61 22bc fcc4 8a3c 87c4 95be
00000340: 6957 c0bd 513b 2b3c 75c4 b7bc 53a5 9cbb
00000350: 1cf9 cbbb 06db cebc 2323 80bd 191c b2bc
00000360: 1cd3 42bd 6297 e8bc 5771 aebc b85e ca3c
00000370: f0f0 debb 89da f63c efd3 80bd c267 13bb
00000380: 8468 4dbd 1eef a3bc 4525 24bc 6e37 743d
00000390: 7a42 85bc 489f 8dbc b65b f2ba 08fe b4bd
000003a0: 1a32 a0bc a2b5 8ebb 72cb 00bd 089a b9bc
000003b0: c5e5 32bd 4848 28bd 262a 7bbd 9328 4a3b
000003c0: a4cc 03bd c705 753a 336f 213c e5f5 25bd
000003d0: 175c 75bd fe68 913c 7a88 94bd cebd 56bd
000003e0: 2601 aabc 2330 debc 7945 16bd 5cc3 eabd
000003f0: 32eb d8bd c351 993c 8f30 5b3d d741 1f3e

Linear1.bias f4 [256]
-0.48439017 -0.58088976 -0.51076263 -0.4073152 -0.5200687 -0.48403618 -0.5249419 -0.55466163
-0.5000266 -0.46756566 -0.62902385 -0.44531795 -0.46215373 -0.5388645 -0.5513864 -0.41967395
-0.47692114 -0.5883201 -0.4556642 -0.5409298 -0.524921 -0.42868617 -0.52543163 -0.4461263
-0.44436634 -0.47296244 -0.504598 -0.4467374 -0.41606322 -0.5643901 -0.44731766 -0.503006
-0.4950067 -0.40967056 -0.40181172 -0.53852093 -0.5440936 -0.5407028 -0.58606124 -0.39222294
-0.5461512 -0.5804808 -0.45703033 -0.3948025 -0.32701114 -0.44865564 -0.47182885 -0.5734234
-0.46081924 -0.32439333 -0.5257527 -0.45796898 -0.36172903 -0.36755204 -0.44322264 -0.4400304
-0.56677884 -0.63861984 -0.5377062 -0.6366968 -0.5892969 -0.5376091 -0.55207664 -0.60739475
-0.5920284 -0.51908046 -0.46041495 -0.56077695 -0.6091377 -0.5206628 -0.47676966 -0.62103957
-0.5434758 -0.44792515 -0.43585947 -0.3653854 -0.6195683 -0.5174201 -0.5100118 -0.40996566
-0.42908576 -0.533982 -0.48329577 -0.46834853 -0.48814237 -0.47121122 -0.41055337 -0.46213976
-0.46586317 -0.5839722 -0.5033695 -0.6487787 -0.37923232 -0.5614051 -0.45079988 -0.44017604
-0.5575111 -0.45017993 -0.49164787 -0.5512522 -0.41199777 -0.42040187 -0.46524012 -0.37837678
-0.56009007 -0.49187276 -0.48965952 -0.5041954 -0.46526322 -0.4692451 -0.61529285 -0.46152765
-0.5729063 -0.49028996 -0.5265316 -0.45224258 -0.5772428 -0.50769824 -0.4807351 -0.483764
-0.6928482 -0.47583267 -0.37331033 -0.51501334 -0.44562826 -0.46871486 -0.55296034 -0.46880448
-0.40784165 -0.53055114 -0.513015 -0.5348945 -0.36178467 -0.45584017 -0.44724625 -0.43528703
-0.63984454 -0.65682364 -0.56502 -0.38309216 -0.45159858 -0.45906737 -0.3251112 -0.5875008
-0.44519982 -0.42876324 -0.4774646 -0.48952267 -0.5067189 -0.5497228 -0.40930206 -0.60326284
-0.67952096 -0.5152141 -0.47975963 -0.46475947 -0.45865628 -0.5112516 -0.4285666 -0.38871777
-0.62267005 -0.5157529 -0.5066192 -0.48217636 -0.55178994 -0.363507 -0.42187333 -0.50718004
-0.3883062 -0.48733726 -0.4651254 -0.44199574 -0.43805358 -0.5737467 -0.627885 -0.389089
-0.46711445 -0.5450443 -0.50766146 -0.33849403 -0.5179262 -0.42917636 -0.5248103 -0.43657863
-0.46865213 -0.4072811 -0.29271445 -0.58006686 -0.5199972 -0.45744458 -0.59200335 -0.63175976
-0.4442297 -0.4818877 -0.45047933 -0.53701556 -0.47812435 -0.57552785 -0.40847108 -0.5755695
-0.4229673 -0.41615626 -0.51996773 -0.49860647 -0.4600987 -0.5256453 -0.4535072 -0.5556129
-0.5947627 -0.39878622 -0.5167417 -0.49297708 -0.4356341 -0.49830052 -0.60461736 -0.5127867
-0.4445678 -0.5614868 -0.3964177 -0.5358632 -0.41803157 -0.41244087 -0.43628758 -0.5064543
-0.59533024 -0.69768906 -0.43500957 -0.52729106 -0.51263833 -0.42109522 -0.4798897 -0.45286566
-0.48435795 -0.449895 -0.4754428 -0.6075373 -0.5705234 -0.42774186 -0.5859917 -0.56327313
-0.44359443 -0.6154465 -0.49946564 -0.39210457 -0.49903342 -0.49535567 -0.41776472 -0.67796075
-0.46254832 -0.56227154 -0.68433815 -0.49024785 -0.5836534 -0.65957355 -0.46144527 -0.3700437
00000000: fd01 f8be 31b5 14bf 57c1 02bf 9e8b d0be
00000010: 3923 05bf 97d3 f7be 9862 06bf 4efe 0dbf
00000020: be01 00bf c464 efbe b507 21bf b700 e4be
00000030: 6a9f ecbe 06f3 09bf a927 0dbf 81df d6be
00000040: 022f f4be 259c 16bf d14c e9be 607a 0abf
00000050: 3961 06bf c17c dbbe b082 06bf ab6a e4be
00000060: fc83 e3be 2228 f2be 562d 01bf c4ba e4be
00000070: 3d06 d5be df7b 10bf d206 e5be 00c5 00bf
00000080: 8571 fdbe 57c0 d1be 44ba cdbe 82dc 09bf
00000090: b849 0bbf 806b 0abf 1c08 16bf 72d1 c8be
000000a0: 91d0 0bbf 649a 14bf e1ff e9be 8e23 cabe
000000b0: 016e a7be 31b6 e5be 8d93 f1be e0cb 12bf
000000c0: 80f0 ebbe e216 a6be bb97 06bf e97a eabe
000000d0: 8c34 b9be c82f bcbe 14ee e2be aa4b e1be
000000e0: 6b18 11bf 977c 23bf 1da7 09bf 90fe 22bf
000000f0: 29dc 16bf c0a0 09bf e554 0dbf 397e 1bbf
00000100: 2c8f 17bf 75e2 04bf 82bb ebbe 148f 0fbf
00000110: 73f0 1bbf 284a 05bf 271b f4be 73fc 1ebf
00000120: 3b21 0bbf 7256 e5be f928 dfbe cc13 bbbe
00000130: 079c 1ebf a575 04bf 2290 02bf 05e7 d1be
00000140: 21b1 dbbe 0bb3 08bf 8b72 f7be 61cb efbe
00000150: cced f9be 9942 f1be 0d34 d2be 959d ecbe
00000160: 9e85 eebe 347f 15bf d3dc 00bf 5c16 26bf
00000170: bd2a c2be 3fb8 0fbf 3ecf e6be c15e e1be
00000180: 0cb9 0ebf fc7d e6be 45b9 fbbe dd1e 0dbf
00000190: 5ff1 d2be ea3e d7be f433 eebe 9aba c1be
000001a0: 1062 0fbf bfd6 fbbe a7b4 fabe f312 01bf
000001b0: fb36 eebe e540 f0be d583 1dbf 5a4d ecbe
000001c0: fda9 12bf 4907 fbbe c6ca 06bf 578c e7be
000001d0: 2fc6 13bf 83f8 01bf e922 f6be eaaf f7be
000001e0: 805e 31bf 57a0 f3be 8822 bfbe ead7 03bf
000001f0: 6329 e4be 65fb efbe cf8e 0dbf 2407 f0be
00000200: 9fd0 d0be 33d2 07bf f354 03bf d9ee 08bf
00000210: d73b b9be e263 e9be 76fd e4be f1dd debe
00000220: dacc 23bf 9825 28bf 27a5 10bf a824 c4be
00000230: ee37 e7be e10a ebbe fa74 a6be 7466 16bf
00000240: 3bf1 e3be db86 dbbe 3d76 f4be b7a2 fabe
00000250: 54b8 01bf a2ba 0cbf 0a90 d1be 6f6f 1abf
00000260: 16f5 2dbf 12e5 03bf 0ea3 f5be f4f4 edbe
00000270: ffd4 eabe 63e1 02bf 156d dbbe 0406 c7be
00000280: 4e67 1fbf 6208 04bf ccb1 01bf d2df f6be
00000290: 1b42 0dbf 971d babe c8ff d7be 8dd6 01bf
000002a0: 12d0 c6be 4584 f9be eb24 eebe 444d e2be
000002b0: 8f48 e0be 10e1 12bf 12bd 20bf ac36 c7be
000002c0: a029 efbe 0688 0bbf 1af6 01bf 174f adbe
000002d0: d096 04bf 01bd dbbe f859 06bf 3c87 dfbe
000002e0: 2cf3 efbe 2687 d0be abde 95be 437f 14bf
000002f0: 891e 05bf 2d36 eabe 888d 17bf 02bb 21bf
00000300: 1372 e3be fcb9 f6be 3aa5 e6be da79 09bf
00000310: b7cc f4be cb55 13bf 1f23 d1be 8658 13bf
00000320: 2c8f d8be 6f12 d5be 9b1c 05bf 5949 ffbe
00000330: 0f92 ebbe b190 06bf 1932 e8be a63c 0ebf
00000340: 5e42 18bf b52d ccbe 2f49 04bf 7e67 fcbe
00000350: 6f0b dfbe 3f21 ffbe 34c8 1abf fd45 03bf
00000360: 649e e3be 99bd 0fbf 43f7 cabe 552e 09bf
00000370: 3c08 d6be 732b d3be 1661 dfbe fda6 01bf
00000380: 9067 18bf c09b 32bf 93b9 debe 8cfc 06bf
00000390: 443c 03bf cb99 d7be 1ab4 f5be 02de e7be
000003a0: c4fd f7be a358 e6be 3d6d f3be 9187 1bbf
000003b0: d20d 12bf fb00 dbbe 8d03 16bf ab32 10bf
000003c0: cf1e e3be e78d 1dbf f6b9 ffbe eec1 c8be
000003d0: 4f81 ffbe 429f fdbe 42e5 d5be d68e 2dbf
000003e0: 22d3 ecbe 07f1 0fbf c930 2fbf c401 fbbe
000003f0: 4f6a 15bf d0d9 28bf 8e42 ecbe 5e76 bdbe

Linear2.weight f4 [7, 256]
0.058378357 0.01446848 -0.17799945 -0.03975613 0.010360703 -0.00019021831 0.030991578 0.01723779
0.03180433 -0.0066881115 0.1560812 -0.10494204 0.03501736 0.03578919 -0.04404237 -0.1116254
0.0045178137 0.020193845 -0.019566096 -0.0021166555 -0.008891267 -0.17160782 -0.23585561 -0.021541987
-0.07629508 0.12002692 -0.061593227 -0.042685933 -0.12450303 0.044879925 0.092700854 -0.049191765
-0.08960926 -0.13852768 -0.0063756127 -0.07161947 -0.018761644 -0.043450963 -0.07032253 -0.07579304
0.09008372 -0.07013009 0.08842688 -0.0076185237 -0.08573451 0.05486487 -0.016342582 0.11530332
0.065583415 -0.01549255 -0.0045695156 -0.018517654 -0.04966692 -0.00064319663 -0.09153935 -0.009452112
0.041139856 -0.024152944 -0.04825826 0.11460043 0.04488353 -0.00095184357 -0.07256716 0.09312083
-0.012016174 -0.05184869 0.1278036 0.054033667 0.090279944 -0.04270975 -0.045079023 -0.11310602
-0.013259709 -0.042753067 -0.026810111 -0.011318727 0.03832322 -0.11694579 -0.04358908 -0.0510756
-0.029896148 0.07344861 0.01548307 -0.0015865545 -0.17432739 -0.13186972 0.05140291 -0.03165294
0.00448512 -0.066660374 -0.074018165 -0.03462618 -0.062821865 0.020443203 -0.040144626 -0.03371688
0.01891527 -0.17295536 -0.0016628972 0.041156843 -0.055572588 -0.058120143 0.043313965 -0.005433036
-0.030798132 0.044684544 0.0060771685 -0.07768601 0.08723561 -0.047201574 -0.05318764 -0.06023677
-0.07802335 -0.086343646 0.0385666 0.033759143 0.02303456 -0.005486744 -0.023180984 -0.016415121
-0.009119495 0.0065474235 -0.05309296 0.049845695 -0.00010505751 -0.2742103 0.0657786 -0.021140015
-0.034280032 0.021057263 0.11066874 -0.11755984 -0.15818149 -0.1253222 0.12162409 -0.082271375
-0.0860744 0.18292351 0.07911367 -0.064037874 0.027971022 -0.043162502 -0.0733512 -0.015612364
0.15073659 0.002226456 0.015315927 -0.050059352 0.0034640788 0.009813268 -0.01168726 -0.089816995
0.043664414 0.043915007 0.13935404 0.010322057 0.06368464 -0.09441453 -0.10490875 -0.06911651
0.00692058 0.12007262 -0.01483421 -0.014230053 0.080765344 -0.07664586 0.032219965 0.039823588
-0.03923221 -0.04832776 -0.071394265 0.120929174 -0.020135548 0.025784794 -0.030195544 -0.08819886
-0.02565558 0.018814752 0.0634648 -0.28854004 0.05543021 0.06397601 0.03887464 -0.010285238
-0.004783849 -0.07004213 -0.040845707 -0.017728461 -0.120147154 -0.038183987 -0.114177115 -0.044087365
-0.05486476 0.09074616 0.00945745 0.07665136 -0.09330361 -0.034286547 -0.0025749335 0.027922256
-0.08214189 0.043356325 -0.17403275 0.020523403 -0.015995862 -0.17431375 -0.0019642597 0.028138783
-0.14337254 0.06487366 -0.058005143 0.09114893 0.061012503 -0.07727484 -0.0065494734 -0.16063805
-0.11231723 0.036827467 -0.009529559 -0.09358343 -0.07038172 0.048408847 0.041063603 0.00025695065
-0.10035213 0.13309832 0.030840829 -0.15448785 -0.024309613 -0.017738245 -0.051722266 -0.10242885
-0.12955387 0.034413222 0.017302826 0.00057632127 -0.0972808 0.0020271894 0.18106726 -0.05810361
-0.10481776 -0.070714645 -0.08584098 0.029219057 -0.12614736 -0.09019848 -0.07521306 0.08827852
-0.0006504822 0.005627993 0.023967106 -0.04174226 -0.12189363 -0.041749608 -0.003314566 0.11769237
00000000: 251e 6f3d 340d 6d3c 7d45 36be 53d7 22bd
00000010: f0bf 293c 5775 47b9 0de2 fd3c 4436 8d3c
00000020: 4245 023d f227 dbbb c0d3 1f3e daeb d6bd
00000030: 5d6e 0f3d b097 123d c665 34bd dc9b e4bd
00000040: 2b0a 943b 906d a53c 1449 a0bc 96b7 0abb
00000050: adac 11bc f6b9 2fbe 2284 71be d278 b0bc
00000060: 9840 9cbd add0 f53d 2e49 7cbd 72d7 2ebd
00000070: 72fb febd 03d4 373d f2d9 bd3d 4e7d 49bd
00000080: 0f85 b7bd 33da 0dbe 84ea d0bb 3bad 92bd
00000090: 05b2 99bc a3f9 31bd 4205 90bd 6239 9bbd
000000a0: d07d b83d 5da0 8fbd 2719 b53d cfa4 f9bb
000000b0: 9395 afbd fcb9 603d e1e0 85bc 2624 ec3d
000000c0: 9950 863d 77d4 7dbc e0bb 95bb 56b2 97bc
000000d0: 8a6f 4bbd 329c 28ba fc78 bbbd 08dd 1abc
000000e0: 4482 283d 65dc c5bc 74aa 45bd a1b3 ea3d
000000f0: cbd7 373d 2485 79ba 179e 94bd 22b6 be3d
00000100: 7ddf 44bc 4b5f 54bd f2de 023e 6852 5d3d
00000110: b1e4 b83d 6bf0 2ebd c8a4 38bd 21a4 e7bd
00000120: 403f 59bc d71d 2fbd e1a0 dbbc 2f72 39bc
00000130: cff8 1c3d 4681 efbd 778a 32bd a634 51bd
00000140: c4e8 f4bc 3a6c 963d b4ac 7d3c eff3 cfba
00000150: e182 32be db08 07be dc8b 523d 83a6 01bd
00000160: eaf7 923b 3c85 88bd d696 97bd 2ed4 0dbd
00000170: c0a8 80bd 8178 a73c b16e 24bd b61a 0abd
00000180: 32f4 9a3c 361b 31be 92f5 d9ba 1494 283d
00000190: 15a0 63bd 630f 6ebd fc69 313d 9c07 b2bb
000001a0: 5d4c fcbc 2407 373d fc22 c73b d819 9fbd
000001b0: 95a8 b23d 7056 41bd 48db 59bd d5ba 76bd
000001c0: b5ca 9fbd f0d4 b0bd 03f8 1d3d 0747 0a3d
000001d0: f9b2 bc3c 25ca b3bb 0ce6 bdbc 0179 86bc
000001e0: ef69 15bc c58b d63b 0178 59bd 002b 4c3d
000001f0: 5252 dcb8 4b65 8cbe eeb6 863d d32d adbc
00000200: 3869 0cbd 4880 ac3c 4ba6 e23d 37c3 f0bd
00000210: 54fa 21be 7654 00be 0d16 f93d e57d a8bd
00000220: c647 b0bd 4d50 3b3e 5906 a23d 4a26 83bd
00000230: 7c23 e53c 2acb 30bd 2739 96bd 00cb 7fbc
00000240: b15a 1a3e bce9 113b a7ef 7a3c 090b 4dbd
00000250: 9905 633b d4c7 203c ec7b 3fbc f9f1 b7bd
00000260: 75d9 323d 39e0 333d d3b2 0e3e d81d 293c
00000270: 186d 823d 685c c1bd 66da d6bd f58c 8dbd
00000280: 08c6 e23b a2e8 f53d 300b 73bc 2b25 69bc
00000290: 4d68 a53d 81f8 9cbd 15f9 033d 0f1e 233d
000002a0: f4b1 20bd 54f3 45bd 2837 92bd b7a9 f73d
000002b0: 4ef3 a4bc a23a d33c a55c f7bc 9ba1 b4bd
000002c0: a72b d2bc 6521 9a3c d5f9 813d 85bb 93be
000002d0: ca0a 633d db05 833d 043b 1f3d 6a83 28bc
000002e0: d6c1 9cbb 4072 8fbd d44d 27bd 473b 91bc
000002f0: b60f f6bd d066 1cbd b1d5 e9bd f494 34bd
00000300: dfb9 60bd 1fd9 b93d 6cf3 1a3c 63fb 9c3d
00000310: f715 bfbd 0d70 0cbd 37c0 28bb 37bd e43c
00000320: 023a a8bd 6796 313d a435 32be b220 a83c
00000330: c109 83bc 4e7f 32be cfba 00bb 4e83 e63c
00000340: 40d0 12be 7bdc 843d cd96 6dbd 4aac ba3d
00000350: 3fe8 793d 4542 9ebd f79c d6bb 4d7e 24be
00000360: 9306 e6bd 66d8 163d de21 1cbc aba8 bfbd
00000370: 4b24 90bd 5b48 463d 4f32 283d 55b7 8639
00000380: 6b85 cdbd ed4a 083e e8a5 fc3c 1032 1ebe
00000390: f424 c7bc cc4f 91bc bada 53bd 38c6 d1bd
000003a0: c5a9 04be e1f4 0c3d a8be 8d3c 4414 173a
000003b0: 283b c7bd 98da 043b b269 393e 0dfe 6dbd
000003c0: b2aa d6bd d7d2 90bd 65cd afbd ce5c ef3c
000003d0: c62c 01be fbb9 b8bd 4e09 9abd 5ecb b43d
000003e0: 1f85 2aba 076b b83b aa56 c43c eff9 2abd
000003f0: 5ea3 f9bd a301 2bbd 3139 59bb b308 f13d

Linear2.bias f4 [7]
0.019181782 0.01937635 0.02069631 0.020250628 0.01917446 0.017973151 0.019701941
00000000: 1d23 9d3c 27bb 9e3c 4f8b a93c a5e4 a53c
00000010: c213 9d3c 6e3c 933c f765 a13c
