first_net/saved_model 1500.pth (torch, 52885 bytes, 4 tensors)

Linear1.weight f4 [256, 42]
0	0xbd936f0e	-0.071989164
1	0xbc5e40cb	-0.013565253
2	0x3ccd2c14	0.025045432
3	0x3d6ae5d1	0.057348076
4	0x3d95cc31	0.07314337
5	0x3cf4af5a	0.02986877
6	0x3d01d75b	0.03169952
7	0x3c5dbbe2	0.013533564
8	0xbd46291d	-0.048379052
9	0xbb1af89d	-0.002364672
10	0xbd24ec97	-0.040264692
11	0xbdad21e8	-0.08453733
12	0xbc298b29	-0.01034812
13	0x3d0755df	0.033040877
14	0x3d1e9e05	0.038724918
15	0x3d31ab9e	0.043376558
16	0xbd2b5604	-0.041830078
17	0xbcfae851	-0.030628355
18	0x3dc7785d	0.09739754
19	0x3d0d18e7	0.034447577
20	0xbd74495d	-0.059640277
21	0xbce75f6e	-0.028243747
22	0x3ce42aa9	0.027852373
23	0xbcb6d29a	-0.02231722
24	0x3d56be2a	0.05242745
25	0xbd1e0cc9	-0.03858641
26	0x3d83a81d	0.064285494
27	0xbd1bf478	-0.03807494
28	0xbd631ca0	-0.05544722
29	0xbd016ad2	-0.031596012
30	0xbd2888a0	-0.04114592
31	0x3d713d13	0.058896136
32	0xbcc09982	-0.023510698
33	0x3dc82ce1	0.09774185
34	0xbcf2705c	-0.029594593
35	0x3d8328da	0.06404276
36	0x3df09243	0.11746647
37	0x3dbabe41	0.09118319
38	0xbe07c20e	-0.1325762
39	0x3dbd2421	0.09235407
40	0xbbe2212b	-0.0069009266
41	0xbdf398c3	-0.11894371
42	0x3b4d9808	0.0031371135
43	0xbb4d6c20	-0.0031344965
44	0xbd16e71a	-0.03684149
45	0xbd84fb05	-0.06493191
46	0x3d20f337	0.039294448
47	0x3c76663a	0.015039021
48	0xbd511e70	-0.051054418
49	0xbd7245bd	-0.05914854
50	0xbd2e0d85	-0.042493362
51	0x3cc1b41f	0.023645459
52	0x3de142fc	0.109991044
53	0x3c944d44	0.01810325
54	0xbd807dec	-0.06274018
55	0x3d6eb18d	0.058274794
56	0x3d5e16a8	0.054220825
57	0xba23140d	-0.00062209443
58	0x3cf16aef	0.029469935
59	0xbd7f8a37	-0.06238767
60	0x3d55d1d5	0.052202065
61	0xbe06c7a3	-0.13162093
62	0x3dddaaf9	0.10823626
63	0x3d91bcc9	0.07116086
64	0x3a3ee334	0.00072817807
65	0xbd79df99	-0.061004255
66	0x3db3a5d3	0.08771863
67	0x3cca218c	0.0246742
68	0xbd194573	-0.037419748
69	0x3dad3399	0.08457107
70	0x3dce1a5b	0.10063621
71	0x3c7b7391	0.015347377
72	0xbd3593f3	-0.04433055
73	0xbd21ce3a	-0.039503314
74	0x3d24e934	0.040261462
75	0xbc91fee5	-0.017821738
76	0xbcfd91ca	-0.030953307
77	0xbc98fff1	-0.01867673
78	0xbd9342d1	-0.071904786
79	0x3d8982fe	0.06714438
80	0xbdd91543	-0.105997585
81	0xbd08ac71	-0.033367578
82	0xbd906f53	-0.070524834
83	0x3d937946	0.072008654
84	0xbd04521c	-0.032304868
85	0x3d2558d4	0.040367916
86	0xbdbb8048	-0.09155327
87	0x3c7c86b8	0.015412979
88	0xbc806f1f	-0.015677987
89	0xbd56e217	-0.05246171
90	0xbba44a25	-0.0050137215
91	0xbd0b616a	-0.03402845
92	0x3d38ebdb	0.045146804
93	0x3d8bd85b	0.06828376
94	0xbbc6cf99	-0.006067228
95	0x3d341b19	0.043971155
96	0x3d54ed33	0.051984023
97	0x399d8cec	0.00030050369
98	0x3c9d88f3	0.019230342
99	0xbd37447b	-0.044743042
100	0x3d947858	0.07249516
101	0x3c4b86b3	0.0124222515
102	0x3df93a5c	0.12169334
103	0x3debbbab	0.11510404
104	0x3dda6127	0.106630616
105	0xbb865088	-0.0040989555
106	0x3d6672d2	0.056261845
107	0x3cb0d14c	0.021584176
108	0x3d9e6644	0.07734349
109	0x3d874aa3	0.06606033
110	0xbd3e10c7	-0.04640272
111	0xbda18709	-0.07887084
112	0x3cf554c6	0.02994765
113	0x3d64bae0	0.05584228
114	0xbe01dda6	-0.12682208
115	0x3cad0861	0.02112216
116	0x3ca30df0	0.019904107
117	0x3cc18c6f	0.023626534
118	0xbc630820	-0.013856918
119	0xbda132c6	-0.078710124
120	0x3d9ef6d0	0.077619195
121	0x3d2d2728	0.04227367
122	0x3db96318	0.09052104
123	0xbdb4f6b4	-0.088361174
124	0x3be09dd0	0.00685475
125	0xbd14043f	-0.036136862
126	0x3c790bf3	0.015200603
127	0xbd47adda	-0.048749782
128	0xbd61cd8b	-0.05512766
129	0xbdae0f21	-0.08498979
130	0xbbb1ad80	-0.005422294
131	0xbd4282ba	-0.04748795
132	0xbd4cbc27	-0.049984124
133	0x3d43a7e0	0.04776752
134	0xbd429b44	-0.047511354
135	0x3ccee38d	0.025254989
136	0x3cd6356c	0.02614852
137	0xbd802f7b	-0.06259056
138	0x3c50cf50	0.01274474
139	0xbc57cc32	-0.013171243
140	0x3d4ed7f5	0.05049892
141	0x3c0f3673	0.008741009
142	0xbd157c0d	-0.036495257
143	0xbd210c74	-0.039318517
144	0x3d6451e4	0.05574216
145	0xbd159cb6	-0.036526404
146	0xbc373423	-0.011181864
147	0x3d40c398	0.047061533
148	0xbd4ecc1c	-0.050487623
149	0xbd4c57dd	-0.04988848
150	0x3c21d5cc	0.009877633
151	0x3cc936c5	0.024562249
152	0xbd471758	-0.048606247
153	0xbd1e72ab	-0.038683575
154	0x3d0e1a03	0.034692775
155	0x3c624a07	0.013811595
156	0xbe177db9	-0.14794053
157	0xbcfee4eb	-0.031115016
158	0x3dd3046b	0.10303577
159	0xbde790cd	-0.113069154
160	0xbccdcd09	-0.025122182
161	0xbd92f3b8	-0.07175392
162	0x3cd4e771	0.025989266
163	0x3deb8ece	0.11501847
164	0xbd894bce	-0.06703912
165	0xbd5e370c	-0.054251716
166	0xbcda0dc9	-0.026617901
167	0xbc42e4cc	-0.01189537
168	0xbb768e43	-0.0037621416
169	0x3d6c439c	0.057681665
170	0x3d0bc6ee	0.03412526
171	0xbdc6cdc1	-0.09707213
172	0xbd358f94	-0.04432638
173	0xbd229b9e	-0.03969919
174	0xbc53683d	-0.01290327
175	0x3db95ada	0.09050532
176	0x3d2e9153	0.04261906
177	0xbb2fc7e6	-0.002682203
178	0x3e02cfaa	0.1277453
179	0x3d95543a	0.072914556
180	0xbd95441e	-0.07288383
181	0x3b99c909	0.0046931547
182	0x3d53903d	0.05165123
183	0xbe046445	-0.12928875
184	0x3c34ec25	0.011042629
185	0xbd1949d6	-0.03742393
186	0x3cc78097	0.024353309
187	0x3de0b6de	0.10972379
188	0xbd4f6fa9	-0.050643597
189	0xbd96b9fd	-0.07359693
190	0x3cf2963d	0.029612655
191	0x3e148963	0.14505534
192	0x3b070fbb	0.0020608741
193	0x3c1d9b3d	0.009619531
194	0x3cb29b05	0.021802435
195	0x3c03c205	0.008041863
196	0x3d053961	0.032525424
197	0xbd6776a4	-0.05650963
198	0x3e0effc3	0.13964753
199	0xbd895ffd	-0.067077614
200	0x3d0fc2a4	0.035097733
201	0xbd655ac0	-0.05599475
202	0x3d82186f	0.063523166
203	0xbdff8e53	-0.12478318
204	0xbcc2f87f	-0.023800133
205	0xbcdfc8bc	-0.027317397
206	0x3dd173d7	0.10227173
207	0xbe063ab9	-0.13108338
208	0xbd976f27	-0.073942475
209	0xbd257412	-0.040393896
210	0xbc28aad7	-0.010294638
211	0xbd631006	-0.055435203
212	0xbc8a1ec7	-0.016860379
213	0xbcee3dd7	-0.029082222
214	0xbd210289	-0.03930906
215	0xbc2e142c	-0.010624927
216	0xbd64ebc0	-0.05588889
217	0xbd43417f	-0.047669884
218	0xbc7221b1	-0.0147785405
219	0x3b0d1238	0.0021525752
220	0x39e29bee	0.00043222256
221	0xbda3ad1d	-0.07992003
222	0xbd7fe4be	-0.062474005
223	0xbd5a1e45	-0.053251524
224	0xbd06c1b8	-0.03289959
225	0xbcf95226	-0.03043468
226	0x3d84275d	0.064528205
227	0x3d7c8301	0.061648373
228	0xbd5de592	-0.054174013
229	0xbd83d26e	-0.06436621
230	0xbcc2766b	-0.023738107
231	0xbd7ef2c6	-0.062243246
232	0xbc6be162	-0.014396997
233	0x3c08ed8c	0.008357417
234	0x3d14fcf4	0.036374047
235	0xbd81defa	-0.063413575
236	0x3c63aa06	0.013895517
237	0xbc623c35	-0.0138083
238	0xbd40f696	-0.047110163
239	0xbd876dff	-0.06612777
240	0xbcbc245b	-0.022966554
241	0xbd09cdaa	-0.033643402
242	0xbcac7467	-0.021051599
243	0xbd6cddf2	-0.05782885
244	0xbccddb83	-0.025129085
245	0x3d51fc1d	0.051265825
246	0x3d0d61b5	0.03451701
247	0x3c93a9ec	0.018025361
248	0xbbe88659	-0.0070960936
249	0xbd94e4d7	-0.0727021
250	0xbe2e282e	-0.17007515
251	0xbd773655	-0.06035455
252	0xbd977edd	-0.07397244
253	0x3d5e9c09	0.054348025
254	0x3d42e3ac	0.047580406
255	0x3d01b96a	0.031670965

Linear1.bias f4 [256]
0	0xbdf26d7a	-0.11837287
1	0xbe1ba9f1	-0.15201546
2	0xbe807b4b	-0.25094065
3	0xbe658687	-0.224146
4	0xbe958ff9	-0.29211405
5	0xbe6650a8	-0.22491705
6	0xbe5cb230	-0.21552348
7	0xbe68c369	-0.22730793
8	0xbdc2c276	-0.09509747
9	0xbe9631a1	-0.2933474
10	0xbeaaad5a	-0.33335382
11	0xbe29a743	-0.16567712
12	0xbe9f4ec4	-0.3111478
13	0xbdbd859c	-0.092539996
14	0xbe96cd92	-0.29453713
15	0xbe65b4b4	-0.22432214
16	0xbe460fb7	-0.19341932
17	0xbe87860b	-0.26469454
18	0xbe92c518	-0.28665996
19	0xbe6d1498	-0.23152387
20	0xbd9dafca	-0.07699545
21	0xbdf4f063	-0.11959913
22	0xbe5b4861	-0.21414329
23	0xbe0ab631	-0.13546063
24	0xbd66bad0	-0.056330502
25	0xbe04f912	-0.12985638
26	0xbe710156	-0.23535666
27	0xbe88d5c5	-0.26725593
28	0xbe83a90d	-0.25714913
29	0xbe95be16	-0.29246587
30	0xbe39edc6	-0.1815711
31	0xbe869901	-0.26288608
32	0xbe47e5b9	-0.19521226
33	0x3c9be258	0.019028828
34	0xbe889a82	-0.2668038
35	0xbe91661d	-0.2839822
36	0xbe3507f2	-0.17678812
37	0xbd91e1e4	-0.07123163
38	0xbe94816f	-0.29005
39	0xbdfde325	-0.1239684
40	0xbe30066a	-0.17189947
41	0xbe70def6	-0.23522553
42	0xbe388750	-0.18020368
43	0xbdd6a6ca	-0.10481031
44	0xbdbcafd5	-0.09213225
45	0xbe4abe1c	-0.19799083
46	0xbe0b2ede	-0.13592097
47	0xbd534e0d	-0.051588107
48	0xbd295c29	-0.041347656
49	0xbd845897	-0.0646221
50	0xbe0155ab	-0.12630336
51	0xbd5a5eea	-0.053313173
52	0xbd41d620	-0.047323346
53	0xbe1521a4	-0.14563614
54	0xbe0e219a	-0.13880005
55	0xbdbdd260	-0.092686415
56	0xbe895f17	-0.2683036
57	0xbe87a171	-0.26490358
58	0xbe39855e	-0.18117282
59	0xbea15b95	-0.31515184
60	0xbe0ed583	-0.13948636
61	0xbe1b0dfc	-0.15142053
62	0xbe995360	-0.29946423
63	0xbe85ae0e	-0.26109356
64	0xbeb04490	-0.3442731
65	0xbe008cc8	-0.12553704
66	0xbe650363	-0.22364573
67	0xbea5077f	-0.32232282
68	0xbe99e0dc	-0.30054367
69	0xbdc06746	-0.09394698
70	0xbe84668c	-0.25859487
71	0xbe059f49	-0.13049044
72	0xbe184196	-0.14868769
73	0xbe00c8cf	-0.12576602
74	0xbba7fa20	-0.005126253
75	0xbe231d92	-0.15929249
76	0xbe838384	-0.25686276
77	0xbe836da1	-0.25669578
78	0xbe3c4512	-0.18385723
79	0xbdee477f	-0.116347305
80	0x3d060e09	0.03272823
81	0xbc6df752	-0.014524298
82	0xbe851b4a	-0.25997382
83	0xbea5569d	-0.32292643
84	0xbe1d0000	-0.15332031
85	0xbe82d982	-0.2555657
86	0xbe048028	-0.12939513
87	0xbe7a027b	-0.24415009
88	0xbe7c1f44	-0.24621302
89	0xbe86e100	-0.26343536
90	0xbe4d5e5b	-0.20055525
91	0xbe7d881c	-0.24758953
92	0xbe0775f5	-0.13228591
93	0xbe52d190	-0.20587754
94	0xbd71d25b	-0.0590385
95	0xbe631b80	-0.22178459
96	0xbe6c9403	-0.23103337
97	0xbe23d671	-0.15999772
98	0xbe91d1bb	-0.28480324
99	0xbeb5db09	-0.35518673
100	0xbe38ca8b	-0.18046014
101	0xbe4dd47d	-0.20100589
102	0xbe047e26	-0.12938747
103	0xbe65fd13	-0.22459821
104	0xbe6906d0	-0.22756505
105	0xbe62c2ed	-0.22144671
106	0xbe31b051	-0.17352416
107	0xbe6a55a2	-0.22884229
108	0xbdd3d985	-0.10344223
109	0xbe6505ac	-0.22365445
110	0xbea5ad69	-0.32358864
111	0xbe5d9dfb	-0.21642296
112	0xbea13705	-0.3148729
113	0xbe9067d6	-0.2820422
114	0xbe36b303	-0.17841725
115	0xbe142b74	-0.14469701
116	0xbe0fdf12	-0.14049938
117	0xbe914961	-0.28376296
118	0xbe247c7f	-0.16063116
119	0xbccdd230	-0.02512464
120	0xbe598dd7	-0.21245514
121	0xbe4cf86a	-0.20016637
122	0xbd4b4cb0	-0.04963368
123	0xbd168a19	-0.036752794
124	0xbe6352bc	-0.2219953
125	0xbe4d4786	-0.20046815
126	0xbeb021e4	-0.34400856
127	0xbe7e40e3	-0.2482944
128	0xbe34171c	-0.1758694
129	0xbe892459	-0.26785544
130	0xbe85df47	-0.2614691
131	0xbe4e639e	-0.20155188
132	0xbda03441	-0.07822467
133	0xbe578c6b	-0.21049659
134	0xbe3e4249	-0.18579973
135	0xbe7469c4	-0.23868471
136	0xbea628db	-0.32453045
137	0xbe74f2f9	-0.23920812
138	0xbe8fb5cc	-0.28068388
139	0xbd793022	-0.06083692
140	0xbe2d50ee	-0.16925403
141	0xbe39effb	-0.18157952
142	0xbcaccaff	-0.02109289
143	0xbe3986b6	-0.18117794
144	0xbe79fae0	-0.24412107
145	0xbe07a18c	-0.13245219
146	0xbd4c4bb3	-0.04987688
147	0xbe5e5113	-0.21710615
148	0xbe36bf8c	-0.17846507
149	0xbe5438fa	-0.2072486
150	0xbe0cbba9	-0.13743462
151	0xbddd1619	-0.107952304
152	0xbeb57cdb	-0.3544682
153	0xbe633168	-0.22186816
154	0xbe64a74c	-0.22329444
155	0xbe7e3a36	-0.24826893
156	0xbe64947a	-0.22322264
157	0xbdc6228d	-0.09674559
158	0xbd150579	-0.036382172
159	0xbe51a373	-0.20472507
160	0xbe1f2fd5	-0.1554559
161	0xbe35875b	-0.17727415
162	0xbd6dbb1f	-0.05803978
163	0xbe850330	-0.25978994
164	0xbe58883e	-0.21145722
165	0xbe676e9e	-0.22600791
166	0xbe677dea	-0.22606626
167	0xbe289fc3	-0.16467194
168	0xbd592f6a	-0.053023733
169	0xbe11e889	-0.14248861
170	0xbe7efe3b	-0.24901669
171	0xbe081e21	-0.13292743
172	0xbe83431e	-0.25637144
173	0xbe9b8241	-0.30372813
174	0xbe87055a	-0.2637127
175	0xbe16be85	-0.14721115
176	0xbe9433d0	-0.2894578
177	0xbe983882	-0.29730612
178	0xbe9e92f9	-0.30971506
179	0xbe48ca93	-0.19608526
180	0xbdcdac51	-0.10042632
181	0xbe95a9eb	-0.292312
182	0xbd837eb0	-0.06420648
183	0xbe6d3d26	-0.23167858
184	0xbe54f02a	-0.2079474
185	0xbd98b253	-0.07455888
186	0xbda52331	-0.08063353
187	0xbe457a8e	-0.19285032
188	0xbe795341	-0.24348165
189	0xbd797b90	-0.060908854
190	0xbea56cd8	-0.32309604
191	0xbe7cb1d0	-0.24677205
192	0xbe5fd3a9	-0.21858086
193	0xbe762055	-0.24035771
194	0xbe0e0715	-0.13869889
195	0xbe5e1f3e	-0.21691605
196	0xbe8d2c9e	-0.27573103
197	0xbe2a36f2	-0.16622522
198	0xbd069933	-0.032860946
199	0xbe86ab8e	-0.2630276
200	0xbe13db7c	-0.14439195
201	0xbe21935e	-0.15778872
202	0xbe812bc2	-0.25228697
203	0xbe49847d	-0.19679447
204	0xbe2a9002	-0.16656497
205	0xbe7319a6	-0.23740253
206	0xbe020f9e	-0.1270127
207	0xbe704a47	-0.23465835
208	0xbea2af9b	-0.317746
209	0xbdf0eb0c	-0.11763582
210	0xbd8e2dfd	-0.06942365
211	0xbe730893	-0.2373374
212	0x3b5c8e54	0.003365417
213	0xbde0dfed	-0.109802105
214	0xbe658661	-0.22414543
215	0xbea89446	-0.32925624
216	0xbe03c2ba	-0.12867251
217	0xbe742285	-0.23841293
218	0xbe870a6d	-0.26375142
219	0xbe2abbf5	-0.16673262
220	0xbe5d2b86	-0.21598634
221	0xbe0340c9	-0.12817682
222	0xbcc34b1c	-0.023839526
223	0xbe5ba9b9	-0.21451463
224	0xbe81f59e	-0.25382704
225	0xbe8afb67	-0.2714493
226	0xbe37c3ef	-0.17945836
227	0xbe9c5351	-0.30532315
228	0xbeb316df	-0.34978387
229	0xbd976e0e	-0.07394038
230	0xbda9f659	-0.0829894
231	0xbe8a4c36	-0.2701127
232	0xbe8ecd78	-0.27891135
233	0xbe271716	-0.163174
234	0xbe74fea5	-0.23925264
235	0xbeb505ec	-0.3535608
236	0xbe6fc74e	-0.23415872
237	0xbd3b98fa	-0.045800187
238	0xbe43495c	-0.19070953
239	0xbdacb900	-0.084337234
240	0xbe530d74	-0.206106
241	0xbe9f59f4	-0.31123316
242	0xbe4dc581	-0.20094873
243	0x3ca34420	0.019929945
244	0xbe27f16f	-0.16400693
245	0xbe109539	-0.14119424
246	0xbe18acd7	-0.14909683
247	0xbe9c99e9	-0.30586174
248	0xbe76b021	-0.24090625
249	0xbe7247fb	-0.23660271
250	0xbea1a7ff	-0.31573483
251	0xbe88c93f	-0.2671604
252	0xbe708f7c	-0.23492235
253	0xbeb103c9	-0.345732
254	0xbe45b898	-0.19308698
255	0xbca1d97b	-0.019757023

Linear2.weight f4 [7, 256]
0	0xbaaf4ac9	-0.0013373728
1	0x3936f528	0.000174482
2	0x3bc4c583	0.0060049905
3	0xbc523d35	-0.012831976
4	0x3ccf2f94	0.025291242
5	0xbb08c916	-0.002087181
6	0x3d1993ac	0.037494346
7	0x3bbd7fa6	0.005783039
8	0xb92bc7b5	-0.00016382227
9	0x3b60fe10	0.003433112
10	0xbb770026	-0.0037689297
11	0xb985f23f	-0.00025548224
12	0xbc370a80	-0.011171937
13	0xba41fa66	-0.0007399678
14	0x3bbfb9f9	0.005851027
15	0xba454e65	-0.00075266353
16	0xbb1d252c	-0.0023978455
17	0xbbb73ff8	-0.0055923425
18	0x396182b7	0.00021506367
19	0xbd07880e	-0.033088736
20	0x3ccc805b	0.024963548
21	0xbc92201e	-0.01783758
22	0xb8452c15	-4.7009515e-05
23	0xb937e6eb	-0.00017538264
24	0xbbd1cf77	-0.0064029056
25	0xb99c8c8f	-0.00029859363
26	0xb9106742	-0.00013771377
27	0x3b46113d	0.0030222677
28	0xbc444e35	-0.011981537
29	0xbadf7317	-0.0017047849
30	0x39f1010b	0.0004596788
31	0xbb835ab4	-0.0040086154
32	0x3be1af86	0.006887379
33	0xbb658f3d	-0.0035028004
34	0x3984e8f0	0.00025350554
35	0xbd6b4723	-0.057440888
36	0xbc88b9ec	-0.016690217
37	0xb9c938c4	-0.0003838
38	0xbae0f076	-0.0017161507
39	0xba5450b7	-0.00080991857
40	0xbc4eb0a2	-0.012615355
41	0xbbb81cd0	-0.005618669
42	0xba5a2c19	-0.0008322611
43	0xbcb92af1	-0.022603484
44	0x3b5cd943	0.0033698834
45	0xbcc36976	-0.023853999
46	0x3b0bc515	0.0021327187
47	0xbb795c42	-0.0038049375
48	0xbab4ed9f	-0.0013803727
49	0xb9235dd4	-0.00015579845
50	0x3aa5be14	0.0012645149
51	0xba47ffbd	-0.00076293555
52	0x3b05fe6c	0.0020445837
53	0x3bf27231	0.0073988666
54	0x3b8791a7	0.004137236
55	0x380733e2	3.2234828e-05
56	0xbcad9d1e	-0.021193083
57	0xbc04e563	-0.008111331
58	0xbbf8fc47	-0.007598433
59	0x3d90645e	0.070503935
60	0xba6a2185	-0.00089313864
61	0xbb86827c	-0.0041049104
62	0xbaae8833	-0.0013315737
63	0x3bd3e550	0.006466545
64	0xbdaddc1f	-0.084892504
65	0xbad4eec4	-0.0016245474
66	0x3b5517fd	0.0032515519
67	0xba40707d	-0.0007340981
68	0xba37a57d	-0.00070055557
69	0x3c1a692a	0.009424487
70	0xbc9cda73	-0.019147133
71	0xbc384da7	-0.0112489825
72	0xb9ca9bb0	-0.0003864444
73	0xbc1ea9cf	-0.00968404
74	0xbb992c4b	-0.0046744696
75	0x3aad45f0	0.0013219696
76	0x3b3f457a	0.0029185698
77	0xba334217	-0.0006838156
78	0xb9b3e8a0	-0.0003431486
79	0xba496096	-0.0007681934
80	0xbc7a93f4	-0.015294064
81	0x3c06af93	0.008220571
82	0x3aa9c46e	0.0012952217
83	0x3b0740c7	0.0020637976
84	0x3a1ca503	0.00059755164
85	0x3a895b60	0.0010479502
86	0x3a07ebcd	0.00051849784
87	0xbb23fb83	-0.002502174
88	0x3bb335f0	0.0054690763
89	0xbb7491cb	-0.0037318345
90	0x3c042f82	0.008067967
91	0xbc0e0eeb	-0.008670549
92	0x3ae71507	0.0017630168
93	0xba665748	-0.00087868096
94	0x3be0424b	0.0068438402
95	0x3a87c3e9	0.0010358068
96	0xbae5b250	-0.0017524455
97	0xb9a43327	-0.0003131863
98	0xbb9b8a56	-0.0047467155
99	0xbdbe072d	-0.092787124
100	0xb9f50546	-0.0004673397
101	0xbd36fdd0	-0.04467565
102	0xba8a335e	-0.0010543873
103	0xbc8d2912	-0.017231498
104	0xbd0f7c2d	-0.035030533
105	0x3b4217f2	0.0029616323
106	0xba9ae36a	-0.0011817042
107	0xbd20588f	-0.039146956
108	0x3a01c848	0.00049508037
109	0xbc4b6092	-0.012413161
110	0x3b68fe13	0.003555183
111	0xbc8bc10c	-0.017059825
112	0x3b3e177e	0.0029005702
113	0xbc52c531	-0.012864397
114	0xbcc8b928	-0.024502352
115	0x3a5b3cc5	0.00083632424
116	0xbcdedffd	-0.027206415
117	0x3b1f572d	0.0024313435
118	0xbade3dee	-0.0016955712
119	0xba4c37f7	-0.0007790322
120	0xbbf5d0af	-0.0075016837
121	0xbae19480	-0.0017210394
122	0x3a152ead	0.0005690854
123	0xbbcaa056	-0.0061836643
124	0xb8cbad3d	-9.7120625e-05
125	0xbb0c3f54	-0.0021400051
126	0x3d80a7ed	0.06282029
127	0xbccd55cb	-0.025065323
128	0xba070a6e	-0.00051513955
129	0x3be39e87	0.006946388
130	0xbcb06d84	-0.021536596
131	0xbac5358e	-0.0015045868
132	0xb862ace5	-5.404362e-05
133	0xba97f7cf	-0.0011594238
134	0xbb09c70e	-0.0021023187
135	0xbc80f5fe	-0.015742298
136	0x3b34702f	0.0027532687
137	0xba0b30f8	-0.0005309726
138	0xba9db7ce	-0.0012032927
139	0xb8d06c35	-9.938368e-05
140	0xbbafb289	-0.005361859
141	0x3abf6107	0.001460106
142	0xbaf66280	-0.0018797666
143	0xbbf4c9a7	-0.007470328
144	0xbc196a7f	-0.00936377
145	0xbb1b8639	-0.0023731126
146	0xbc94b39b	-0.018152049
147	0xb855e8cb	-5.0999963e-05
148	0xbb769cf2	-0.0037630168
149	0x3a03a0ef	0.00050212344
150	0xb9869323	-0.00025668097
151	0xb81bdf74	-3.7162987e-05
152	0x3a852501	0.0010158123
153	0xba1820f9	-0.0005803253
154	0x3c87d729	0.016582089
155	0xb9d4c84b	-0.0004058502
156	0xba37c1ca	-0.0007009773
157	0x3ac4f0c6	0.0015025369
158	0x3a17c328	0.00057892734
159	0xbb2000c3	-0.0024414517
160	0x3c113142	0.008861842
161	0xb91a39fa	-0.00014708182
162	0xbc7685be	-0.015046535
163	0x3afc9126	0.0019269332
164	0x3cb8567f	0.022502182
165	0xb97bee33	-0.00024025961
166	0x3b14a36a	0.002268041
167	0xbb73d956	-0.00372084
168	0x3c55c099	0.013046407
169	0x3833ce9d	4.286935e-05
170	0x3c1672a1	0.009182603
171	0xb9dc1054	-0.00041973835
172	0x39b107ea	0.00033765967
173	0xba840b43	-0.0010074157
174	0xbb893ffe	-0.0041885367
175	0xbc3ef64a	-0.0116554
176	0x3b89f48c	0.0042100605
177	0xbc34f0c8	-0.011043735
178	0xbbef402b	-0.0073013506
179	0xbcd7a3e4	-0.026323266
180	0xb9cd6ff9	-0.00039184073
181	0xbc673405	-0.0141115235
182	0xbaf58659	-0.0018732055
183	0x3b20499c	0.0024457937
184	0xbadc4274	-0.0016804473
185	0xbb2030ec	-0.0024443222
186	0xba7eb16a	-0.0009715768
187	0xba7cf578	-0.0009649615
188	0xba499f3e	-0.00076912704
189	0xba504690	-0.0007945085
190	0x3bd57c9c	0.0065150987
191	0x3c582144	0.013191525
192	0x3a85a7fa	0.0010197156
193	0xb9e9f5a0	-0.00044624228
194	0xba563c84	-0.00081724697
195	0xba28ba72	-0.0006436474
196	0xbc47c1de	-0.012192218
197	0xbb35f0a8	-0.002776185
198	0x3bcfc58d	0.0063406886
199	0xbcfea3d2	-0.031083975
200	0xbc6b1c10	-0.014349952
201	0xbc814ecb	-0.015784642
202	0xbc4eb32e	-0.012615962
203	0xbaf3796f	-0.0018575619
204	0xbc8b35d6	-0.016993444
205	0xbab0bda9	-0.0013484258
206	0xb9551f7b	-0.0002032499
207	0xb9ab1943	-0.00032634483
208	0x3d03722f	0.032091316
209	0x3ae0fc5e	0.0017165055
210	0xbafc95d4	-0.0019270726
211	0xbc560003	-0.013061526
212	0x3cdac577	0.026705487
213	0xba53c9b3	-0.0008079067
214	0xbc3ea1e6	-0.011635279
215	0xba3e2c66	-0.00072545407
216	0xbb40024a	-0.002929824
217	0xbd818e5c	-0.06325981
218	0xba4d553a	-0.0007832829
219	0x3934f225	0.00017256344
220	0xb8c31601	-9.302423e-05
221	0xbba9ac20	-0.0051779896
222	0x3c9edd51	0.019392641
223	0xbb83b35d	-0.0040191845
224	0x38803be9	6.114675e-05
225	0xbc8733fe	-0.016504284
226	0xbabbcd3a	-0.001432813
227	0xbb937a56	-0.0045006676
228	0xbc849a18	-0.016186759
229	0xbbd8a3f4	-0.0066113416
230	0xb9fa26b7	-0.0004771256
231	0xbb5d422e	-0.003376137
232	0xbc263ff2	-0.010147082
233	0x392529cd	0.00015751198
234	0x3bb8f49f	0.0056443955
235	0xbdb75930	-0.08952558
236	0x399ce0bd	0.00029922082
237	0x3b2a67e9	0.0026001877
238	0xba337c7c	-0.0006846858
239	0xbc37bde5	-0.011214708
240	0xbc807426	-0.015680384
241	0x3aa9dc64	0.0012959358
242	0xba355612	-0.00069174275
243	0xbc77bff2	-0.015121447
244	0xb9b0ccca	-0.00033721916
245	0xbb634857	-0.003468057
246	0x38a8743e	8.032516e-05
247	0x3cad3de2	0.021147672
248	0xbbe39253	-0.0069449334
249	0x3bd6dc54	0.006557027
250	0xbc0b0de4	-0.0084871985
251	0x3b82196a	0.0039703147
252	0x3c39f101	0.011348964
253	0xb9b1ae9a	-0.0003389016
254	0xba49eb5f	-0.00077026145
255	0xbc05e25c	-0.008171644

Linear2.bias f4 [7]
0	0x3d32890f	0.04358774
1	0x3d42a510	0.047520697
2	0x3d4b716d	0.049668718
3	0x3d41af36	0.047286235
4	0x3d09446a	0.03351251
5	0x3d41f732	0.047354884
6	0x3d367224	0.044542447
