first_net/saved_model 3500.pth (torch, 52885 bytes, 4 tensors)

Linear1.weight f4 [256, 42]
0	0xbc3ebe31	-0.011642025
1	0xbc43cdd6	-0.011950931
2	0xbb9fb2c8	-0.0048736073
3	0x3c7a1e9b	0.015266086
4	0x3cfbd5e0	0.030741632
5	0xbcbda814	-0.023151435
6	0x3b898397	0.004196595
7	0x3d41f779	0.04735515
8	0x3d39e890	0.045387805
9	0xbced809d	-0.028991992
10	0x3d5b3493	0.053516936
11	0xbcaac4ac	-0.020845734
12	0xbca02cf1	-0.01955268
13	0xbcab25f7	-0.020892126
14	0x3d94ad09	0.07259566
15	0x3d61d119	0.05513105
16	0x3c8b1c2b	0.016981205
17	0x3d53c7cb	0.05170421
18	0x3d9f51f4	0.07779303
19	0x3d1faa5e	0.038980834
20	0x3d219b44	0.039454713
21	0x3cf82a1f	0.030293522
22	0xbc9083e4	-0.017641015
23	0xbd2cc91e	-0.042183988
24	0x3d7d8479	0.061893914
25	0xbd64fcf6	-0.055905305
26	0x3c253447	0.010083265
27	0xbc3eba33	-0.011641073
28	0xbd839f71	-0.064268954
29	0xbd5a08ca	-0.05323104
30	0x3bcfbd15	0.006339679
31	0xbb7da43a	-0.0038702623
32	0xbc053806	-0.008131033
33	0x3d752bbf	0.059856173
34	0xbdac09db	-0.08400317
35	0xbd4316bb	-0.0476291
36	0x3daa738d	0.08322821
37	0x3d3aa8d6	0.04557117
38	0xbd5a3414	-0.05327232
39	0x3df7a52d	0.12092052
40	0xbdd8ae53	-0.10580125
41	0xbd837050	-0.06417906
42	0xbda8c6f7	-0.082410745
43	0xbcd3b1a2	-0.025841538
44	0xbce4f30b	-0.027947923
45	0xbca68e57	-0.020331545
46	0x3d755568	0.059895903
47	0x3c84e055	0.016220251
48	0xbad88874	-0.0016520158
49	0x3b26090f	0.002533499
50	0x3c1402de	0.009033887
51	0xbd27da3e	-0.040979616
52	0x3ce7f356	0.028314274
53	0xbd10514d	-0.035233784
54	0x3cc68d71	0.024237366
55	0x3c7c5283	0.015400532
56	0x3c0145e7	0.007890201
57	0x3d22f273	0.039782
58	0x3d21ca24	0.039499417
59	0xbdb3de09	-0.08782584
60	0x3d916da8	0.071009934
61	0xbd2ce799	-0.042213056
62	0x3db2210a	0.08697708
63	0x3d962bbf	0.07332563
64	0xbc29e39a	-0.010369206
65	0x3cbb0b35	0.022832492
66	0x3dddd085	0.108307876
67	0x3dd4513f	0.10367059
68	0xbc38c6e9	-0.011277893
69	0x3d3a942a	0.045551457
70	0xbdcbd8bb	-0.099534474
71	0xbc1fd5ae	-0.009755535
72	0x3d9a974e	0.0754839
73	0x3c2115e8	0.009831883
74	0xbcc3926a	-0.023873527
75	0x3cb3cda1	0.021948637
76	0x3bc7cf17	0.006097685
77	0x3dd58743	0.1042619
78	0x3ba56380	0.0050472617
79	0x3b4a639b	0.0030882123
80	0xbe7c6748	-0.24648774
81	0xbb329bff	-0.0027253625
82	0xbceef6e0	-0.029170454
83	0xbc837c78	-0.016050562
84	0x3c596413	0.013268488
85	0x3c8a643b	0.016893497
86	0x3ceec08b	0.029144546
87	0xbb4fb01f	-0.003169067
88	0x3a8d2ee2	0.0010771418
89	0xbca2a3df	-0.01985353
90	0xbd63114c	-0.055436417
91	0x3cd97af3	0.026547885
92	0xbd0523c2	-0.032504804
93	0xbbe0bacc	-0.0068582054
94	0x3d1e896c	0.038705274
95	0xbc0c7c72	-0.008574592
96	0x3d3bd041	0.045852903
97	0x3bf67baf	0.0075220685
98	0x396f6cb3	0.0002283331
99	0x3c4c4d4a	0.012469599
100	0x3d2d52a0	0.042315125
101	0x3d463976	0.048394643
102	0x3de7319c	0.11288759
103	0x3c886d34	0.016653635
104	0xbd24ce8d	-0.040236045
105	0x3c925f13	0.0178676
106	0x3d9fac2e	0.077965125
107	0xbca4a8e4	-0.020100065
108	0xbc54b1af	-0.012981816
109	0x3ce01a40	0.027356267
110	0xbc461f57	-0.012092433
111	0xbbf12277	-0.007358845
112	0x3d9d0890	0.07667649
113	0x3ce9a7d7	0.028522415
114	0xbd28b61a	-0.04118929
115	0x3d444f85	0.0479274
116	0xbcae42a3	-0.02127201
117	0x3d810ceb	0.06301292
118	0xbb9a7969	-0.0047141802
119	0xbcfac5fb	-0.030611983
120	0xbd7ac816	-0.061225973
121	0x3d02db8d	0.03194766
122	0x3b2268df	0.0024781746
123	0x3d71be0a	0.059019126
124	0x3c011c77	0.007880322
125	0xbc1cb1a2	-0.009563835
126	0xbd6682f2	-0.056277223
127	0x3cc4660b	0.02397444
128	0xbda9bbc4	-0.082877666
129	0x3d20097c	0.039071545
130	0x3bce54c1	0.0062967245
131	0xbcf92e9c	-0.030417733
132	0xbd4dc2b3	-0.050234508
133	0xbb43a944	-0.002985553
134	0x3cf31ac6	0.029675853
135	0xbd91ed71	-0.071253665
136	0xbd962c97	-0.073327236
137	0xbd91908d	-0.07107649
138	0x3d46b251	0.0485099
139	0xbcad9a03	-0.021191603
140	0xbcf6000a	-0.030029316
141	0x3d8a07e3	0.067397855
142	0xbcb901de	-0.022583898
143	0x3dae88cd	0.085221864
144	0x3dd686b1	0.10474909
145	0xbc91fb8d	-0.017820144
146	0x3d6ca345	0.057772893
147	0x3d53c0b8	0.051697463
148	0xbdfa0242	-0.12207462
149	0xbdd7c7c3	-0.105361484
150	0xbca5c0a0	-0.020233452
151	0xbbb9b500	-0.005667329
152	0xbd89e2fa	-0.067327455
153	0xbc4af906	-0.012388473
154	0x3db86a34	0.09004632
155	0xbcad917b	-0.021187535
156	0x3d2539a6	0.04033818
157	0xbcfb245b	-0.030656984
158	0x3db0e4a3	0.08637359
159	0xbdc07c5a	-0.09398718
160	0xbdc0eb1f	-0.09419846
161	0xbcd9d0f2	-0.02658889
162	0xbe44a8ae	-0.19204971
163	0xbd98513c	-0.07437369
164	0xbca87938	-0.020565614
165	0xbdc55db5	-0.09637014
166	0x3d27aaf6	0.040934525
167	0x3c590104	0.013244871
168	0x3d673f24	0.0564567
169	0x3b95866d	0.004563144
170	0x3c84404f	0.016143946
171	0xbc86eb99	-0.016469764
172	0x3c04ff5f	0.008117526
173	0xbd43b32c	-0.047778293
174	0x3d11a1c5	0.035554666
175	0x3cb5d2ff	0.022195337
176	0x3cdd642a	0.027025301
177	0xbd466883	-0.048439514
178	0x3e0349c3	0.12821107
179	0x3d6dca43	0.05805422
180	0x3b3b3197	0.0028563493
181	0x3d0cfcf0	0.034420907
182	0x3c560177	0.013061873
183	0x3ac011a7	0.0014653698
184	0x3d542bd9	0.05179963
185	0x3c97e1d8	0.018540308
186	0x3bdaf75f	0.006682321
187	0x3c6e31a8	0.014538206
188	0xbcb5209e	-0.02211028
189	0x3cecb873	0.028896546
190	0x3c88992d	0.016674602
191	0x3d090b60	0.033458114
192	0x3d847f88	0.06469637
193	0xbb2a6312	-0.0025998992
194	0x3cc85fbe	0.024459716
195	0x3cb6e375	0.022325257
196	0xbd2fd889	-0.042931113
197	0x3d7668f9	0.060158703
198	0x3c6c2d93	0.014415163
199	0x3d08def9	0.03341577
200	0x3d627d92	0.055295534
201	0xbbf1befb	-0.007377503
202	0x3cc2b8ef	0.023769824
203	0xbe222968	-0.15836108
204	0xbdc32b6d	-0.09529767
205	0x3d3bfbf0	0.045894563
206	0x3952898c	0.00020078401
207	0xbd9d1c21	-0.07671381
208	0xbd3bb60c	-0.04582791
209	0xbb88c342	-0.004173667
210	0xbcb7c475	-0.022432545
211	0xbb9ca553	-0.0047804504
212	0xbbcbf91c	-0.0062247645
213	0xbccedb06	-0.025250923
214	0xbd802323	-0.06256702
215	0xbcb21c19	-0.021741914
216	0xbd42d31c	-0.04756461
217	0xbce89762	-0.028392497
218	0xbcae7157	-0.021294279
219	0x3cca5eb8	0.024703369
220	0xbbdef0f0	-0.0068036243
221	0x3cf6da89	0.030133503
222	0xbd80d3ef	-0.06290423
223	0xbb1367c2	-0.0022492264
224	0xbd4d6884	-0.050148502
225	0xbca3ef1e	-0.02001148
226	0xbc242545	-0.010018651
227	0x3d74376e	0.059623174
228	0xbc85427a	-0.01626705
229	0xbc8d9f48	-0.017287865
230	0xbaf25bb6	-0.0018490467
231	0xbdb4fe08	-0.08837515
232	0xbca0321a	-0.01955514
233	0xbb8eb5a2	-0.0043551484
234	0xbd00cb72	-0.03144402
235	0xbcb99a08	-0.022656456
236	0xbd32e5c5	-0.043676157
237	0xbd284848	-0.041084558
238	0xbd7b2a26	-0.061319493
239	0x3b4a2893	0.0030846938
240	0xbd03cca4	-0.032177582
241	0x3a7505c7	0.0009346869
242	0x3c216f33	0.009853172
243	0xbd25f5e5	-0.040517706
244	0xbd755c17	-0.059902277
245	0x3c9168fe	0.01775026
246	0xbd94887a	-0.07252593
247	0xbd56bdce	-0.052427106
248	0xbcaa0126	-0.0207525
249	0xbcde3023	-0.027122563
250	0xbd164579	-0.036687348
251	0xbdeac35c	-0.11463043
252	0xbd59ec34	-0.053203776
253	0x3d7873fd	0.06065749
254	0x3d3b950b	0.045796435
255	0x3d37463e	0.044744723

Linear1.bias f4 [256]
0	0xbee3ceb4	-0.4449364
1	0xbf03d018	-0.514894
2	0xbefed509	-0.49771908
3	0xbec67c66	-0.38766783
4	0xbeedb7f7	-0.46429417
5	0xbef7d397	-0.48403618
6	0xbef7dc79	-0.48410395
7	0xbf08ce61	-0.5343991
8	0xbed8ae0e	-0.42320293
9	0xbedaa460	-0.42703533
10	0xbef393e6	-0.47573775
11	0xbeda3384	-0.42617428
12	0xbef14adc	-0.47127426
13	0xbed74b66	-0.42049712
14	0xbef77b51	-0.4833627
15	0xbed14cb1	-0.40878823
16	0xbed0e85b	-0.40802273
17	0xbeffe5e3	-0.49980077
18	0xbed19633	-0.40934905
19	0xbeecf8aa	-0.46283466
20	0xbeea6d75	-0.45786634
21	0xbedb3f71	-0.4282184
22	0xbeedbb5c	-0.46432006
23	0xbed0a018	-0.40747142
24	0xbedc7eb3	-0.43065414
25	0xbed254d1	-0.41080335
26	0xbee42806	-0.44561785
27	0xbedc63bf	-0.4304485
28	0xbec15ee1	-0.377677
29	0xbf001831	-0.50036913
30	0xbece322e	-0.4027266
31	0xbee9a735	-0.4563538
32	0xbee5b31a	-0.44863206
33	0xbea7969e	-0.327321
34	0xbec6fc1b	-0.38864216
35	0xbee6add7	-0.45054504
36	0xbec4f24a	-0.38466102
37	0xbede7dd7	-0.43455383
38	0xbef26f60	-0.47350597
39	0xbeb824d0	-0.35965586
40	0xbee9a14e	-0.45630878
41	0xbf02abff	-0.51043695
42	0xbee11793	-0.43963298
43	0xbe97fb3b	-0.2968386
44	0xbea07c31	-0.3134475
45	0xbeca155a	-0.39469415
46	0xbed25994	-0.41083968
47	0xbeefcff1	-0.46838334
48	0xbeb7fed7	-0.35936615
49	0xbec86002	-0.39135748
50	0xbebf44fe	-0.37357324
51	0xbebf7e1a	-0.37400895
52	0xbea69227	-0.3253338
53	0xbe9e70e6	-0.3094551
54	0xbed41194	-0.4141966
55	0xbea63461	-0.32461837
56	0xbef75de0	-0.48313808
57	0xbf10d159	-0.5656944
58	0xbee9bca0	-0.45651722
59	0xbf061b41	-0.52385336
60	0xbef89ef6	-0.48558778
61	0xbeec4c70	-0.46152067
62	0xbf01c028	-0.5068383
63	0xbf0e8c6b	-0.5568301
64	0xbf050b95	-0.519708
65	0xbee0725f	-0.43837258
66	0xbed022f5	-0.4065167
67	0xbf0e6066	-0.5561584
68	0xbf042d42	-0.5163156
69	0xbecd46eb	-0.4009317
70	0xbedb71a8	-0.4286015
71	0xbecbdae6	-0.39815444
72	0xbf01177c	-0.5042646
73	0xbed9e158	-0.42554736
74	0xbeabab23	-0.33529004
75	0xbeaed28c	-0.3414501
76	0xbf079377	-0.5295939
77	0xbee4a199	-0.4465454
78	0xbedb853f	-0.42875096
79	0xbecb24ca	-0.39676505
80	0xbebe2f68	-0.37145543
81	0xbed3c260	-0.41359234
82	0xbee81484	-0.45328152
83	0xbee96543	-0.4558507
84	0xbec34539	-0.3813875
85	0xbeea3f67	-0.45751497
86	0xbedfe7b6	-0.4373147
87	0xbee55d27	-0.44797632
88	0xbed6a9a4	-0.419263
89	0xbee437d4	-0.44573843
90	0xbedc4b2e	-0.43026108
91	0xbf0cda14	-0.5502026
92	0xbeb595d6	-0.35465878
93	0xbeed1234	-0.4630295
94	0xbed003d4	-0.4062792
95	0xbec7f9db	-0.39057812
96	0xbef75c1e	-0.48312467
97	0xbed19e76	-0.4094121
98	0xbedf2e68	-0.43590093
99	0xbeef4507	-0.4673235
100	0xbec7b0a5	-0.39001957
101	0xbec977ea	-0.393493
102	0xbec123ec	-0.3772272
103	0xbebbbd1c	-0.36667717
104	0xbed53800	-0.41644287
105	0xbef0998b	-0.46992144
106	0xbef9dc84	-0.48801053
107	0xbed3265c	-0.41240203
108	0xbecb965e	-0.3976316
109	0xbeeb1ea1	-0.45921806
110	0xbf1049e8	-0.5636277
111	0xbed045ca	-0.40678245
112	0xbf0a17a8	-0.53942347
113	0xbefa0ada	-0.48836404
114	0xbef4988a	-0.47772628
115	0xbebc9535	-0.36832586
116	0xbeeb511a	-0.45960313
117	0xbefa9e32	-0.48948818
118	0xbec54c74	-0.38534892
119	0xbeb8326b	-0.35975966
120	0xbecc9488	-0.3995707
121	0xbede070d	-0.43364754
122	0xbebef163	-0.37293538
123	0xbef80716	-0.48442906
124	0xbee42963	-0.44562826
125	0xbec6df39	-0.3884218
126	0xbefca33b	-0.49343285
127	0xbee46dd8	-0.44615054
128	0xbeafe99f	-0.34357926
129	0xbef010b7	-0.46887752
130	0xbefc5be0	-0.49288845
131	0xbec3ff73	-0.3828083
132	0xbeaf4ae1	-0.34236816
133	0xbecca933	-0.3997284
134	0xbec64bfd	-0.3872985
135	0xbec790af	-0.38977572
136	0xbf190c7b	-0.5978467
137	0xbf00a89a	-0.50257266
138	0xbeedc75e	-0.46441168
139	0xbea6ec80	-0.3260231
140	0xbec6fdd8	-0.38865542
141	0xbee0167f	-0.43767163
142	0xbe99a958	-0.30012012
143	0xbef5bec4	-0.47997105
144	0xbec89737	-0.39177868
145	0xbecfc545	-0.40580192
146	0xbebfee4c	-0.37486494
147	0xbee1214f	-0.43970725
148	0xbefbb069	-0.49158028
149	0xbf0697ae	-0.52575195
150	0xbec7fb77	-0.3905904
151	0xbef212f6	-0.4728009
152	0xbf1e0c15	-0.61737186
153	0xbef7db32	-0.4840942
154	0xbed3730b	-0.41298708
155	0xbee7e662	-0.45292956
156	0xbee631b1	-0.44959787
157	0xbed7027c	-0.41994083
158	0xbed4212d	-0.4143156
159	0xbec1fa69	-0.3788636
160	0xbf0df30a	-0.55448973
161	0xbef24e12	-0.47325188
162	0xbef67d65	-0.48142543
163	0xbee6421d	-0.44972315
164	0xbef97ba4	-0.48727143
165	0xbeb1d462	-0.34732348
166	0xbeb194d6	-0.34683865
167	0xbedcf067	-0.43152162
168	0xbeabb52b	-0.33536658
169	0xbeca0458	-0.3945644
170	0xbeca56e2	-0.3951941
171	0xbed471c1	-0.41493037
172	0xbee4849a	-0.44632417
173	0xbf0ce5e4	-0.55038285
174	0xbef1aafc	-0.47200763
175	0xbeb4aaa7	-0.35286447
176	0xbee6010a	-0.44922668
177	0xbf13e450	-0.5777025
178	0xbf0662f1	-0.5249472
179	0xbea63997	-0.32465813
180	0xbee61692	-0.44939095
181	0xbee12017	-0.43969795
182	0xbee347c8	-0.44390702
183	0xbed61d41	-0.41819194
184	0xbede1e03	-0.43382272
185	0xbebc7da7	-0.36814615
186	0xbe8a402c	-0.27002084
187	0xbf04639a	-0.5171448
188	0xbf006ceb	-0.50166196
189	0xbebe6494	-0.3718611
190	0xbf075a52	-0.5287219
191	0xbf1ecd74	-0.62032247
192	0xbedfb9c3	-0.43696412
193	0xbecfc00d	-0.4057621
194	0xbed1942a	-0.40933353
195	0xbf045f67	-0.5170807
196	0xbee52aa7	-0.44759104
197	0xbf0cd452	-0.55011475
198	0xbec4738b	-0.38369402
199	0xbf0b694f	-0.54457563
200	0xbed0cc99	-0.40781096
201	0xbed69876	-0.41913193
202	0xbef18f8d	-0.47179833
203	0xbef2b8d1	-0.4740663
204	0xbeee3786	-0.46526736
205	0xbef6b926	-0.48188132
206	0xbea286a6	-0.31743354
207	0xbef1a405	-0.4719545
208	0xbf0bbba7	-0.5458321
209	0xbeb53519	-0.35392073
210	0xbedbf1fe	-0.42958063
211	0xbed35964	-0.41279137
212	0xbea6cca2	-0.32577997
213	0xbed9c578	-0.4253347
214	0xbf008cf1	-0.5021506
215	0xbefeaf3f	-0.49743077
216	0xbebd0865	-0.36920467
217	0xbee88eee	-0.45421547
218	0xbebfc811	-0.37457326
219	0xbee51c8d	-0.44748345
220	0xbed0263a	-0.40654165
221	0xbebd56c1	-0.3698025
222	0xbead37d1	-0.33831647
223	0xbed2700a	-0.41101104
224	0xbee591d6	-0.44837826
225	0xbf095bf2	-0.5365592
226	0xbec5162c	-0.38493478
227	0xbefcbb1e	-0.4936151
228	0xbed410e3	-0.41419134
229	0xbeb6402e	-0.3559584
230	0xbed71881	-0.42010882
231	0xbee2f813	-0.4432989
232	0xbeecee26	-0.46275443
233	0xbedece8d	-0.4351696
234	0xbef3d532	-0.47623593
235	0xbf02b53a	-0.5105778
236	0xbeff7351	-0.49892667
237	0xbed32c68	-0.41244817
238	0xbf04bdaf	-0.51851934
239	0xbee5c729	-0.4487851
240	0xbee85573	-0.45377693
241	0xbefd2ae1	-0.49446777
242	0xbeffb9f6	-0.49946564
243	0xbec731df	-0.38905236
244	0xbedd7064	-0.4324981
245	0xbeda7ee8	-0.42674947
246	0xbec6bedd	-0.38817492
247	0xbf14a05b	-0.58057183
248	0xbeecb816	-0.46234196
249	0xbee1f9b6	-0.44135827
250	0xbf1b8446	-0.6074871
251	0xbeef3105	-0.46717086
252	0xbf0b038e	-0.543023
253	0xbf223db7	-0.6337542
254	0xbed3de95	-0.41380754
255	0xbea543b8	-0.32278228

Linear2.weight f4 [7, 256]
0	0x3aa129e1	0.0012295806
1	0xbd94c5a7	-0.07264262
2	0xbdab1114	-0.08352867
3	0xbd9ebe3f	-0.0775113
4	0x3cb31467	0.021860315
5	0xb9477557	-0.00019021831
6	0x3dab484d	0.083634
7	0xbc6e561b	-0.014546896
8	0x3d2d2dff	0.042280193
9	0x3b935424	0.0044961143
10	0x3d43fb17	0.04784688
11	0xbce0c166	-0.02743597
12	0x3cf150ec	0.029457532
13	0xbdb7acfc	-0.08968541
14	0xb9e41ea7	-0.00043510387
15	0x3c482ba8	0.01221744
16	0xbb73c2ba	-0.0037194923
17	0xbdc34be6	-0.09535961
18	0x3b336f53	0.0027379587
19	0xbbc5a175	-0.00603121
20	0xbe132bab	-0.14372127
21	0xbe0dafd1	-0.138366
22	0xbe8bb7d6	-0.27288693
23	0xbccaa1aa	-0.02473529
24	0xbd408441	-0.047001127
25	0xbb08d1b9	-0.0020876958
26	0xbd2bc826	-0.041938923
27	0xbd748e68	-0.05970612
28	0xbd7105db	-0.058843475
29	0xbc95cb3b	-0.018285384
30	0x3d86f2b6	0.06589262
31	0xbd0340e6	-0.032044314
32	0x3be09f98	0.0068549626
33	0x3d9926e1	0.07478119
34	0xbcedfb01	-0.029050352
35	0x3d91d264	0.07120207
36	0x3de8e657	0.11372059
37	0x3d36446e	0.044498853
38	0xbcaa61fa	-0.020798672
39	0xbda05577	-0.07828801
40	0x3d708cc6	0.058728002
41	0xbc3b4cbe	-0.011431871
42	0xbdc3c42c	-0.09558901
43	0xbcd4df46	-0.025985371
44	0xbd9230fb	-0.071382485
45	0x3c976c46	0.018484246
46	0xbc2b53de	-0.010457007
47	0xbb4786d9	-0.0030445366
48	0x3dc05f4d	0.09393177
49	0x3d0c0e91	0.03419358
50	0x3d6b475b	0.057441097
51	0xbb9c7a88	-0.004775349
52	0xbd25fe66	-0.040525816
53	0xbcfb2385	-0.030656585
54	0xbcade5de	-0.021227773
55	0x3c02b4b6	0.007977655
56	0x3da948fe	0.08265875
57	0xbdea0b29	-0.1142791
58	0xbb8dfa41	-0.004332811
59	0x3d12db55	0.035853703
60	0xbc8df408	-0.017328277
61	0x3d06fcbd	0.032955874
62	0x3b337790	0.0027384497
63	0x3d9827d2	0.0742947
64	0xbcb45579	-0.022013413
65	0xbd937a80	-0.072010994
66	0x3c90f699	0.017695712
67	0x3d0cc226	0.034364842
68	0x3d04faa2	0.032465585
69	0xbb9c33f3	-0.004766935
70	0xb9784949	-0.00023678424
71	0xbd63ba4a	-0.05559758
72	0xbd89abae	-0.067221984
73	0xbdc57305	-0.09641079
74	0x3d2fa283	0.042879593
75	0x3cd21e7a	0.025649298
76	0x3db587e2	0.08863808
77	0x3b2dc0c1	0.0026512595
78	0x3d8470aa	0.064668015
79	0xbbb94030	-0.0056534037
80	0xbda73035	-0.08163492
81	0x3ae6de98	0.0017613946
82	0xbcb1b73d	-0.02169382
83	0xbba266f6	-0.0049561216
84	0xbdaba3cd	-0.08380852
85	0xbdc7b186	-0.09750657
86	0x3ceefb74	0.029172637
87	0xbcc052c4	-0.023476966
88	0x3d70103e	0.05860924
89	0xbb99e82c	-0.0046968665
90	0xba96a2ad	-0.0011492573
91	0xbd4d5c3d	-0.050136793
92	0xbccf0a9f	-0.02527362
93	0x3c07188e	0.0082456
94	0x393e986b	0.00018176592
95	0x3b4a7985	0.0030895185
96	0x3dfc635c	0.12323639
97	0xbda7a0ca	-0.08184965
98	0x3dd7c6f1	0.10535992
99	0xbd161614	-0.03664215
100	0xbdac7eeb	-0.08422645
101	0xbcb17e20	-0.021666586
102	0xbbd050c8	-0.006357286
103	0xbc5e0b0b	-0.013552438
104	0x3dc20093	0.09472766
105	0xbd8106d6	-0.06300132
106	0x3bb4433a	0.005501178
107	0x3a22f685	0.0006216544
108	0x3db44004	0.088012725
109	0x3d1671d6	0.036729656
110	0xbcb36576	-0.021898966
111	0x3d05a146	0.032624505
112	0xbc9e9a1f	-0.0193606
113	0x3d43e2f9	0.04782388
114	0x3ad56320	0.0016280152
115	0xbd231a68	-0.039820105
116	0xbbeb2682	-0.0071762213
117	0xbc3e2861	-0.011606307
118	0x3d832068	0.064026654
119	0x3bea8261	0.0071566557
120	0x3d8c73e3	0.06858041
121	0xbd7fa7b1	-0.062415782
122	0x3cc4a781	0.024005653
123	0xbda71293	-0.081578396
124	0xb8dc5252	-0.00010505751
125	0xbe49374c	-0.1965
126	0x3c8454c9	0.01615371
127	0xbd8fd165	-0.07022361
128	0xbc6e7772	-0.014554845
129	0xbd688192	-0.056764193
130	0x3ca858f9	0.020550238
131	0xbc944626	-0.018099856
132	0xbdad909b	-0.08474847
133	0xbd8d8004	-0.06909183
134	0x3c3860ed	0.011253578
135	0xbe1b3299	-0.1515602
136	0xbd437ccb	-0.047726434
137	0xbd193433	-0.037403297
138	0x3cf3fef9	0.029784666
139	0xbd8e42a5	-0.06946305
140	0xbdae920b	-0.08523949
141	0x3d0b7ef5	0.034056623
142	0x3c994c6f	0.018713204
143	0xbc295647	-0.0103355115
144	0x3e092608	0.13393414
145	0x3d0980f3	0.03357024
146	0xbb6addd1	-0.003583778
147	0xbd0c58db	-0.034264427
148	0xbc2552cc	-0.010090541
149	0x3d6f3855	0.05840333
150	0x3c898a0c	0.016789459
151	0xbbe43cef	-0.0069652717
152	0x3dd113a5	0.10208825
153	0xbc91aa61	-0.017781438
154	0x3c77c75b	0.015123214
155	0xbc8b392b	-0.016995033
156	0xbcd5c307	-0.026093973
157	0x3d145ca5	0.036221165
158	0xbd0217db	-0.03176103
159	0x3b35b0f3	0.0027723878
160	0x3db3e6c4	0.087842494
161	0x3beac491	0.007164546
162	0xbd19c230	-0.037538707
163	0x3dbcaf9d	0.09213183
164	0x3d51e51a	0.05124388
165	0xbdceaa37	-0.1009106
166	0xbd9399ae	-0.072070464
167	0x3df40a08	0.11915976
168	0xbdcdd734	-0.10050812
169	0xbc10de05	-0.008841996
170	0xbd398aa6	-0.04529824
171	0xbd8369f7	-0.064166956
172	0x3988a7ff	0.00026065108
173	0x3b4fade5	0.0031689343
174	0xbdb541d6	-0.08850448
175	0xbd10cb88	-0.035350353
176	0xbc9e2775	-0.019305924
177	0x3c0a8095	0.008453508
178	0x3d198fd9	0.0374907
179	0xbd7501b5	-0.05981608
180	0x3e19d759	0.15023555
181	0xbd541df7	-0.05178639
182	0xbcec81bd	-0.028870458
183	0x3bb51ef9	0.005527374
184	0xbcef7746	-0.029231679
185	0xbd02938a	-0.031878985
186	0xbd5ad314	-0.053423956
187	0x3cb2e0da	0.021835733
188	0xbdcbd9e4	-0.09953669
189	0xb874a8b6	-5.8331258e-05
190	0xbbb437b8	-0.0054998063
191	0xbc390c9e	-0.011294512
192	0xbdc94bb8	-0.09828895
193	0x3ddd736b	0.1081303
194	0xbc303563	-0.010754916
195	0x3d8dc2f1	0.06921948
196	0xbcbe8fd8	-0.02326195
197	0xbdda0a53	-0.106465004
198	0xbaca9b4a	-0.0015457657
199	0x3dbe6115	0.09295861
200	0xbcd620ac	-0.026138626
201	0x3d551b8c	0.052028224
202	0xbe344dff	-0.17607878
203	0x3c9f800c	0.019470237
204	0xbb66faea	-0.0035244771
205	0xbe16a804	-0.1471253
206	0xbcc7c007	-0.024383558
207	0xbd22665a	-0.03964839
208	0xbd4b2e14	-0.04960449
209	0x3bf4d628	0.0074718185
210	0xbc88626f	-0.0166485
211	0xbca05ef5	-0.019576529
212	0x3cab717f	0.020928143
213	0xbe252e8b	-0.16131036
214	0x3bbe9e54	0.005817214
215	0xbdaa38a6	-0.08311586
216	0xbc54b446	-0.012982434
217	0xbbb0ad20	-0.005391732
218	0xbda83fc3	-0.082152866
219	0xbcdde689	-0.027087467
220	0xbd5ae143	-0.053437483
221	0x3c17bfb3	0.009262013
222	0x3bbac82d	0.0057001323
223	0xbd4d8701	-0.050177578
224	0x3cfbb30f	0.03072503
225	0xbb64ce2e	-0.0034912932
226	0x3da1824e	0.07886182
227	0xbdc45604	-0.09586719
228	0x3c3a260b	0.011361609
229	0xbd408cb0	-0.04700917
230	0xbc8a53e0	-0.016885698
231	0xbe4b24ce	-0.19838259
232	0xbd5a4762	-0.053290732
233	0x3c010cf0	0.00787662
234	0x3c71f110	0.014766946
235	0x3cfa75b1	0.030573698
236	0xbdac9f36	-0.084288046
237	0xbc0ad008	-0.00847245
238	0x3e0d4ad5	0.13798077
239	0x3cc8059e	0.024416741
240	0xbcfaf06c	-0.03063222
241	0xbcc7d8a0	-0.024395287
242	0xbdafcd65	-0.08584098
243	0x3ae396f9	0.0017363719
244	0xbe021539	-0.12703408
245	0xbdde7765	-0.108626164
246	0xbdb0828c	-0.0861865
247	0xbc7bd5ca	-0.0153707955
248	0x39905c25	0.00027534473
249	0xbba36b0e	-0.004987127
250	0x3ce53b27	0.027982308
251	0xbd4496f5	-0.047995526
252	0xbce04c67	-0.027380181
253	0x3cbe2bf0	0.02321431
254	0xbcb615b8	-0.022227153
255	0x3c81cb4e	0.015844014

Linear2.bias f4 [7]
0	0x3cd27cca	0.02569427
1	0x3cc2a0c3	0.023758298
2	0x3cccb268	0.024987414
3	0x3cc404a5	0.023927996
4	0x3cc95913	0.024578607
5	0x3cc88534	0.024477579
6	0x3cc6ab42	0.024251584
