first_net/saved_model 1000.pth (torch, 52885 bytes, 4 tensors)

Linear1.weight f4 [256, 42]
0	0xbdcaa816	-0.09895341
1	0xbd4c084f	-0.04981261
2	0x3d3b141a	0.045673467
3	0x3d77ac6c	0.06046717
4	0x3da8ad2d	0.08236156
5	0x3d2dce1b	0.042432886
6	0x3d29daaa	0.0414683
7	0xbcfd5652	-0.03092495
8	0xbd52ffb0	-0.051513374
9	0x3cfb9d24	0.030714579
10	0xbd97c9e4	-0.074115545
11	0xbd94865b	-0.07252189
12	0xbd1a4e04	-0.037672058
13	0x3d2fc134	0.042908862
14	0x3d885b2b	0.06658014
15	0x3cbed12d	0.023293102
16	0xbc57ca0a	-0.013170728
17	0xbd86105e	-0.065460905
18	0x3dab4245	0.08362249
19	0xbcad5301	-0.021157743
20	0xbd8d1597	-0.068888836
21	0xbd634d70	-0.055493772
22	0x3d049ec3	0.03237797
23	0xbce4e5cf	-0.027941613
24	0x3dba1e5b	0.09087821
25	0xbd519802	-0.051170357
26	0x3da7638e	0.081732854
27	0xbd5f869d	-0.054571737
28	0xbbfd1a6b	-0.0077240965
29	0xbd2ca753	-0.04215176
30	0xbd2f98b7	-0.04287025
31	0x3db52165	0.0884426
32	0xbd72097a	-0.05909107
33	0x3dc3e03e	0.09564255
34	0xbcbb7d82	-0.022886995
35	0x3d923aa8	0.07140094
36	0x3dec6a2c	0.11543688
37	0x3dcbf25e	0.09958337
38	0xbe0a08b8	-0.13479888
39	0x3dd0a83e	0.1018834
40	0x3d42921f	0.047502633
41	0xbdf8adac	-0.121425
42	0xbc13432b	-0.008988182
43	0xbdc50cab	-0.09621557
44	0xbdbbe7a0	-0.09175038
45	0xbdd43d3c	-0.10363242
46	0x3d766d00	0.060162544
47	0x3d15aa3b	0.036539298
48	0xbce32d50	-0.027731568
49	0xbda87e07	-0.08227163
50	0xbd693298	-0.056933016
51	0x3cb99c65	0.022657583
52	0x3dea4e27	0.114406876
53	0x3d9f70d3	0.077851914
54	0xbd6f294e	-0.058389
55	0x3d86667e	0.065625176
56	0x3d90bfd9	0.07067842
57	0xbd2ba448	-0.041904718
58	0x3d4a34f3	0.049366903
59	0xbd59af07	-0.053145435
60	0x3dcc3c30	0.09972417
61	0xbdedcfd9	-0.116119094
62	0x3dc3b816	0.09556596
63	0x3d8173ce	0.06320916
64	0x3d3ffad6	0.046870075
65	0xbd7e5053	-0.062088322
66	0x3de0d47d	0.10978029
67	0x3cf01949	0.029308932
68	0xbd1c4c4d	-0.038158704
69	0x3dcab642	0.09898044
70	0x3de7993e	0.113085255
71	0xbc4aceae	-0.012378378
72	0xbd0295aa	-0.031881012
73	0xbd1ecb62	-0.03876818
74	0x3d369f97	0.04458579
75	0xbd37e0ae	-0.044892006
76	0xbd6cad8c	-0.057782695
77	0xbc0610a3	-0.008182677
78	0xbdb66dfa	-0.08907695
79	0x3d4a7d8f	0.04943615
80	0xbdda788c	-0.10667524
81	0xbd06cb0d	-0.032908488
82	0xbd683386	-0.05668976
83	0x3d9fff16	0.07812326
84	0xbcaac9bd	-0.02084815
85	0x3c352e6e	0.011058433
86	0xbdcbfae3	-0.09959962
87	0x3c3ce03a	0.011528069
88	0xbd08e87b	-0.033424836
89	0xbdbe82e4	-0.09302309
90	0x3b5bcecf	0.0033540016
91	0xbd34d890	-0.044151843
92	0x3d6375f7	0.055532422
93	0x3dc03a68	0.0938614
94	0xbbb2062e	-0.0054328656
95	0x3d7ab868	0.06121102
96	0x3dd0d36f	0.10196578
97	0xbc738211	-0.014862553
98	0xbb073192	-0.0020628911
99	0xbd7bc93f	-0.06147122
100	0x3ddf436a	0.1090153
101	0xbb27f0ad	-0.0025625632
102	0x3dfaa025	0.122375764
103	0x3e0f0623	0.13967185
104	0x3dd5114b	0.10403689
105	0xbcd465c5	-0.025927434
106	0x3db915a1	0.090373285
107	0xbc8bf9d2	-0.017086897
108	0x3d7594a9	0.059956226
109	0x3d95df69	0.07318003
110	0xbc9074c6	-0.017633807
111	0xbdc12816	-0.09431474
112	0x3d8fdbd5	0.070243515
113	0x3d4cfbfc	0.050045
114	0xbe06be81	-0.13158609
115	0x3cbb3081	0.022850277
116	0xbd12a402	-0.03580094
117	0x3c167d21	0.0091851065
118	0x3cb4bbce	0.022062209
119	0xbde2fc70	-0.11083305
120	0x3d97b38c	0.07407293
121	0x3d24dbb7	0.0402486
122	0x3dc903ab	0.09815153
123	0xbdb1dfb2	-0.086852446
124	0x3d2cb381	0.042163376
125	0xbd957a8e	-0.07298766
126	0xbb012d95	-0.0019711007
127	0xbdab9160	-0.083773375
128	0xbd8ba92b	-0.068193756
129	0xbda600ce	-0.08105622
130	0x3bfd7dff	0.007735967
131	0xbcee3bd2	-0.029081259
132	0xbd5ed86b	-0.05440561
133	0x3d0104da	0.031498767
134	0xbcd3bf44	-0.025848038
135	0x3d233c4f	0.039852437
136	0x3d1c05f9	0.038091633
137	0xbd71beb5	-0.059019763
138	0x3ba0640a	0.004894738
139	0xbd6665c6	-0.056249402
140	0x3d5093c3	0.050922167
141	0x3cf136d0	0.029445082
142	0xbd1efd29	-0.03881565
143	0xbd960b75	-0.07326404
144	0x3d5dc1ea	0.05414001
145	0xbcdef931	-0.027218433
146	0xba9e8967	-0.0012095392
147	0x3d80d75f	0.06291079
148	0xbd06c9a8	-0.032907158
149	0xbd317fa8	-0.043334633
150	0xbb797f7e	-0.0038070376
151	0x3cfaf63b	0.03063499
152	0xbd583da0	-0.052793145
153	0xbd89e68e	-0.06733428
154	0x3d729d80	0.059232235
155	0xb9342a2c	-0.00017181848
156	0xbddf07e2	-0.108901754
157	0xbcdeaee5	-0.027183006
158	0x3d228181	0.039674286
159	0xbdf678e2	-0.12034775
160	0x3b169f19	0.0022983013
161	0xbd58996a	-0.052880682
162	0x3c6e7b65	0.014555787
163	0x3db00809	0.085952826
164	0xbd90e8d1	-0.07075656
165	0xbcbdc408	-0.023164764
166	0xbd279880	-0.04091692
167	0xbd2550d6	-0.040360294
168	0xbce6449c	-0.028108887
169	0x3d4afb4a	0.049556054
170	0x3d8fe136	0.070253775
171	0xbdba35bc	-0.0909228
172	0xbd732c5b	-0.059368473
173	0xbdcbecfe	-0.09957312
174	0xbd95144e	-0.072792634
175	0x3d9a9d0d	0.07549486
176	0x3d819332	0.063269034
177	0x3cc4090c	0.023930095
178	0x3e0cc2f6	0.13746247
179	0x3d89b987	0.0672484
180	0xbccf5365	-0.02530832
181	0xbd30c47c	-0.043156132
182	0x3d1b4b3d	0.03791355
183	0xbdbb965d	-0.09159539
184	0x3cf85f62	0.03031892
185	0xbcd228bf	-0.025654195
186	0x3b9212fc	0.0044578295
187	0x3e0d6d62	0.13811257
188	0xbda9922f	-0.082798354
189	0xbdabfcae	-0.08397804
190	0x3d8f9fb8	0.07012886
191	0x3df8302d	0.12118564
192	0xbd84af5d	-0.064787604
193	0x3cb3b504	0.0219369
194	0x3d45947e	0.048237316
195	0x3d81a53b	0.06330343
196	0x3d324d2f	0.04353064
197	0xbd8bbbf5	-0.06822959
198	0x3dc0f666	0.09421997
199	0xbdd98cd9	-0.10622568
200	0x3cfd16b4	0.030894615
201	0xbdb364a5	-0.08759431
202	0x3dbe6226	0.09296064
203	0xbe029fc6	-0.12756261
204	0xbceb25f5	-0.028704623
205	0xbd1ab008	-0.037765533
206	0x3dcfc448	0.101448596
207	0xbe026f19	-0.12737693
208	0xbd3ae13a	-0.04562495
209	0x3a654e36	0.0008747311
210	0xba8f5330	-0.0010934826
211	0xbdb6ba17	-0.089222126
212	0x3bbf6675	0.0058410713
213	0xbdab7024	-0.083709985
214	0xbd963cf7	-0.07335847
215	0x3c822c2e	0.015890207
216	0xbd2be9ec	-0.041971132
217	0xbd9a80bd	-0.07544086
218	0xbc1c6b1b	-0.00954702
219	0x3ce94fd7	0.028480453
220	0xbcda0c47	-0.026617182
221	0xbd4b0fac	-0.049575493
222	0xbd4f6020	-0.05062878
223	0xbd5cc377	-0.053897347
224	0xbd8cd99f	-0.068774454
225	0xbd6c5f1b	-0.057707887
226	0x3d45554a	0.04817704
227	0x3dc360d6	0.09539954
228	0xbddeb262	-0.108738676
229	0xbd38f04c	-0.04515104
230	0xbca89c98	-0.020582482
231	0xbdae6be8	-0.08516675
232	0xbd831ca1	-0.06401945
233	0x3d639dd2	0.05557043
234	0x3d819881	0.06327916
235	0xbcb923ac	-0.022600017
236	0x3da04278	0.07825178
237	0xbd60228d	-0.05472045
238	0xbc955311	-0.018228086
239	0xbdafb0ef	-0.08578669
240	0xbd3b5167	-0.04573193
241	0xbd9de340	-0.0770936
242	0xbd7e6a1f	-0.062112924
243	0xbde492ad	-0.11160789
244	0xbd1a4de5	-0.037671942
245	0x3db438d4	0.087999016
246	0x3cdd7ca2	0.027036969
247	0x3d32ab83	0.043620598
248	0x3d1914e6	0.037373446
249	0xbe0269ca	-0.12735668
250	0xbdd72dab	-0.10506757
251	0xbd43882e	-0.047737293
252	0xbdf511e6	-0.119663045
253	0x3d6de420	0.058078885
254	0x3dbc1fed	0.09185777
255	0x3c162f1f	0.009166508

Linear1.bias f4 [256]
0	0x3be2fb8f	0.006926961
1	0xbc7bb5a4	-0.015363131
2	0xbe266b27	-0.16251813
3	0xbe3a6be3	-0.18205218
4	0xbe5e85a3	-0.21730666
5	0xbd9d4aa4	-0.07680252
6	0xbdf6c3fc	-0.120491
7	0xbdf6741c	-0.12033865
8	0xbc91a4ad	-0.017778719
9	0xbe87f219	-0.26551893
10	0xbe81e744	-0.25371754
11	0xbe06ad6c	-0.13152093
12	0xbe39f8d9	-0.18161334
13	0xba8afe09	-0.0010604273
14	0xbe88f5e6	-0.26750106
15	0xbe2d2daa	-0.1691195
16	0xbe19913a	-0.14996806
17	0xbe4371a7	-0.19086324
18	0xbe7d6e85	-0.24749191
19	0xbdfe1833	-0.124069594
20	0xbd1561fc	-0.0364704
21	0xbdce9689	-0.10087306
22	0xbd8bd50a	-0.06827743
23	0xbd6dbcd7	-0.05804142
24	0xbc8a3ee0	-0.016875684
25	0xbc8c3f81	-0.017120125
26	0xbe501bf5	-0.20323165
27	0xbe6f9ab4	-0.23398858
28	0xbe22bccb	-0.15892331
29	0xbe4bfa3a	-0.19919673
30	0xbe18d029	-0.14923157
31	0xbe5fda9f	-0.21860741
32	0xbd654263	-0.055971514
33	0x3d944b2d	0.07240901
34	0xbe514660	-0.20437002
35	0xbe970315	-0.2949454
36	0xbda61a9e	-0.081105456
37	0x3c4ce24c	0.012505125
38	0xbe6cdbc1	-0.23130704
39	0xbb20c989	-0.0024534187
40	0xbe056051	-0.13025023
41	0xbe3030ec	-0.17206162
42	0xbe16386c	-0.1466996
43	0xbd9fff4a	-0.078123644
44	0xbc792d74	-0.015208591
45	0xbe34152b	-0.175862
46	0xba836135	-0.0010023477
47	0x3d153b70	0.036433637
48	0x3ce24c87	0.027624382
49	0xbb69eb85	-0.003569336
50	0xbd5a5e72	-0.053312726
51	0x3bf91fa9	0.007602651
52	0xbb9fe5cf	-0.0048796902
53	0xbcf332aa	-0.029687244
54	0xbdcb37da	-0.09922762
55	0xbc8135ca	-0.015772719
56	0xbe23c3a9	-0.15992607
57	0xbe6bf01c	-0.23040813
58	0xbe04a8fc	-0.12955087
59	0xbe882ec5	-0.26598182
60	0xbd786787	-0.060645606
61	0xbdde40ef	-0.10852229
62	0xbe5cae4d	-0.21550865
63	0xbe342129	-0.17590775
64	0xbe8eba25	-0.27876392
65	0xbd041fd9	-0.032256935
66	0xbdf8fc20	-0.12157464
67	0xbe726ec0	-0.2367506
68	0xbe40274a	-0.18764988
69	0xbd275c53	-0.04085953
70	0xbe6e2196	-0.23255
71	0xbdb3eef9	-0.08785815
72	0xbda21318	-0.07913798
73	0xbd589570	-0.05287689
74	0x3cf5cba0	0.030004323
75	0xbdaf344e	-0.08554898
76	0xbe44ac11	-0.19206263
77	0xbe50a50c	-0.2037546
78	0xbd935157	-0.07193249
79	0xbd2e948a	-0.042622127
80	0x3d74d53d	0.059773672
81	0x3d254668	0.040350348
82	0xbe432a08	-0.19059002
83	0xbe9ef204	-0.31044018
84	0xbddcfa20	-0.10789895
85	0xbe2c6f2d	-0.16839285
86	0xbd4314b4	-0.047627166
87	0xbe1e3bd1	-0.15452506
88	0xbdd55444	-0.10416463
89	0xbe79fedc	-0.24413627
90	0xbe0e79b1	-0.13913609
91	0xbe4ff8ec	-0.203098
92	0xbd4b9f55	-0.049712498
93	0xbde577b4	-0.11204472
94	0xbc707ca3	-0.014678153
95	0xbe1ac2e7	-0.15113412
96	0xbe030575	-0.1279505
97	0xbdd1c6c8	-0.10242993
98	0xbe709275	-0.23493369
99	0xbe9ab8b7	-0.3021905
100	0xbd7e9532	-0.062154002
101	0xbe106fee	-0.14105198
102	0xbdaa4f19	-0.08315868
103	0xbe1187c7	-0.14211951
104	0xbe23ae00	-0.15984344
105	0xbe2a2c1c	-0.16618389
106	0xbd9975c5	-0.07493166
107	0xbe56f53f	-0.20991991
108	0xbc9d540b	-0.019205114
109	0xbddc514a	-0.10757692
110	0xbe632c38	-0.22184837
111	0xbe3edfaa	-0.18640009
112	0xbe43a350	-0.19105268
113	0xbe683972	-0.22678164
114	0xbe188bc3	-0.14897065
115	0xbd6acd22	-0.057324536
116	0xbdb4bf83	-0.088255905
117	0xbe787e64	-0.24266964
118	0xbd2a1d59	-0.041531894
119	0x3d717f72	0.058959432
120	0xbe475293	-0.19465093
121	0xbdfb3db9	-0.12267632
122	0x3d1d2919	0.038369272
123	0x3d29182b	0.041282814
124	0xbe103906	-0.14084253
125	0xbdbcd0b1	-0.09219492
126	0xbe860708	-0.2617724
127	0xbe67284f	-0.2257397
128	0xbdbe1662	-0.09281613
129	0xbe4d65ac	-0.20058316
130	0xbe3dd9b9	-0.18540086
131	0xbe3805aa	-0.1797091
132	0x39c27552	0.00037089974
133	0xbe0275b0	-0.12740207
134	0xbd9fe209	-0.07806785
135	0xbdc80745	-0.097670116
136	0xbe891913	-0.26776943
137	0xbe50befb	-0.20385353
138	0xbe5c2fe0	-0.21502638
139	0x3cd11f50	0.025527626
140	0xbe0ea444	-0.1392985
141	0xbe067d40	-0.13133717
142	0x3bd8a8b7	0.0066119093
143	0xbe14ac50	-0.14518857
144	0xbe13dbfe	-0.14439389
145	0xbd4ffb09	-0.050776515
146	0xbca54275	-0.02017329
147	0xbe1ad98e	-0.15122053
148	0xbe0598de	-0.13046595
149	0xbe2faf53	-0.17156725
150	0xbd663a2c	-0.05620782
151	0x3c341833	0.010992098
152	0xbe985ca9	-0.29758194
153	0xbe40144c	-0.18757743
154	0xbe146cde	-0.14494655
155	0xbe34002a	-0.17578188
156	0xbe286b93	-0.16447286
157	0xbc752ddc	-0.014964547
158	0x3d24c171	0.040223543
159	0xbe373cc1	-0.1789427
160	0xbd9b9516	-0.07596795
161	0xbd83d8a9	-0.06437809
162	0xbc499fdb	-0.012306179
163	0xbe76150e	-0.24031469
164	0xbe4047b3	-0.18777351
165	0xbe2599ff	-0.16172026
166	0xbe1e96fb	-0.15487282
167	0xbdf9b009	-0.12191779
168	0x3c5be3fd	0.013421056
169	0xbd9face7	-0.077966504
170	0xbe3ed9fd	-0.18637843
171	0xbd42c528	-0.047551304
172	0xbe480eec	-0.19536942
173	0xbe71cdb3	-0.23613624
174	0xbe3ca50a	-0.18422332
175	0xbde640ad	-0.11242805
176	0xbe6c4bbf	-0.2307577
177	0xbe7e4dbf	-0.24834345
178	0xbe94f9c7	-0.29096815
179	0xbe332ed3	-0.17498331
180	0xbc078b41	-0.008272947
181	0xbe48b924	-0.19601876
182	0x3c9fcf30	0.019507974
183	0xbe302126	-0.17200145
184	0xbdd999a7	-0.1062501
185	0x3bf88ba7	0.007585007
186	0xbd355e6a	-0.044279493
187	0xbdef113c	-0.11673209
188	0xbe468cb2	-0.19389609
189	0x3ccd4bfe	0.02506065
190	0xbe88a871	-0.2669101
191	0xbe5c016f	-0.21484922
192	0xbe2aa870	-0.16665816
193	0xbe0a36d1	-0.13497473
194	0xbd886a0c	-0.06660852
195	0xbe12f9fe	-0.14353177
196	0xbe6d70a2	-0.23187497
197	0xbde21c47	-0.1104055
198	0x3bc2dbac	0.005946597
199	0xbe2ccbee	-0.16874668
200	0xbdd84ec8	-0.10561901
201	0xbe05eccb	-0.1307861
202	0xbe3573b3	-0.17719917
203	0xbd0b2a63	-0.03397597
204	0xbdbfd484	-0.09366706
205	0xbe37556d	-0.17903681
206	0xbbbdef66	-0.005796361
207	0xbe26d6aa	-0.16292825
208	0xbe8045fc	-0.25053394
209	0xbd461cf3	-0.048367452
210	0xbb05bfcf	-0.0020408516
211	0xbe4c442d	-0.19947882
212	0x3d52fe35	0.051511962
213	0x3d18f84c	0.03734617
214	0xbe0b3c2f	-0.13597177
215	0xbe8f1170	-0.2794299
216	0xbd8f898a	-0.07008655
217	0xbe5c5f8b	-0.21520822
218	0xbe48d9f2	-0.1961439
219	0xbdda92dd	-0.10672543
220	0xbe27a5d5	-0.16371854
221	0xbd6c0d6f	-0.05763
222	0xbb065a5a	-0.002050063
223	0xbe13df4c	-0.1444065
224	0xbe507c5e	-0.20359942
225	0xbe7f35dd	-0.24922891
226	0xbd661648	-0.056173593
227	0xbe5067c7	-0.20352088
228	0xbe96d1d4	-0.2945696
229	0xbbb288f4	-0.005448455
230	0x3ce91d6c	0.028456412
231	0xbe150f2f	-0.14556573
232	0xbe58130b	-0.21101014
233	0xbdf70b1e	-0.12062667
234	0xbe311f8b	-0.17297189
235	0xbe97412e	-0.29541916
236	0xbe29bcb9	-0.16575898
237	0x3cc26264	0.023728557
238	0xbe12a490	-0.14320588
239	0xbd4eadfe	-0.0504589
240	0xbe2ee045	-0.1707774
241	0xbe509d42	-0.20372489
242	0xbd7a3021	-0.061081056
243	0x3d748046	0.059692644
244	0xbd8f1e85	-0.06988243
245	0xbc86fd78	-0.016478285
246	0xbda4b46a	-0.08042224
247	0xbe95c206	-0.2924959
248	0xbe2ea22f	-0.17054056
249	0xbe40ffe9	-0.18847622
250	0xbe56b29f	-0.20966576
251	0xbe5142a5	-0.20435579
252	0xbe3c7298	-0.18403089
253	0xbeb927ce	-0.3616318
254	0xbdbfbc5d	-0.09362099
255	0x3d26dc7b	0.04073761

Linear2.weight f4 [7, 256]
0	0x3bee20e1	0.007267103
1	0x3c869896	0.01643018
2	0xbc36f5e1	-0.011167021
3	0xbc832dbd	-0.01601302
4	0x3d33212d	0.04373281
5	0x3b455be9	0.0030114597
6	0x3ca60b1d	0.020268971
7	0x3c9439fc	0.018094055
8	0x3b98ec45	0.0046668374
9	0xbc988850	-0.018619686
10	0x3c77a622	0.015115293
11	0x3c3df028	0.011592902
12	0x3a83432b	0.0010014524
13	0xbc0d62d9	-0.008629524
14	0x3a9e7a03	0.0012090806
15	0x3c73b25a	0.014874065
16	0x3c69ce5e	0.014270393
17	0xbbc9990e	-0.0061522787
18	0x3bb7a635	0.00560453
19	0xbbaf3865	-0.005347299
20	0x3ced0a4f	0.02893558
21	0xbd3a6901	-0.045510296
22	0x3b94a68f	0.004536457
23	0x3d011fe2	0.031524546
24	0xbcf6d34c	-0.030130051
25	0xbc9b1ed9	-0.018935608
26	0xbc335522	-0.01094559
27	0xbac6e44c	-0.0015174239
28	0x3cdd8b71	0.02704403
29	0x3c63cffb	0.013904567
30	0x3ca1d626	0.019755434
31	0x3d0b2f46	0.03398063
32	0x3ba95b3c	0.0051683467
33	0xb7e463f2	-2.7226259e-05
34	0xbcad4dd0	-0.021155268
35	0x3bb7d171	0.005609684
36	0xbaf504de	-0.0018693467
37	0xbc9a74ca	-0.018854517
38	0x3bc29324	0.0059379507
39	0x3c13c6f2	0.0090196
40	0x3af4d790	0.0018679965
41	0xbc7a1974	-0.015264858
42	0xbcc6cb1b	-0.02426677
43	0xbd444515	-0.047917444
44	0x3cc18f77	0.02362798
45	0xbc922407	-0.017839445
46	0x3ca01314	0.019540347
47	0xbca382ae	-0.019959774
48	0x3b4879b2	0.0030590114
49	0x3c9fb87c	0.019497149
50	0xbcb786d2	-0.022403155
51	0xbb8dbc57	-0.0043254304
52	0xbce49e61	-0.027907552
53	0x3cd4f853	0.025997316
54	0x3ca02184	0.019547231
55	0xbc9e6330	-0.019334406
56	0x3c24b110	0.010051981
57	0x3d839a48	0.06425911
58	0xbced47b6	-0.028964859
59	0xbc52a8a1	-0.012857587
60	0xbcad42a9	-0.02114995
61	0xbd25ce07	-0.040479686
62	0x3be9faac	0.007140478
63	0x3be7ce73	0.007074171
64	0xbd402fe6	-0.04692068
65	0xbc0b87cc	-0.008516263
66	0xbcb75536	-0.022379499
67	0xbbeb4606	-0.0071799783
68	0xbcf88a44	-0.030339368
69	0xbcd8769d	-0.026423747
70	0xbd20b792	-0.039237566
71	0xbbd1c1e5	-0.006401288
72	0x3c6da9e8	0.014505841
73	0xbcb7ab43	-0.022420531
74	0x3b45fa10	0.0030208863
75	0xbcc5a065	-0.024124334
76	0xbc98025d	-0.018555814
77	0xbc87c679	-0.016574131
78	0x3c007fb1	0.007842944
79	0x3b2ecf60	0.0026673898
80	0x3c5910b5	0.013248612
81	0x3d0e2783	0.03470565
82	0xba4b8f78	-0.0007765214
83	0xbc1f2532	-0.009713458
84	0x3c36c997	0.011156461
85	0xbb83afb2	-0.0040187472
86	0x3b4369d5	0.002981772
87	0xbbf40991	-0.0074474295
88	0x3ba1e173	0.0049402057
89	0xbc90bf3e	-0.017669316
90	0xbc020dba	-0.007937843
91	0xbc082a37	-0.008310846
92	0x3c855d4d	0.01627984
93	0x3b3bc36c	0.0028650416
94	0x3d174a0a	0.036935844
95	0xbc277955	-0.010221799
96	0x3b74706a	0.003729845
97	0xbcf70daa	-0.030157883
98	0xbc14f3d8	-0.00909134
99	0xbbf8b706	-0.0075901775
100	0x3c93e057	0.01805131
101	0xbd993e1b	-0.07482549
102	0xbc6b7918	-0.014372133
103	0x3bacd2bd	0.0052741454
104	0xbd492c07	-0.049114253
105	0x3c14b9e2	0.009077521
106	0xbbbdd4b5	-0.005793179
107	0xbd187530	-0.037221134
108	0x3a93ecac	0.0011285744
109	0x3ce819d2	0.028332625
110	0x3bc6c407	0.0060658487
111	0xbd173e9e	-0.03692495
112	0x3bedd41a	0.0072579505
113	0x3c7d7958	0.015470825
114	0xbd6fe70f	-0.058569964
115	0x3b292e42	0.0025814925
116	0xbd06f415	-0.03294762
117	0xbc9842e6	-0.018586587
118	0x3b128a03	0.0022360093
119	0xbb9207e2	-0.004456506
120	0xbd329afa	-0.04360483
121	0x3c80e645	0.015734801
122	0x3c8101a3	0.01574785
123	0xbcb357ef	-0.021892516
124	0xbbb9b847	-0.0056677195
125	0xbca00663	-0.019534295
126	0xbc83fd81	-0.016112091
127	0xbcf39eaa	-0.029738743
128	0xbbaeb449	-0.0053315503
129	0x3cf8c927	0.030369354
130	0xbbae511b	-0.005319727
131	0xbb572144	-0.0032826224
132	0x3c01eea7	0.007930434
133	0x3c8646ad	0.016391123
134	0x3c15f3da	0.009152377
135	0x3ced2c74	0.028951861
136	0xbcc9f487	-0.024652733
137	0x3bfd3f24	0.007728474
138	0x3c79e774	0.015252937
139	0x39d0b8f7	0.0003981066
140	0xbd080c64	-0.03321494
141	0x3a1c1c42	0.00059551385
142	0xbc260290	-0.010132447
143	0xbced1a50	-0.02894321
144	0x3a886a36	0.001040763
145	0x3ca967f8	0.020679459
146	0xbb8338df	-0.0040045823
147	0xbc485206	-0.012226587
148	0x3d0df194	0.034654215
149	0xbcfb883e	-0.030704614
150	0xbcc67f9f	-0.024230776
151	0x39d0c2ce	0.00039817992
152	0x3b8835d4	0.0041568074
153	0x3ba39665	0.0049922937
154	0x3d033e5a	0.032041885
155	0xbcdc5ed2	-0.026900683
156	0x3bf04178	0.0073320232
157	0xbcd306cf	-0.025760083
158	0x3b0f2ccf	0.0021846776
159	0xbc56f9be	-0.013121067
160	0x3c39c748	0.011339016
161	0xbc98f2c4	-0.018670447
162	0xbd0ff998	-0.03515014
163	0x3d129b0c	0.035792395
164	0x3bc98472	0.006149822
165	0xbb70fca8	-0.0036771689
166	0xbb400f3e	-0.002930596
167	0xbcacef69	-0.021110253
168	0x3c781280	0.0151411295
169	0x3cb8544b	0.022501132
170	0x3c760e20	0.015018016
171	0xbd0e67b2	-0.03476686
172	0xbcc3f58f	-0.023920802
173	0x3d188846	0.037239335
174	0x3bb30515	0.0054632523
175	0xbcc1ae27	-0.023642613
176	0x3d9535a2	0.0728562
177	0xbb707945	-0.0036693376
178	0x3b493325	0.003070065
179	0xbd3db3b0	-0.04631394
180	0x3cb7bf49	0.022430079
181	0xbc514d29	-0.012774744
182	0xbc84825f	-0.016175447
183	0xbae57c74	-0.0017508403
184	0xbc898d28	-0.016790941
185	0xbcdf2440	-0.027238965
186	0xbc074ceb	-0.008258085
187	0xbca97714	-0.020686664
188	0xbd09b6e9	-0.033621702
189	0xbb96a1e8	-0.0045969374
190	0xbc8d8e40	-0.017279744
191	0xbc8612e8	-0.016366437
192	0xbc017b61	-0.007902951
193	0x3aeec860	0.0018217675
194	0xbaefb57a	-0.0018288337
195	0xbc350f18	-0.011050962
196	0xbcb2c485	-0.021822223
197	0xbcb037af	-0.021510927
198	0x3c9d3f48	0.019195214
199	0x3af261a7	0.0018492237
200	0xbd3c7215	-0.046007235
201	0x3c38d64b	0.01128156
202	0x3b7af01c	0.003829009
203	0x3b1f965f	0.0024351103
204	0x3bd7681c	0.00657369
205	0x3afded62	0.0019373114
206	0xbbf62763	-0.0075120195
207	0x3c5c3b75	0.01344191
208	0xbb45a240	-0.0030156523
209	0x3ce28e06	0.027655613
210	0xbbda1b86	-0.006656113
211	0xbc13711b	-0.008999134
212	0x3d2d3d5c	0.042294845
213	0xbc30374e	-0.010755373
214	0x3c8dfe10	0.01733306
215	0xbb8406e2	-0.004029141
216	0xbd1b6d43	-0.037945997
217	0x3ab02491	0.0013438632
218	0xbc4543ec	-0.01204012
219	0x3d0fba1e	0.035089605
220	0x3c5b6501	0.01339078
221	0x3d407a21	0.04699147
222	0x3d002ba1	0.031291608
223	0xbb1dd45a	-0.002408287
224	0xbc8eda53	-0.01743809
225	0xbb04dc2b	-0.0020272832
226	0xbc9d9d75	-0.01924012
227	0xbd0989b7	-0.0335786
228	0xbc235023	-0.009967837
229	0xbc8ea01a	-0.017410327
230	0x3cb67f32	0.022277448
231	0x3c133dbe	0.008986888
232	0xbca9a8f8	-0.020710453
233	0xbd1d0067	-0.03833046
234	0xba464ef2	-0.00075648644
235	0x3c101709	0.0087945545
236	0x3d09c41b	0.033634286
237	0x3c8dda74	0.01731608
238	0x3aba92c4	0.0014234413
239	0xbd19ca2f	-0.037546333
240	0xbcd0e9b1	-0.025502058
241	0x3bc94d70	0.0061432645
242	0xbce6b259	-0.028161215
243	0xbcae2db8	-0.021262035
244	0x3c87c2f3	0.016572451
245	0xba9cb93e	-0.0011957062
246	0x3aaa1f09	0.001297922
247	0xbc5e2435	-0.013558437
248	0xbd2821bd	-0.0410478
249	0x3c3919bd	0.01129764
250	0xbb90cf07	-0.004419211
251	0xbccd6872	-0.025074217
252	0x3c90d805	0.017681131
253	0xb9538fe7	-0.00020176136
254	0x3c33ef4c	0.010982346
255	0xbc876475	-0.016527394

Linear2.bias f4 [7]
0	0x3d35e6ac	0.04440944
1	0x3d6361ed	0.05551331
2	0x3d5f3a45	0.05449893
3	0x3d58b804	0.052909866
4	0x3d0f79d6	0.0350283
5	0x3d482fb5	0.048873622
6	0x3d3504bd	0.044193972
