first_net/saved_model 6000.pth (torch, 52885 bytes, 4 tensors)

Linear1.weight f4 [256, 42]
0	0xbdce5406	-0.1007462
1	0x3db6dc21	0.08928705
2	0xbd1e059f	-0.03857958
3	0x3b166f6a	0.0022954592
4	0x3dba793c	0.09105155
5	0x3d0e193f	0.034692045
6	0xbc7779db	-0.015104736
7	0x3e02a25d	0.12757249
8	0x3d81e4ea	0.0634249
9	0xbc39b8cc	-0.011335563
10	0xbd70cfee	-0.058792047
11	0x3cfa35e3	0.030543273
12	0xbcb741e2	-0.022370283
13	0xbb0b67a7	-0.0021271498
14	0x3d14ed52	0.03635914
15	0xbc622007	-0.013801581
16	0x3d0501a5	0.03247227
17	0x3d3d1c08	0.04616931
18	0x3d90446c	0.070443004
19	0x3c87bf9e	0.016570862
20	0xbda1cb14	-0.07900062
21	0xbde918e8	-0.113817036
22	0x3c8d454e	0.017244961
23	0xbdc1403d	-0.094360806
24	0x3de45dc4	0.11150697
25	0x3c93d629	0.018046455
26	0x3ce96fce	0.028495695
27	0x3c3b63f0	0.011437401
28	0xbe197000	-0.14984131
29	0xbd9213a6	-0.07132654
30	0x3df9b659	0.12192983
31	0x3d311511	0.04323298
32	0x3d32ea06	0.043680213
33	0x3d86d9cb	0.065845095
34	0xbd2743b5	-0.040836055
35	0x3d0e235f	0.0347017
36	0x3d73abaf	0.059489902
37	0xbd29b695	-0.04143389
38	0xbc6d6770	-0.014489993
39	0x3cf8ee83	0.030387169
40	0xbdf38f7b	-0.11892601
41	0xbdc93d0a	-0.098260954
42	0xbc2ebea3	-0.0106655685
43	0xbd89fc3b	-0.06737562
44	0x3c1c2ef3	0.009532678
45	0x3cf6c844	0.030124791
46	0x3d7310a0	0.059342027
47	0xbc3ee23a	-0.011650616
48	0xbb74c492	-0.003734861
49	0xbd688e2b	-0.056776207
50	0x3d60ab8e	0.054851107
51	0xbd0a6f7c	-0.033797726
52	0xbd1f8e43	-0.03895403
53	0xbd8b52fc	-0.068029374
54	0x3c3a50de	0.011371819
55	0x3d4b5d93	0.049649786
56	0x3d4b484d	0.0496295
57	0xbde80880	-0.11329746
58	0x3da3d5ec	0.07999787
59	0xbdf40f4f	-0.119169824
60	0x3d6635f6	0.056203805
61	0xbd664bb5	-0.056224544
62	0x3e162eff	0.14666365
63	0xbc30ce71	-0.010791407
64	0x3d06fbbd	0.03295492
65	0xbd129b0d	-0.0357924
66	0x3e2269e5	0.15860708
67	0x3d999c97	0.0750057
68	0xbc98c9c1	-0.018650891
69	0x3ca338fc	0.019924633
70	0xbce1961a	-0.027537394
71	0xbd0bf3e1	-0.034168128
72	0x3e022a9f	0.12711571
73	0x3d6aaa49	0.057291303
74	0x3d189a70	0.037256658
75	0xbd26b6bc	-0.040701613
76	0xbd9f0c66	-0.07766037
77	0x3d35fdd5	0.044431526
78	0x3d83bb30	0.064321876
79	0xbd838dd7	-0.06423538
80	0xbe2fac19	-0.17155494
81	0x3d0b4028	0.03399673
82	0xbcf414e8	-0.029795125
83	0xbdc89ce2	-0.09795548
84	0x3da07d06	0.07836346
85	0x3cdbad0e	0.026815917
86	0xbcaf4d0c	-0.021399044
87	0x3da7f5a2	0.082011476
88	0x3caf757c	0.021418326
89	0x3aa9e200	0.001296103
90	0xbdc4b5fd	-0.09605024
91	0xbcb7c6a1	-0.02243358
92	0xbda6a308	-0.081365645
93	0xbd88f3f5	-0.06687156
94	0x3e0ba03e	0.13635346
95	0xbdc4d423	-0.09610774
96	0x3c99947d	0.018747563
97	0x3c8c71aa	0.017144043
98	0xbc5f5808	-0.013631828
99	0x3d600ae6	0.054697894
100	0xbd55d7a0	-0.05220759
101	0x3e4f5bc3	0.20249848
102	0x3da55fd6	0.0807492
103	0x3d0e6528	0.03476444
104	0x3d78ebc3	0.060771715
105	0x3c5dc546	0.013535803
106	0x3e374a72	0.17899492
107	0xbd084c7a	-0.03327606
108	0xbc5af154	-0.013363201
109	0xbd3bab0e	-0.045817427
110	0xbc9f2524	-0.01942689
111	0xbd5bc23f	-0.053652044
112	0x3dbc68af	0.09199654
113	0x3e39a809	0.18130507
114	0x3c8d323c	0.017235868
115	0x3d58e2e2	0.052950747
116	0xbcc64eab	-0.024207434
117	0x3dd614f2	0.10453214
118	0x3d6177a0	0.055045724
119	0xbd9e018b	-0.07715138
120	0xbcd39851	-0.025829466
121	0xbdd754f3	-0.1051425
122	0xbd05b16b	-0.032639902
123	0xba53b3f5	-0.0008075827
124	0x3cc5b019	0.024131821
125	0xbd141e26	-0.036161564
126	0xbd840ad2	-0.06447376
127	0x3d21fbe7	0.039546873
128	0xbdcaad08	-0.09896284
129	0x3e29bf9f	0.16577004
130	0xbcb61de5	-0.022231052
131	0x3ae2cd1c	0.0017303559
132	0xbddee91e	-0.10884307
133	0xbd8cc462	-0.068733945
134	0x3d407624	0.046987668
135	0xbcf340ca	-0.02969398
136	0xbc042921	-0.0080664465
137	0xbdae175b	-0.085005485
138	0xbce7ded3	-0.028304493
139	0xbc975207	-0.01847173
140	0xbb1c5fb1	-0.0023860747
141	0x3cdd1cc7	0.026991261
142	0x3d685f0c	0.05673127
143	0xbd2a3e1a	-0.04156313
144	0x3c8d847b	0.017275086
145	0x3d433d25	0.047665734
146	0x3cdd6526	0.02702577
147	0xbd3264bc	-0.0435531
148	0xbdcf6705	-0.10127071
149	0xbd4a5588	-0.049397975
150	0xbb868a62	-0.004105852
151	0x3d863e60	0.06554866
152	0xbd0f090e	-0.034920745
153	0xbd24a2d8	-0.040194362
154	0xbd02abf7	-0.03190228
155	0xbce2e02c	-0.027694784
156	0x3d0fa822	0.035072453
157	0x3cf7264a	0.030169625
158	0xbb42fc16	-0.0029752306
159	0xbe0079f8	-0.12546527
160	0xbc9d8f68	-0.01923342
161	0x3c846899	0.016163157
162	0xbe6b5d8a	-0.22984901
163	0xbe489735	-0.19588931
164	0xbbaa2c8e	-0.0051932996
165	0xbdf3f7d3	-0.11912503
166	0x3c861454	0.016367115
167	0xbd06795d	-0.032830585
168	0xbcaa036d	-0.020753587
169	0x3d9977f6	0.07493584
170	0xbd2197e8	-0.03945151
171	0xbde51c65	-0.111870565
172	0xbd617f43	-0.055053007
173	0x3c0023ec	0.007821064
174	0x3d453ec6	0.04815557
175	0x3cd89195	0.026436606
176	0x3d98a93e	0.074541554
177	0xbdbd494e	-0.092424974
178	0x3dbc1c6e	0.0918511
179	0xbd20a91b	-0.03922377
180	0xbcf102e4	-0.029420324
181	0xbcbc43a1	-0.022981467
182	0xbd08fb41	-0.03344274
183	0xbd21c6ff	-0.039496418
184	0x3dda3b77	0.10655873
185	0xbd36a164	-0.044587508
186	0x3d0756f4	0.03304191
187	0x3d291f96	0.04128989
188	0x3dc0c251	0.09412063
189	0x3d94d34b	0.072668634
190	0x3e17d4e2	0.14827302
191	0x3dedeefa	0.11617847
192	0xbd927a44	-0.071522266
193	0xbda50614	-0.080578
194	0x3db6a4c9	0.08918149
195	0x3dcaad5e	0.098963484
196	0xbd267cbb	-0.040646296
197	0x3d6d8d3b	0.057996016
198	0xbc82dcb5	-0.015974382
199	0x3dbbb337	0.09165042
200	0x3e7026d1	0.23452307
201	0x3da0eab2	0.078572646
202	0x3cc07f59	0.023498224
203	0xbdfbc421	-0.12293268
204	0xbe506cd8	-0.2035402
205	0x3d4bf3d7	0.04979309
206	0x3d929cd2	0.07158817
207	0xbe69d4c6	-0.22835073
208	0xbdab82dc	-0.08374569
209	0x3c0d4945	0.008623426
210	0xbcb7c475	-0.022432545
211	0xbb9ca553	-0.0047804504
212	0xbbcbf91c	-0.0062247645
213	0xbccedb06	-0.025250923
214	0xbd802323	-0.06256702
215	0xbcb21c19	-0.021741914
216	0xbd42d31c	-0.04756461
217	0xbce89762	-0.028392497
218	0xbcae7157	-0.021294279
219	0x3cca5eb8	0.024703369
220	0xbbdef0f0	-0.0068036243
221	0x3cf6da89	0.030133503
222	0xbd80d3ef	-0.06290423
223	0xbb1367c2	-0.0022492264
224	0xbd4d6884	-0.050148502
225	0xbca3ef1e	-0.02001148
226	0xbc242545	-0.010018651
227	0x3d74376e	0.059623174
228	0xbc85427a	-0.01626705
229	0xbc8d9f48	-0.017287865
230	0xbaf25bb6	-0.0018490467
231	0xbdb4fe08	-0.08837515
232	0xbca0321a	-0.01955514
233	0xbb8eb5a2	-0.0043551484
234	0xbd00cb72	-0.03144402
235	0xbcb99a08	-0.022656456
236	0xbd32e5c5	-0.043676157
237	0xbd284848	-0.041084558
238	0xbd7b2a26	-0.061319493
239	0x3b4a2893	0.0030846938
240	0xbd03cca4	-0.032177582
241	0x3a7505c7	0.0009346869
242	0x3c216f33	0.009853172
243	0xbd25f5e5	-0.040517706
244	0xbd755c17	-0.059902277
245	0x3c9168fe	0.01775026
246	0xbd94887a	-0.07252593
247	0xbd56bdce	-0.052427106
248	0xbcaa0126	-0.0207525
249	0xbcde3023	-0.027122563
250	0xbd164579	-0.036687348
251	0xbdeac35c	-0.11463043
252	0x3bd665f2	0.0065429145
253	0x3cf956ef	0.030436961
254	0x3e166126	0.14685497
255	0x3d04e529	0.032445107

Linear1.bias f4 [256]
0	0xbf0bbff7	-0.5458979
1	0xbf2110a8	-0.6291604
2	0xbf0a0065	-0.5390685
3	0xbf0fdf4a	-0.5620009
4	0xbf1a01eb	-0.60159177
5	0xbef7d397	-0.48403618
6	0xbf3f484c	-0.7471969
7	0xbf0dfe4e	-0.55466163
8	0xbf24cd42	-0.643757
9	0xbf1a5c12	-0.6029674
10	0xbf361ee5	-0.7114089
11	0xbeeb92c6	-0.46010417
12	0xbeffce60	-0.4996214
13	0xbf278804	-0.6544192
14	0xbf438963	-0.7638151
15	0xbeeda985	-0.46418396
16	0xbf0fc6ad	-0.5616253
17	0xbf34b320	-0.70585823
18	0xbf024497	-0.5088591
19	0xbf149a0f	-0.58047575
20	0xbf059bf5	-0.52191097
21	0xbeef5113	-0.46741542
22	0xbf12cca0	-0.5734348
23	0xbefc19b2	-0.49238354
24	0xbf008d76	-0.5021585
25	0xbf136197	-0.57570785
26	0xbf0c3dec	-0.54781985
27	0xbf01b96b	-0.5067355
28	0xbef278d9	-0.47357824
29	0xbf1e6b6a	-0.6188265
30	0xbf098eba	-0.5373341
31	0xbf155b89	-0.58342797
32	0xbf15c68d	-0.5850609
33	0xbeed8f17	-0.4639823
34	0xbf0122cb	-0.50443715
35	0xbf17469d	-0.5909212
36	0xbf2346e9	-0.63780075
37	0xbf0ba7de	-0.5455302
38	0xbf3b3e95	-0.7314237
39	0xbef61442	-0.4806233
40	0xbf2089db	-0.6271035
41	0xbf57155e	-0.8401698
42	0xbf0e99be	-0.5570334
43	0xbf05e250	-0.5229845
44	0xbee00123	-0.43750867
45	0xbf002db0	-0.50069714
46	0xbee3e921	-0.445138
47	0xbf349d1a	-0.7055222
48	0xbf13a57d	-0.5767439
49	0xbec00719	-0.37505415
50	0xbf0995bb	-0.53744096
51	0xbf01149f	-0.5042209
52	0xbeee3ab6	-0.46529168
53	0xbee827ed	-0.4534296
54	0xbf05c87f	-0.5225906
55	0xbedaa7b1	-0.42706063
56	0xbf11186b	-0.56677884
57	0xbf266625	-0.6499961
58	0xbf2c0ef6	-0.6721033
59	0xbf4436bc	-0.7664602
60	0xbf244c38	-0.641788
61	0xbf209d85	-0.62740356
62	0xbf23a9aa	-0.6393076
63	0xbf30e1ab	-0.6909434
64	0xbf350a69	-0.7071901
65	0xbf28b505	-0.65901214
66	0xbf07b573	-0.53011245
67	0xbf23c091	-0.6396571
68	0xbf399e2d	-0.7250698
69	0xbf33d4ee	-0.7024678
70	0xbf18f7a6	-0.5975288
71	0xbf355d0c	-0.70845103
72	0xbf1f0784	-0.6212084
73	0xbf172114	-0.5903485
74	0xbee93547	-0.4554846
75	0xbefbb374	-0.4916035
76	0xbf2e0d91	-0.6798945
77	0xbf0af629	-0.5428186
78	0xbf18f0bc	-0.5974233
79	0xbee3ed97	-0.44517204
80	0xbedbb121	-0.42908576
81	0xbf0903a1	-0.5352116
82	0xbf034089	-0.5127035
83	0xbf057059	-0.52124554
84	0xbf05f591	-0.5232783
85	0xbeff2af2	-0.49837452
86	0xbee62695	-0.4495131
87	0xbf0fe390	-0.5620661
88	0xbf116a1b	-0.5680253
89	0xbf1cbd4a	-0.6122633
90	0xbf1591f5	-0.5842584
91	0xbf4566c5	-0.7710994
92	0xbefbc89b	-0.49176487
93	0xbf17b291	-0.59256846
94	0xbf134e2a	-0.57541144
95	0xbf1f3aa6	-0.62198865
96	0xbf12fefa	-0.57420313
97	0xbf15187b	-0.5824048
98	0xbf0d3110	-0.5515299
99	0xbf2007fe	-0.62512195
100	0xbefc1f79	-0.49242762
101	0xbf032c78	-0.5123973
102	0xbf045003	-0.5168459
103	0xbef7176c	-0.48260057
104	0xbf532f0c	-0.8249366
105	0xbf057db2	-0.5214492
106	0xbefab4a7	-0.48965952
107	0xbf1e0ef5	-0.6174157
108	0xbf08c0ab	-0.5341899
109	0xbf13fd65	-0.57808524
110	0xbf519de4	-0.81881547
111	0xbf0ae124	-0.5424979
112	0xbf1b9a12	-0.6078197
113	0xbf12824b	-0.5723006
114	0xbf10ce47	-0.56564754
115	0xbf07d0aa	-0.5305277
116	0xbf1b41b9	-0.6064716
117	0xbf073a1e	-0.52823055
118	0xbf150753	-0.582143
119	0xbf0e111c	-0.55494857
120	0xbf49a2e6	-0.7876419
121	0xbf049bb7	-0.518001
122	0xbec6cdd1	-0.388289
123	0xbf1ca04d	-0.611821
124	0xbee42963	-0.44562826
125	0xbf0efe4d	-0.5585678
126	0xbf0eeb86	-0.5582813
127	0xbefa0677	-0.48833057
128	0xbeffbbea	-0.49948055
129	0xbf27358f	-0.653161
130	0xbf1999ea	-0.6000048
131	0xbf194012	-0.5986339
132	0xbec16fef	-0.3778071
133	0xbf2a8885	-0.6661456
134	0xbefd0b42	-0.49422652
135	0xbefe3019	-0.4964607
136	0xbf37c79b	-0.7178895
137	0xbf525c62	-0.82172215
138	0xbf3fcb6f	-0.7491979
139	0xbec424a8	-0.38309216
140	0xbf0d0b82	-0.55095685
141	0xbf01a9f4	-0.5064995
142	0xbed2a230	-0.41139364
143	0xbf166674	-0.5875008
144	0xbf11236b	-0.5669467
145	0xbee4ef3c	-0.4471377
146	0xbf0739e7	-0.52822727
147	0xbf1fa904	-0.6236727
148	0xbf374320	-0.715868
149	0xbf0e8049	-0.556645
150	0xbeeccdaf	-0.46250674
151	0xbf181fd8	-0.5942359
152	0xbf3442e9	-0.70414597
153	0xbf18cb39	-0.59685093
154	0xbf08041d	-0.53131276
155	0xbf22e573	-0.6363136
156	0xbf0cf898	-0.55066824
157	0xbf2dda6e	-0.6791142
158	0xbf2bad19	-0.67061
159	0xbedfe87b	-0.43732056
160	0xbf3edb46	-0.74553335
161	0xbf0e73e2	-0.55645573
162	0xbf0b52e8	-0.5442338
163	0xbf191d68	-0.59810495
164	0xbf25e061	-0.647955
165	0xbee78f97	-0.45226738
166	0xbf0bd91b	-0.5462815
167	0xbf0e94bd	-0.55695707
168	0xbed72507	-0.42020437
169	0xbf0ad4fa	-0.54231226
170	0xbf1c5405	-0.61065704
171	0xbefe7c3f	-0.49704167
172	0xbf021112	-0.508073
173	0xbf41ca38	-0.75699186
174	0xbf2314ae	-0.6370343
175	0xbee59afb	-0.44844803
176	0xbf050d66	-0.5197357
177	0xbf208ade	-0.62711895
178	0xbf0756b0	-0.5286665
179	0xbeca1763	-0.39470968
180	0xbf297942	-0.6620065
181	0xbf0a2262	-0.53958714
182	0xbf13c70c	-0.57725596
183	0xbefc07a0	-0.49224567
184	0xbf0517ce	-0.5198945
185	0xbf0449c5	-0.51675063
186	0xbede0641	-0.43364146
187	0xbf23101b	-0.6369645
188	0xbf0d84e8	-0.55280924
189	0xbef7ab8b	-0.48373064
190	0xbf3819ec	-0.71914554
191	0xbf284096	-0.6572355
192	0xbefdddf2	-0.49583393
193	0xbf060da4	-0.52364564
194	0xbf04af87	-0.51830333
195	0xbf22badf	-0.6356639
196	0xbf269f02	-0.65086377
197	0xbf2b52d8	-0.66923285
198	0xbef38ad6	-0.4756686
199	0xbf197896	-0.59949625
200	0xbf07b37a	-0.53008235
201	0xbed12d74	-0.4085499
202	0xbf155358	-0.583303
203	0xbeff4959	-0.49860647
204	0xbefdaa91	-0.49544194
205	0xbf25075a	-0.6446434
206	0xbf134b52	-0.57536805
207	0xbf25331a	-0.645311
208	0xbf19d139	-0.60084873
209	0xbef4e737	-0.47832653
210	0xbf2232f2	-0.63358986
211	0xbf208786	-0.6270679
212	0xbf108638	-0.564548
213	0xbf0f2d04	-0.55928063
214	0xbf3005c5	-0.68758804
215	0xbf1758dd	-0.5911997
216	0xbef1e55b	-0.47245297
217	0xbf10b74b	-0.5652968
218	0xbefe8d24	-0.49717057
219	0xbf16fc7c	-0.5897901
220	0xbef4bf4f	-0.47802207
221	0xbefff828	-0.49994016
222	0xbf13978f	-0.57653135
223	0xbf07d691	-0.5306178
224	0xbf4c8b80	-0.7990036
225	0xbf3b3c19	-0.73138577
226	0xbf05d7ac	-0.52282214
227	0xbf209c69	-0.6273866
228	0xbf37a919	-0.717424
229	0xbef38961	-0.4756575
230	0xbf13a3c3	-0.57671756
231	0xbef535d3	-0.47892627
232	0xbf0b43ea	-0.54400504
233	0xbef6d46a	-0.48208934
234	0xbf18277f	-0.59435266
235	0xbf30cac3	-0.6905939
236	0xbf1b6496	-0.60700357
237	0xbf086f23	-0.5329458
238	0xbf4de5c8	-0.80428743
239	0xbf1732ed	-0.5906208
240	0xbef2f9f2	-0.47456318
241	0xbf2b9ade	-0.67033184
242	0xbf07d1cd	-0.53054506
243	0xbf06aeb3	-0.5261032
244	0xbf0eae92	-0.55735123
245	0xbf08d7d3	-0.5345432
246	0xbee054e2	-0.4381476
247	0xbf3e8e66	-0.7443603
248	0xbf0863b5	-0.5327714
249	0xbf0ff107	-0.56227154
250	0xbf46ed46	-0.777058
251	0xbf098467	-0.53717655
252	0xbf1d773f	-0.6151008
253	0xbf328e10	-0.6974802
254	0xbf27ccec	-0.6554706
255	0xbef4b816	-0.47796696

Linear2.weight f4 [7, 256]
0	0x3db402b6	0.087895796
1	0xbd83c4e7	-0.064340405
2	0xbe27dc55	-0.16392644
3	0xbd73c309	-0.059512172
4	0x3d20424b	0.039125722
5	0xb9477557	-0.00019021831
6	0xbd8b65bd	-0.068065144
7	0x3c8d3644	0.01723779
8	0x3a27a80e	0.00063955865
9	0xbbc09671	-0.005877309
10	0x3d8a8a36	0.06764643
11	0xbd94a86e	-0.07258688
12	0x3d4d5dd6	0.050138317
13	0x3d4135ee	0.047170572
14	0x3dc81c4c	0.09771022
15	0xbd210237	-0.039308753
16	0xbcd554de	-0.026041444
17	0xbdc82dc2	-0.097743526
18	0x3a3b3a97	0.00071422145
19	0xbd810452	-0.06299652
20	0xbd4c6bae	-0.04990738
21	0xbdf3f836	-0.11912577
22	0xbecf0c70	-0.40439177
23	0xbd37a4cb	-0.044834893
24	0xbd01b219	-0.031663988
25	0xbb4c991d	-0.0031219192
26	0xbcc643ad	-0.024202192
27	0xbd8b143c	-0.06790969
28	0xbe3aead6	-0.18253645
29	0xbd8a4676	-0.067517206
30	0xbe1724df	-0.14760159
31	0xbdb778d0	-0.0895859
32	0x3ce33406	0.027734768
33	0x3cfbfe0a	0.030760784
34	0xbd6446e7	-0.05573168
35	0xbd6ed1f5	-0.0583057
36	0x3c40a8b2	0.01175897
37	0x3be113c1	0.00686881
38	0xbb23a090	-0.002496753
39	0xbd037140	-0.032090425
40	0xbd8d1273	-0.068882845
41	0xbd6e5093	-0.05818231
42	0xbd5a10ff	-0.053238865
43	0x3c2aecc7	0.010432429
44	0x394104d5	0.00018407714
45	0x3cf6b8b4	0.03011737
46	0x3e0bf8ef	0.1366918
47	0x3c92c940	0.01791823
48	0x3da36f0c	0.07980165
49	0xbd0d15b3	-0.034444522
50	0x3d03fb07	0.03222182
51	0xbcacb658	-0.021083042
52	0xbc14f1ce	-0.009090854
53	0x39142425	0.00014127845
54	0x3d0eaadf	0.034830924
55	0xbdd2b739	-0.10288853
56	0x3d288244	0.041139856
57	0xbdd58a79	-0.10426802
58	0xbd2761fb	-0.040864926
59	0x3d9d5dc4	0.076839
60	0x3cf10e33	0.029425716
61	0xbd9e0830	-0.077164054
62	0x3b4ae313	0.00309581
63	0x3c876afe	0.01653051
64	0xbd30e284	-0.043184772
65	0x3da9753f	0.08274316
66	0x3da75df5	0.08172218
67	0x3ddff8bc	0.10936114
68	0x3d9c2510	0.076242566
69	0x3d1d7116	0.038437925
70	0x3d1ae47d	0.03781556
71	0xbdb1ffbc	-0.086913556
72	0xbd95b842	-0.07310535
73	0xbd0456f2	-0.03230948
74	0x3dcdce9d	0.10049174
75	0xbda11ca5	-0.07866792
76	0x3ac11d4a	0.001473346
77	0xbd65bc93	-0.05608804
78	0xbda733cb	-0.081641756
79	0xbd1afdd0	-0.03783971
80	0xbcf4e8c4	-0.029896148
81	0x3d94d020	0.07266259
82	0x3d68c389	0.0568271
83	0x3d346ea9	0.044050846
84	0xbdc5b6a8	-0.096539795
85	0xbd235d88	-0.03988412
86	0xbd516912	-0.051125593
87	0xbc879f8c	-0.01655557
88	0x3d3ca8d7	0.046059456
89	0xbcf019ff	-0.02930927
90	0xbd747171	-0.0596785
91	0x3d72913f	0.05922055
92	0xbcbd60e8	-0.023117498
93	0xbdf616f4	-0.12016097
94	0xbd46a224	-0.048494473
95	0xbd98cd44	-0.07461026
96	0x3c971e23	0.018446987
97	0xbdd09792	-0.1018516
98	0xbc0341a2	-0.008011254
99	0x3d289414	0.041156843
100	0xbd1c4607	-0.03815272
101	0xbc3f68dd	-0.011682716
102	0x3c775e2e	0.015098138
103	0xbbef6278	-0.0073054396
104	0x3cf1ca00	0.029515266
105	0x3ae74d53	0.0017646946
106	0x3bc722fc	0.0060771685
107	0x3cc4a6b3	0.02400527
108	0x3c9a26a0	0.018817246
109	0x3dc50964	0.09620932
110	0xbd0e1854	-0.03469117
111	0x3a94ddee	0.0011357644
112	0x3d442a13	0.047891688
113	0xbd2d4990	-0.042306483
114	0xbd86d71b	-0.06583997
115	0xbcff3f90	-0.031158239
116	0xbbb9ba21	-0.0056679402
117	0xbc9d9eb0	-0.019240707
118	0xbd89dc59	-0.06731481
119	0xbbf67719	-0.0075215218
120	0x3da5a3d2	0.08087887
121	0xbd8710cc	-0.065950006
122	0xbdae8c5b	-0.085228644
123	0xbd9d4d2d	-0.07680736
124	0xb8dc5252	-0.00010505751
125	0xbddaab2c	-0.1067718
126	0x3bd5a4a6	0.0065198718
127	0xbdfaaffd	-0.12240598
128	0xbdb95baf	-0.090506904
129	0xbd9388b2	-0.07203807
130	0x3c3eb279	0.011639231
131	0xbd9f3d7c	-0.07775399
132	0xbdac7ddf	-0.084224455
133	0xbd8a8f31	-0.06765593
134	0xbb2feae5	-0.002684289
135	0xbd0ffe09	-0.035154376
136	0xbcf6c365	-0.030122468
137	0x3dad3200	0.08456802
138	0xbd33d626	-0.0439054
139	0xbd83264a	-0.064037874
140	0x3e09b270	0.13446975
141	0xbce6a4b0	-0.028154701
142	0xbcd2858a	-0.025698442
143	0xbc7fcb00	-0.015612364
144	0xbda60153	-0.08105721
145	0xbc6d4f31	-0.014484213
146	0xbd835598	-0.0641281
147	0x3ba2bcff	0.0049663777
148	0xbd40700e	-0.046981864
149	0xbcb34dc4	-0.021887667
150	0xb9043c1d	-0.00012610895
151	0xbdeaa57e	-0.114573464
152	0x3c42fda0	0.011901289
153	0x3acb1d46	0.0015496395
154	0x3cfca78d	0.030841613
155	0xbcf047cf	-0.029331116
156	0x3d71e01c	0.059051618
157	0x3d87500f	0.06607067
158	0x3c71018c	0.014709841
159	0xbd95bbb8	-0.07311195
160	0x3d277d72	0.04089112
161	0x3de6faa5	0.112782754
162	0xbc7ecfc1	-0.015552462
163	0xbcd1500c	-0.025550865
164	0xbd81a0c9	-0.063294955
165	0x3d5c63f4	0.05380626
166	0xbc71b207	-0.014751918
167	0x3d69da7b	0.057093125
168	0xbd5d6beb	-0.054057997
169	0xbd41358b	-0.047170203
170	0xbe65bd7a	-0.22435561
171	0xbc5841c3	-0.013199273
172	0xbb44bd00	-0.003001988
173	0xbc8d75fa	-0.01726817
174	0xbd7a0d92	-0.061048098
175	0xbd942e1e	-0.07235359
176	0x3bd9a368	0.006641794
177	0xbdc30e8d	-0.0952426
178	0xbca14aed	-0.019689048
179	0xbe28641b	-0.16444437
180	0xbd92fa67	-0.07176667
181	0xbce06129	-0.02739008
182	0xbd16d5a4	-0.036824837
183	0xbd16bf19	-0.03680334
184	0xbc1e0d40	-0.009646714
185	0x3b558c4c	0.0032584844
186	0x3c0dee0d	0.008662713
187	0x3ceb7a62	0.02874488
188	0xbe38b6b5	-0.18038447
189	0xbdce3769	-0.100691624
190	0xbd7f1922	-0.062279828
191	0xbc1aa4f9	-0.009438747
192	0xbd66b538	-0.056325167
193	0xbd0ec44a	-0.034855165
194	0xbdb64708	-0.08900267
195	0xbd453f03	-0.048155796
196	0x3db9a05f	0.090637915
197	0xbd4220ab	-0.047394436
198	0xbd9f42f9	-0.07776446
199	0xbb3e669a	-0.0029052855
200	0x3db27fc4	0.087157756
201	0xbd5dfecd	-0.054198075
202	0xbe3fafec	-0.18719453
203	0x3ca820b2	0.020523403
204	0x3b03e167	0.0020123364
205	0x3be5c166	0.0070115803
206	0xbdaf7355	-0.0856692
207	0xbd112d2e	-0.035443477
208	0xbdd85403	-0.10562899
209	0xbc7307cc	-0.014833402
210	0xbdbb3b7f	-0.09142207
211	0x3d512b71	0.05106682
212	0xbdecc0f2	-0.11560239
213	0xbe0e2057	-0.13879524
214	0xbd21cf23	-0.03950418
215	0xbe40042a	-0.18751588
216	0xbcb41ffc	-0.021987908
217	0x3c9633f0	0.018335313
218	0x3e008906	0.1255227
219	0xbd103188	-0.035203487
220	0xbc490aa8	-0.012270607
221	0xbcb38d94	-0.021918096
222	0xbc632381	-0.013863445
223	0xbd09b627	-0.03362098
224	0x3d3c39a3	0.045953404
225	0x3e06f913	0.13180952
226	0xbc8a4c17	-0.016881986
227	0xbe258801	-0.16165163
228	0xbb193997	-0.0023380273
229	0x3b09b9e9	0.0021015352
230	0x3d837eec	0.06420693
231	0xbd9f46ff	-0.07777213
232	0xbd601fc8	-0.05471781
233	0x3df40178	0.11914343
234	0x3dbf80a7	0.0935071
235	0xbccbacde	-0.024862703
236	0xbd03f141	-0.0322125
237	0xbd0e6cdb	-0.03477178
238	0x3decf748	0.11570603
239	0xbe9492ea	-0.29018337
240	0xbd8e3e76	-0.06945507
241	0xbd8595df	-0.06522726
242	0xbdafcd65	-0.08584098
243	0xb9c053e2	-0.0003668359
244	0xbe1fad64	-0.15593487
245	0xbd913650	-0.070904374
246	0xbd2a789c	-0.04161893
247	0x3c461065	0.01208887
248	0x3c5e0991	0.0135520855
249	0x3bb86b07	0.005627993
250	0xbd808d42	-0.06276943
251	0xbdfacd71	-0.12246216
252	0xbdf0356f	-0.11728942
253	0x3c1edc0d	0.009696019
254	0x3e35421b	0.17700998
255	0x3d946eee	0.07247721

Linear2.bias f4 [7]
0	0x3c8b099b	0.016972354
1	0x3c86bee9	0.016448455
2	0x3c851796	0.016246598
3	0x3c8859ec	0.01664444
4	0x3c828d0c	0.015936397
5	0x3c912df1	0.017722102
6	0x3c8791c3	0.016548997
