first_net/saved_model 6500.pth (torch, 52885 bytes, 4 tensors)

Linear1.weight f4 [256, 42]
00000000: 0821 ecbd 042c b23d 1a20 39bd c8d9 523c
00000010: cfdc ab3d 88b0 183d 3844 4b3c fddf 053e
00000020: 84e1 5a3d 3302 843d e535 51bd 6f17 6f3d
00000030: ecbb a3bc f491 7bbc c0c5 343d 4909 4fbc
00000040: 38ee bc3c aea7 6d3d 2483 913d f3fd 8d3c
00000050: 7361 5fbd dd9e 24be 06b9 4e3c 2c7a 02bd
00000060: 7979 b83d 696c 4d3c 4416 b73c 15fb 89bd
00000070: b0c1 0bbe 2eed a4bd abac 2c3d 612d 323d
00000080: f8b3 3d3d f217 873d f0cd 84bd 2cdc bf3c
00000090: 741b 703c 17b0 8ebd f969 45bd 58c6 123d
000000a0: b6d5 f1bd 595f 8bbd eaeb dc3c 2046 fcbc
000000b0: 1d4b b23c c1c7 1ebb 05cd cf3c f96d ba3c
000000c0: c5e2 20bd 7928 b1bd 6a00 993c 8278 45bc
000000d0: 544d 94bd 072e d6bc 23e9 d73c 5074 963d
000000e0: 9a2d a63d ba66 98bd a376 8f3d 1a33 b0bd
000000f0: 5961 bf3c fc37 9bbd 9e3d ec3d dd5e 29bd
00000100: f68e bbbb 209b cdbc a32d fa3d 7e87 ec3d
00000110: b0a4 b33a cb1c cbbb dc0c e63b 7aa5 1abd
00000120: be70 de3d d64d c83d dbfd e0bc 8e5b 14bd
00000130: 083f d5bd 100b 1a3c c8e6 433d 300e 5abd
00000140: c5bc 11be ade1 e63d b520 53bd 2ca1 8ebd
00000150: 6252 983d 819a 6d3d 9f20 4dbd 3a35 343d
00000160: dd45 45bc fc0d 903c a1ac b1bd ae38 5b3a
00000170: 7012 e6bc 6bc7 f93b f9e6 173e 3dea 88bd
00000180: 51fd ef3a ea25 863d 8168 003d a838 323d
00000190: b6cb 223c 7218 383e 8ba4 4b3d 8a92 333d
000001a0: e30e b93d 5bdc c2bc e03f 2a3e eb07 91bd
000001b0: ad41 a03b 4245 33bc a878 adbc 9554 ccbd
000001c0: 9558 d03d e3bf c73d 9ef1 dc3c 4aad cf3c
000001d0: 9bdf 5dbd a810 d53d 9ec8 9f3d 77d6 77bd
000001e0: 5d7b 60bd aaff 4fbc 552b 19bc 094a d23c
000001f0: 5629 c33c cd0b 453d fcb2 63bd 5284 153d
00000200: 3e5d b9bd 32ea 183e f4e3 13bd f038 5b3c
00000210: 4338 e1bd 3b7e 8abd 1ebb 3b3d 9919 a8bc
00000220: 4ce2 b4bb e6b7 30bd 07ec ffbc f86c f0bc
00000230: 77dc a63b eec8 cc3c 4b4d 153d c431 4bbd
00000240: f797 09bd 5651 5d3d 41c2 843c 770e 0dbd
00000250: bf28 ccbd 504c 4ebd 3872 7bbc 59bb cc3d
00000260: 9983 19bd b392 37bd 4838 01bd ef49 22bc
00000270: 225b e73c 71d6 173d ca7c c1bd 0a05 e3bd
00000280: 15bb cebb 9774 ac3c 13ae 75be 9e53 4cbe
00000290: 74ae 7abc 0824 f43b 1479 253c 0876 25bd
000002a0: a916 1dbd 6fae a73d 9bc7 00bd 9c70 e1bd
000002b0: 057b 5bbd 7fb5 39bc e2fc 163d 3b00 e23d
000002c0: 0548 4b3d eabd 98bd cb75 bd3d 1b6e d1bc
000002d0: 567e eabc d943 25bd 86e0 9bbd 8bc2 70bc
000002e0: 860e a93d 2ba6 35bd 760f 94bd 3e1c eb3c
000002f0: 5c04 093e e88c a93c 9bfd 113e 0c7e 123e
00000300: e6c2 6fbd e6c3 dd3c e268 c13d fd8b bc3d
00000310: c88a 2ebd 3084 273d 9a52 8ebc 2b95 d23d
00000320: 9375 b03d 144a ad3d a27a e43c 9f43 a1bd
00000330: b0cd 48be 9359 d43c fd0a 923d a7d8 a2bd
00000340: e5e9 b1bd a4f5 bdbb 75c4 b7bc 53a5 9cbb
00000350: 1cf9 cbbb 06db cebc 2323 80bd 191c b2bc
00000360: 1cd3 42bd 6297 e8bc 5771 aebc b85e ca3c
00000370: f0f0 debb 89da f63c efd3 80bd c267 13bb
00000380: 8468 4dbd 1eef a3bc 4525 24bc 6e37 743d
00000390: 7a42 85bc 489f 8dbc b65b f2ba 08fe b4bd
000003a0: 1a32 a0bc a2b5 8ebb 72cb 00bd 089a b9bc
000003b0: c5e5 32bd 4848 28bd 262a 7bbd 9328 4a3b
000003c0: a4cc 03bd c705 753a 336f 213c e5f5 25bd
000003d0: 175c 75bd fe68 913c 7a88 94bd cebd 56bd
000003e0: 2601 aabc 2330 debc 7945 16bd 5cc3 eabd
000003f0: e0f3 ca3a 0ef6 e83c 3980 1b3e eb60 483d
-0.11529738 0.086998016 -0.04519663 0.012869306 0.08391725 0.03727773 0.012406401 0.13073726
0.053437725 0.06445732 -0.05107679 0.058371957 -0.01998707 -0.015354622 0.0441339 -0.012636491
0.02306281 0.05802124 0.07105091 0.017333006 -0.054536294 -0.16076227 0.012617355 -0.031854793
0.09007544 0.012538054 0.022349484 -0.06737343 -0.13648105 -0.08053051 0.042156857 0.043500308
0.04631421 0.06596364 -0.06484592 0.023420416 0.014654983 -0.0696718 -0.048196767 0.035833687
-0.1180834 -0.068052955 0.026967961 -0.030795157 0.021764332 -0.002422795 0.025366316 0.022757517
-0.039278764 -0.08650298 0.018676955 -0.012052657 -0.07241312 -0.026144994 0.026356285 0.073464036
0.081141666 -0.074414685 0.0700505 -0.08603497 0.023361849 -0.075790375 0.1153519 -0.041350234
-0.0057238294 -0.025098383 0.12215736 0.115492806 0.0013705697 -0.0061985007 0.007020576 -0.037755467
0.108613476 0.09780471 -0.027464798 -0.036220126 -0.10412413 0.009402052 0.047827512 -0.053236187
-0.14232166 0.11273513 -0.051544864 -0.06964335 0.07437588 0.058008675 -0.050079938 0.043996073
-0.0120405825 0.017584793 -0.086755045 0.0008362633 -0.028084964 0.0076226494 0.14834203 -0.066853024
0.0018309747 0.065502 0.031349663 0.043511063 0.009936264 0.17978075 0.049717467 0.043840922
0.090360425 -0.023786714 0.16625929 -0.07081588 0.0048906417 -0.010941805 -0.021175697 -0.0997707
0.10173146 0.09753396 0.02697068 0.025351185 -0.054168325 0.104035676 0.078019366 -0.060507264
-0.05480515 -0.012695232 -0.00934871 0.025670068 0.023823421 0.048106957 -0.055590615 0.036503144
-0.09050988 0.14933088 -0.036106065 0.013380274 -0.10997059 -0.06762358 0.045832746 -0.020520018
-0.0055201408 -0.04314413 -0.031240476 -0.029348835 0.0050921994 0.024998154 0.036450665 -0.049608007
-0.03359219 0.054032646 0.016205909 -0.034437623 -0.09968709 -0.050365746 -0.015347056 0.09996671
-0.037479017 -0.044817638 -0.031547815 -0.009905322 0.028241698 0.03706974 -0.0944763 -0.110849455
-0.006308923 0.021051688 -0.23992185 -0.19953772 -0.015300382 0.0074505843 0.010099668 -0.040395766
-0.03835169 0.081875674 -0.03144036 -0.11007807 -0.053584117 -0.011334776 0.03686226 0.110352
0.04962923 -0.07458098 0.09250983 -0.025565198 -0.028624695 -0.040347908 -0.07611184 -0.01469482
0.08254723 -0.044347923 -0.072295114 0.02869999 0.13380569 0.020697072 0.14256899 0.14305896
-0.05853548 0.02707095 0.09443833 0.09206388 -0.04261282 0.04089755 -0.017373372 0.10282358
0.086161755 0.08461395 0.027890507 -0.07874226 -0.19609714 0.025921619 0.07131002 -0.079514794
-0.0868719 -0.005797105 -0.022432545 -0.0047804504 -0.0062247645 -0.025250923 -0.06256702 -0.021741914
-0.04756461 -0.028392497 -0.021294279 0.024703369 -0.0068036243 0.030133503 -0.06290423 -0.0022492264
-0.050148502 -0.02001148 -0.010018651 0.059623174 -0.01626705 -0.017287865 -0.0018490467 -0.08837515
-0.01955514 -0.0043551484 -0.03144402 -0.022656456 -0.043676157 -0.041084558 -0.061319493 0.0030846938
-0.032177582 0.0009346869 0.009853172 -0.040517706 -0.059902277 0.01775026 -0.07252593 -0.052427106
-0.0207525 -0.027122563 -0.036687348 -0.11463043 0.0015484057 0.02843764 0.15185632 0.048920553

Linear1.bias f4 [256]
00000000: ef07 0fbf d8ff 2abf 21a8 11bf 60d9 11bf
00000010: 9dae 21bf 97d3 f7be 4ce3 49bf 4efe 0dbf
00000020: d589 25bf 70bf 29bf e51e 36bf 803b f2be
00000030: 4d6c 02bf 8c32 2ebf 48fc 42bf 1dab 00bf
00000040: be4e 19bf 5b4f 39bf 8515 0cbf 055f 14bf
00000050: a305 09bf 74d8 fbbe 0fa1 17bf 4904 01bf
00000060: 9189 04bf 8e26 1dbf b3c1 11bf f7b6 05bf
00000070: 1fce 19bf bdaa 1dbf 4db7 09bf 8b81 21bf
00000080: e1ae 20bf 7e33 f2be e815 03bf 9d46 17bf
00000090: e946 23bf 73ae 16bf 953e 3bbf 6239 febe
000000a0: 6c39 1fbf 61e9 75bf e010 18bf c870 0cbf
000000b0: a987 e8be 6a93 03bf d0f9 0ebf 046d 35bf
000000c0: 2360 12bf 517a ccbe e447 12bf 5b5e 09bf
000000d0: c156 eebe c599 e7be 4327 15bf 0827 f3be
000000e0: 6b18 11bf d312 2bbf 359e 31bf 7cd8 44bf
000000f0: 8864 26bf 148c 34bf da37 2cbf 0e6a 32bf
00000100: 39c2 39bf 176b 28bf 4235 09bf e485 3bbf
00000110: 013e 42bf d257 44bf edc3 14bf 0c5d 35bf
00000120: da03 20bf 4e1a 1bbf b824 04bf 7a1b 12bf
00000130: f3a2 2fbf 6f77 0cbf aaa4 1bbf 361b edbe
00000140: 21b1 dbbe a103 09bf c3ae ffbe ecac 06bf
00000150: 914d 2dbf 5e98 00bf 281a f0be a254 0abf
00000160: 71ad 12bf cdd1 1ebf 229c 19bf 5d21 47bf
00000170: aad1 fbbe f5c7 35bf 7e56 27bf 5000 20bf
00000180: fafe 12bf 9ced 15bf bbad 14bf fe07 20bf
00000190: 2702 21bf 88f2 0bbf 43d2 0cbf aace 09bf
000001a0: e4a2 69bf 5a68 06bf a7b4 fabe 9279 1fbf
000001b0: 444f 12bf d257 17bf 1f96 5fbf 06a6 0bbf
000001c0: 2744 2abf 51d8 14bf c742 13bf 4afc 11bf
000001d0: b941 1bbf 5562 05bf 04d8 26bf ecb7 12bf
000001e0: 38a3 4abf 2584 0bbf 2c64 d5be 802f 04bf
000001f0: 6329 e4be 45a6 13bf 5ad9 15bf bdf9 fbbe
00000200: 7bfc 0ebf d84f 39bf 11b4 22bf 3cbd 1fbf
00000210: 43bb c6be 7133 33bf ebe3 0abf 895c 0abf
00000220: 9bc7 37bf 01a3 71bf 2e34 42bf a824 c4be
00000230: c250 1cbf f4a9 01bf a366 e2be 7466 16bf
00000240: 9d7e 16bf 553f f5be e739 07bf 64a4 36bf
00000250: 378d 4cbf 4980 0ebf d1f2 f0be 7c95 1fbf
00000260: e942 34bf e8fb 1abf 3b7c 13bf 3df9 22bf
00000270: f355 13bf 3e33 43bf d2b3 26bf 0cd8 0cbf
00000280: 61f2 47bf e961 28bf c086 1abf def6 18bf
00000290: 7004 28bf 2024 02bf ac3c 27bf e50f 15bf
000002a0: 9e33 f1be e282 1cbf 02c9 2dbf d863 05bf
000002b0: 8519 07bf ff6c 40bf e694 27bf c6f1 16bf
000002c0: 2cdd 0abf bd1b 22bf b3c6 12bf a4bf cdbe
000002d0: 0e0b 39bf a984 10bf 9acb 15bf 8687 00bf
000002e0: c4fa 14bf b499 09bf 9ed8 d9be df58 23bf
000002f0: b5f6 1dbf d6df 03bf c2b6 3bbf 74c3 29bf
00000300: 2c84 02bf f1e1 0dbf b3ca 0dbf a8b9 25bf
00000310: ba21 30bf 6773 2abf bafd f4be 6346 1ebf
00000320: 6b32 0fbf c22b dbbe e073 1ebf 5949 ffbe
00000330: 7915 02bf 7744 3dbf b048 14bf 1a33 25bf
00000340: f920 22bf c797 03bf f64e 25bf 27cf 21bf
00000350: 0dc4 13bf c0d1 0ebf ec16 34bf 7a6c 18bf
00000360: f3e8 f4be 4bb7 10bf 8e0e 11bf c763 29bf
00000370: e7df 06bf 1502 fcbe ecce 17bf deb3 09bf
00000380: 867f 45bf 193c 3bbf 1f14 0bbf c257 26bf
00000390: 9fcd 2ebf ef62 05bf cb37 1fbf a114 00bf
000003a0: 979e 0cbf a26b 09bf a8c4 1abf acbd 21bf
000003b0: c280 26bf 6a9f 0ebf c8e5 4dbf 779c 15bf
000003c0: 817e fdbe de9a 2bbf cdd1 07bf 7987 10bf
000003d0: e7a7 0bbf 6dd0 0bbf 8095 e2be 8c69 3ebf
000003e0: e8a8 0dbf 07f1 0fbf 606a 4abf 08ef 0bbf
000003f0: dc2f 36bf bd46 45bf f25f 3abf f013 ecbe
-0.5587148 -0.66796637 -0.5689717 -0.5697231 -0.63157064 -0.48403618 -0.7886245 -0.55466163
-0.6466344 -0.66307735 -0.7114089 -0.4731102 -0.50946504 -0.6804588 -0.761662 -0.502611
-0.59885776 -0.7238671 -0.54720336 -0.5795749 -0.53524226 -0.49188578 -0.5923013 -0.50397164
-0.5177241 -0.61386955 -0.56936187 -0.5223231 -0.6008014 -0.6158865 -0.5379532 -0.6308829
-0.62766844 -0.4730491 -0.512053 -0.5909212 -0.63780075 -0.5885994 -0.7314237 -0.49653155
-0.62196994 -0.9605923 -0.5940075 -0.5485959 -0.45416 -0.5139681 -0.55849934 -0.7086947
-0.57177943 -0.3993707 -0.57140946 -0.536596 -0.46550563 -0.45234504 -0.58263034 -0.47490716
-0.56677884 -0.668256 -0.6938203 -0.7689283 -0.6499715 -0.7052624 -0.6727272 -0.69693077
-0.72561985 -0.65788406 -0.5359689 -0.73251176 -0.7587586 -0.76696503 -0.5811146 -0.70845103
-0.62505877 -0.6058701 -0.5161853 -0.57073176 -0.68608016 -0.5486974 -0.6079813 -0.46309823
-0.42908576 -0.5352116 -0.4993802 -0.5260761 -0.6769648 -0.50232494 -0.46894956 -0.5403539
-0.572959 -0.6203888 -0.60003865 -0.77785283 -0.49183398 -0.71008235 -0.6536635 -0.62500477
-0.57420313 -0.5856569 -0.5807759 -0.62512195 -0.6289391 -0.5466695 -0.55008334 -0.5383097
-0.91264176 -0.5250298 -0.48965952 -0.62294877 -0.571522 -0.5911838 -0.8733844 -0.54550207
-0.6651024 -0.5814257 -0.5752377 -0.5702559 -0.6064716 -0.5210317 -0.65173364 -0.5731189
-0.791553 -0.5449851 -0.41677988 -0.5163498 -0.44562826 -0.5767558 -0.5853478 -0.49213973
-0.55854005 -0.72387457 -0.6355601 -0.62398124 -0.38814744 -0.7000037 -0.54254025 -0.5404745
-0.7178895 -0.9438935 -0.7586087 -0.38309216 -0.61060727 -0.5064995 -0.4421893 -0.5875008
-0.58786947 -0.4789988 -0.52822727 -0.7134459 -0.79902977 -0.556645 -0.47060254 -0.6233747
-0.70414597 -0.6054063 -0.57611436 -0.6366156 -0.57553023 -0.76250064 -0.65118134 -0.5501716
-0.78104216 -0.657744 -0.6036186 -0.5975169 -0.6563177 -0.5083637 -0.6532695 -0.5822738
-0.47109693 -0.6113721 -0.6788484 -0.52105474 -0.52773315 -0.75166315 -0.65461576 -0.58962667
-0.5424373 -0.63323575 -0.5733444 -0.40185273 -0.72282493 -0.56452423 -0.58513796 -0.5020679
-0.5819514 -0.5375016 -0.42548078 -0.6380748 -0.6170457 -0.5151342 -0.7332574 -0.6631386
-0.5098293 -0.55422884 -0.5538742 -0.64736414 -0.6880146 -0.6658234 -0.47849828 -0.6182615
-0.55936307 -0.42806822 -0.6189556 -0.49860647 -0.50814015 -0.73932594 -0.5792341 -0.645311
-0.6333156 -0.5140347 -0.6457361 -0.63206714 -0.57721025 -0.55788803 -0.70347476 -0.5954052
-0.47833976 -0.5652968 -0.56662834 -0.66167873 -0.526854 -0.49220338 -0.5930011 -0.5379008
-0.7714771 -0.73138577 -0.5432758 -0.6497766 -0.682825 -0.52104086 -0.6219451 -0.5003148
-0.5492949 -0.5367986 -0.60456324 -0.6318004 -0.6504022 -0.55711997 -0.80428743 -0.5844187
-0.49510577 -0.67033184 -0.53054506 -0.56456715 -0.54553074 -0.5461491 -0.44254684 -0.743798
-0.55335855 -0.56227154 -0.79068565 -0.5466161 -0.7116678 -0.77061063 -0.7280265 -0.4610896

Linear2.weight f4 [7, 256]
00000000: 96cd 2bbc 5814 c4bc db85 97bd da46 7cbd
00000010: ca72 ad3c 5775 47b9 8507 0cbd 4436 8d3c
00000020: 791e 8d3a d84d 46bd 368a 8a3d 2a57 fbbc
00000030: 400d 4c3c 7ef9 c93b 0d33 8a3d e1f1 a2bd
00000040: 2e45 7dbc d99b 9cbd 4acc 73bc 9beb 45bd
00000050: e5aa 2bbd 4f22 9cbd f53b e6be a264 f0bd
00000060: 8c4d 44bc 4227 87bc d3c1 55bd 0fa2 6abd
00000070: 01d8 c9bd 5b9e 8bbd f66a 73be ce2d 8e3c
00000080: 6a40 b83c 8c65 31bd e47e 0cbd f5d1 6ebd
00000090: b2a8 403c b950 a23b 90a0 23bb a7d7 1a3c
000000a0: d7cd 21bc c3be a3bd a2a3 9dbd 2817 8a39
000000b0: 7c52 193a c254 0dba dad2 b83d 3af0 343d
000000c0: cbee ae3d de81 a9bc 2d26 22bd 5fe0 acba
000000d0: d69c 053d 2971 07bd 8058 29bd fedb 26be
000000e0: 4482 283d c046 8ebd f174 b0bd 65e9 503c
000000f0: 0751 bcbd e11a a1bd 20b5 4b3c de6a a53d
00000100: dc91 0fbd a19d 613e f870 a43b c839 913d
00000110: 0396 16bd 1dbb a03d 786b a1ba bcff b1bd
00000120: 0895 50bd b453 afbd f555 0d3d 2e65 deba
00000130: 03d7 b1bc 4a21 32bd 1440 893b 488c dcbc
00000140: c4e8 f4bc 20d0 943d 7ac3 a33b 5ee6 c7bc
00000150: 5601 fbbd 0ced 943d 080f 19bd b6b4 98bc
00000160: bafe 563c afd7 eebc 5d67 dfbc 8d21 bdbd
00000170: f05f 93bc 281b 00bd 7b8b 27bc 88fb 9fbd
00000180: 231e 973c fc92 1ebe c78c 9c3c 1494 283d
00000190: 7f98 debd 45d3 053d 9d18 18bc 2b01 243c
000001a0: aa1f 353d 1580 91bc fc22 c73b fa77 503c
000001b0: 3c26 30bd 7642 35bd 3f40 7c3c eea4 5a3c
000001c0: 3112 f7ba cd8a babc 75fc 81bd f1ed e23c
000001d0: 21ba b9bb c438 0ebd 97a4 34bc 4565 ef3c
000001e0: 3618 823d 757c 34bd 27d0 0cbe e618 3cbd
000001f0: 5252 dcb8 0e67 52bd d9a7 98bc cde9 1ebd
00000200: 5228 98bd d358 a9bd 9db1 03ba 7977 b3bd
00000210: 7115 283c df2c 89bd 2d2e f7bc 9ee9 423b
00000220: 65c3 f6bc 3972 9e3d 8e1a 80bd 4a26 83bd
00000230: 8989 b63d b0a4 e6bc c138 d93c 00cb 7fbc
00000240: d9e1 b4bd 689d 00bc 9855 83bd b282 8b3d
00000250: 1438 e1bd c44d b3bc a7b1 6c38 d21b e0bd
00000260: a0fd 423c 9336 353c 24a6 ea3b cf47 f0bc
00000270: 89a1 973d dd0c 5b3c fe5f a0bc bc31 a7bd
00000280: 18ec 963d eacc 183e c1cf 7ebc 85b0 a5bd
00000290: 2817 753c 3df6 dc3c 0cd1 b0bd b9c2 963b
000002a0: cf77 073d e719 4e3d 06ca f6bd 9741 753d
000002b0: 88de d3ba b021 ea37 e004 16bd 4d5d d1bd
000002c0: 9aa7 0abb eaf4 3dbe 7bf4 c03c 6100 11be
000002d0: cad5 ebbc 2f32 30bd 249c 8bbb 096e debc
000002e0: 7261 1b3d 2477 403d b3a7 d6bc 43d2 8e3d
000002f0: eaf8 cfbd 058d e5bc 4c57 ccbd af7e c33b
00000300: 62ea 23bd cabc 2bbd ad24 64bd fd14 3ebd
00000310: 8053 a33d aa75 1dbd 8103 dcbd a30f c7bd
00000320: 4d91 0a3d 3d8f 08be 1574 c5bd b220 a83c
00000330: 285c 943d d923 5e3c c47d aebd 2e2d 11bd
00000340: 199a c6bc 53c9 c43c 83b7 ddbd b480 363d
00000350: 6837 e9bd ecef 9fbd 23cf 21bd d363 2ebe
00000360: 6cc8 d8bc f033 963c f5d4 823d 89ef 113d
00000370: fefe 043c 5f72 8a3d 524a 4f3b 1217 97bd
00000380: 126c 94bd 13f9 063e 4090 303c aeb6 15be
00000390: 2f14 acbb db98 90ba 594a 98bd 030d 3ebd
000003a0: ada8 2dbe 5423 8e3d 2f88 18bd 812a b8bc
000003b0: 7f9b 0ebe 814a b63a 48f7 ec3d 54e6 16be
000003c0: f8ab 09bd df95 85bd 65cd afbd ce2a e1bc
000003d0: ed18 abbd 813d 51bd 4c7c a9bd 3e72 d63c
000003e0: 7dd9 e2ba 076b b83b 853c 04be 6f08 d6bd
000003f0: 8fb1 91bd 4b1c aabb f17e 153e d2fe 1e3e
-0.010486027 -0.023935482 -0.07398578 -0.061591007 0.0211729 -0.00019021831 -0.03418686 0.01723779
0.0010766528 -0.04841408 0.06764643 -0.030681212 0.012454331 0.006163775 0.067480184 -0.07956291
-0.015458388 -0.07646913 -0.014880249 -0.048320394 -0.041911025 -0.07623731 -0.4496762 -0.11737944
-0.011981379 -0.016498212 -0.0521868 -0.057283457 -0.098556526 -0.06817313 -0.23771271 0.017355826
0.022491653 -0.043309733 -0.0343007 -0.0583057 0.01175897 0.0049534705 -0.002496753 0.00945083
-0.009875736 -0.07995369 -0.07697226 0.00026338664 0.0005848778 -0.0005391353 0.09024592 0.04417441
0.0854164 -0.020691808 -0.03958719 -0.0013189426 0.032620274 -0.033066902 -0.041344166 -0.16294858
0.041139856 -0.06947088 -0.08616055 0.012750958 -0.09195142 -0.07866455 0.01243332 0.08077024
-0.03505121 0.22032787 0.0050183497 0.07091099 -0.036764156 0.07848189 -0.0012315353 -0.086913556
-0.050923377 -0.08560887 0.034505803 -0.001696741 -0.02170897 -0.04348878 0.004188547 -0.02692236
-0.029896148 0.07266259 0.004997668 -0.02440184 -0.12256114 0.072717756 -0.03736785 -0.018640857
0.013122255 -0.02915558 -0.027270967 -0.09234915 -0.017990083 -0.0312759 -0.010226126 -0.07811648
0.018446987 -0.15485758 0.019110097 0.041156843 -0.1086893 0.032672185 -0.009283212 0.010010044
0.04421965 -0.01776127 0.0060771685 0.012723917 -0.043005213 -0.044252835 0.015396177 0.013344986
-0.0018850026 -0.022771263 -0.063469805 0.02770135 -0.0056679402 -0.034722105 -0.011025569 0.029223094
0.06352274 -0.044064004 -0.13751279 -0.045922183 -0.00010505751 -0.05136781 -0.018634723 -0.03879719
-0.074295655 -0.08268895 -0.000502372 -0.08763022 0.010259018 -0.066980116 -0.030173386 0.0029741297
-0.030122468 0.0773663 -0.06255065 -0.064037874 0.089129515 -0.028154701 0.02651632 -0.015612364
-0.088321395 -0.007850029 -0.0641281 0.068120375 -0.10997024 -0.021887667 5.6432236e-05 -0.10942806
0.011901289 0.011060375 0.007160919 -0.029331116 0.07403857 0.013369766 -0.019577023 -0.08163783
0.0736925 0.14921919 -0.015552462 -0.08090309 0.014959134 0.026972884 -0.086336225 0.0046008495
0.033073243 0.05031767 -0.12050252 0.059877004 -0.0016164342 2.791066e-05 -0.036625743 -0.10222874
-0.0021157027 -0.18550459 0.023554077 -0.14160301 -0.028788466 -0.04301661 -0.004260557 -0.027152078
0.037934728 0.04698862 -0.026203012 0.06973698 -0.101548985 -0.028021345 -0.09977588 0.0059660296
-0.040018447 -0.04192809 -0.05569904 -0.046406735 0.07974911 -0.03844229 -0.10742856 -0.09719779
0.033829976 -0.13335891 -0.096412815 0.020523403 0.0724414 0.013558351 -0.08520082 -0.035443477
-0.024243401 0.02402178 -0.10826018 0.044556335 -0.11387521 -0.07809433 -0.03950418 -0.17030267
-0.026462756 0.018335313 0.063882746 0.03562883 0.0081174355 0.06760096 0.0031629992 -0.07377447
-0.07247175 0.13180952 0.010776579 -0.14620468 -0.0052514295 -0.0011031883 -0.07436056 -0.046399128
-0.16958876 0.06940332 -0.03723925 -0.022481205 -0.13926505 0.0013907702 0.11570603 -0.147363
-0.033611268 -0.06522726 -0.08584098 -0.027486231 -0.083543636 -0.051084045 -0.08275661 0.026177522
-0.0017307248 0.005627993 -0.12913711 -0.10450827 -0.07113945 -0.005191361 0.14599206 0.15526894

Linear2.bias f4 [7]
00000000: f37c 983c 0569 813c 2e10 8f3c bd3a 833c
00000010: 7565 8d3c 1320 8a3c 5f89 8d3c
0.018614268 0.015797148 0.01746377 0.01601922 0.017260293 0.016860997 0.017277418
