first_net/saved_model 500.pth (torch, 52879 bytes, 4 tensors)

Linear1.weight f4 [256, 42]
-0.096591905 -0.061787743 0.06163992 0.06434652 0.09045533 0.034780428 0.04610956 -0.025867674
-0.06486191 0.04542715 -0.088858545 -0.08200096 -0.042874273 0.039425574 0.07879287 0.01883749
-0.0147022 -0.0739261 0.09855021 -0.026012158 -0.07978071 -0.0594903 0.046122275 -0.050470438
0.08476084 -0.0636257 0.09301196 -0.04897398 0.002027395 -0.058174584 -0.046720978 0.11651323
-0.06121433 0.09106326 -0.012877785 0.07479251 0.13224342 0.10262544 -0.15686147 0.10516847
0.04799174 -0.13375255 0.011077977 -0.105694905 -0.08539672 -0.09492175 0.08598118 0.042994123
-0.024363209 -0.09055759 -0.08996116 0.026249873 0.117854476 0.09830031 -0.08458921 0.09136007
0.10069639 -0.07138574 0.046008725 -0.08127239 0.104664676 -0.12811673 0.076113656 0.040537246
0.04440576 -0.07867773 0.108968556 0.026223404 -0.041564636 0.11236807 0.13936457 -0.013872148
-0.036161993 -0.0415389 0.052629806 -0.04360548 -0.05974724 -0.028934944 -0.10254048 0.04656133
-0.1085336 -0.05001219 -0.057146955 0.08863727 -0.05492194 -0.029790455 -0.12165364 0.053167894
-0.07651451 -0.12401177 -0.014309886 -0.036086723 0.086636506 0.08693463 0.033885293 0.078707635
0.093772426 -0.05115171 0.0023144803 -0.08196945 0.14307241 -0.032158542 0.119264044 0.15889545
0.10926081 -0.05430843 0.09607147 -0.009011156 0.06746025 0.09214652 -0.0052997605 -0.115025595
0.0969068 0.0038718218 -0.14567085 0.016201943 -0.06070103 0.019151673 0.04762671 -0.11984784
0.12402613 0.06860224 0.12869728 -0.065072164 0.0516919 -0.098958835 -0.04143059 -0.12027956
-0.083860934 -0.04724463 0.015087991 -0.05293881 -0.089780115 0.038175218 0.009505764 0.041837744
0.065227926 -0.085877486 0.015075087 -0.08250768 0.07563178 0.07214241 -0.033713482 -0.10781838
0.05007728 -0.053128198 -0.014040083 0.045622855 -0.04861273 -0.021086471 -0.004013645 0.016375137
-0.052059613 -0.073217995 0.08879393 0.0033157791 -0.12916991 -0.027941283 0.07174809 -0.13144718
0.0020515227 -0.047472734 0.04280244 0.09639035 -0.06505562 -0.04296606 -0.03336223 -0.03911065
-0.031338617 0.08180758 0.101586446 -0.12228505 -0.07034478 -0.1367925 -0.10050346 0.09232998
0.082301974 0.061436936 0.105429806 0.07554607 -0.031099739 -0.022215428 0.03784385 -0.10318039
0.04249284 -0.08255357 0.012204542 0.1420719 -0.10419345 -0.091689095 0.06625613 0.124939956
-0.054400314 0.016293416 0.05870702 0.072199985 0.05176679 -0.07495417 0.09573333 -0.12811258
0.028159812 -0.095156744 0.08261501 -0.12812172 -0.02061831 -0.035705935 0.12445339 -0.13375552
-0.039973106 0.0076589542 0.034799565 -0.09530372 -0.0075474586 -0.063561775 -0.11377525 0.05023396
-0.0794156 -0.059548486 -0.02131418 0.013564788 -0.008089075 -0.08734653 -0.08296778 -0.07045436
-0.05479989 -0.10126076 0.07180269 0.097688675 -0.10678506 -0.042003714 -0.08025669 -0.12970054
-0.10871275 0.049915206 0.12194465 -0.031439945 0.11469754 -0.044749703 0.03579353 -0.09094559
-0.03936151 -0.088797905 -0.081531286 -0.13860737 -0.034931883 0.06755896 0.06155054 0.101822905
0.08127649 -0.13245948 -0.09890136 -0.050950132 -0.11531334 0.06327319 0.118013665 -0.0007215598
00000000: fad1 c5bd 2515 7dbd 247a 7c3d 1cc8 833d
00000010: a540 b93d ec75 0e3d 61dd 3c3d 72e8 d3bc
00000020: 52d6 84bd d211 3a3d 78fb b5bd 1ff0 a7bd
00000030: ef9c 2fbd b67c 213d 285e a13d 1451 9a3c
00000040: 7fe1 70bc 9166 97bd b1d4 c93d 7317 d5bc
00000050: 1264 a3bd 1aac 73bd b6ea 3c3d 17ba 4ebd
00000060: 1797 ad3d 314e 82bd 0e7d be3d f198 48bd
00000070: 0bde 043b 7948 6ebd 7f5e 3fbd 7d9e ee3d
00000080: e1bb 7abd 607f ba3d 58fd 52bc d12c 993d
00000090: d26a 073e 492d d23d 4ba0 20be 9162 d73d
000000a0: fd92 443d 6ef6 08be 6780 353c 9276 d8bd
000000b0: 7ae4 aebd 5666 c2bd e716 b03d 9b1a 303d
000000c0: 5a95 c7bc 4276 b9bd 8f3d b8bd f909 d73c
000000d0: b05d f13d ac51 c93d 1c3d adbd fd1a bb3d
000000e0: e939 ce3d b032 92bd a573 3c3d 2472 a6bd
000000f0: 6f5a d63d 0831 03be 7ae1 9b3d 620a 263d
00000100: d0e2 353d ca21 a1bd e82a df3d 77d2 d63c
00000110: ae3f 2abd 3b21 e63d 96b5 0e3e 0148 63bc
00000120: 991e 14bd b224 2abd 5a92 573d a99b 32bd
00000130: 86b9 74bd fa08 edbc be00 d2bd 18b7 3e3d
00000140: dd46 debd 95d9 4cbd ed12 6abd 7587 b53d
00000150: d4f5 60bd 1d0b f4bc 8b25 f9bd 94c6 593d
00000160: a4b3 9cbd e2f9 fdbd 0374 6abc accf 13bd
00000170: 7b6e b13d c90a b23d 4ecb 0a3d 7831 a13d
00000180: c20b c03d 7584 51bd 89ae 173b 99df a7bd
00000190: 9381 123e adb8 03bd b540 f43d 7db5 223e
000001a0: 22c4 df3d 8472 5ebd 1ec1 c43d 87a3 13bc
000001b0: 9928 8a3d 51b7 bc3d 9da9 adbb 8a92 ebbd
000001c0: 1377 c63d 64be 7d3b bd2a 15be f0b9 843c
000001d0: a5a1 78bd f8e3 9c3c 3a14 433d c972 f5bd
000001e0: 6901 fe3d 557f 8c3d 38c9 033e 8e44 85bd
000001f0: e3ba 533d eeaa cabd 1fb3 29bd 2155 f6bd
00000200: 48bf abbd 9683 41bd 9f33 773c 5ed6 58bd
00000210: a3de b7bd 9e5d 1c3d 10be 1b3c 0e5e 2b3d
00000220: 3896 853d 89e0 afbd 7ffd 763c c9f9 a8bd
00000230: d6e4 9a3d 66bf 933d 2617 0abd e2cf dcbd
00000240: d51d 4d3d f49c 59bd 6008 66bc 08df 3a3d
00000250: 241e 47bd 89bd acbc e584 83bb 2725 863c
00000260: 763c 55bd 51f3 95bd 98d9 b53d 8b4d 593b
00000270: 1e45 04be 1ee5 e4bc aaf0 923d 179a 06be
00000280: d772 063b c572 42bd 9c51 2f3d 4e68 c53d
00000290: e23b 85bd 2efd 2fbd d5a6 08bd 7d32 20bd
000002a0: ec5c 00bd bc8a a73d 8e0c d03d 9670 fabd
000002b0: ed10 90bd 5513 0cbe c2d4 cdbd 8017 bd3d
000002c0: f08d a83d 4ca5 7b3d 95eb d73d e6b7 9a3d
000002d0: e1c4 febc 21fd b5bc 2702 1b3d 3e50 d3bd
000002e0: f90c 2e3d d911 a9bd 8ff5 473c 4c7b 113e
000002f0: 6063 d5bd 7ec7 bbbd 4bb1 873d 85e0 ff3d
00000300: ddd2 5ebd c579 853c c676 703d 96dd 933d
00000310: 6a09 543d 9281 99bd d60f c43d f22f 03be
00000320: 68af e63c 8ae1 c2bd 0f32 a93d 5732 03be
00000330: bbe7 a8bc 6340 12bd 6be1 fe3d 35f7 08be
00000340: d7ba 23bd f7f7 fa3b fd89 0e3d 992e c3bd
00000350: ac50 f7bb ad2c 82bd 0003 e9bd 20c2 4d3d
00000360: a5a4 a2bd 1de9 73bd 139b aebc d83e 5e3c
00000370: 0a88 04bc bde2 b2bd 03eb a9bd 604a 90bd
00000380: d975 60bd cd61 cfbd 4a0d 933d 0011 c83d
00000390: 20b2 dabd 160c 2cbd 9f5d a4bd 38d0 04be
000003a0: caa4 debd e373 4c3d 1ebe f93d 2cc7 00bd
000003b0: 8be6 ea3d 774b 37bd 3d9c 123d ae41 babd
000003c0: 8939 21bd addb b5bd e0f9 a6bd 17ef 0dbe
000003d0: bc14 0fbd 5a5c 8a3d 6b1c 7c3d 8788 d03d
000003e0: 4a74 a63d 75a3 07be cc8c cabd 16b1 50bd
000003f0: 6729 ecbd 6095 813d 26b1 f13d 0f27 3dba

Linear1.bias f4 [256]
0.05124602 0.05509506 -0.050568998 -0.10405649 -0.15342493 0.03718931 -0.043423936 -0.06222482
0.08457041 -0.17107382 -0.1156871 -0.10070724 -0.07805297 0.06945598 -0.20374414 -0.034455184
-0.119214475 -0.15034743 -0.18756418 0.052448567 0.0049255947 -0.051873356 0.07837886 0.048033245
0.045526855 0.049663518 -0.16223161 -0.19512637 -0.05568715 -0.07696804 -0.119282275 -0.10290309
0.027023485 0.10092487 -0.12107064 -0.24450909 0.021430904 0.06900358 -0.18319407 0.07734899
-0.074717104 -0.14579391 -0.11511061 -0.04708043 0.0536237 -0.12866186 0.086047485 0.08820478
0.07430349 0.045201916 0.0038349454 0.047260158 0.02915086 0.048597313 -0.04819288 0.033923272
0.022145377 -0.17429441 -0.07428314 -0.2167074 -0.002386488 -0.05593627 -0.17831971 -0.11937162
-0.17649353 0.033845328 -0.048998475 -0.1519688 -0.123835154 0.010882384 -0.19344522 -0.028043859
0.0121041015 0.042747244 0.07023632 0.0017005234 -0.1464101 -0.08453623 -0.012370783 0.005559017
0.09872018 0.07401501 0.011865069 -0.18992455 -0.030148568 -0.032785736 0.034408335 -0.05006688
0.014042932 -0.15922536 -0.09190164 -0.02077207 -0.015660588 -0.05182639 0.037798423 -0.07626545
-0.020412708 -0.022864271 -0.19760257 -0.14595892 0.021087099 -0.08364419 -0.034758765 0.0058251745
-0.09073933 -0.11251927 0.029860409 -0.17032422 0.046276618 0.00791413 -0.1433617 -0.1482997
0.0042769923 -0.10841767 -0.11184472 0.0050836653 -0.042970866 -0.1674757 0.041135382 0.10905816
-0.14686932 -0.042528193 0.09432252 0.086705126 -0.08405072 -0.010936183 -0.15136553 -0.1704537
-0.039705552 -0.117639676 -0.10918461 -0.15258516 0.042326212 -0.013120521 0.0043205665 0.04248923
-0.17800848 -0.15824206 -0.13136251 0.060354296 -0.10217176 -0.0672562 0.03549278 -0.092268616
0.024607165 0.02001475 0.007110578 -0.08283313 -0.014225112 -0.13585202 0.013713597 0.079680786
-0.18654165 -0.15751275 -0.037276495 -0.13646972 -0.09223524 0.070166916 0.075831115 -0.09545833
-0.045798164 0.0199642 0.052852936 -0.20354603 -0.10592669 -0.11393165 -0.10753756 -0.090501584
0.063058734 -0.035262775 -0.14514895 -0.004651217 -0.12929869 -0.15508872 -0.09686959 -0.04323986
-0.16869465 -0.12175737 -0.18667819 -0.11417923 0.04705575 -0.14342955 0.080310866 -0.061190233
-0.03437568 0.046710905 -0.009894717 -0.036853425 -0.1366525 0.06769755 -0.1641054 -0.17738579
-0.12047722 -0.05287723 -0.03396919 -0.094553724 -0.1135353 -0.06870567 0.036625165 -0.08940724
-0.033257883 -0.090785235 -0.11798816 0.06784975 -0.035723988 -0.14266504 0.048875313 -0.10955147
-0.172635 0.0042339843 0.055150006 -0.105789214 0.1022365 0.09881652 -0.06547921 -0.17712253
-0.03089754 -0.093550734 -0.14041378 -0.05224856 -0.12927099 -0.016375054 0.022728795 0.010506983
-0.15198034 -0.20886423 0.062653005 -0.17035551 -0.20573132 0.04737396 0.08260512 -0.005409675
-0.082827404 -0.05501904 -0.14277796 -0.1266228 -0.10003825 0.07711715 -0.08441702 -0.0045123803
-0.13744622 -0.06744743 0.030476065 0.101180546 -0.004615239 0.07416179 -0.028803727 -0.20646395
-0.1303933 -0.114007264 -0.08782369 -0.12386198 -0.10172909 -0.2569507 -0.029180372 0.09132011
00000000: 59e7 513d 5cab 613d 7021 4fbd 921b d5bd
00000010: 6d1b 1dbe d153 183d 4cdd 31bd 74df 7ebd
00000020: 4033 ad3d fa2d 2fbe 5ced ecbd 993f cebd
00000030: 3cda 9fbd f03e 8e3d 4ea2 50be e120 0dbd
00000040: b826 f4bd adf4 19be d310 40be 4fd4 563d
00000050: e266 a13b 2879 54bd 1985 a03d 82be 443d
00000060: 5e7a 3a3d f96b 4b3d 0b20 26be 35cf 47be
00000070: 3618 64bd 6ba1 9dbd 444a f4bd dbbe d2bd
00000080: 5b60 dd3c b3b1 ce3d e2f3 f7bd 9760 7abe
00000090: dd8f af3c c051 8d3d 3a97 3bbe 2669 9e3d
000000a0: 4805 99bd 004b 15be 1dbf ebbd 69d7 40bd
000000b0: 86a4 5b3d efbf 03be aa39 b03d b5a4 b43d
000000c0: 6e2c 983d a525 393d b553 7b3b de93 413d
000000d0: c9cd ee3c fa0d 473d e665 45bd 21f3 0a3d
000000e0: 396a b53c 3c7a 32be c221 98bd 8be8 5dbe
000000f0: a066 1cbb 6e1d 65bd 7199 36be 1c79 f4bd
00000100: b8ba 34be 66a1 0a3d a0b2 48bd b69d 1bbe
00000110: 499d fdbd 074c 323c 8116 46be 3cbc e5bc
00000120: 4850 463c bc17 2f3d 0fd8 8f3d 19e4 de3a
00000130: 87ec 15be 5521 adbd d3ae 4abc 6a28 b63b
00000140: ce2d ca3d 2e95 973d b565 423c 957b 42be
00000150: 21fa f6bc 564a 06bd c1ef 0c3d ee12 4dbd
00000160: 5314 663c f90b 23be ed36 bcbd 302a aabc
00000170: a24a 80bc e947 54bd 85d2 1a3d 0f31 9cbd
00000180: 8d38 a7bc da4d bbbc 5458 4abe 4176 15be
00000190: dabe ac3c a54d abbd 355f 0ebd 1be1 be3b
000001a0: 8bd5 b9bd 8170 e6bd d19d f43c 7969 2ebe
000001b0: 8d8c 3d3d 44aa 013c 69cd 12be e0db 17be
000001c0: 0326 8c3b 150a debd d80e e5bd e094 a63b
000001d0: 3802 30bd c07e 2bbe 937d 283d e259 df3d
000001e0: e964 16be 0b32 2ebd 2a2c c13d 7592 b13d
000001f0: c922 acbd ad2d 33bc 91ff 1abe 6a8b 2ebe
00000200: 4aa2 22bd 12ed f0bd 2e9c dfbd 493f 1cbe
00000210: 405e 2d3d 74f7 56bc 8a93 8d3b 3009 2e3d
00000220: db47 36be 350a 22be e583 06be 1136 773d
00000230: 6d3f d1bd 9ebd 89bd e160 113d 54f7 bcbd
00000240: f794 c93c f9f5 a33c daff e83b 6ba4 a9bd
00000250: 7210 69bc cb1c 0bbe ffae 603c ae2f a33d
00000260: c604 3fbe 064b 21be 3daf 18bd b8be 0bbe
00000270: d4e5 bcbd acb3 8f3d 584d 9b3d a87f c3bd
00000280: db96 3bbd f68b a33c 527c 583d 5f6e 50be
00000290: 18f0 d8bd ff54 e9bd a73c dcbd e558 b9bd
000002a0: f024 813d b36f 10bd eda1 14be 3c69 98bb
000002b0: e066 04be 94cf 1ebe 9063 c6bd 481c 31bd
000002c0: 4abe 2cbe ee5b f9bd 9128 3fbe cdd6 e9bd
000002d0: 88bd 403d 32df 12be 067a a43d 9ca2 7abd
000002e0: 83cd 0cbd ef53 3f3d 731d 22bc 9ef3 16bd
000002f0: a2ee 0bbe 03a5 8a3d 3f0b 28be 9fa4 35be
00000300: c3bc f6bd cb95 58bd 4723 0bbd 62a5 c1bd
00000310: 3285 e8bd 8fb5 8cbd 4504 163d 251b b7bd
00000320: 6b39 08bd 9ced b9bd c7a3 f1bd cff4 8a3d
00000330: 5153 12bd c916 12be 7b31 483d 855c e0bd
00000340: 3bc7 30be 3cbd 8a3b f9e4 613d 04a8 d8bd
00000350: 5f61 d13d 5160 ca3d f719 86bd 9c5f 35be
00000360: d61c fdbc 8797 bfbd a1c8 0fbe 9602 56bd
00000370: 9d5f 04be fa24 86bc bd31 ba3c 7b25 2c3c
00000380: bca0 1bbe 81e0 55be 3850 803d ad71 2ebe
00000390: 3bab 52be 330b 423d e02c a93d a543 b1bb
000003a0: 6aa1 a9bd a55b 61bd 6334 12be 68a9 01be
000003b0: dbe0 ccbd 99ef 9d3d d5e2 acbd 97dc 93bb
000003c0: b4be 0cbe e121 8abd f1a8 f93c bf37 cf3d
000003d0: 6e3b 97bb 23e2 973d cbf5 ebbc 496b 53be
000003e0: d285 05be a47c e9bd e8dc b3bd 5aab fdbd
000003f0: 5757 d0bd 0b8f 83be ad0b efbc 0a06 bb3d

Linear2.weight f4 [7, 256]
0.013957248 0.022578059 0.008192519 -0.013383006 0.044007175 -0.0030649283 0.024528822 0.024930432
0.015386305 -0.018089186 0.015715694 0.015588386 0.0020273738 0.0043632123 0.0003365386 0.018543629
0.021212175 0.0024424812 0.014569789 -0.00888293 0.034337845 -0.04977957 0.006738555 0.038148478
-0.03221179 -0.024410902 -0.02579822 0.0034012285 0.036942836 0.006500265 0.02525162 0.039307907
0.010270763 -0.009054052 -0.021440476 0.002250154 -0.0003849831 -0.014525123 0.0011440378 0.029949822
0.0006121084 -0.016012834 -0.026652986 -0.042235006 0.026914746 -0.012041079 0.022938551 -0.021463556
-0.0015517671 0.01922838 -0.02718399 -0.001695498 -0.033235986 0.039410427 0.021087134 -0.021059712
0.01060904 -0.00034378242 -0.030621586 -0.0014711658 -0.03469175 -0.038830075 0.013900319 0.02107469
-0.03281009 -0.0093634995 -0.025872814 -0.018978415 -0.017986793 -0.010462993 -0.03429937 -0.041075666
0.03016404 -0.04134556 0.02711758 -0.018147703 0.007272671 -0.0084696775 0.006196829 -0.002907953
0.011368699 0.034753468 0.018937808 -0.0063182903 0.0142894685 -0.006284533 0.012314042 -0.0016729586
-0.0025802304 -0.011149327 -0.012305935 -0.004160914 0.025832111 0.0088682175 0.03765703 -0.009456711
0.0018140447 -0.040251333 0.006013238 0.0063073104 0.023741882 -0.07689151 -0.012266356 0.002843541
-0.0071995417 2.9735811e-05 -0.0008087995 -0.02676191 -0.0023998576 0.028951485 0.0050632465 -0.040177863
0.01171373 0.0061371047 -0.063077554 0.009070488 -0.042903718 -0.022805886 -0.00046445391 -0.0076069506
-0.054173537 0.017101418 0.023009293 -0.024080131 0.00037165824 -0.0043561854 -0.018590437 -0.03155175
-0.005685115 0.03314682 -0.007030639 -0.00963771 0.0067790328 0.03439712 0.012882915 0.019663023
-0.019835763 0.010559028 0.031697486 0.009936188 0.008918719 0.0078336615 -0.004802164 -0.028944928
-0.009192602 0.0032789262 -0.047623843 -0.008113276 0.038046237 -0.009804791 -0.007507431 0.0017142319
0.0053192573 -0.0027980453 0.048829455 -0.024661826 -0.010088463 -0.02357131 0.0277923 -0.0026209094
0.010927853 -0.017602839 -0.043765888 0.035329994 0.013132304 0.0016662542 -0.0035156957 -0.025517736
0.015969433 0.010096763 0.023223566 -0.014729112 -0.027180206 0.032552756 0.013623755 -0.02328802
0.03503182 -0.004670443 0.0015165971 0.008489822 0.009632698 -0.022038305 -0.013054007 -0.002755759
-0.008578629 -0.029282749 -0.007121092 -0.0026822756 -0.030240616 -0.0044359798 -0.01810979 -0.022412326
0.017414635 -0.0005153054 -0.0027025933 -0.008912775 -0.021602036 -0.019820241 0.020778656 0.004813349
-0.051319696 0.012352819 0.004462654 -0.0072569363 -0.0036126163 0.006666613 -0.01257266 0.014020204
0.0030939882 0.02301995 -0.0011184409 -0.010454026 0.042808484 -0.014013857 0.017180286 -0.006058408
-0.028203484 0.0061248494 -0.025377057 0.040487017 0.02195616 0.04556911 0.03435298 -0.0046609547
-0.025337163 -0.0025056761 -0.0081820125 -0.03836264 -0.008776492 -0.023165386 0.024209162 -0.0025424424
-0.023113053 -0.0335444 -0.02056013 0.003638744 0.040371 0.01210186 0.007452384 -0.04349344
-0.022618843 0.009291579 -0.027486263 -0.025072012 0.018802838 -0.008764434 -0.023864746 0.0038035593
-0.042845774 0.010867133 -0.0075985556 -0.024176074 0.02020474 0.0012332475 0.013900284 -0.019066842
00000000: f1ac 643c 9ff5 b83c ea39 063c 6544 5bbc
00000010: de40 343d f7dc 48bb abf0 c83c e83a cc3c
00000020: d716 7c3c c62f 94bc 33be 803c 6e66 7f3c
00000030: b0dd 043b 47f9 8e3b 7271 b039 cfe8 973c
00000040: 28c5 ad3c 0912 203b 20b6 6e3c b589 11bc
00000050: d7a5 0c3d aae5 4bbd 19cf dc3b 9441 1c3d
00000060: 83f0 03bd 5ff9 c7bc ca56 d3bc 25e7 5e3b
00000070: 5f51 173d 2d00 d53b 7cdc ce3c 5401 213d
00000080: b446 283c 7257 14bc f0a3 afbc 5277 133b
00000090: 8fd7 c9b9 c8fa 6dbc 8af3 953a 5459 f53c
000000a0: e675 203a 592d 83bc 5d57 dabc 9dfe 2cbd
000000b0: 507c dc3c f247 45bc a1e9 bb3c 57d4 afbc
000000c0: aa64 cbba d684 9d3c f6b0 debc 793b deba
000000d0: 7522 08bd d46c 213d edbe ac3c 6b85 acbc
000000e0: 8ad1 2d3c b23d b4b9 1fda fabc 22d4 c0ba
000000f0: f018 0ebd 490c 1fbd 2abe 633c d4a4 ac3c
00000100: df63 06bd 5d69 19bc 39f3 d3bc 9f78 9bbc
00000110: 0a59 93bc f96c 2bbc 7f7d 0cbd f53e 28bd
00000120: 941a f73c f659 29bd b025 de3c 7eaa 94bc
00000130: 964f ee3b 67c4 0abc c50e cb3b 5b93 3ebb
00000140: c843 3a3c a759 0e3d 7623 9b3c a909 cfbb
00000150: 601e 6a3c 7cee cdbb d6c0 493c 2d47 dbba
00000160: 1519 29bb abab 36bc d59e 49bc 4758 88bb
00000170: dd9d d33c 004c 113c 423e 1a3d 52f0 1abc
00000180: 3dc5 ed3a 95de 24bd b20a c53b 8ead ce3b
00000190: 567e c23c 4c79 9dbd d3f8 48bc b45a 3a3b
000001a0: 22ea ebbb 2b71 f937 9e05 54ba cb3b dbbc
000001b0: ee46 1dbb aa2b ed3c 97e9 a53b 8b91 24bd
000001c0: f2ea 3f3c c419 c93b ce2e 81bd 629c 143c
000001d0: cfbb 2fbd 69d3 babc f381 f3b9 ba43 f9bb
000001e0: 12e5 5dbd 4618 8c3c fc7d bc3c b243 c5bc
000001f0: 20db c239 55be 8ebb f94a 98bc 683c 01bd
00000200: 334a babb f6c4 073d 4661 e6bb 7ce7 1dbc
00000210: a622 de3b ffe3 0c3d dd12 533c 5914 a13c
00000220: 9c7e a2bc c6ff 2c3c 39d5 013d 65cb 223c
00000230: d21f 123c c258 003c 795b 9dbb ea1d edbc
00000240: 919c 16bc 41e3 563b 3811 43bd 8ced 04bc
00000250: 5fd6 1b3d 46a4 20bc e500 f6bb 14b0 e03a
00000260: 2a4d ae3b 695f 37bb 6501 483d 9907 cabc
00000270: 154a 25bc 9f18 c1bc adac e33c 90c3 2bbb
00000280: bd0a 333c d433 90bc dc43 33bd 2fb6 103d
00000290: e028 573c 3766 da3a 9667 66bb 920a d1bc
000002a0: 54d2 823c e56c 253c 593f be3c 6052 71bc
000002b0: 06a9 debc 0a56 053d 2c36 5f3c 85c6 bebc
000002c0: 877d 0f3d 840a 99bb 8ec8 c63a e518 0b3c
000002d0: 77d2 1d3c ad89 b4bc 79e0 55bc f799 34bb
000002e0: 618d 0cbc 60e2 efbc 0d58 e9bb 1ec9 2fbb
000002f0: 2bbb f7bc b25b 91bb fb5a 94bc 0e9a b7bc
00000300: 23a9 8e3c 8f15 07ba fe1d 31bb e306 12bc
00000310: c1f6 b0bc 0f5e a2bc 0038 aa3c 4cb9 9d3b
00000320: 9a34 52bd 7a63 4a3c 743b 923b 98cb edbb
00000330: a5c1 6cbb 9a73 da3b 8ffd 4dbc ffb4 653c
00000340: 82c4 4a3b 5694 bc3c a698 92ba 5d47 2bbc
00000350: f357 2f3d 609a 65bc acbd 8c3c 9c85 c6bb
00000360: fe0a e7bc f6b2 c83b 8ce3 cfbc b7d5 253d
00000370: 68dd b33c ada6 3a3d b6b5 0c3d ecba 98bb
00000380: e28f cfbc 4536 24bb d90d 06bc 2522 1dbd
00000390: 47cb 0fbc 56c5 bdbc 4b52 c63c 1b9f 26bb
000003a0: 9657 bdbc da65 09bd b86d a8bc fe77 6e3b
000003b0: 105c 253d e146 463c 2133 f43b 2d26 32bd
000003c0: 274b b9bc b53b 183c df2a e1bc d263 cdbc
000003d0: 6908 9a3c b398 0fbc 0080 c3bc 2345 793b
000003e0: 0d7f 2fbd 0f0c 323c 4efd f8bb e70c c6bc
000003f0: 6984 a53c eba4 a13a 04be 633c 1132 9cbc

Linear2.bias f4 [7]
0.038621157 0.05937026 0.054980196 0.053764958 0.035127778 0.048596736 0.043570638
00000000: 3831 1e3d 3b2e 733d ea32 613d a538 5c3d
00000010: 25e2 0f3d 5f0d 473d 2077 323d
