first_net/saved_model 5500.pth (torch, 52885 bytes, 4 tensors)

Linear1.weight f4 [256, 42]
00000000: 5ebd 60bc a170 c93c 2919 2dbc 8b48 5f3d
00000010: 09ee 593d 66e6 0cbc 0f5c c4bc 75ff 9f3d
00000020: e921 d63d fb11 87bd e1f7 36bd 79d5 87bb
00000030: 62f3 acbc 9ad9 e9bc e272 a53d d571 bdbc
00000040: 65e7 3fbd b00b 903d 5464 803d 59d6 583c
00000050: 5069 7cbd 1391 39bd 13a6 8b3c 2c5b b0bd
00000060: 2e1a b33d c626 72bd dec1 953c 7977 76bc
00000070: f142 a6bd e3e4 9fbd edb5 8b3d c3be 933c
00000080: 1f3a b83d 0eec f33c c9d7 55bd c035 65bb
00000090: 4410 bb3d bf63 fd38 1fb6 23bd 0168 283d
000000a0: c4ed 96bd 3cd9 83bd 8e78 15bd 4337 9bbd
000000b0: 093e 88bc 5c7f 933b d681 d03c c8ab 7c3c
000000c0: a105 073d 46c5 80bd 9db2 6c3d ad5d 07bc
000000d0: d9e3 60bc dc07 0cbd f28e 49bc bc49 a53d
000000e0: 7f89 653d d817 f8bd bae3 653d 21a8 23be
000000f0: 53e9 933d 2fc0 05bd 71de fd3d 5e4b c9ba
00000100: 4b51 353d 37a5 4fbc 858e 433e 57ad 5e3d
00000110: bc6a d43c 7fc1 523c b07d 0bbd 4717 33bd
00000120: 0fb5 d73d 3a4c ce3c 66d3 c33c d7ef 0dbd
00000130: 7543 a6bd 85be 433d 843d 983d bbf8 d2bd
00000140: 348c 54be db2e 28bd 3e9a 14bd bc16 bbbd
00000150: 88e4 a33d 0438 df3c 77a0 c9bc 57fe a93d
00000160: f673 973c feda 823b b7a9 c8bd 9602 9bbc
00000170: ca21 bbbd 4e79 86bd fd3b 0a3e d13c c3bd
00000180: 273b 853c 7e86 713c 5381 b0bb 9d61 633d
00000190: 7717 20bd 1a37 533e 0383 a13d d903 1c3d
000001a0: 9a9d 893d abda 523c b188 373e cc40 3bbd
000001b0: b195 6abc 5b68 33bd 6a31 adbc 5fe8 83bd
000001c0: e4db a73d fbb3 243e ee4c f23c af1d 5e3d
000001d0: 5e9b e2bc 408c d93d 9c4a 8d3d dfa8 a6bd
000001e0: 165b 9c3c c9f3 efbd 2f77 7dbd a3fd 533b
000001f0: fb88 bb3c f801 3eba 1647 b2bd 9c87 2a3d
00000200: fdb1 f4bd bab0 3f3e 8857 b2bc 3ca2 6b3a
00000210: a8c3 05be bd18 4ebd 7b6a 4b3d a584 41bd
00000220: e47c 313c e3cc afbd d88c c1bc b7b8 02bc
00000230: 0db7 c0bc 8882 e63c 4e1f 123d f365 1fbd
00000240: 76b9 a33c 55ca 3f3d 5ffe 083c 0ace bebc
00000250: 941a d0bd dd28 3cbd e3d2 d1bb 8ae9 913d
00000260: ee34 12bd 7a30 c7bb 0661 5abd 1e8e dcbc
00000270: 4978 133d 2bb6 fa3c e1c5 ab3c f783 01be
00000280: 9e58 48bd af43 153d c9c1 6dbe 1d9a 4bbe
00000290: 79de c0bb 97c4 debd a575 ed3c 2d3f c6bb
000002a0: 7c3d babc eb67 bf3d 9c1d 29bc a10b edbd
000002b0: fa41 6ebd d0fe 943c 5d10 593d 28cc a63c
000002c0: a400 4d3d 8390 d3bd 75e8 933d 44b3 2abd
000002d0: 8722 19bd 9939 a9bc 8f0c 9dbc 35a7 68bc
000002e0: 1d32 c43d de03 87bd 6aa2 3a3d 1f50 573d
000002f0: 833f d83d 2304 933d a3ca fb3d ecb1 e83d
00000300: 99e8 7dbd 101a 95bd bdb3 c83d f38c aa3d
00000310: 3b1b 22bd 0d7d 8c3d 7897 c23d ded2 b63d
00000320: 6bae 7b3e 526c 663d 81c5 0a3d 02ed 43be
00000330: b828 55be cada a7bc c401 f93c a5f0 7abe
00000340: 8b22 c6bd 392a aaba 75c4 b7bc 53a5 9cbb
00000350: 1cf9 cbbb 06db cebc 2323 80bd 191c b2bc
00000360: 1cd3 42bd 6297 e8bc 5771 aebc b85e ca3c
00000370: f0f0 debb 89da f63c efd3 80bd c267 13bb
00000380: 8468 4dbd 1eef a3bc 4525 24bc 6e37 743d
00000390: 7a42 85bc 489f 8dbc b65b f2ba 08fe b4bd
000003a0: 1a32 a0bc a2b5 8ebb 72cb 00bd 089a b9bc
000003b0: c5e5 32bd 4848 28bd 262a 7bbd 9328 4a3b
000003c0: a4cc 03bd c705 753a 336f 213c e5f5 25bd
000003d0: 175c 75bd fe68 913c 7a88 94bd cebd 56bd
000003e0: 2601 aabc 2330 debc 7945 16bd 5cc3 eabd
000003f0: 778d ddbc 477e 013c d980 ed3d 88c8 9a3d
-0.013717024 0.024589838 -0.010565081 0.05451254 0.053205524 -0.008599853 -0.023969678 0.078123964
0.104556866 -0.065952264 -0.04466999 -0.004145321 -0.021112148 -0.028546143 0.08078553 -0.023125568
-0.046851534 0.07033479 0.06269136 0.013234698 -0.06162387 -0.04530437 0.017046964 -0.0861114
0.08745228 -0.05911901 0.01828092 -0.015043133 -0.08118237 -0.078073286 0.06821809 0.018035298
0.08995461 0.029775646 -0.052207742 -0.0034974664 0.09133962 0.00012082559 -0.039968606 0.04111481
-0.07369569 -0.064379185 -0.036491923 -0.075789 -0.016631143 0.0045012664 0.025452536 0.015421815
0.032964353 -0.06287627 0.057787526 -0.00826208 -0.013726198 -0.034187183 -0.012302147 0.08070704
0.05603933 -0.12113923 0.05612538 -0.15982105 0.072222374 -0.032653984 0.12395943 -0.0015357544
0.04426698 -0.012673668 0.19097336 0.05436453 0.025929801 0.012863516 -0.03405541 -0.04372337
0.10532581 0.025182832 0.023904514 -0.034652557 -0.08118335 0.047789115 0.07433608 -0.10301348
-0.20756608 -0.04106031 -0.03627991 -0.091351956 0.08002573 0.02724839 -0.024612648 0.083004646
0.018487912 0.003993391 -0.097979955 -0.018922132 -0.09137304 -0.06566106 0.13499446 -0.09533084
0.016263558 0.014741538 -0.0053865104 0.055513013 -0.039084878 0.20626488 0.078863166 0.038089607
0.06719513 0.012869517 0.17923237 -0.045716092 -0.014317916 -0.043800693 -0.021141727 -0.06440806
0.08196238 0.16084282 0.029577699 0.054227527 -0.027661975 0.10622454 0.06898996 -0.08137678
0.019086402 -0.1171642 -0.06188124 0.0032347224 0.022892466 -0.0007248218 -0.08704965 0.041633233
-0.11948011 0.1871976 -0.021770254 0.00089887134 -0.13062918 -0.05031656 0.049662095 -0.04724564
0.010832999 -0.08584001 -0.02362673 -0.00797861 -0.023524785 0.028138414 0.035674386 -0.038915586
0.019985896 0.04682382 0.008361428 -0.023291606 -0.101613194 -0.045937408 -0.0064033135 0.07124622
-0.03569501 -0.006078777 -0.053315185 -0.026923236 0.036003385 0.030604443 0.02096838 -0.12647997
-0.048912637 0.0364415 -0.23218454 -0.19883008 -0.005885896 -0.1087734 0.028986761 -0.0060500116
-0.022734396 0.09345993 -0.010322001 -0.11574484 -0.05816839 0.01818791 0.05299412 0.020361021
0.05004944 -0.10330298 0.07222072 -0.041674867 -0.037386443 -0.020657348 -0.019171027 -0.0142000215
0.09579871 -0.065925345 0.045565046 0.052566644 0.10558989 0.071785234 0.12294509 0.11362061
-0.0619894 -0.07280362 0.09799907 0.08327665 -0.03957675 0.06859789 0.095015466 0.089269385
0.24578254 0.056255646 0.03387976 -0.1913338 -0.20816314 -0.020490069 0.03039635 -0.24505861
-0.09674557 -0.0012982554 -0.022432545 -0.0047804504 -0.0062247645 -0.025250923 -0.06256702 -0.021741914
-0.04756461 -0.028392497 -0.021294279 0.024703369 -0.0068036243 0.030133503 -0.06290423 -0.0022492264
-0.050148502 -0.02001148 -0.010018651 0.059623174 -0.01626705 -0.017287865 -0.0018490467 -0.08837515
-0.01955514 -0.0043551484 -0.03144402 -0.022656456 -0.043676157 -0.041084558 -0.061319493 0.0030846938
-0.032177582 0.0009346869 0.009853172 -0.040517706 -0.059902277 0.01775026 -0.07252593 -0.052427106
-0.0207525 -0.027122563 -0.036687348 -0.11463043 -0.027044995 0.007903642 0.11596841 0.075577796

Linear1.bias f4 [256]
00000000: cbf0 04bf 7305 17bf d6dc 08bf 7243 0abf
00000010: 64d4 14bf 97d3 f7be 6a01 34bf 4efe 0dbf
00000020: 425a 1bbf f6dc 12bf e51e 36bf 0e60 e9be
00000030: cc2e fbbe 2583 2abf 97a7 45bf 8d40 e6be
00000040: cac7 0cbf 04bd 2dbf 74b4 f0be d1f5 10bf
00000050: ce14 01bf af14 eabe 648f 11bf d5f0 f7be
00000060: 22d9 fabe 7ffa 08bf b5bc 05bf 507d ffbe
00000070: c662 f7be d8cf 1bbf 9c82 06bf 0255 0bbf
00000080: 3dbb 03bf 28c2 debe 3e5d 01bf 9d46 17bf
00000090: e946 23bf 8499 1abf a275 35bf 1881 e5be
000000a0: 0ecf 18bf c965 33bf 1e1b 09bf 5c8d 01bf
000000b0: fb7a cdbe 156d fabe a58b f1be cb2d 29bf
000000c0: a63b 06bf 5bed b9be af66 09bf 050e fbbe
000000d0: 21ef c6be 3c54 dabe 89ae 02bf e3d0 d8be
000000e0: 6b18 11bf e5be 2abf d4e9 2ebf d1eb 43bf
000000f0: 6594 21bf e70c 1cbf e021 22bf 611f 27bf
00000100: 42f5 34bf 08de 1cbf 1b76 06bf a5f9 1cbf
00000110: 36a1 36bf b6d2 21bf ecd4 05bf 0c5d 35bf
00000120: 7b16 1ebf b88e 12bf d7c5 ecbe 118f eabe
00000130: 079c 1ebf 5c0c 09bf d847 16bf 1cb1 ddbe
00000140: 21b1 dbbe a103 09bf 69e6 02bf 0e41 f9be
00000150: b4cd 03bf a7f8 fabe e500 dfbe 898b 0bbf
00000160: ec3a 0cbf 8c46 1bbf 2113 0cbf 6e0d 42bf
00000170: 3a66 e0be 9ba2 17bf cb71 0ebf c48c 0dbf
00000180: fafe 12bf 7b18 15bf bf20 08bf fe07 20bf
00000190: 343a f8be 6a9b ffbe d2d5 01bf c81c e8be
000001a0: 31e1 35bf 44d2 02bf a7b4 fabe fa5d 1ebf
000001b0: 8376 06bf f627 13bf 4723 42bf e0ba 08bf
000001c0: af09 1cbf b81c 0fbf 3105 0dbf cf6f 05bf
000001d0: b941 1bbf 8944 06bf 5dd2 10bf cc04 04bf
000001e0: f8d4 40bf b1da 00bf 9701 c4be a746 18bf
000001f0: 6329 e4be 4f5d 0bbf b2c4 14bf 53b3 f7be
00000200: 547a febe 453c 25bf 014a 10bf cd81 13bf
00000210: fed6 bebe 23eb 18bf b3b5 f1be b1b5 f4be
00000220: 9bc7 37bf 07ee 3ebf fc24 2fbf a824 c4be
00000230: 2af7 02bf f4a9 01bf 1d23 c6be 7466 16bf
00000240: a165 0dbf c3f0 e1be e739 07bf 535a 16bf
00000250: 73cf 18bf 4980 0ebf b910 e5be 6f6f 1abf
00000260: e942 34bf 1ce7 11bf b670 03bf 8184 18bf
00000270: a8d9 05bf a63f 2abf 4c72 19bf 8563 d2be
00000280: fe22 36bf ede7 05bf e852 0bbf 373f 09bf
00000290: ecaf 25bf 5b03 e6be 77f7 0ebf 8a87 06bf
000002a0: e907 d1be 4bdd 0cbf 85a7 14bf bce2 fabe
000002b0: b3f6 04bf 049f 27bf 1034 21bf e632 dbbe
000002c0: f7e2 00bf 578b 1dbf 09d9 05bf e54d c9be
000002d0: 42ba 15bf ea19 f8be aaef 0ebf 55fa f0be
000002e0: 45e5 01bf b455 fbbe 393b d0be 291a 22bf
000002f0: 5634 09bf 97b2 f6be 3b5a 2fbf d9bb 26bf
00000300: ac7c fabe b3bf 00bf 6298 02bf 12bf 20bf
00000310: 60ad 21bf d2f2 26bf 1a7b e1be a14e 19bf
00000320: fb64 f2be 1796 ccbe 48d6 11bf 5949 ffbe
00000330: 46e8 f8be bf5c 1fbf 6d72 10bf 3ef9 24bf
00000340: 43e6 19bf 2a7c e2be 405d 1dbf d8b9 0cbf
00000350: 7184 10bf ac21 09bf c505 30bf 0026 15bf
00000360: 44c9 eebe 4bb7 10bf 1dd1 f7be 8b85 13bf
00000370: 21a5 edbe 0929 ecbe f36f 12bf 89c3 07bf
00000380: cea1 43bf 193c 3bbf af82 04bf f7da 16bf
00000390: 035c 1dbf fd48 ebbe d597 10bf 87c8 f0be
000003a0: ad7d 02bf 89fd fdbe a669 12bf e46e 29bf
000003b0: e95b 1abf 0a6b f8be c8e5 4dbf 31a4 18bf
000003c0: 6c01 edbe b13a 2bbf cdd1 07bf d619 f0be
000003d0: 85cc 08bf 9fc1 06bf a924 dbbe c759 3dbf
000003e0: 9926 02bf 07f1 0fbf 8e66 44bf d2f7 07bf
000003f0: 9e76 1ebf ba9b 27bf d3e7 17bf a0ee f4be
-0.5192992 -0.5899269 -0.5346197 -0.54009163 -0.5813658 -0.48403618 -0.7031466 -0.55466163
-0.606846 -0.5736841 -0.7114089 -0.45581096 -0.4905914 -0.6660636 -0.77208847 -0.44971123
-0.54992354 -0.6786654 -0.47012675 -0.56625086 -0.5042237 -0.45718905 -0.5685942 -0.48425928
-0.48993784 -0.53507227 -0.5224107 -0.49900293 -0.48317546 -0.6086402 -0.52543044 -0.54426587
-0.5145758 -0.43507504 -0.505329 -0.5909212 -0.63780075 -0.60390496 -0.7088262 -0.44825053
-0.5969094 -0.70077187 -0.53557 -0.5060632 -0.4013289 -0.48911348 -0.47176853 -0.660855
-0.52434766 -0.363139 -0.5367231 -0.49034134 -0.38854316 -0.4264239 -0.5104757 -0.42346868
-0.56677884 -0.6669753 -0.68325543 -0.765317 -0.6311706 -0.6095719 -0.6333294 -0.65282255
-0.70686734 -0.6127629 -0.52523965 -0.6131843 -0.7133974 -0.63212144 -0.5227802 -0.70845103
-0.6175305 -0.5724902 -0.4624469 -0.45812276 -0.6195683 -0.53534484 -0.58703375 -0.43299186
-0.42908576 -0.5352116 -0.5113283 -0.48682445 -0.51485753 -0.49017832 -0.4355537 -0.5450979
-0.5477741 -0.6065452 -0.5471669 -0.7580174 -0.43827993 -0.5923249 -0.55642384 -0.55292916
-0.57420313 -0.5824048 -0.53174967 -0.62512195 -0.48481905 -0.4992326 -0.5071689 -0.45334458
-0.7104674 -0.5110209 -0.48965952 -0.61862147 -0.52524585 -0.5748285 -0.7583508 -0.5341015
-0.60952276 -0.55903196 -0.55086046 -0.5212373 -0.6064716 -0.52448326 -0.5657099 -0.5156982
-0.75324965 -0.50333697 -0.38282463 -0.59482807 -0.44562826 -0.5443925 -0.58112633 -0.48379
-0.49702704 -0.6454509 -0.5636292 -0.57619935 -0.372734 -0.5973379 -0.47208938 -0.4779487
-0.7178895 -0.7458195 -0.6841581 -0.38309216 -0.5115839 -0.5064995 -0.38698664 -0.5875008
-0.552332 -0.44129 -0.52822727 -0.58731574 -0.5969154 -0.556645 -0.4473932 -0.60326284
-0.70414597 -0.5699327 -0.5134386 -0.59577185 -0.5228524 -0.6650337 -0.5994003 -0.41091552
-0.71147144 -0.52307016 -0.5442338 -0.53612083 -0.6472156 -0.44924435 -0.5584635 -0.52550566
-0.40826347 -0.55025166 -0.58068115 -0.4900111 -0.51938933 -0.65477014 -0.62970066 -0.4281227
-0.5034632 -0.6154074 -0.52284294 -0.3931724 -0.5848733 -0.4845727 -0.5583445 -0.47065988
-0.5074046 -0.49088824 -0.40670183 -0.6332117 -0.53595483 -0.48183128 -0.68497056 -0.6513038
-0.48923242 -0.5029251 -0.5101377 -0.6279155 -0.63155174 -0.65214264 -0.44039232 -0.59885603
-0.47342667 -0.3995826 -0.5696759 -0.49860647 -0.4861471 -0.62250894 -0.564246 -0.64442813
-0.60116976 -0.44235355 -0.61470413 -0.54971075 -0.5645209 -0.53567004 -0.68758804 -0.5826111
-0.46637928 -0.5652968 -0.48401728 -0.57625645 -0.46415046 -0.46125057 -0.5720207 -0.5303274
-0.7641877 -0.73138577 -0.5176191 -0.58927864 -0.61468524 -0.45954123 -0.5648168 -0.4702799
-0.50973016 -0.49607494 -0.57192457 -0.6618483 -0.60296494 -0.48519164 -0.80428743 -0.59625536
-0.46290147 -0.6688643 -0.53054506 -0.4689471 -0.5343707 -0.5263919 -0.42801407 -0.73965114
-0.50840145 -0.56227154 -0.76718986 -0.5311252 -0.61899745 -0.65471995 -0.5933811 -0.47838306

Linear2.weight f4 [7, 256]
00000000: 22fd 2c3e 1a1b 07bd 6cf8 17be 87d5 db3c
00000010: 5c34 2cb8 5775 47b9 51da 94bc 4436 8d3c
00000020: 0101 7db9 cbc3 6f3c 368a 8a3d 9992 cebd
00000030: ace5 b83d 4916 5e3b 5f73 aa3d fe41 b0bd
00000040: 7977 86bc 340a ccbb 76fb a8b8 c3f4 0abe
00000050: ec8c a5bd 5261 10be 6d8e dbbe c621 24bd
00000060: 06c7 36bd 59ad fbbb 5d54 15bc f01a c9bd
00000070: 33ee cabc e84a 47bc 0c7c 20be ab87 58be
00000080: 640b c7bd d467 bcbd 9319 6abc f5d1 6ebd
00000090: b2a8 403c ef66 5ebc 90a0 23bb 01be 25bd
000000a0: a078 6c3d 1df7 a5bc f034 5bbd 148a cd3c
000000b0: a91b 98bc 3aee 123d e6bb 4dbc 07dd ba3c
000000c0: a93b be3d 1ee2 34bd 9b1f 6d3d f11a 3cbd
000000d0: 3cd2 c0bb d3da 24bb 56ce 69bd 1dd1 b93c
000000e0: 4482 283d ba14 2cbe 1305 63bc ed3a a1bb
000000f0: ca2d af3d 410e 01bd 6910 19bd fb48 d83d
00000100: dd34 2fbd e260 f33d d8d6 373d c6fc 76bc
00000110: 3062 7e3d 2ff3 6c3d 4772 0c3d bcff b1bd
00000120: b7e1 1bbe 72a8 14bd 2817 afbd 9a97 40be
00000130: cff8 1c3d 937d 8abd fe65 813d 82a1 2bbd
00000140: c4e8 f4bc 20d0 943d b400 113d b1a5 22bd
00000150: 8226 83bd 2cd9 49bd d189 a1bc 80e1 7b3c
00000160: 4a5e 803a 46f9 8ebd 8f55 36be e5a1 363c
00000170: 12ee bbbc 0f68 76bc 58b4 d73c 4579 cbbd
00000180: 231e 973c 9297 d0bd ff0c 10bd 1494 283d
00000190: 6b02 8bbd 9da3 13bd 96f6 b6b9 161d 52bb
000001a0: 389e 8bbc 5866 083c fc22 c73b 5860 bf3c
000001b0: 718d e93c b520 fe3a 94d8 fbbc c6a1 063d
000001c0: fcf7 0cbd 00fd 85bd c0c8 693d 85bc 863c
000001d0: 21ba b9bb c5a6 f1bc 1740 55bd e876 6c3d
000001e0: 912f d53d 3369 0fba 8a32 fcbb 3301 0abd
000001f0: 5252 dcb8 e367 13be 60dc 8a3a c809 97bd
00000200: 35b7 8a3b ed97 a9bd 10e6 623c 4085 f3bd
00000210: 6bce 06bd 2bfd 42bd 0b7e 21bd d022 4bbd
00000220: 65c3 f6bc 11ca f23d 51e3 9abd 4a26 83bd
00000230: 176f f63c b0a4 e6bc 4158 8a3b 00cb 7fbc
00000240: 6704 673d f94c cabd 9855 83bd 6b9d 5ebc
00000250: 775a 1bbd c44d b3bc 6289 333d f9f1 b7bd
00000260: a0fd 423c 83af 58bb 63ba b23d f57c f3bc
00000270: db16 eb3c bc67 3b3d 1ee4 0fbd 25ee 94bd
00000280: c793 2b3d 598c 283e c1cf 7ebc 233e cdbc
00000290: c97e 6e39 852e d8bc abb6 5b3c ef76 8e3d
000002a0: c5d6 85bd 17d8 373c 7c23 dcbd f3ac 963c
000002b0: d920 b4ba 44a5 2bbc 5bc3 803b 574e b2bc
000002c0: 6a95 a3ba 3444 efbb 18ae 12bd f9ca 47be
000002d0: cbfa ebbd 5a53 90bd 4c9b 56bd 4e68 7fbd
000002e0: e021 90b9 b4be 1dbc dfda 113b 3877 f2bb
000002f0: 490e 85bd 3568 52bd cc58 8abc 4a53 48bd
00000300: 3db1 e2bd 5214 1ebd ed1c 8fbd e602 d3bd
00000310: 1818 ca3c f40b a0bd e340 00bc e5ac 623c
00000320: 8a7b 1c3d 3623 a8bc f549 07be b220 a83c
00000330: 67ce a0bc 5413 fa3c eebc e7bd fbe0 0ebd
00000340: 1a70 58bd fff7 0c3a 10ba 793c 31b9 d83d
00000350: 624a c8bd 1652 27be 23cf 21bd 4d08 56be
00000360: a227 bdbd f033 963c 1d1a a93d 09e7 fdbc
00000370: a0ac 93bc f01c 9b3d fad5 333d d41d 29bd
00000380: 43e7 b6bd 13f9 063e 8b5f 1d3d 5fd8 90be
00000390: e02f 773b 8db9 bbba 609d 323d 1cd7 7fbd
000003a0: 0528 29be d03f ce3d 54cc 823c 4d16 49bd
000003b0: 8e2f 6f3d 5121 98bd 48f7 ec3d 9c92 0abe
000003c0: 6ea0 cabd df95 85bd 65cd afbd ba3d ef3a
000003d0: 01af 10be 6dfc 20be a15f 9cbd 559b f03c
000003e0: 1edc 0fbb 076b b83b 1780 91bd 01f2 15be
000003f0: e4ad 83be 4723 d0bb e5b9 6f3e 1dee 923d
0.16893438 -0.03298483 -0.14840859 0.026835216 -4.105676e-05 -0.00019021831 -0.018170508 0.01723779
-0.00024128334 0.014634083 0.06764643 -0.10086555 0.090281814 0.0033887795 0.083227865 -0.08606337
-0.01641439 -0.0062268022 -8.0577025e-05 -0.13569932 -0.08083519 -0.14099625 -0.428821 -0.04007127
-0.044623397 -0.0076805768 -0.009114352 -0.09819591 -0.024771785 -0.012163855 -0.1567232 -0.21145503
-0.097189695 -0.09199491 -0.014288324 -0.0583057 0.01175897 -0.013574346 -0.002496753 -0.040464405
0.057732224 -0.020259434 -0.053517282 0.025090255 -0.018567877 0.03587172 -0.0125570055 0.022810472
0.09288723 -0.044160955 0.05789147 -0.04592413 -0.005884437 -0.0025154843 -0.057081543 0.02268272
0.041139856 -0.16804782 -0.01385619 -0.0049203546 0.085536554 -0.031507734 -0.037369166 0.10560795
-0.042775024 0.11883713 0.044882625 -0.015074914 0.062105358 0.057849105 0.03428867 -0.086913556
-0.15222822 -0.036293454 -0.085493386 -0.18807831 0.03832322 -0.06762233 0.063182816 -0.041902073
-0.029896148 0.07266259 0.03540106 -0.039708797 -0.06403829 -0.049279377 -0.019719036 0.015373588
0.0009793725 -0.06981139 -0.17806076 0.011146997 -0.02294067 -0.015039458 0.026331112 -0.0993524
0.018446987 -0.1018516 -0.035168644 0.041156843 -0.067875706 -0.036044706 -0.00034897466 -0.0032060794
-0.017043218 0.008325182 0.0060771685 0.02336137 0.028509827 0.001938841 -0.030742921 0.032869123
-0.034416184 -0.065423965 0.057076216 0.016447315 -0.0056679402 -0.029498467 -0.052063074 0.057730585
0.10409463 -0.0005470693 -0.0076964544 -0.03369255 -0.00010505751 -0.14395098 0.0010594241 -0.073749125
0.0042332658 -0.08280931 0.0138487965 -0.1189065 -0.0329117 -0.04760472 -0.039426845 -0.049593747
-0.030122468 0.11854947 -0.075628884 -0.064037874 0.030082269 -0.028154701 0.0042219465 -0.015612364
0.056400683 -0.098779626 -0.0641281 -0.013587336 -0.03792807 -0.021887667 0.04383219 -0.089816995
0.011901289 -0.0033063598 0.08726957 -0.02972267 0.028697422 0.045753226 -0.03512966 -0.07271985
0.04188898 0.16459788 -0.015552462 -0.025054043 0.0002274468 -0.02638937 0.013410251 0.069562785
-0.06535105 0.011220953 -0.107489556 0.018393015 -0.00137427 -0.010476414 0.003929538 -0.021765871
-0.0012480442 -0.0073018316 -0.03581056 -0.19511022 -0.11522444 -0.07047148 -0.052394196 -0.062355332
-0.0002749106 -0.009627987 0.0022255701 -0.007399466 -0.06496865 -0.05136891 -0.016888045 -0.048907556
-0.11068962 -0.038593598 -0.06987939 -0.10303287 0.024669692 -0.0781478 -0.00782797 0.013835167
0.038203754 -0.020524602 -0.13211806 0.020523403 -0.01962967 0.030526794 -0.11315332 -0.034882527
-0.052841283 0.00053775305 0.015242115 0.105821975 -0.097798124 -0.16339907 -0.03950418 -0.20901604
-0.09236075 0.018335313 0.08256934 -0.030993955 -0.01802665 0.07573879 0.043905236 -0.041288212
-0.089308284 0.13180952 0.038421195 -0.28290078 0.0037717745 -0.0014322266 0.043607116 -0.062461004
-0.16519172 0.10070765 0.015966572 -0.049093533 0.05839496 -0.074282296 0.11570603 -0.1353249
-0.09893881 -0.06522726 -0.08584098 0.0018252649 -0.14129259 -0.15721293 -0.07635427 0.029370943
-0.0021951268 0.005627993 -0.07104509 -0.14643098 -0.25718606 -0.0063518616 0.23410757 0.07174323

Linear2.bias f4 [7]
00000000: 60d3 903c 8670 8c3c 972f 8f3c 0b58 853c
00000010: e0ff 883c 5c9d 893c 2527 813c
0.017678916 0.0171435 0.017478747 0.016277334 0.016723573 0.016798668 0.015765736
