first_net/saved_model 3000.pth (torch, 52885 bytes, 4 tensors)

Linear1.weight f4 [256, 42]
0	0x3c315fa6	0.010826027
1	0xbd53517f	-0.051591393
2	0x3cc74c29	0.024328308
3	0x3d693e7a	0.056944348
4	0x3cc8dc26	0.024519037
5	0xbcf3e769	-0.02977343
6	0x3c97b7b4	0.018520214
7	0x3d189d84	0.037259594
8	0x3d9859a6	0.07438974
9	0x3b8b3623	0.004248397
10	0x3cbd7ec9	0.023131745
11	0xbd775f45	-0.06039359
12	0xbc5d5165	-0.0135081755
13	0xbc53a610	-0.01291801
14	0x3da31777	0.0796346
15	0x3c8b399a	0.01699524
16	0x3cbca2a7	0.023026777
17	0x3db32301	0.08746911
18	0x3d62b27f	0.05534601
19	0x3d0e9ab9	0.034815524
20	0xbc051f03	-0.00812507
21	0x3c6a5ef2	0.014304863
22	0x3c594016	0.013259908
23	0xbd3bd659	-0.045858715
24	0x3d0d1a41	0.034448866
25	0xbd0a9ff6	-0.033843957
26	0x3c825bed	0.015912974
27	0x3c8b8775	0.017032364
28	0xbd9a3e3a	-0.075314
29	0xbcb282ff	-0.02179098
30	0x3b05e48c	0.0020430414
31	0xbd181fdb	-0.037139755
32	0xbd52efa0	-0.051498055
33	0x3d5c3690	0.053762972
34	0xbd48e8e2	-0.04905022
35	0xbc698203	-0.014252189
36	0x3d83e1e4	0.064395696
37	0x3d44ba9b	0.048029523
38	0xbdac0a3d	-0.0840039
39	0x3e20ef81	0.15716363
40	0x3a85385a	0.0010163889
41	0xbdcb8ebf	-0.09939336
42	0xbd51a7d6	-0.05118545
43	0x3bfab0f3	0.0076504885
44	0x3cb3b5ef	0.021937339
45	0xbcef7bc3	-0.029233819
46	0x3cf51c12	0.029920612
47	0xbcff13a6	-0.031137299
48	0xbbb3d97a	-0.0054885717
49	0x3bb49768	0.005511213
50	0x3beba20c	0.0071909484
51	0x3ca9c292	0.020722661
52	0x3d91ab3e	0.0711274
53	0x3d3b7fa4	0.045776024
54	0x3bd88c86	0.0066085486
55	0xbd6893cb	-0.05678157
56	0x3d47480d	0.048652697
57	0x3d340e53	0.043958973
58	0xbcf7288f	-0.030170707
59	0xbd798d0f	-0.06092554
60	0x3dccbd48	0.0999704
61	0xbd4921dc	-0.049104556
62	0x3dcfb7b1	0.10142458
63	0x3cd719fe	0.026257511
64	0xbbdaebca	-0.0066809403
65	0x3d08abdc	0.033367023
66	0x3d9e871f	0.07740616
67	0x3d1c234e	0.038119607
68	0x3d245a10	0.040124953
69	0x3cdd8e3d	0.027045364
70	0xbd977ff7	-0.07397454
71	0x3cef72f1	0.029229613
72	0xbbda91ec	-0.0066702273
73	0x3cda8f03	0.026679521
74	0xbc214105	-0.009842162
75	0x3b6a0e81	0.0035714211
76	0xbd2a266b	-0.041540544
77	0x3c9e8753	0.019351637
78	0xbda0a91f	-0.07844757
79	0x3c8bdea2	0.017073933
80	0xbd9086a6	-0.07056932
81	0x3c21a654	0.009866316
82	0xbd466a35	-0.04844113
83	0xbbe10c88	-0.006867949
84	0xbc178dcf	-0.009250118
85	0x3d7083b2	0.058719344
86	0xbc318340	-0.010834515
87	0x3d0cdd3d	0.034390677
88	0xbcf990b3	-0.030464506
89	0xbd5fe286	-0.05465939
90	0xbcbc9b1f	-0.023023186
91	0x3d35e42a	0.044407047
92	0xbc4a5cb4	-0.012351204
93	0xbd1a3d9c	-0.03765641
94	0x3d610058	0.05493197
95	0x3c6cf2f6	0.014462223
96	0x3d0e7126	0.034775876
97	0xbca5a23b	-0.02021896
98	0xbca3689f	-0.019947348
99	0x3cdbbcb5	0.026823381
100	0x3d00ac2b	0.031414192
101	0x3d82c6ed	0.06385598
102	0x3db811d1	0.08987773
103	0xba92e58b	-0.0011207325
104	0xbd1064b2	-0.03525228
105	0x3d1be5fb	0.038061123
106	0x3d7f057c	0.06226109
107	0xbc97033a	-0.018434156
108	0xbc289db4	-0.010291506
109	0x3d6e773a	0.058219172
110	0x3bef168f	0.0072963904
111	0xbbdd3a97	-0.006751369
112	0x3d202fad	0.039107967
113	0x3d1c33b6	0.038135253
114	0xbd179262	-0.037004836
115	0x3d392bf2	0.045207925
116	0xbd559b63	-0.05215014
117	0x3d0d626d	0.034517694
118	0xbb24339a	-0.002505517
119	0xbaca5eb5	-0.0015439602
120	0xbd904eb0	-0.070462584
121	0x3ce36b6e	0.027761187
122	0xb9609d77	-0.00021420965
123	0x3d75514e	0.05989199
124	0x3d0dbb1e	0.034602277
125	0xbc418ab9	-0.011812859
126	0xbd57672d	-0.05258863
127	0xbb8b0046	-0.004241976
128	0xbd515e8b	-0.051115554
129	0x3ba9086f	0.005158476
130	0x3d453d81	0.048154358
131	0xbc070368	-0.008240558
132	0xbdaef731	-0.08543242
133	0xbcfb1251	-0.030648382
134	0x3a4e0936	0.0007859649
135	0xbd2f3e60	-0.042784095
136	0xbd4360c7	-0.047699716
137	0xbd73bdec	-0.059507295
138	0x3cde1e9b	0.027114203
139	0xbd3bbb92	-0.045833178
140	0xbca74b77	-0.020421727
141	0x3dbfe85b	0.0937049
142	0xbd79d50a	-0.060994186
143	0x3d70948a	0.058735408
144	0x3daf210f	0.08551227
145	0x3cde3fcc	0.02713003
146	0x3da8a29b	0.082341395
147	0x3d333902	0.04375554
148	0xbe235636	-0.15950856
149	0xbd9c545a	-0.07633276
150	0x3be26e69	0.0069101346
151	0x3d95c5b8	0.073131025
152	0xbde0e9a8	-0.109820664
153	0xbd40b004	-0.04704286
154	0x3ce9800b	0.028503438
155	0x3c3bd89e	0.01146522
156	0x3aa24109	0.0012379001
157	0x3cbddddf	0.023177085
158	0x3e0de986	0.13858613
159	0xbd4fe970	-0.050759733
160	0xbd6faa7f	-0.058512207
161	0xbd70d988	-0.058801204
162	0xbe6590f0	-0.2241857
163	0xbc1d9f86	-0.009620553
164	0xbd94e473	-0.07270136
165	0xbd655da1	-0.055997495
166	0x3c8d2520	0.017229617
167	0xbc49df22	-0.012321265
168	0x3d24a998	0.0402008
169	0x3d2f34f5	0.042775113
170	0xbc96ce17	-0.018408818
171	0x3c620a59	0.013796412
172	0xbcdf1751	-0.027232798
173	0xbda56825	-0.080765046
174	0x3d178e51	0.037000958
175	0x3d4c3a12	0.049860068
176	0x3c6e2064	0.01453409
177	0xbd871fc1	-0.065978535
178	0x3e118f85	0.14214905
179	0x3dc24a7f	0.09486865
180	0xbc8b88e0	-0.01703304
181	0x3ca4794a	0.020077366
182	0x3d6386f4	0.055548623
183	0xbd1a3462	-0.037647612
184	0x3caa639b	0.020799449
185	0x3d0c3745	0.034232397
186	0xbc9f163a	-0.019419778
187	0x3c463e5f	0.012099831
188	0xbc80f919	-0.015743779
189	0x3d09b431	0.03361911
190	0x3c8216b1	0.01587996
191	0x3d81303c	0.06308028
192	0x3d0d8093	0.034546446
193	0x3c62394c	0.013807606
194	0x3d5c0ee0	0.053725123
195	0x3c851851	0.016246947
196	0xbd4eb4df	-0.05046546
197	0x3d016294	0.031588152
198	0xbb919c96	-0.0044437153
199	0xbc345c6d	-0.011008364
200	0x3d0acbee	0.03388589
201	0x3ca1fe5d	0.01977461
202	0x3d20209c	0.0390936
203	0xbe3db17a	-0.18524733
204	0xbcb579cf	-0.02215281
205	0x3d669247	0.056291845
206	0x3dad6101	0.08465768
207	0xbdab79de	-0.08372854
208	0xbdae0de0	-0.0849874
209	0xbc6d9073	-0.014499771
210	0xbc5dd4fc	-0.013539549
211	0xbcd7dbc7	-0.026349915
212	0xbc97e6fb	-0.018542757
213	0x3bb2e42d	0.0054593296
214	0xbdc614e7	-0.096719556
215	0xbd335074	-0.043777898
216	0xbd759562	-0.059956916
217	0xbd1aaea4	-0.037764207
218	0xbd255e2c	-0.040373012
219	0x3d3f25ba	0.04666684
220	0x3cb4fab0	0.022092193
221	0x3c4dad74	0.0125535615
222	0xbd3b4532	-0.045720287
223	0x3c2d818c	0.010589968
224	0xbd281fc9	-0.041045938
225	0xbc8aaad4	-0.01692716
226	0xbbeeefae	-0.0072917556
227	0x3dba58e3	0.09098985
228	0x3c0c64fb	0.0085689975
229	0xbd4ec7a4	-0.05048336
230	0xbc91ea76	-0.017811995
231	0xbdc7c903	-0.09755137
232	0xbc9ba26a	-0.018998343
233	0xbc179713	-0.0092523275
234	0xbd436cc8	-0.047711164
235	0xbd3e5e06	-0.046476386
236	0xbcbf3281	-0.023339512
237	0xbccebaea	-0.025235612
238	0xbd87aced	-0.0662478
239	0x3b0043e0	0.0019571707
240	0xbd1897fe	-0.037254326
241	0x3c12b997	0.008955381
242	0xbc22eb7d	-0.00994384
243	0xbc7608f7	-0.015016786
244	0xbda54325	-0.080694474
245	0x3cba52b2	0.02274451
246	0xbd92ae4a	-0.07162149
247	0xbd67fa4d	-0.05663519
248	0xbc49709f	-0.012294917
249	0xbd6eef97	-0.05833396
250	0xbc3236d7	-0.010877333
251	0xbdc82942	-0.09773494
252	0xbcf9cc55	-0.03049294
253	0x3cf42f66	0.029807758
254	0x3cd540ed	0.026031936
255	0x3c9d2867	0.019184304

Linear1.bias f4 [256]
0	0xbec5cc3e	-0.38632387
1	0xbeec1dcd	-0.46116486
2	0xbef00047	-0.46875212
3	0xbeae7eb1	-0.34081033
4	0xbedb4efd	-0.428337
5	0xbeea4596	-0.45756215
6	0xbee68911	-0.45026448
7	0xbedacb46	-0.4273321
8	0xbeaf3b3b	-0.34224877
9	0xbebd811e	-0.3701257
10	0xbeeade97	-0.45872948
11	0xbecd00df	-0.40039727
12	0xbee291b1	-0.4425178
13	0xbeba959f	-0.36442277
14	0xbecc744a	-0.39932472
15	0xbeb2e341	-0.34939006
16	0xbea62a45	-0.32454124
17	0xbeef135e	-0.46694463
18	0xbecfc809	-0.40582302
19	0xbede8ec0	-0.43468285
20	0xbeeb53df	-0.45962426
21	0xbecbd4ea	-0.39810878
22	0xbeea298c	-0.45734823
23	0xbec0d4f0	-0.37662458
24	0xbed98c95	-0.42490068
25	0xbeacc591	-0.3374448
26	0xbedd64dc	-0.43241012
27	0xbed82f13	-0.42223415
28	0xbec78cb1	-0.38974527
29	0xbef365f0	-0.4753871
30	0xbebfbe6f	-0.37449977
31	0xbed8ed2f	-0.42368457
32	0xbee330bc	-0.4437312
33	0xbe9ada62	-0.30244738
34	0xbec15609	-0.37760952
35	0xbedc9d24	-0.4308864
36	0xbeb48b15	-0.3526236
37	0xbec6f68a	-0.3885997
38	0xbeeb0e0d	-0.45909157
39	0xbea87855	-0.32904306
40	0xbedf6d49	-0.43638065
41	0xbef8b54e	-0.48575824
42	0xbed8e9c6	-0.42365855
43	0xbe85700f	-0.26062056
44	0xbe996309	-0.2995837
45	0xbece84a8	-0.40335584
46	0xbebca54f	-0.3684487
47	0xbecf6725	-0.4050838
48	0xbea9f11e	-0.3319177
49	0xbeb7e183	-0.3591424
50	0xbeb2fb93	-0.3495756
51	0xbeaaa0f5	-0.33325925
52	0xbe9f6fc7	-0.31139967
53	0xbe92eb21	-0.28695014
54	0xbec73883	-0.38910303
55	0xbe953e4c	-0.2914909
56	0xbef40103	-0.47657022
57	0xbf012bc4	-0.50457406
58	0xbedcc04e	-0.43115467
59	0xbf0554b8	-0.52082396
60	0xbeee6118	-0.46558452
61	0xbee07932	-0.43842465
62	0xbef0e39b	-0.4704865
63	0xbefe98eb	-0.49726042
64	0xbeedbb40	-0.46431923
65	0xbecb3028	-0.39685178
66	0xbec7be66	-0.3901245
67	0xbf0d5422	-0.552065
68	0xbf03bee6	-0.5146316
69	0xbeb65f5d	-0.3561963
70	0xbec69c9c	-0.38791358
71	0xbebd9021	-0.37024024
72	0xbeecb003	-0.46228036
73	0xbec09b63	-0.3761855
74	0xbe9ce165	-0.30640712
75	0xbea10f5a	-0.31457025
76	0xbef18faa	-0.4717992
77	0xbedaa31e	-0.42702574
78	0xbeacd4d4	-0.33756125
79	0xbec534f1	-0.38516954
80	0xbe84fc65	-0.25973812
81	0xbeb8b26d	-0.36073628
82	0xbed5787b	-0.41693482
83	0xbecc2432	-0.39871365
84	0xbeb8f672	-0.36125523
85	0xbed8ba9b	-0.4232987
86	0xbec4d77b	-0.3844565
87	0xbed97d9e	-0.4247865
88	0xbecc4f0c	-0.39904058
89	0xbee6c916	-0.4507529
90	0xbed4b906	-0.41547412
91	0xbee63b5d	-0.44967166
92	0xbea4bdfd	-0.321762
93	0xbecd2fce	-0.40075535
94	0xbecafe1e	-0.39647
95	0xbec077c3	-0.3759137
96	0xbeeaabe0	-0.45834255
97	0xbed24633	-0.41069183
98	0xbec36cda	-0.38168985
99	0xbee98342	-0.45607954
100	0xbebacabd	-0.36482802
101	0xbea92497	-0.33035728
102	0xbeb01455	-0.34390512
103	0xbea7399f	-0.3266115
104	0xbebfffb1	-0.37499765
105	0xbeeb6dec	-0.459823
106	0xbec0f985	-0.37690368
107	0xbeb2dce2	-0.34934145
108	0xbeb2f954	-0.34955847
109	0xbed3d27b	-0.4137152
110	0xbf07c4d4	-0.5303471
111	0xbecb9115	-0.39759126
112	0xbf0015ae	-0.5003308
113	0xbef619d5	-0.48066583
114	0xbecf4cc3	-0.40488252
115	0xbea45f06	-0.32103747
116	0xbecad9d6	-0.3961932
117	0xbeec61db	-0.46168408
118	0xbea87b29	-0.32906464
119	0xbe9fc3b0	-0.31203985
120	0xbeb79b15	-0.35860506
121	0xbecc9952	-0.39960724
122	0xbeba3b67	-0.36373445
123	0xbed14ed0	-0.40880442
124	0xbebdf14a	-0.3709815
125	0xbeb6feb4	-0.35741198
126	0xbeea4b14	-0.45760405
127	0xbece32e4	-0.402732
128	0xbe9ecfd1	-0.31017926
129	0xbef2fdd0	-0.4745927
130	0xbebe8539	-0.37211016
131	0xbeb94353	-0.36184177
132	0xbea8e20e	-0.32984966
133	0xbecce431	-0.40017846
134	0xbeba1910	-0.36347246
135	0xbec1d9b6	-0.37861413
136	0xbf12747b	-0.57208985
137	0xbef6d04f	-0.48205802
138	0xbedcb7a9	-0.43108872
139	0xbe9f65b6	-0.31132287
140	0xbec25d9d	-0.37962046
141	0xbedd7c85	-0.43259063
142	0xbea4f979	-0.32221583
143	0xbeea1099	-0.45715788
144	0xbec42ece	-0.3831696
145	0xbeb543f1	-0.35403398
146	0xbe9e2f78	-0.3089559
147	0xbee22590	-0.44169283
148	0xbec0789f	-0.37592027
149	0xbef2fe55	-0.47459665
150	0xbebcc85c	-0.36871612
151	0xbedb006b	-0.42773756
152	0xbf1983e4	-0.59966874
153	0xbee53920	-0.44770145
154	0xbeb838ca	-0.35980827
155	0xbed68097	-0.4189498
156	0xbee1c823	-0.44098005
157	0xbec4b92d	-0.38422528
158	0xbec96638	-0.393358
159	0xbeb7dd2c	-0.35910928
160	0xbef54539	-0.47904375
161	0xbed47fe4	-0.41503823
162	0xbed3861f	-0.41313264
163	0xbed3e4fa	-0.41385633
164	0xbee02e42	-0.43785292
165	0xbea63214	-0.32460082
166	0xbeab9c21	-0.33517554
167	0xbed89b73	-0.42306098
168	0xbec25a67	-0.37959597
169	0xbebc82cb	-0.36818537
170	0xbebed8d7	-0.3727481
171	0xbec8e3be	-0.39236253
172	0xbebc53d3	-0.36782703
173	0xbf00218e	-0.500512
174	0xbee3c047	-0.44482633
175	0xbea4df45	-0.3220159
176	0xbedbc475	-0.42923322
177	0xbef740d7	-0.48291656
178	0xbefa66b8	-0.48906493
179	0xbe9ee303	-0.3103257
180	0xbed44750	-0.41460657
181	0xbee0e4a4	-0.4392444
182	0xbed5474a	-0.41655952
183	0xbed7fe9c	-0.4218644
184	0xbed403c4	-0.41409123
185	0xbeb46d75	-0.3523976
186	0xbe825c0d	-0.25460854
187	0xbee6d365	-0.45083156
188	0xbefc2512	-0.49247032
189	0xbe987b92	-0.29781777
190	0xbee88e4e	-0.4542107
191	0xbf14ee45	-0.5817607
192	0xbedb4810	-0.42828417
193	0xbebd949d	-0.37027445
194	0xbeb779d4	-0.35835135
195	0xbeebb917	-0.4603965
196	0xbee24659	-0.44194296
197	0xbeff6c61	-0.49887374
198	0xbebd2018	-0.36938548
199	0xbef42b90	-0.47689486
200	0xbeca224d	-0.39479294
201	0xbec1df18	-0.3786552
202	0xbec8bfa4	-0.3920871
203	0xbed2f601	-0.4120331
204	0xbed5ed50	-0.41782618
205	0xbee52b31	-0.44759515
206	0xbe9d9b3e	-0.30782503
207	0xbedc090d	-0.42975655
208	0xbefea55f	-0.49735543
209	0xbeaa2a54	-0.3323542
210	0xbece5ce2	-0.4030524
211	0xbed2bf16	-0.41161412
212	0xbe9fc00c	-0.31201208
213	0xbec55320	-0.38539982
214	0xbee382b1	-0.44435647
215	0xbef9c5ec	-0.48783815
216	0xbeb6d3ff	-0.35708615
217	0xbedc43e2	-0.4302054
218	0xbeac96cd	-0.33708802
219	0xbed7942a	-0.42105228
220	0xbed72ee6	-0.42027968
221	0xbeb9c24e	-0.36281055
222	0xbe9c5672	-0.30534703
223	0xbecd42b2	-0.40089947
224	0xbec949b8	-0.39314055
225	0xbf0051b7	-0.50124687
226	0xbebdc2ef	-0.37062785
227	0xbeda6a93	-0.42659435
228	0xbeea839b	-0.45803532
229	0xbea86634	-0.32890475
230	0xbea08470	-0.31351042
231	0xbed0a770	-0.40752745
232	0xbee7c22d	-0.45265332
233	0xbed429b4	-0.41438067
234	0xbedf8217	-0.43653938
235	0xbeffe7de	-0.49981588
236	0xbef18eec	-0.47179353
237	0xbeb9ff6f	-0.36327693
238	0xbef6b98f	-0.48188445
239	0xbed9d3c1	-0.42544368
240	0xbedda959	-0.43293265
241	0xbee31a70	-0.44356108
242	0xbee278fe	-0.44232935
243	0xbeb60bb4	-0.35555804
244	0xbebfdbdc	-0.37472427
245	0xbed53f86	-0.41650027
246	0xbeaf5577	-0.34244892
247	0xbf0b9782	-0.5452806
248	0xbedfaca0	-0.4368639
249	0xbec6f441	-0.38858226
250	0xbf06a0a1	-0.5258885
251	0xbee473e7	-0.44619676
252	0xbefe362e	-0.4965071
253	0xbf0d6b38	-0.5524173
254	0xbed211e5	-0.41029277
255	0xbe9326e7	-0.28740618

Linear2.weight f4 [7, 256]
0	0xbcd71969	-0.026257234
1	0xbd27f7ea	-0.041007914
2	0xbdc47f14	-0.09594551
3	0xbe32f8c2	-0.17477706
4	0x3bafaa8e	0.005360908
5	0xb9daca59	-0.0004173096
6	0x3bb368b3	0.0054751276
7	0xbcb01857	-0.021495981
8	0xbce7bc82	-0.02828813
9	0xbcb690b2	-0.022285793
10	0x3bf01503	0.0073267235
11	0xbd8b2a6d	-0.067952015
12	0xbd3da06e	-0.046295576
13	0xbd86965b	-0.06571647
14	0xbbedfa77	-0.0072625238
15	0xbbf63c23	-0.007514493
16	0xbd286803	-0.04111482
17	0xbd3968c3	-0.045265924
18	0x3a586adc	0.00082556694
19	0x3d2045f4	0.039129212
20	0xbcb2073b	-0.021731963
21	0x3b6be742	0.0035995995
22	0xbdc5c1bd	-0.09656093
23	0x3c3c6be5	0.011500333
24	0x3daa94b4	0.08329144
25	0xbd911b02	-0.070852295
26	0xbd3ab7bc	-0.04558538
27	0xbda48dfc	-0.08034894
28	0xbceca144	-0.028885491
29	0xbcf64cc4	-0.030065902
30	0xbdc9445e	-0.09827493
31	0x3ccdf801	0.025142672
32	0xbb2d06c0	-0.0026401728
33	0xbb6f0c2a	-0.0036475756
34	0xbd3e64d7	-0.046482887
35	0xb95805d8	-0.00020601542
36	0x3d8eb6bd	0.06968448
37	0xbd70f768	-0.058829695
38	0x3c2ca2f1	0.010536895
39	0xbc926954	-0.01787249
40	0x3d839008	0.06423956
41	0x3d0d6dae	0.034528427
42	0xbd6d8afa	-0.057993867
43	0xbd882203	-0.06647112
44	0xbad264cb	-0.0016051767
45	0xbbec06a7	-0.0072029415
46	0x3c8500de	0.016235765
47	0xbaa7ca82	-0.0012801441
48	0x3be2d926	0.006922859
49	0x3ce454a6	0.027872395
50	0xbc2380a1	-0.009979398
51	0xbc139283	-0.009007099
52	0xbb2d732c	-0.0026466353
53	0xbd52c676	-0.0514588
54	0xba1dbc09	-0.0006017094
55	0x3cc7ca96	0.024388593
56	0xbd5bed2a	-0.053692974
57	0xbc722dfc	-0.014781471
58	0x3a93fa6b	0.001128984
59	0xbc6a35ae	-0.014295025
60	0xbc31e686	-0.010858184
61	0x3c041ce5	0.00806353
62	0xbcc8b887	-0.024502052
63	0xbca8534d	-0.020547533
64	0xbe0098ce	-0.1255829
65	0xbcac83fe	-0.021059033
66	0x3d114516	0.035466276
67	0xbc0c4f4c	-0.008563828
68	0x3a72517f	0.0009243711
69	0xbaf17670	-0.0018422138
70	0x3c14cab8	0.009081535
71	0x3c3067a4	0.010766897
72	0xbd22b25d	-0.03972088
73	0xbca9b60e	-0.020716693
74	0xbd2c205c	-0.042023048
75	0xbdbac2ef	-0.09119212
76	0xbc834e19	-0.01602845
77	0xba26e151	-0.0006365972
78	0x3d412a59	0.047159526
79	0xbcbe7cc9	-0.023252862
80	0xbdc6acff	-0.09700965
81	0x3ba610a8	0.0050679035
82	0xbd11068d	-0.035406638
83	0x3cb48dd4	0.022040285
84	0xbd67cd45	-0.056592245
85	0xbe12c116	-0.14331469
86	0x3b51e0eb	0.003202493
87	0x3c8d98ec	0.017284833
88	0x3b56c1c1	0.0032769295
89	0xbb8faaf2	-0.004384392
90	0x3adfd145	0.0017075917
91	0x3c83f44d	0.016107703
92	0xbda7abc7	-0.08187061
93	0x3d60ed13	0.05491359
94	0x3c823a38	0.015896901
95	0xbbedadbe	-0.0072533777
96	0x3b78991c	0.0037933057
97	0x3b5cc112	0.0033684415
98	0x3da3a8d4	0.07991186
99	0xbc85effa	-0.016349781
100	0xbb1a069e	-0.002350248
101	0xbc946d74	-0.018118598
102	0xbc6af8b9	-0.014341527
103	0xba8418d3	-0.0010078199
104	0x3d783492	0.06059701
105	0xbcfd7cbf	-0.030943273
106	0xbc0c5d47	-0.008567161
107	0xbb17211a	-0.0023060502
108	0x3c0c01b3	0.008545327
109	0x3dd13b1f	0.102163546
110	0xbb5def06	-0.0033864393
111	0x3ced020f	0.028931646
112	0xbbcb6f83	-0.0062083616
113	0x3c2617bc	0.010137495
114	0x3b08b620	0.0020860508
115	0xbd824b42	-0.063620105
116	0x3d05d9fe	0.032678597
117	0xbd2156cb	-0.039389413
118	0xbc910f90	-0.017707616
119	0xbacb9fd5	-0.0015535305
120	0x3d04a26d	0.032381464
121	0xbc4c2e74	-0.012462247
122	0x3ada54b4	0.0016657324
123	0x3d22a800	0.039711
124	0xbccebdbb	-0.025236955
125	0xbe0b5bc8	-0.1360923
126	0xbc60e85c	-0.013727274
127	0xbdb7a31b	-0.08966657
128	0x3c8825f0	0.016619653
129	0xbbb9e6e8	-0.005673278
130	0xbbeaec52	-0.007169285
131	0xbbc96019	-0.006145489
132	0xbcee6ab0	-0.029103607
133	0xbd1b9d59	-0.037991855
134	0xb98bcfca	-0.0002666696
135	0xbce6e812	-0.028186832
136	0xba939db2	-0.0011262207
137	0xba5ab243	-0.0008342603
138	0xbc1ecff5	-0.0096931355
139	0xbc37f669	-0.011228182
140	0x3d5d924b	0.054094594
141	0x3b0c4352	0.002140243
142	0xbdacf90a	-0.08445938
143	0x3bbf640e	0.005840785
144	0x3d93b697	0.072125606
145	0xbd58c19b	-0.05291901
146	0x3c1b86de	0.009492604
147	0xba9ec141	-0.0012112038
148	0xbc3474e3	-0.011014196
149	0xbc40900e	-0.011753095
150	0x3a0bb3db	0.000532923
151	0xbc988f16	-0.018622916
152	0x3d6081a5	0.05481114
153	0xbd86d9fa	-0.065845445
154	0x3cd868e8	0.02641721
155	0x393694ba	0.00017412278
156	0xbb033135	-0.0020018343
157	0x3c1f9c25	0.009741818
158	0xbd03b593	-0.032155585
159	0x3a483a2a	0.00076380617
160	0x3d066e93	0.032820296
161	0xbc816aa5	-0.015797922
162	0xbcc6d973	-0.02427361
163	0xbb62a1b9	-0.0034581257
164	0x3dac9624	0.084270746
165	0xbd296b12	-0.041361876
166	0xbbddafe5	-0.006765353
167	0x3bffe181	0.0078088646
168	0xbd2803e0	-0.04101932
169	0xbac75145	-0.0015206715
170	0xbd946d11	-0.07247365
171	0x3cd1e6e2	0.025622789
172	0x3cb39939	0.021923648
173	0x3c866231	0.016404243
174	0xbded7ab4	-0.115956694
175	0xba8a4dad	-0.0010551714
176	0xbd16349a	-0.03667126
177	0xbd5d861a	-0.054082967
178	0x3d71b34f	0.059008893
179	0xbc10bc83	-0.008834007
180	0xbc1c27ae	-0.009530945
181	0xbd20aeb8	-0.039229125
182	0x3ca54777	0.020175679
183	0xbd0ce215	-0.034395296
184	0xbdcb5466	-0.09928207
185	0xba35436d	-0.0006914649
186	0xbd7c7a00	-0.061639786
187	0xbb7de081	-0.003873855
188	0xbdfca42b	-0.12336
189	0xbb80bf9d	-0.003929092
190	0x3be7c402	0.0070729265
191	0xbc2ac3d6	-0.0104226675
192	0xbdcd651c	-0.10029051
193	0x3d097896	0.033562265
194	0xbc8bfce6	-0.017088365
195	0x3d0662d6	0.0328091
196	0xbd91d888	-0.07121378
197	0xbcef0020	-0.029174864
198	0xbcc26db9	-0.02373396
199	0x3d9942a0	0.07483411
200	0x3a320735	0.0006791235
201	0x3c28f533	0.010312366
202	0xbd56c0ec	-0.05243008
203	0xbc20ddc3	-0.009818497
204	0xbcedd9f9	-0.029034602
205	0xbba55eff	-0.005046725
206	0xbcf2e4e7	-0.029650165
207	0x3c1d2f3e	0.009593783
208	0xbc80cc70	-0.015722483
209	0x3c828485	0.01593233
210	0xbcbb2665	-0.022845456
211	0x3c906e9a	0.017630864
212	0xbd8cf4ec	-0.06882653
213	0x3ce46e79	0.027884709
214	0xbb8ff53d	-0.0043932484
215	0x3ad1f8e4	0.001601961
216	0x3cf9b58a	0.030482072
217	0x3ca90ef4	0.020637013
218	0xbdcb7938	-0.0993523
219	0x3d4194be	0.047260992
220	0xbd3091e1	-0.04310787
221	0x3cfd47cc	0.030918024
222	0xbbc65fa8	-0.0060538836
223	0xbe0b50db	-0.13605063
224	0x3ddfb5a8	0.1092332
225	0x3c2391c8	0.009983487
226	0x3d082f8b	0.033248466
227	0xbd1ab6b2	-0.037771888
228	0xbc2573fc	-0.010098454
229	0xbbbc2424	-0.005741613
230	0x3c927cfb	0.017881861
231	0xbdc51b82	-0.09624387
232	0xbd485915	-0.04891308
233	0x3db9c59e	0.090708956
234	0xbca678bd	-0.020321244
235	0xbd2d5e52	-0.04232628
236	0xbd39c445	-0.045353193
237	0xbc709c30	-0.0146856755
238	0xbbd88310	-0.0066074207
239	0xbda6d73e	-0.08146523
240	0xbdadc8e2	-0.08485581
241	0xbd2858b6	-0.041100226
242	0xbd849276	-0.06473248
243	0xbc81dc80	-0.015852213
244	0xbd8d3ec4	-0.06896737
245	0xbd697d87	-0.057004478
246	0xbc82c660	-0.015963733
247	0x3c49ca19	0.01231625
248	0xbb2e7ad5	-0.0026623507
249	0xbbe4dea3	-0.006984548
250	0x3dc73084	0.097260505
251	0xbbc7ab22	-0.0060933987
252	0xbb0a0230	-0.0021058433
253	0xbddcc029	-0.10778839
254	0xbcdd7582	-0.027033571
255	0x3d88a134	0.06671372

Linear2.bias f4 [7]
0	0x3ceb8dc6	0.028754126
1	0x3cde037d	0.027101273
2	0x3ce89ead	0.028395975
3	0x3ce5a3c8	0.028032199
4	0x3ce4ea9b	0.0279439
5	0x3ce607ab	0.028079828
6	0x3d00e444	0.03146769
