first_net/saved_model 2500.pth (torch, 52885 bytes, 4 tensors)

Linear1.weight f4 [256, 42]
00000000: fa77 ffba 1aa6 1bbd 11bc d93b 5e00 683c
00000010: 648e debc e2e6 d1bb cbf9 3c3d 4c4e 3d3d
00000020: 789c 203d b482 eb3c 3c7e 613d d2fc 46bd
00000030: 29d8 edbb e6ff cc3c fe90 a23d 6263 0c3d
00000040: aa94 3d3c 105c 453d b8ea 493c d5c6 653c
00000050: af26 af3c 8578 dd3c 888e 5e3c 7ef4 a4bd
00000060: 4d1a 973d 5655 943a 14a7 593d e52d c73c
00000070: 20fc afbd 5cda 84bc 28ef f3bc 3bf8 3ebd
00000080: b7d7 b9bd ab4d a63d 39db 70bd 2fc6 fb3b
00000090: 9fb3 713d 144f 963d 72eb 9fbd e801 373e
000000a0: 1fc1 da3c ba44 cfbd eb14 5dbd 7c04 22bd
000000b0: 7f38 883c 7dfa 80bd 84b4 fc3c 7216 07bc
000000c0: 5e23 28bc f637 f73b 8aa8 4fba 6f6b 10bd
000000d0: b5f6 8d3d c773 2f3d d4a0 89bc 4fc6 013c
000000e0: 5397 453d bfee bb3c 88cf 18bd 21a0 fbbc
000000f0: 687e 923d 7a26 14bd ff94 c73d f98f 863d
00000100: b561 53bc 525e cbbb f65a 413c 2018 693d
00000110: 283d 1d3c 9c25 f43c 6073 22bd c72a 8b3c
00000120: 05c3 29bd 83f7 593d 9139 5ebd 6769 ad3c
00000130: b184 35bd e709 4a3d 6714 a9bd 804f 553d
00000140: 606f bdbd bfff a3bd 4597 adbd f19e 6f3d
00000150: c875 ef3b e6c8 bf3d 6c34 26bd 48ff 58bc
00000160: a53f 21bd f63a 0cbc f865 12bc aaf6 af3c
00000170: 9ae0 403c d68d fc3c b6c5 5c3c adfe 833c
00000180: 58f0 393d 401d 1dbd 4ef7 1bbc 7330 40bc
00000190: 57bd f73c 0c97 023c 9e7f ca3d 893b fd3c
000001a0: 1e4a 193d d671 a63c da12 0c3d 73d0 213b
000001b0: eee3 2a3c 8045 693d e620 1fbb 903b 02bd
000001c0: fb68 843d 2228 563d 090f 9fbd 6f16 813c
000001d0: b114 f6bb 5fc6 9a3d f288 06bd ad53 a5bc
000001e0: 4098 46bc 9170 5e3d 6da2 de3c 1c65 71bc
000001f0: 4028 9e3d 4ae6 babd 452d 58bc 4fc6 dbbc
00000200: 11f2 0abb 6e25 55bd 2c16 11bd 5ad4 88bb
00000210: aef7 20bd e302 a43c 9d02 12bd fb75 54bc
00000220: f72a a1bb ba1b 6ebd 0f36 4fbc 7303 02bd
00000230: 8416 983c 60db b83c c9f6 203c 2c58 91bc
00000240: fd6f ad3c f925 1b3c a2ab 283b 9e87 863d
00000250: e740 14bd 629e a2bd 1fbf a63b 31ad 4f3d
00000260: 6eca b4bd 2a7f 70bd 8f56 023b 7ea2 e3bb
00000270: ccc2 60bd be69 e9bc 6749 fa3d d4ac 9abd
00000280: 549b a5bc 96ea ecbc 1496 35ba f5d7 e43c
00000290: 45b9 21bd 50b6 39bd d24d 05bd 31f2 e2bc
000002a0: cd36 bf3c d67d f83c d1eb 553c c982 23bd
000002b0: eb51 84bd 8061 42bd ea02 d93c a1aa be3d
000002c0: 5bd0 593d 5660 66bd 9a73 023e be9e 893d
000002d0: d96b cbba 84a7 ff3c 27b8 e53c b6f7 99bd
000002e0: 0b47 493d 00d1 f7bb df4e 413c 3217 633d
000002f0: 9218 8a3c 6a95 8f3d 2b13 433d e016 913d
00000300: 3e2f 363d 59be 90bc a396 793d 9184 0f3d
00000310: e54f a5bd c7c6 c33a 4082 493c d2b8 1abd
00000320: 7ea1 a8bc 0bbd e039 d340 ae3c 4edf 18be
00000330: 6d29 dd3b c6e2 01bd f4e3 ff3d 053c e6bd
00000340: 8e60 d7bd 6bfd 73bd 9e9c b4bc 8f2d 07bd
00000350: 4024 f23b 7aad 623c c992 8bbd d533 d13a
00000360: c5d5 bbbc 18f7 0eb9 67f2 a4bd 9e5e 843c
00000370: df46 b5bc 4010 27bd 8efc 9dbd 59ce 213d
00000380: 7fb7 d9bd 9479 ffbc 773e 133d 6c44 023e
00000390: e8a8 28bc 5b0f 35bd 0c24 fa3c ebbb 4dbd
000003a0: 1e3f 3dbd f3c5 b4bc 3e9f edbc a9f1 de3b
000003b0: faed 3ebd b288 4ebd 6c6f 00be 1d66 e0bb
000003c0: 6b6d 47bd 7c5b 863b 17a3 82bc be04 f9bc
000003d0: f676 c2bc 4563 8e3d 7490 e1bc 227c a4bd
000003e0: 2ec8 85bd b174 bfbd 097e 37bd a44a 27be
000003f0: e161 5abd cefd 2b3d b5a0 023d b927 e63c
-0.0019490712 -0.038000204 0.0066447337 0.014160244 -0.027167507 -0.006405697 0.04613666 0.046217248
0.03921172 0.028748848 0.055052027 -0.048580952 -0.0072584343 0.025024366 0.07937811 0.034274466
0.011571089 0.0481835 0.012324028 0.014024456 0.02138075 0.027035007 0.013583787 -0.08054446
0.07378063 0.0011316936 0.053137854 0.024313876 -0.08593011 -0.016217403 -0.029777125 -0.04662345
-0.090743475 0.08120283 -0.058802817 0.0076835374 0.05900919 0.07339302 -0.078085795 0.17871821
0.026703415 -0.101205304 -0.053975027 -0.039555058 0.016628502 -0.06297777 0.030847795 -0.0082450975
-0.010262338 0.007544513 -0.00079215376 -0.035258707 0.06931821 0.042835023 -0.016800322 0.007920816
0.048240017 0.022940991 -0.037307292 -0.030716004 0.07153016 -0.036169507 0.097452156 0.06570429
-0.012901713 -0.006206312 0.011801472 0.056907773 0.0095971 0.02980309 -0.03966081 0.016988171
-0.04144575 0.05321456 -0.05425412 0.021168424 -0.044315998 0.04932585 -0.082558446 0.05207777
-0.09249759 -0.08007764 -0.08476118 0.058501188 0.007307742 0.0936449 -0.040577337 -0.013244458
-0.039367337 -0.008558979 -0.008935444 0.021479923 0.011772299 0.030829351 0.013474872 0.01611265
0.045395225 -0.038357973 -0.009519411 -0.011730301 0.030241651 0.007970583 0.09887622 0.030912178
0.0374242 0.020317953 0.034197666 0.0024690896 0.010430319 0.056951046 -0.0024281084 -0.031795084
0.06465336 0.052284367 -0.077665396 0.015757767 -0.007509791 0.075573675 -0.032845445 -0.020181501
-0.01212126 0.05430657 0.02717706 -0.014733579 0.07722521 -0.091259554 -0.013194387 -0.02682796
-0.0021201412 -0.05203765 -0.035421535 -0.004175705 -0.039298706 0.020020908 -0.035647023 -0.012967582
-0.004918452 -0.05813191 -0.012647166 -0.03174157 0.018565424 0.022565544 0.009824463 -0.017742239
0.021171564 0.009469503 0.0025737067 0.06568836 -0.03619471 -0.079403654 0.0050887014 0.050702278
-0.08827673 -0.058715023 0.0019888019 -0.006946861 -0.054873273 -0.028492805 0.12221032 -0.075524956
-0.020215668 -0.028920453 -0.00069269654 0.027935008 -0.039483327 -0.045339882 -0.03254492 -0.027703376
0.02334156 0.03033344 0.013056711 -0.03991965 -0.06460937 -0.047456264 0.026490647 0.09309889
0.05317722 -0.056244217 0.12739411 0.06719731 -0.0015519812 0.031207807 0.028041912 -0.0751795
0.049140017 -0.0075627565 0.0117985895 0.055442043 0.01685742 0.0701092 0.047625702 0.07084441
0.044478647 -0.01766889 0.060934674 0.035038535 -0.08071879 0.001493656 0.01229912 -0.037773915
-0.020584818 0.00042865457 0.021271145 -0.14928934 0.006749323 -0.03171041 0.124946505 -0.112419166
-0.10516463 -0.05956785 -0.022047337 -0.033002432 0.0073895752 0.013835305 -0.068151064 0.0015960882
-0.022929082 -0.00013634225 -0.08054047 0.016158398 -0.02212852 -0.04078698 -0.077141866 0.03950343
-0.10630702 -0.031185903 0.035948243 0.12721413 -0.010294177 -0.044204097 0.030534767 -0.05022804
-0.04620277 -0.022067046 -0.029006597 0.0068037105 -0.04661367 -0.05042333 -0.12542504 -0.0068481104
-0.048688333 0.0041002613 -0.015946908 -0.030397769 -0.023738366 0.06952528 -0.0275347 -0.08031489
-0.06532322 -0.09348429 -0.04479793 -0.16337067 -0.053316 0.041990094 0.031891543 0.028095113

Linear1.bias f4 [256]
00000000: f169 aabe 0030 cabe f813 bbbe adf3 94be
00000010: 7ccf c0be e4cc c7be 793f d6be 65d9 c2be
00000020: fb74 87be a79a b6be 7832 cfbe 7a97 b1be
00000030: 0012 bbbe cc27 88be 56d7 d8be a9ee 9cbe
00000040: c11f 91be 7ca1 d3be 9ba0 c5be 9762 b2be
00000050: d5a7 b4be cce7 aebe 17a8 c8be 5063 93be
00000060: 13c0 9ebe a148 a0be db5a c7be 04ff b9be
00000070: e5d0 bdbe 7159 c6be 6681 a4be 56d1 c0be
00000080: 7326 b6be 1d7a 74be 1fab b3be 16be bfbe
00000090: 6162 a6be 220c 9cbe ab2d e0be 93d6 9abe
000000a0: 44c6 a5be d8e1 bbbe ccf1 8fbe 1813 48be
000000b0: 1b1c 7fbe c5dc b6be fd60 a3be 78ac b0be
000000c0: 9ada 9cbe d10d 6cbe 9747 abbe 02c8 a4be
000000d0: 7a9d 80be c292 82be 4246 aebe e0a6 87be
000000e0: 71f1 a9be cb27 ccbe db8c bbbe f113 ecbe
000000f0: 6a49 b1be a3b6 c8be b408 ccbe dd87 d3be
00000100: cc7e bdbe ca5b b7be e935 bdbe c093 e0be
00000110: 5baa dbbe 369b 97be 8d13 bebe cc3d b3be
00000120: 5d98 b9be bdcb 91be c838 5ebe f363 93be
00000130: febb bebe 392a d2be 6b0d a2be 6dd6 b8be
00000140: cd56 2ebe fdef 96be a094 c3be f17f ccbe
00000150: e69e a3be 98e1 bfbe c8ff aebe 9bf6 bebe
00000160: c804 cbbe df0d b8be 33fb b3be 8939 c4be
00000170: f5b0 a3be fcfc c0be 93a7 a0be c7ea 9fbe
00000180: 84cb c5be 8dc3 cbbe 23c1 b6be 9132 d2be
00000190: ab53 acbe 8f86 9bbe a918 98be cc59 9fbe
000001a0: 985c 97be a30a cdbe e80a b7be 3479 a1be
000001b0: 1088 93be 8bb1 9cbe 0250 debe aec6 a6be
000001c0: 5097 e0be dad0 e5be d803 adbe dc17 9cbe
000001d0: b231 9fbe 9545 eebe a618 98be b0a4 8bbe
000001e0: c084 a3be 426e c6be 8bd9 9abe c64a a0be
000001f0: 2f7d b1be 92b1 b1be 1010 d1be db91 adbe
00000200: 14c0 97be 044f cdbe 91bf a1be fb17 92be
00000210: 0859 92be 4ce5 bbbe 350e acbe 35b8 b5be
00000220: b8b8 01bf cbf6 d5be 415d c9be 90ca 90be
00000230: 2314 a9be 6ec4 a0be 7b0a 77be bdca bfbe
00000240: 5373 c0be c6b1 92be a08e 91be b9ef bebe
00000250: 80cd a4be 86b8 b7be fa6c b7be 3ce3 b8be
00000260: 6368 03bf 0a82 d2be ab52 b1be 6fe0 aabe
00000270: 3b5a c5be 6259 a7be 08c9 a9be 7591 babe
00000280: 451d c2be dc53 b9be 569f b3be 5b95 b7be
00000290: 6f03 bebe 559f a2be 0de6 9cbe 70ad b5be
000002a0: 95bf b1be 0bbd b8be bd08 adbe 0fae acbe
000002b0: 362c b5be b6f8 d2be f605 dabe 1086 8dbe
000002c0: 035e d6be 7d93 d5be 6297 e0be 129e 92be
000002d0: 31c7 b8be 8690 bcbe a3ff c2be addc c2be
000002e0: 6b99 b4be 3f8b 9bbe 8c7f 79be 25d7 bfbe
000002f0: 3e23 e2be 9f0a 92be 60a9 d2be 52cc debe
00000300: 9cfe b7be 94da b7be 0ab1 90be 843f c6be
00000310: 5ed5 babe ebee bdbe 7b28 8abe 1e5f d7be
00000320: 4775 abbe d4db a7be f21c c3be 23b5 c1be
00000330: 8ac8 aebe 6ad2 c2be eedb 91be 9c9e c2be
00000340: 03a0 d9be 4011 97be 9e36 a9be fd83 c3be
00000350: 0319 91be a828 a7be 0786 afbe 7648 d4be
00000360: 4a82 b0be 25c7 bebe 9cae a2be a249 c2be
00000370: 8aea b9be 9938 adbe 5b8d 64be 7847 b9be
00000380: ae2b b6be 6edc c1be 6130 bdbe 3f2b bbbe
00000390: c4c7 d0be 0a5f 91be fc45 7dbe a236 cdbe
000003a0: 99e7 bbbe adb9 c6be 7001 b5be 9c3c f2be
000003b0: 21dc d4be 590a abbe a604 c3be 7cd2 a8be
000003c0: 86ec b4be 76c7 b3be 7535 c7be 35b8 83be
000003d0: 8047 afbe 3c9b cabe b996 94be fac6 06bf
000003e0: d460 bfbe 5f3f bbbe 56c3 d6be ed52 e1be
000003f0: 513d bfbe 4c2e 03bf 3210 babe 1fea 7abe
-0.33283952 -0.39489746 -0.36538672 -0.2909216 -0.37658298 -0.39023507 -0.418453 -0.38056484
-0.26456437 -0.35664865 -0.40468192 -0.3468588 -0.3653717 -0.26592863 -0.42351788 -0.30650833
-0.2834454 -0.4133414 -0.38599095 -0.34840843 -0.35284296 -0.34161222 -0.39190742 -0.28786707
-0.31005916 -0.3130541 -0.38936505 -0.36327374 -0.37073436 -0.38740113 -0.32129973 -0.3765971
-0.3557621 -0.23874708 -0.35091493 -0.37449712 -0.32496932 -0.30478007 -0.43784842 -0.30241832
-0.32377827 -0.36695743 -0.28114164 -0.19538534 -0.24913065 -0.3571531 -0.31909934 -0.34506583
-0.3063553 -0.23052146 -0.33453056 -0.32183844 -0.25120145 -0.25502592 -0.34037977 -0.26494503
-0.33192018 -0.3987411 -0.36630902 -0.46108964 -0.34626323 -0.3920184 -0.3985039 -0.41314593
-0.370108 -0.35812217 -0.36955193 -0.43862724 -0.42903408 -0.29610604 -0.3712429 -0.35008085
-0.36249056 -0.28475752 -0.21701348 -0.28787193 -0.37252802 -0.41047838 -0.31650862 -0.36101094
-0.170253 -0.29479972 -0.3819933 -0.39941362 -0.31957167 -0.37476802 -0.3417952 -0.3729752
-0.39652085 -0.35948083 -0.35152587 -0.38325146 -0.31970945 -0.37693012 -0.3137785 -0.31233808
-0.38631833 -0.3979763 -0.35694227 -0.41054204 -0.33657584 -0.30376098 -0.29706314 -0.31123197
-0.2956283 -0.40047178 -0.35750508 -0.31537783 -0.28814745 -0.30604205 -0.43420416 -0.32573456
-0.43865442 -0.44885904 -0.33791995 -0.30486953 -0.31092602 -0.46537462 -0.29706305 -0.27274084
-0.31937218 -0.38755995 -0.30244097 -0.31307048 -0.3466582 -0.34705788 -0.40832567 -0.3390034
-0.2963873 -0.40099347 -0.31591466 -0.2853392 -0.2858355 -0.36698377 -0.3360459 -0.354921
-0.50672483 -0.4178985 -0.3932896 -0.28279543 -0.33023176 -0.31399864 -0.24125092 -0.37459365
-0.37587985 -0.28651255 -0.28429127 -0.3729227 -0.32188034 -0.35882968 -0.3582533 -0.36110866
-0.51331156 -0.41114837 -0.34633383 -0.33374354 -0.38545403 -0.3268538 -0.33161187 -0.364391
-0.37912956 -0.36196792 -0.350825 -0.35856137 -0.37111995 -0.31762186 -0.30644265 -0.35483885
-0.34716478 -0.36081728 -0.3379573 -0.33726546 -0.35385293 -0.41205376 -0.42582673 -0.27641344
-0.418686 -0.41714087 -0.43865496 -0.28636223 -0.3608947 -0.36829013 -0.3808566 -0.38058987
-0.352733 -0.30379674 -0.24365062 -0.3746883 -0.44167513 -0.28523728 -0.41144848 -0.4351526
-0.3593644 -0.3590895 -0.2826007 -0.38720334 -0.3649091 -0.37096342 -0.2698401 -0.42064756
-0.33487913 -0.32784903 -0.3810802 -0.3783351 -0.34137374 -0.38051158 -0.28488106 -0.38011634
-0.42504892 -0.29505348 -0.33049482 -0.38186637 -0.28339395 -0.32648206 -0.34281942 -0.41461533
-0.34474403 -0.3726131 -0.3177384 -0.37946802 -0.36311752 -0.33832243 -0.22319548 -0.3618734
-0.355802 -0.37863487 -0.36950973 -0.36556432 -0.4077741 -0.28392822 -0.24733728 -0.40080744
-0.36700132 -0.38813534 -0.3535266 -0.47311866 -0.41574195 -0.33406332 -0.38089484 -0.32973087
-0.35336703 -0.35113114 -0.38907972 -0.25726476 -0.34234238 -0.3957156 -0.29021242 -0.52647364
-0.37378561 -0.36571786 -0.41945904 -0.4400858 -0.37351468 -0.5124252 -0.3634048 -0.24503373

Linear2.weight f4 [7, 256]
00000000: 78fd dbbc 7a66 633c 9502 1c3b ee69 febd
00000010: a222 3638 f03f 82bb 22fb 6abc 9541 3dbd
00000020: 6402 de3b 1801 42bd c7c7 71bb 4383 6bbc
00000030: 20b9 273d 8eac 073a f924 0a3c 5577 c8ba
00000040: 7d49 943a 826e ecbc 9e93 5a3b 6b4b daba
00000050: dac9 a33b e484 b9bb b602 423b 0712 8d3c
00000060: 280b c83c fe03 42bd 9b80 40bd da2d 8aba
00000070: dea6 79ba 1776 813b ce86 4dba a9a6 903b
00000080: 50ad bc3a 4e2b 4aba 0079 99bc d5cb dfbb
00000090: 3c34 913c db88 a039 e21f a23c 4667 99bc
000000a0: 93ef 98bc 4c14 203d 2239 7bbc 48cc cf3b
000000b0: 305c 9239 1f23 90bb 880e 87bc 825c 4d3c
000000c0: 65fe f6bb ad63 9a3b 50ae 33bc 109b edbc
000000d0: b203 e8ba 1e84 e4bb 7fc8 e5ba a8a6 b939
000000e0: 9937 51bd 1a3e d13b bd85 bdba 2c95 1fbc
000000f0: 3cdb e63c 3cc8 cf3b e06d 1a3b 6e70 9939
00000100: d5c4 c4bb d940 0ebc b041 3d3c f83f 663d
00000110: 43b7 12ba 5e8e 85bb 6ea5 1ab9 12b9 77b9
00000120: 6f74 633b 0224 0dbb f779 94ba 7b75 2fbd
00000130: 8de7 bdb8 26c8 28ba 0786 16ba 2d38 d9bb
00000140: c7c3 86bc 743c adbc b56a 3d3c 6493 c8bb
00000150: 3e48 e9ba fc8f 50bd 6afc 873c 764b debc
00000160: 29bb 9e3b 727c 4ebb 6d26 f23c 1920 5dbc
00000170: 4b66 ccbc 8330 06bc 8710 743b fdba df3a
00000180: d7fc babb 1db7 1c3d 13b5 98bc ef4b 4abd
00000190: a30d 31bb c90a a23a 396b d4ba d1de 183b
000001a0: 67ac b13b c0f8 3e3c 0b40 a4bc 929a c4bb
000001b0: 8adb 9839 f57e d53b 3900 863a f272 b0ba
000001c0: 142d f9bb 5bda 81bc 570d 96bb e319 d23a
000001d0: b354 fab9 bd2b f6bd 6f7a 033c 16df 08bc
000001e0: 1375 863b c78b e0bb 44ae eab8 9cca 863a
000001f0: 7da1 93bc 76dd adbd 57c2 4e3d 86de 41bb
00000200: 6311 00bb f020 a2bc 44bd 8dbc 5109 8dbb
00000210: 78b8 1bbb 911d d8bb 24e5 883c 7100 bdbc
00000220: 59d1 26bb 4298 d7bb 2739 2abc 8dde 79bc
00000230: 5fe7 3abc 6bfb cfbb efaf c43a 9b8f e0bb
00000240: 236e bcbb b347 48bc b8ab 9fbb af2e cfbc
00000250: 1355 e0bc c600 113c e769 bc38 e66e 0eba
00000260: 60a7 343d 9e29 1ebc e7bc c13c 616a 1abc
00000270: ad49 7abd b250 12bb cb26 ae3c 0d91 d7bb
00000280: 3b7b 17bc 6593 5fbb 4b8e cdb9 6c7f ddbb
00000290: bfa5 f63c 8be2 a3bb 3c78 9ebb cf21 973a
000002a0: 1538 cdb9 e39b b5bc ea32 853a ee80 4b3d
000002b0: 11b7 98bb caaa 93ba e2fe e73a f345 62ba
000002c0: 78d4 2dbd 7cc8 783c 25b5 6d3b e9a5 cc3a
000002d0: 8e57 a13b d4c2 0a3b ffd0 8c3b c878 103c
000002e0: 5e4f 8abc 47ab e5b9 c8a6 40ba 27f7 6dba
000002f0: c65d 25bd e572 16bc b7ec 95bc 0e2f be3b
00000300: 060d b4bd de2a 2e3d 6d41 3fbc 614c d0bb
00000310: 50cc 92bd f65b e938 ecd3 803c bf3d e03d
00000320: 70fb 24bb e956 89ba 055f 95bd e296 f1bc
00000330: 50e6 d53a 1a59 be3b f91b c6ba 2f97 b1bc
00000340: f2f6 b03c e3d5 38bc 60b6 ddbc b36a b8bb
00000350: 8feb 6bbb f87e 86bb 5ed4 bebc c341 bebb
00000360: 7dd6 53bc ac5f 86bb efa1 bc3b 59f9 973b
00000370: beca ca3b e7d6 8abc 226d 41b9 f733 113c
00000380: 7de8 76bc 7907 a4bc 3dba 70ba 3501 dd3b
00000390: 1390 65bc 2655 9a3a 1fcf 72bb 6193 9bbd
000003a0: ef77 e2bc 7a98 663b 4ab1 cbbc b72d 993b
000003b0: 3112 41bd f847 0dbb 9d26 7fbc 0499 4dbc
000003c0: 5d8f 0dbe 6f37 debc 17f4 17bd e54e 8b3b
000003d0: 0497 573d fb33 80bc 6ae3 65bc ab66 94bd
000003e0: 03d4 9dbb 3c1b bbbc ff7c 243c c5e6 c8bb
000003f0: 6743 91ba c621 8f3a eff4 99bd 73b6 203c
-0.026854262 0.013879413 0.002380525 -0.12422548 4.3424436e-05 -0.003974907 -0.014342101 -0.046205122
0.0067751873 -0.047364324 -0.0036892758 -0.014374557 0.040948033 0.0005175554 0.0084316665 -0.0015294353
0.0011313405 -0.028861288 0.0033352147 -0.0016654556 0.004998428 -0.0056615938 0.0029603667 0.01722051
0.024419382 -0.04736709 -0.046997648 -0.0010542229 -0.00095234613 0.003950845 -0.0007840217 0.0044143987
0.0014394913 -0.00077121414 -0.018734455 -0.0068297186 0.017725103 0.00030619543 0.019790594 -0.018726002
-0.018668925 0.039081857 -0.015333446 0.006341491 0.00027915975 -0.004398718 -0.016486421 0.012534263
-0.0075376504 0.0047115893 -0.010966852 -0.029004604 -0.0017701297 -0.0069737574 -0.0017531066 0.00035410118
-0.051078413 0.006385577 -0.0014459413 -0.009740155 0.028180711 0.0063410085 0.0023564026 0.000292662
-0.0060049095 -0.008682453 0.011551306 0.05621335 -0.0005596766 -0.0040758094 -0.00014748212 -0.000236247
0.003470685 -0.0021536355 -0.0011327852 -0.042836647 -9.055352e-05 -0.0006438516 -0.00057420175 -0.006629011
-0.016450776 -0.02114699 0.0115610855 -0.006121086 -0.0017798019 -0.050918564 0.016599853 -0.027135592
0.0048440886 -0.003150728 0.029559338 -0.013496422 -0.02495112 -0.008190277 0.0037241296 0.0017069277
-0.0057064104 0.038260568 -0.01864103 -0.049388822 -0.0027016185 0.0012362833 -0.0016206271 0.0023326168
0.0054221633 0.011655986 -0.02005007 -0.0059998715 0.0002915527 0.0065153786 0.0010223455 -0.0013461991
-0.0076042507 -0.01585119 -0.004579227 0.0016029443 -0.00047746822 -0.12020061 0.008024796 -0.008353969
0.004103312 -0.0068526003 -0.00011190449 0.0010283771 -0.01802134 -0.08489506 0.050478306 -0.0029582097
-0.0019541613 -0.019791096 -0.017302163 -0.004304089 -0.0023761075 -0.0065953215 0.016710825 -0.0230715
-0.002545437 -0.00657943 -0.010389603 -0.015250814 -0.011407702 -0.00634711 0.0015006046 -0.0068530566
-0.005750434 -0.012224126 -0.0048727654 -0.025290815 -0.027384317 0.008850282 8.9842644e-05 -0.0005433395
0.044104934 -0.009653477 0.023649646 -0.009424777 -0.06110542 -0.002232593 0.021258732 -0.0065785707
-0.009245689 -0.0034114954 -0.00039206663 -0.0067595746 0.03010833 -0.0050013713 -0.0048361104 0.0011530461
-0.0003914243 -0.02216906 0.0010162268 0.049683504 -0.004660495 -0.0011266109 0.0017699862 -0.0008631639
-0.042438954 0.015184518 0.00362713 0.001561341 0.0049237674 0.0021173256 0.004297375 0.008817859
-0.016883548 -0.00043805895 -0.0007349071 -0.0009077661 -0.040372632 -0.009182666 -0.018301351 0.005803949
-0.087915465 0.04252135 -0.011673314 -0.0063567613 -0.07167876 0.00011127435 0.015726052 0.10949277
-0.0025174282 -0.0010478172 -0.07293514 -0.029490892 0.0016319249 0.0058089616 -0.0015114538 -0.021678535
0.021602128 -0.011281463 -0.027064502 -0.005627954 -0.0035998558 -0.0041044913 -0.023294624 -0.0058061793
-0.012929556 -0.0041007604 0.0057566087 0.004637879 0.0061887195 -0.016948177 -0.0001844657 0.008862487
-0.015070078 -0.020023094 -0.0009183025 0.0067445287 -0.014011401 0.0011774644 -0.0037049723 -0.0759647
-0.02764508 0.0035186098 -0.024864811 0.004674639 -0.04713649 -0.002155779 -0.015573171 -0.012548689
-0.1382422 -0.027126042 -0.037098017 0.0042513483 0.052634254 -0.015649786 -0.0140312705 -0.07246145
-0.0048165335 -0.022840135 0.010039567 -0.0061310255 -0.001108271 0.00109201 -0.075174205 0.009809124

Linear2.bias f4 [7]
00000000: 5eb5 143d bb6b 123d 6af6 173d e6b2 0b3d
00000010: 2788 f23c de65 203d 678c 163d
0.036305778 0.03574727 0.037100233 0.034106158 0.029605938 0.039159648 0.03675499
