first_net/saved_model 4000.pth (torch, 52885 bytes, 4 tensors)

Linear1.weight f4 [256, 42]
000000 27 80 d2 3c 9d 8f 87 3d 46 07 17 bd 7b ef 8b 3d
       0.025695873 0.06619189 -0.03687217 0.06832787
000010 12 e8 e1 3c f0 ec 2c bd 9b 6a 0d bc c3 f9 c3 3d
       0.02757648 -0.04221815 -0.008631374 0.09569123
000020 3b 2e ab 3d 73 c8 eb bd 8c f0 00 bd ed b6 ce bc
       0.08358427 -0.11512842 -0.031479403 -0.02523371
000030 4c 6f 37 3b d2 28 4f bd f2 28 b9 3d 60 43 16 3c
       0.0027989922 -0.05057604 0.09041013 0.009171337
000040 ce 65 3b bd 6c f5 ad 3d 8f 64 ae 3d f6 1d 43 3d
       -0.045751385 0.08494076 0.08515274 0.047635995
000050 c4 0b 50 bd 79 59 9e bc c3 17 a0 ba e3 9c eb bd
       -0.05079247 -0.019329773 -0.0012214113 -0.11504533
000060 3a 68 c2 3d 10 f1 06 bd c2 41 c3 3c f1 47 25 3d
       0.09492536 -0.03294474 0.023835067 0.04035181
000070 13 45 99 bc 71 8b 80 bd e6 36 f0 3d e2 d9 38 bd
       -0.018709695 -0.06276596 0.11729221 -0.045129664
000080 e8 11 8d 3c a9 af 30 3c 0f 8b 43 be b8 5d 83 bd
       0.017220452 0.010784068 -0.19096015 -0.0641436
000090 49 d2 e1 3d 35 38 86 bb d8 02 84 3c 5c fe 18 3d
       0.11026437 -0.004096056 0.016114637 0.03735195
0000a0 3d c8 94 bd 09 c9 22 3d f4 03 5e bd e1 1e 85 bd
       -0.07264755 0.039742503 -0.05420299 -0.0650003
0000b0 33 b0 82 bb 94 93 f0 3c 9c 08 db 3c ab 7f 3e 3d
       -0.0039882897 0.029367246 0.026737504 0.046508472
0000c0 a8 f5 cf bc 49 1a d8 bc 91 12 c0 3c 58 37 f5 bb
       -0.025385693 -0.026379721 0.023446353 -0.007483404
0000d0 42 fe 0d 3d db 80 7f bd f2 5b 98 bb da ca 09 3c
       0.034666307 -0.062378746 -0.0046496326 0.00841018
0000e0 f3 3a 23 3d 17 40 b3 ba ad 94 76 3d 0a ce 48 be
       0.03985114 -0.0013675716 0.060200382 -0.19609848
0000f0 0e 47 42 3d b0 30 7b bd a8 f8 ba 3d 5d 8e 2d 3d
       0.047431044 -0.06132573 0.09129459 0.042372096
000100 ca 46 6e 3c 80 60 8a 3c d3 ad 5a 3e de 3c b3 3c
       0.014543245 0.016891718 0.21355371 0.02187961
000110 ba 8d 83 3c 6f d1 e2 3d c8 42 89 bd ed c0 01 3d
       0.016058791 0.110751025 -0.06702191 0.03167813
000120 ea db 93 3d 03 00 0e bd 99 71 06 bb 19 11 9c 3c
       0.0721968 -0.03466798 -0.0020514487 0.019051122
000130 29 92 aa bd 0f 58 92 3d 75 c1 52 bd 1e bc 9d bd
       -0.08328659 0.07145702 -0.051454026 -0.07701896
000140 b6 2c 69 be 25 d3 1d bd 14 37 10 3b d4 0c 5b bd
       -0.22770962 -0.03853144 0.0022005485 -0.05347903
000150 b7 76 a1 3d eb fb aa bb df b8 6a bb 28 de 98 3d
       0.07883971 -0.0052180192 -0.0035815758 0.07464248
000160 cd c6 53 3d 85 a9 b2 bc fa 10 d0 bd a1 a2 f9 bc
       0.051703263 -0.021809349 -0.10159488 -0.030473055
000170 26 32 b0 bd 50 64 aa bd f0 02 12 3e 67 9e d4 bd
       -0.08603315 -0.08319914 0.14258933 -0.10381775
000180 7c 5c 6d 3c a0 96 76 3d 36 2c 07 bc 9c ae 6b 3d
       0.014487382 0.06020224 -0.008250287 0.057539567
000190 b5 9f 90 bc 53 87 06 3e fe a9 cc 3d eb 39 22 3d
       -0.01765428 0.1313756 0.09993361 0.039606016
0001a0 60 62 b5 3c ad f8 30 3b 93 00 5e 3e 2c e1 ac bd
       0.022141635 0.002700369 0.21679907 -0.084413856
0001b0 05 48 76 bd fd a2 f6 bc c4 d6 76 bb 37 75 cc bc
       -0.060127277 -0.030107016 -0.0037664631 -0.024958236
0001c0 4a a1 c9 3d 10 cf 1d 3e e1 94 82 3d 18 c0 0a 3d
       0.098452166 0.1541102 0.06376053 0.0338746
0001d0 72 da 10 bd 56 8b b4 3d 9b 28 2a 3d 82 b0 8e bd
       -0.035364576 0.08815639 0.04154263 -0.0696726
0001e0 e9 c5 8f bd 77 d8 c5 bd 00 50 50 3c 54 db 17 bc
       -0.0702017 -0.09660428 0.012714386 -0.0092686005
0001f0 3d 28 2b 3d 47 8d de bc 60 fb 48 bd a7 f7 9b 3c
       0.04178642 -0.027166976 -0.049067855 0.019038988
000200 66 bc 9d bd 54 27 08 3d 72 a5 b0 3b 42 e9 f4 bc
       -0.0770195 0.03324063 0.0053908164 -0.029896382
000210 73 95 64 bd ab 6a 98 bb 0b 1e ed 3c c2 6a 8a bd
       -0.05580659 -0.0046513877 0.02894499 -0.06758644
000220 63 47 98 bd e0 9f 83 bd ed 85 25 3d e6 59 5d bd
       -0.07435491 -0.06426978 0.040410925 -0.054040812
000230 67 a1 e0 bc b6 80 8e 3d cb 6d ae bc 90 6f 9a 3d
       -0.027420713 0.069581434 -0.021292588 0.0754081
000240 b1 81 d5 3d d3 08 18 bc 2c 3d 89 3d 0b 9a 3c 3d
       0.10425127 -0.009279448 0.06701121 0.046045344
000250 68 7e f5 bd ca c9 da bd 53 51 57 bc 69 af 69 bb
       -0.11987001 -0.106830195 -0.013141948 -0.003565753
000260 ff 41 9b bd f8 fe d2 bc 72 00 21 3d de c5 b5 bc
       -0.07580947 -0.025756344 0.039307065 -0.022189077
000270 91 f4 2a 3d 1a d1 e5 bc c0 03 a1 3d cb 48 a0 bd
       0.041737143 -0.028053809 0.078620434 -0.07826384
000280 68 ed 8f bd 69 2d 0b bc 8e 89 42 be f6 6e 98 bd
       -0.070277035 -0.008494713 -0.18997785 -0.07443039
000290 4f 03 e9 bc 2f 5d a3 bd d6 83 e8 3c f0 9e ad b8
       -0.02844396 -0.07976758 0.028383177 -8.278887e-05
0002a0 32 99 0e bd 28 fb b3 3d 4d 99 83 bb 98 19 ef bd
       -0.034814067 0.08788139 -0.0040160776 -0.116748035
0002b0 f4 5e cd bd 91 78 d1 bc f6 e4 63 3d 9d 2a 09 3d
       -0.100278765 -0.025570186 0.055638276 0.033487905
0002c0 b8 ec ab 3d df 91 2b be e1 9c 92 3d 10 f6 4f 3d
       0.0839476 -0.16754864 0.071588285 0.050771773
0002d0 5c 38 20 bd 83 e0 71 bc e8 2c 68 bd 20 dc d6 3c
       -0.03911625 -0.014763 -0.05668345 0.02622801
0002e0 fb b5 23 3e 3e dd 86 bd b7 0b ab 3d 4d 2e 68 3d
       0.15987389 -0.06585167 0.08351844 0.05668478
0002f0 af c6 b7 3d e8 ba bb 3d 60 be 09 3e 52 63 9d 3d
       0.08973443 0.09166509 0.13451529 0.076849595
000300 d5 06 93 bd 3f 9d dc bd e8 52 10 3e 43 df e8 3d
       -0.071790375 -0.1077218 0.14094126 0.11370709
000310 bf 36 b2 bd a3 fe b7 3d 1e 35 0a 3e 92 45 ba 3d
       -0.08701848 0.08984115 0.13496825 0.09095301
000320 f6 1b 51 3e 27 6d 26 bd 04 1e f1 3c 35 87 1a be
       0.20420823 -0.04063144 0.029433258 -0.1509064
000330 9e e1 7d be 55 0e a5 bc ab 23 c7 3c 78 d8 78 be
       -0.24793097 -0.020148436 0.024309 -0.24301326
000340 6a fa b0 bd 1b 04 b5 3c 75 c4 b7 bc 53 a5 9c bb
       -0.08641513 0.022096684 -0.022432545 -0.0047804504
000350 1c f9 cb bb 06 db ce bc 23 23 80 bd 19 1c b2 bc
       -0.0062247645 -0.025250923 -0.06256702 -0.021741914
000360 1c d3 42 bd 62 97 e8 bc 57 71 ae bc b8 5e ca 3c
       -0.04756461 -0.028392497 -0.021294279 0.024703369
000370 f0 f0 de bb 89 da f6 3c ef d3 80 bd c2 67 13 bb
       -0.0068036243 0.030133503 -0.06290423 -0.0022492264
000380 84 68 4d bd 1e ef a3 bc 45 25 24 bc 6e 37 74 3d
       -0.050148502 -0.02001148 -0.010018651 0.059623174
000390 7a 42 85 bc 48 9f 8d bc b6 5b f2 ba 08 fe b4 bd
       -0.01626705 -0.017287865 -0.0018490467 -0.08837515
0003a0 1a 32 a0 bc a2 b5 8e bb 72 cb 00 bd 08 9a b9 bc
       -0.01955514 -0.0043551484 -0.03144402 -0.022656456
0003b0 c5 e5 32 bd 48 48 28 bd 26 2a 7b bd 93 28 4a 3b
       -0.043676157 -0.041084558 -0.061319493 0.0030846938
0003c0 a4 cc 03 bd c7 05 75 3a 33 6f 21 3c e5 f5 25 bd
       -0.032177582 0.0009346869 0.009853172 -0.040517706
0003d0 17 5c 75 bd fe 68 91 3c 7a 88 94 bd ce bd 56 bd
       -0.059902277 0.01775026 -0.07252593 -0.052427106
0003e0 26 01 aa bc 23 30 de bc 79 45 16 bd 5c c3 ea bd
       -0.0207525 -0.027122563 -0.036687348 -0.11463043
0003f0 12 16 9a bd d4 34 14 3d 1d 15 a1 3d 15 b5 4a 3d
       -0.07523741 0.036183193 0.07865355 0.0494891

Linear1.bias f4 [256]
000000 6c 05 f3 be b3 75 0c bf c6 c7 03 bf 51 86 cb be
       -0.47465074 -0.54867095 -0.51476705 -0.39750913
000010 f3 9e fb be 97 d3 f7 be 6c 69 05 bf a9 84 0a bf
       -0.49144706 -0.48403618 -0.52113986 -0.54108673
000020 ec 4d f0 be 17 19 f0 be d7 e7 0f bf 58 3d df be
       -0.4693445 -0.46894142 -0.56213135 -0.4360149
000030 34 f2 ed be be b5 ec be 41 b1 09 bf 4a 9a d3 be
       -0.4647385 -0.46232408 -0.53786093 -0.4132865
000040 42 bc eb be bc 41 0f bf 1e c2 f5 be 7f 1b ff be
       -0.46042067 -0.5595968 -0.47999662 -0.49825665
000050 53 f1 02 bf 7b 6a d0 be 28 3d 02 bf 3f 19 d9 be
       -0.5114948 -0.40706238 -0.5087457 -0.42402074
000060 51 cb dd be db fd ea be ef 22 fe be 91 36 df be
       -0.4331918 -0.458968 -0.49636027 -0.43596318
000070 6f 89 d0 be 19 bd 04 bf 40 a5 db be 27 74 fb be
       -0.40729854 -0.5185104 -0.42899513 -0.49112055
000080 26 20 e7 be 50 84 b9 be 72 63 cb be 69 75 08 bf
       -0.45141715 -0.3623376 -0.39724308 -0.53304154
000090 90 55 00 bf bd b4 f5 be 7a 4f 10 bf ce 3e c4 be
       -0.5013056 -0.47989455 -0.5637127 -0.38329166
0000a0 1c 50 f1 be 6c c0 12 bf c6 9c e1 be 8e 39 b2 be
       -0.4713143 -0.5732486 -0.4406492 -0.34809536
0000b0 1f f1 9e be b2 3b e0 be 09 4e e1 be 78 62 0d bf
       -0.31043336 -0.43795544 -0.4400485 -0.55228376
0000c0 da 44 c4 be 81 5b a1 be 2a 4b e7 be f6 02 cb be
       -0.3833378 -0.31515124 -0.45174533 -0.39650697
0000d0 12 25 b2 be 71 e6 b7 be 2d e9 d2 be 53 9f df be
       -0.34793907 -0.35918 -0.41193524 -0.43676242
0000e0 6b 18 11 bf df 3f 17 bf 2c 73 02 bf 0d 6e 10 bf
       -0.56677884 -0.59081835 -0.5095699 -0.56417924
0000f0 92 f7 e5 be 4b 68 06 bf 86 4c 08 bf 5a f4 1e bf
       -0.44915444 -0.5250289 -0.53241765 -0.620916
000100 ba ea 06 bf a3 17 f2 be 6d 46 e9 be ca 5c 11 bf
       -0.52701914 -0.47283658 -0.45561543 -0.5678221
000110 ce ef 17 bf 70 59 fb be 95 a6 de be 69 7a f7 be
       -0.5935029 -0.49091673 -0.43486467 -0.4833558
000120 f9 c8 0b bf 84 d5 e0 be 51 a2 bb be 63 c5 b2 be
       -0.54603535 -0.439129 -0.36647275 -0.3491622
000130 30 c5 13 bf 00 ef f4 be d4 e8 e5 be b9 c4 cf be
       -0.5772276 -0.47838593 -0.44904196 -0.40579775
000140 bf 0a d0 be 82 c5 02 bf 54 e1 e6 be 41 1b eb be
       -0.406332 -0.51082623 -0.45093787 -0.4591923
000150 5a f1 c5 be 30 31 ec be 46 07 cf be 8a 30 e6 be
       -0.386607 -0.46131277 -0.40435237 -0.44958907
000160 cf 4a e5 be 94 a8 11 bf f7 e6 fb be 9f d7 25 bf
       -0.44783637 -0.56897855 -0.4919965 -0.64782137
000170 79 c5 b9 be 17 fb 04 bf b1 35 d3 be 7b 66 dc be
       -0.36283472 -0.5194563 -0.412519 -0.43046936
000180 a9 58 01 bf 65 69 da be 6d e1 f4 be 75 43 01 bf
       -0.5052591 -0.42658535 -0.47828236 -0.50493556
000190 50 6a cd be ef da cc be a5 e4 d0 be 7e 80 b7 be
       -0.40120173 -0.40010783 -0.40799442 -0.3584022
0001a0 4a 44 01 bf d8 40 f6 be a7 b4 fa be 2e 97 db be
       -0.50494826 -0.48096347 -0.48965952 -0.42888778
0001b0 9e e4 e4 be 65 55 f0 be cb d1 18 bf 8f fe e5 be
       -0.4470567 -0.4694015 -0.5969512 -0.44920775
0001c0 26 90 0f bf 76 34 00 bf 65 13 fd be 34 c5 c7 be
       -0.5607933 -0.5008005 -0.4942886 -0.39017642
0001d0 64 6c 0d bf 46 b7 01 bf 6f 8d cb be 91 37 e2 be
       -0.55243516 -0.5067028 -0.39756343 -0.4418302
0001e0 a3 b6 18 bf 79 7d ec be 5a 65 b8 be 6c 45 fb be
       -0.5965368 -0.46189478 -0.36014825 -0.49076402
0001f0 63 29 e4 be c0 a0 de be c1 18 0c bf 4a 42 ec be
       -0.44562826 -0.43482018 -0.5472527 -0.46144325
000200 7b f8 c9 be 70 88 f4 be a4 fd 02 bf 42 90 02 bf
       -0.39447388 -0.47760344 -0.51168275 -0.5100137
000210 16 0c b8 be 66 39 ce be 78 bb e1 be 98 13 de be
       -0.3594672 -0.40278167 -0.4408834 -0.43374324
000220 ed e0 20 bf 6b df 15 bf 3c aa 00 bf a8 24 c4 be
       -0.6284321 -0.58544034 -0.5025976 -0.38309216
000230 5b e7 ca be e1 0a eb be 52 39 a1 be 9e af f3 be
       -0.39629635 -0.45906737 -0.31489044 -0.47594923
000240 cb 44 de be 2b 5e da be 98 dc de be 2d bc ec be
       -0.4341186 -0.4264997 -0.43527675 -0.46237317
000250 75 88 fa be a2 ba 0c bf 0a 90 d1 be 89 68 06 bf
       -0.48932233 -0.5497228 -0.40930206 -0.5250326
000260 16 f5 2d bf bb 06 02 bf 1e 48 ea be 1f ce ea be
       -0.67952096 -0.5079152 -0.45758146 -0.45860383
000270 30 99 e8 be 4f 2e dd be bc d5 d5 be 5d 3c c4 be
       -0.45429373 -0.43199393 -0.4176463 -0.38327304
000280 3b 18 1b bf 2b 2a 00 bf 90 ea 00 bf e1 91 f0 be
       -0.6058385 -0.50064343 -0.50357914 -0.46986297
000290 22 1e fa be ce f2 b3 be 82 08 c9 be e2 9d f5 be
       -0.48851115 -0.35146183 -0.39264303 -0.47972018
0002a0 2d 68 b1 be a5 f6 c4 be ad 6c d8 be 6c be df be
       -0.34649792 -0.38469425 -0.42270413 -0.43699968
0002b0 5f 5d da be ae 27 12 bf 9e 0c 0a bf d1 a7 c1 be
       -0.42649361 -0.57091796 -0.539255 -0.37823346
0002c0 39 94 ed be 7d 69 0a bf 26 78 01 bf ed 45 aa be
       -0.46402147 -0.5406721 -0.50573957 -0.33256474
0002d0 68 95 e7 be b9 a8 d5 be 03 dc e5 be c8 9d d8 be
       -0.45231175 -0.41730288 -0.44894418 -0.42307878
0002e0 a4 1e e8 be 11 4f be be 6f 26 8f be 87 64 0b bf
       -0.45335877 -0.37169698 -0.2795901 -0.5445027
0002f0 0b ed 04 bf 12 3a e1 be 73 9b 16 bf 54 bc 1f bf
       -0.519242 -0.43989617 -0.58830947 -0.6239674
000300 c3 72 e0 be 94 d4 d3 be da 97 de be 9a bb 0e bf
       -0.43837556 -0.41373122 -0.4347523 -0.5575501
000310 60 80 e4 be 7d 91 0e bf 50 48 cc be 2e e8 14 bf
       -0.44629192 -0.5569075 -0.3989892 -0.5816678
000320 85 d7 d2 be 9c 31 d0 be a8 ae 03 bf 59 49 ff be
       -0.41180053 -0.4066285 -0.5143838 -0.49860647
000330 ae 33 ea be 13 f1 fe be 1c 2c af be 41 ba fe be
       -0.45742553 -0.497933 -0.3421334 -0.49751475
000340 cf c9 0a bf d5 10 bc be 8a 25 f5 be 75 eb ee be
       -0.54214185 -0.36731592 -0.47880203 -0.46664014
000350 70 61 a7 be 7d 0a fd be b9 01 0b bf d2 f7 00 bf
       -0.32691526 -0.49422064 -0.54299504 -0.50378144
000360 d4 67 c9 be 80 98 03 bf 47 99 c4 be e9 6a fa be
       -0.39337027 -0.5140457 -0.3839819 -0.4890969
000370 79 6f d3 be 66 cb c3 be 61 9c d5 be 70 73 e9 be
       -0.41295984 -0.38241118 -0.4172087 -0.45595884
000380 b9 55 f7 be f1 b4 17 bf c2 3b ce be 1e bf 03 bf
       -0.4830759 -0.5926047 -0.40279967 -0.51463497
000390 9f fe e2 be 72 8f be be 37 bd e0 be 4c 6b e4 be
       -0.44334885 -0.37218815 -0.4389436 -0.4461311
0003a0 1a 68 f1 be e2 a8 e1 be 25 23 e4 be 7a f4 0a bf
       -0.47149736 -0.4407416 -0.44558063 -0.5427929
0003b0 f1 11 0b bf d9 1d d6 be f9 02 16 bf d0 7d f2 be
       -0.5432425 -0.41819647 -0.58598286 -0.47361612
0003c0 45 2c f8 be c0 aa 09 bf f6 b9 ff be 7d 42 bc be
       -0.48471275 -0.5377617 -0.49946564 -0.36769477
0003d0 fc 5e e5 be 55 e4 ee be 74 47 ca be ab 6f 1a bf
       -0.4479903 -0.4665858 -0.3950764 -0.6032664
0003e0 0b 53 e1 be 93 2f 05 bf 00 91 23 bf 4f 62 f1 be
       -0.4400867 -0.5202572 -0.6389313 -0.47145316
0003f0 10 41 0e bf ef 87 20 bf e3 19 e3 be f6 b2 b9 be
       -0.5556803 -0.6270742 -0.44355687 -0.3626935

Linear2.weight f4 [7, 256]
000000 ed 41 7f 3d bf 0c 11 be 5e 77 85 bd df f6 76 bd
       0.06231873 -0.14165018 -0.06516908 -0.06029403
000010 7b c7 10 3d 57 75 47 b9 82 18 25 3d 80 44 71 3b
       0.03534649 -0.00019021831 0.040306576 0.003681451
000020 44 3b b4 3c c8 ed a3 bd f3 b0 10 3e 72 fb 89 bc
       0.022000916 -0.080043375 0.14130001 -0.016843531
000030 dc 24 a4 3d a9 82 50 bc 8f 55 43 bc 49 c4 93 bb
       0.08014843 -0.012726464 -0.011922254 -0.004509483
000040 c2 60 d7 bd 2a fc 38 bd be 9d 73 3d af ec 3f bc
       -0.10516502 -0.045162357 0.059476607 -0.011714145
000050 f8 1f 90 bd 5d d2 5c be c0 07 9b be 11 02 e6 bc
       -0.070373476 -0.21564622 -0.3027935 -0.028077157
000060 91 a4 7c bc ed 5b d6 3c 23 ec a3 bc 88 65 7c bd
       -0.015420095 0.02616688 -0.02001006 -0.061620265
000070 cb 6c 9e bd f5 99 97 bc 6c bd 0a 3d 2d 0f b7 bd
       -0.07735594 -0.01850603 0.033872053 -0.089384414
000080 f8 6a 28 3c 42 76 38 bd d2 e5 1c bd 7b 40 23 bd
       0.01027941 -0.045034654 -0.03830511 -0.039856415
000090 cc d3 64 bc 15 43 68 3d 5c 04 aa bc d6 84 b5 bd
       -0.013966512 0.0567046 -0.020754032 -0.08863227
0000a0 3e d7 e9 3d 4d 11 21 bd 49 55 1c 3c 22 22 37 bd
       0.11418007 -0.03932314 0.009541818 -0.044710286
0000b0 19 c6 f7 bd 9d 78 b2 3d 3a 4e 7c 3c f1 d0 51 3d
       -0.12098331 0.087144114 0.01539951 0.051224653
0000c0 99 44 de bc dc 13 40 bc ec 78 15 3d ce 69 3f bd
       -0.02713232 -0.011723485 0.036492273 -0.046731763
0000d0 4d dc ad bd 98 67 82 3d d5 a2 e7 bd 3b 7a 11 bc
       -0.08489285 0.06367415 -0.113103546 -0.00887924
0000e0 44 82 28 3d 91 6a 12 be be 40 f1 3c dc 0c b6 3d
       0.041139856 -0.14298464 0.029449817 0.088891715
0000f0 f4 35 79 3a 14 09 41 3b 32 47 ee bd 03 18 bf 3d
       0.0009506636 0.0029454874 -0.11634673 0.09330752
000100 cd 6b d6 bd 0b 9d 50 bd 34 51 82 ba bc 04 64 3a
       -0.1046978 -0.050931018 -0.0009942413 0.0008698215
000110 e9 73 cf bb 95 7b 18 3d f0 67 54 bd 0f ee d4 bd
       -0.0063309562 0.037227232 -0.051856935 -0.103969686
000120 6b 60 05 bd 03 ac bc bd 00 8c 41 3d 9c 1d 8c 3c
       -0.032562654 -0.09212496 0.047252655 0.017103963
000130 b1 39 2c 3d 17 bb 61 3d d8 03 24 3d 91 5d ab bc
       0.042047206 0.055110063 0.04004273 -0.02091864
000140 41 aa b7 bd 48 c7 a3 3d 52 b8 39 bd 31 b7 8d 3c
       -0.0896802 0.07996994 -0.045341797 0.017299267
000150 ea f0 42 be eb dc 1b be 2e cc 3c 3c 4c c8 93 bc
       -0.19037214 -0.15220992 0.01152329 -0.018039845
000160 4a 24 8b 3c b8 02 b0 bd 55 43 10 bd 2d 48 60 3d
       0.016985077 -0.085942686 -0.035220463 0.054756332
000170 39 34 ab bd c3 27 c3 3c 45 e1 96 bc 3c 7e b4 bc
       -0.0835957 0.02382267 -0.018417964 -0.02203285
000180 b1 17 0a bc df f6 2a be 8b 17 1a bd 56 08 01 bc
       -0.0084285 -0.16695736 -0.03762011 -0.007875523
000190 40 eb 32 bd 4c f9 d1 bd 39 48 02 3d c3 8e 07 3d
       -0.043681383 -0.10252628 0.03180716 0.033095133
0001a0 10 61 b5 bc 20 f0 95 3d fc 22 c7 3b 07 ad ed bd
       -0.02214101 0.07321191 0.0060771685 -0.11605268
0001b0 de d2 0e 3e 52 fe f7 bc 9e 19 40 3d e4 29 53 bd
       0.13947627 -0.030272637 0.04689943 -0.051553622
0001c0 41 60 a7 bd 88 d3 cd bd 03 00 bf bb ef af ed 3c
       -0.08172656 -0.10050112 -0.005828859 0.029014556
0001d0 96 9a 94 3d 59 0c dc bc d8 af 5f 3d 7f e5 4c bd
       0.072560474 -0.026861357 0.054611057 -0.050023552
0001e0 a6 5d 10 bd d2 88 7b bd 08 4c e6 3c ad e7 67 bd
       -0.03524556 -0.06140978 0.028112426 -0.056617428
0001f0 52 52 dc b8 5b 6a 9d be 9f 63 dc 3d f7 38 37 3d
       -0.00010505751 -0.30745205 0.10761189 0.04473206
000200 f6 6e b6 3c 39 7e b3 bd ed 83 3b bd 71 ca 35 bd
       0.022269707 -0.087643094 -0.04578011 -0.044382516
000210 ed 71 9f bd 42 77 9c bd 34 e1 a6 3c 80 96 3e be
       -0.077854015 -0.07639934 0.020371057 -0.18612099
000220 98 e0 0d be 1c 68 f0 bc 1a 88 b8 3d 4a 26 83 bd
       -0.13855207 -0.029346518 0.09010334 -0.064037874
000230 f8 92 f8 ba 2a cb 30 bd d8 0d 8a bc 4b 93 4b bd
       -0.0018964699 -0.043162502 -0.016852304 -0.049701016
000240 7c a8 04 3e 02 56 5c 3d 54 99 27 bd df c5 01 be
       0.12954897 0.05379296 -0.04091771 -0.12673138
000250 e8 d0 66 bd d4 c7 20 3c ec 7b 3f bc 9c 33 11 bd
       -0.056351572 0.009813268 -0.01168726 -0.03544961
000260 75 d9 32 3d e1 df df 3d 71 06 24 3d c6 cd d7 3c
       0.043664414 0.109313734 0.040045206 0.026343238
000270 a6 e6 3b 3c 8e 2a 03 bd d1 1c f3 bc 4e b5 71 3c
       0.011468565 -0.032023005 -0.029676827 0.014752699
000280 d2 52 4e bc 00 50 87 3d 47 40 04 bd 9f ea 56 bc
       -0.012592988 0.06607056 -0.032287862 -0.013117461
000290 37 45 71 3d 5f 92 1c be 6c 84 d9 bc 2e a2 6c 3d
       0.0589039 -0.15290211 -0.026552401 0.057771854
0002a0 1f dc c1 bd 8c 22 04 bd 8c 88 6d bd 6c b9 a2 bc
       -0.09465813 -0.03225951 -0.05799155 -0.019863807
0002b0 7a 08 eb 3b c5 47 4c 3c 64 4e a9 bd 0f 3f d2 bd
       0.0071726413 0.012468283 -0.08266905 -0.10265934
0002c0 e0 78 21 bd 14 4b 48 bd 22 e1 86 3d d4 f9 67 be
       -0.039421916 -0.048899725 0.065859094 -0.22653896
0002d0 c3 98 eb 3d 82 62 92 bd 00 aa 47 bd 93 75 86 bc
       0.11503746 -0.07147695 -0.04874611 -0.016413486
0002e0 3a 2a 33 bd d3 f6 8a bd 1b d1 88 bd cd bd da bc
       -0.043741442 -0.06785359 -0.06680509 -0.026701832
0002f0 83 6b 54 be 8c 34 25 bc 88 1e 7b bd cd 57 ee b9
       -0.20744137 -0.010083329 -0.061308414 -0.00045460314
000300 ce f0 f7 bd f1 d0 f7 3d 71 47 fa bc 4f 78 05 3e
       -0.12106477 0.12100399 -0.030551644 0.13034175
000310 f6 f1 8a bd 34 ad 88 bd 8f 14 a5 bd 51 97 b0 bd
       -0.06784432 -0.06673661 -0.08060562 -0.08622611
000320 01 ad 43 3d 46 53 93 bd 97 2d 31 be b2 20 a8 3c
       0.04777241 -0.071936175 -0.17302547 0.020523403
000330 b2 8c cb 3b dc bb 23 be 8c 5f 9e 3c f9 3d 19 3d
       0.0062118405 -0.15989631 0.01933267 0.037412617
000340 8a 22 35 be 56 0f 24 bd 1b f8 00 bc 50 22 39 bd
       -0.17688957 -0.040053688 -0.007871653 -0.04519874
000350 17 cf 88 3d c7 28 3f bd 2b b2 46 3c 5f a5 4c bd
       0.06680124 -0.046669748 0.0121274395 -0.049962398
000360 c2 87 0c bd 20 5c 6a 3d 52 22 c8 bc 76 69 99 3c
       -0.034309156 0.057216763 -0.024430428 0.018727046
000370 5b b6 16 bd 2f 65 13 3d 73 26 47 bd 17 f7 a4 3b
       -0.036795 0.035985168 -0.048620652 0.005034338
000380 df 09 61 bb 9c 54 ce 3d 27 9f 92 bb 36 9a 38 be
       -0.003433816 0.10074732 -0.004474539 -0.18027577
000390 f1 d0 1e bd 6f 0e 02 bc f6 eb 14 be 2b c6 5a be
       -0.03877348 -0.007938012 -0.14543137 -0.21364658
0003a0 73 6d 8e bd 06 54 af 3c 8e 9a 99 3c 79 48 ba 3b
       -0.069544695 0.02140237 0.018750455 0.005684909
0003b0 08 e6 8b bd 7b 4f b3 bc f0 41 3c 3e ee 5e 45 bd
       -0.06830984 -0.021888485 0.18384528 -0.048186235
0003c0 d5 fd 2a bd fc e8 b7 bd 65 cd af bd b0 0a 51 bc
       -0.04174598 -0.08979985 -0.08584098 -0.012758896
0003d0 73 e5 d7 bd 81 3f b0 bd 63 1d a9 bd d7 6a 7f bd
       -0.10541811 -0.086058624 -0.08257558 -0.06235775
0003e0 8a 68 d3 bb 7d ce d3 bc e9 af 1f 3e 54 b9 40 bd
       -0.006451671 -0.025855297 0.15594448 -0.047051743
0003f0 8f ec da bd e5 23 a2 3c 57 87 49 bd 80 bd 9d 3d
       -0.10689651 0.019792506 -0.049201336 0.0770216

Linear2.bias f4 [7]
000000 51 4e bc 3c c3 1a af 3c f3 4f c0 3c 59 f4 a7 3c
       0.022986563 0.021375066 0.023475623 0.020502256
000010 84 2f a9 3c 1c ce c2 3c 6d 95 ac 3c
       0.02065254 0.023779921 0.021067346
