first_net/saved_model 5000.pth (torch, 52885 bytes, 4 tensors)

Linear1.weight f4 [256, 42]
0	0xbc53c6c0	-0.012925804
1	0x3cc950e0	0.024574697
2	0xbc3e40eb	-0.011612157
3	0x3d55aae8	0.052164942
4	0x3d62922d	0.055315185
5	0xbc14e6cc	-0.009088229
6	0xbcbacc3f	-0.02280247
7	0x3d9ffc75	0.07811824
8	0x3dd82607	0.10554128
9	0xbd86f6ab	-0.06590017
10	0xbcf56b37	-0.02995835
11	0xbc1ca2a2	-0.009560259
12	0xbcaf7c0a	-0.021421451
13	0xbcf81bff	-0.030286787
14	0x3da47e15	0.08031861
15	0xbcc03bd6	-0.023466032
16	0xbd35a62d	-0.04434793
17	0x3d2043ee	0.039127283
18	0x3d81504d	0.06314144
19	0x3c474d6f	0.012164458
20	0xbd76b4b6	-0.060230933
21	0xbc42b403	-0.011883738
22	0x3c9289ff	0.017888067
23	0xbdb1a916	-0.08674829
24	0x3db69f84	0.08917144
25	0xbd5eadd3	-0.05436499
26	0x3c9d21c0	0.019181132
27	0x3c5c4020	0.013443023
28	0xbd0b8627	-0.034063485
29	0xbda1f542	-0.07908107
30	0x3d8f0995	0.069842495
31	0x3c938288	0.018006578
32	0x3db3b107	0.08774
33	0x3ce9cfdb	0.028541496
34	0xbdefd44a	-0.11710413
35	0xbd5edbd3	-0.05440886
36	0x3dbd40ce	0.09240876
37	0x3b013735	0.0019716744
38	0xbd1cc255	-0.038271267
39	0x3c7232fc	0.014782663
40	0xbd9568ca	-0.072953776
41	0xbd5ff2ea	-0.05467502
42	0xbcd81d14	-0.026381053
43	0xbd93fc77	-0.07225888
44	0x3ca1d304	0.01975394
45	0x3c6df3dd	0.014523474
46	0x3d55dd2b	0.052212875
47	0x3c5f3b73	0.013625014
48	0xbc8471e0	-0.016167581
49	0xbd4153c7	-0.047199037
50	0x3d22e1e6	0.039766215
51	0x3cad13f4	0.021127678
52	0x3c483586	0.012219792
53	0xbd10d970	-0.035363615
54	0xbc4694df	-0.012120455
55	0x3cd707f4	0.02624891
56	0x3d78607a	0.060638882
57	0xbcd7e1c4	-0.02635277
58	0x3cebfb41	0.02880633
59	0xbe2f75cd	-0.17134781
60	0xbca4e950	-0.020130783
61	0xbd5fd865	-0.05464973
62	0x3d81def5	0.06341354
63	0x3c007a63	0.007841679
64	0x3d018c3a	0.03162787
65	0x3b43c566	0.0029872297
66	0x3e49a5e9	0.19692196
67	0x3db47839	0.08811993
68	0x3c0cf0a3	0.008602294
69	0x3dee74df	0.11643385
70	0xbd0f0d19	-0.0349246
71	0x3d2aef0b	0.041731875
72	0x3dbbb936	0.091661856
73	0xbcc4eee0	-0.024039686
74	0x3d312513	0.043248247
75	0x3cd0e1f7	0.025498373
76	0xbdc45974	-0.09587374
77	0x3d18457d	0.037175644
78	0xbd6596e1	-0.056052092
79	0xbdb3507f	-0.08755588
80	0xbe690265	-0.2275482
81	0x3d735936	0.05941125
82	0xbd41b2de	-0.04728972
83	0xbd66cef9	-0.05634973
84	0x3da424ce	0.080148324
85	0xbb785eb9	-0.0037898256
86	0xbc42ab23	-0.0118816225
87	0x3d984968	0.07435876
88	0x3d4e9938	0.05043909
89	0xbcd053a8	-0.025430515
90	0xbde64590	-0.11243737
91	0xbca2ea6f	-0.019887177
92	0xbdb7efae	-0.08981262
93	0xbdafeb35	-0.08589784
94	0x3e13f6b5	0.1444958
95	0xbdcc9e62	-0.099911466
96	0x3c03c554	0.008042652
97	0xbb96ab94	-0.0045980904
98	0xbc5bea8f	-0.013422622
99	0x3d0a7503	0.033802997
100	0xbca7f4cf	-0.020502476
101	0x3e5092e6	0.20368537
102	0x3db44dae	0.08803879
103	0x3d329027	0.043594506
104	0x3da1c933	0.07899704
105	0x3c04b3b5	0.008099486
106	0x3e59773c	0.2123689
107	0xbd82536d	-0.063635685
108	0xbca09269	-0.019601064
109	0xbcd0dbbd	-0.025495404
110	0xbbd32899	-0.0064440486
111	0xbd5fba6f	-0.054621156
112	0x3dc584a2	0.09644438
113	0x3e262810	0.1622622
114	0x3d42cadf	0.047556754
115	0x3d608b9e	0.05482065
116	0xbcba34c5	-0.02273024
117	0x3dc8f904	0.09813121
118	0x3d64431c	0.055728063
119	0xbd82c352	-0.06384911
120	0x3c051f08	0.008125074
121	0xbdcf65b5	-0.10126821
122	0xbdb187ea	-0.08668502
123	0xbbf102df	-0.0073550786
124	0x3ce549c0	0.027989268
125	0x3ca2af90	0.019859105
126	0xbc879ec2	-0.016555194
127	0x3c436755	0.011926492
128	0xbdb937d8	-0.090438545
129	0x3d42b838	0.047538966
130	0xbcb22bb4	-0.021749355
131	0xbcb9b702	-0.022670273
132	0xbd0983bd	-0.0335729
133	0xbb044cca	-0.0020187371
134	0x3cd82c66	0.026388358
135	0xbd71dbf1	-0.059047643
136	0xbcf20c30	-0.029546827
137	0xbda99d8e	-0.08282004
138	0xbca43ced	-0.020048583
139	0xbba3327a	-0.0049803825
140	0xbca228eb	-0.019794902
141	0x3ce65c76	0.02812026
142	0xbccc8300	-0.02496481
143	0xbd34a548	-0.044102937
144	0x3da8d688	0.082440436
145	0x3c95eff3	0.018302893
146	0x3bf68139	0.0075227288
147	0x3cc257a9	0.02372344
148	0xbd8cb8d9	-0.068711944
149	0xbdc02f2f	-0.093839996
150	0x3db6780b	0.08909615
151	0xb87a4ee0	-5.9678103e-05
152	0xbc83fcd1	-0.016111763
153	0x3d2a79c7	0.041620042
154	0x3cc21f73	0.023696637
155	0xbd7e9a65	-0.06215896
156	0x3d0caab5	0.034342486
157	0xbc533ed9	-0.012893402
158	0x3d734fd8	0.059402317
159	0xbdbbd251	-0.09170974
160	0xbbec90a6	-0.007219392
161	0xbc259613	-0.010106581
162	0xbe412370	-0.18861175
163	0xbd8ad9d5	-0.067798294
164	0xbd2f1096	-0.042740427
165	0xbd2399a9	-0.039941464
166	0x3cbf4f23	0.023353165
167	0xbd086a43	-0.033304464
168	0xbcc0ca8b	-0.02353408
169	0x3db1f61c	0.0868952
170	0x3b156cc5	0.0022800427
171	0xbde5cd0a	-0.11220749
172	0xbd887980	-0.06663799
173	0xbd18ccc7	-0.037304666
174	0x3d906f9e	0.07052539
175	0x3d041154	0.032243088
176	0x3d7e7fdb	0.06213365
177	0xbe02814b	-0.12744634
178	0x3d71f615	0.059072573
179	0xbd75229b	-0.059847455
180	0xbcadb65b	-0.021205118
181	0xbcac5375	-0.02103589
182	0xbcf2b8bb	-0.029629102
183	0x3c2999a5	0.010351573
184	0x3dea71fc	0.11447522
185	0xbd80d467	-0.062905125
186	0x3db11934	0.08647385
187	0x3d384102	0.04498387
188	0x3dd62fcf	0.104583375
189	0x3d8f345a	0.06992407
190	0x3df82b65	0.12117652
191	0x3db3a949	0.08772523
192	0xbd890b95	-0.06691662
193	0xbdebc8d0	-0.11512911
194	0x3e1b4206	0.15161905
195	0x3db3bf78	0.08776754
196	0xbd69f60e	-0.05711942
197	0x3db0bdf0	0.08629978
198	0x3df9309f	0.12167477
199	0x3dc58f98	0.09646529
200	0x3e9026eb	0.28154692
201	0xbc1006d8	-0.008790694
202	0x3cc72138	0.024307832
203	0xbe0fc35a	-0.14039364
204	0xbe63fc00	-0.22264099
205	0xbb8b5fd8	-0.004253369
206	0x3cb9b501	0.022669317
207	0xbe9024c2	-0.28153044
208	0xbdc5d7b7	-0.09660285
209	0x3c43baff	0.011946439
210	0xbcb7c475	-0.022432545
211	0xbb9ca553	-0.0047804504
212	0xbbcbf91c	-0.0062247645
213	0xbccedb06	-0.025250923
214	0xbd802323	-0.06256702
215	0xbcb21c19	-0.021741914
216	0xbd42d31c	-0.04756461
217	0xbce89762	-0.028392497
218	0xbcae7157	-0.021294279
219	0x3cca5eb8	0.024703369
220	0xbbdef0f0	-0.0068036243
221	0x3cf6da89	0.030133503
222	0xbd80d3ef	-0.06290423
223	0xbb1367c2	-0.0022492264
224	0xbd4d6884	-0.050148502
225	0xbca3ef1e	-0.02001148
226	0xbc242545	-0.010018651
227	0x3d74376e	0.059623174
228	0xbc85427a	-0.01626705
229	0xbc8d9f48	-0.017287865
230	0xbaf25bb6	-0.0018490467
231	0xbdb4fe08	-0.08837515
232	0xbca0321a	-0.01955514
233	0xbb8eb5a2	-0.0043551484
234	0xbd00cb72	-0.03144402
235	0xbcb99a08	-0.022656456
236	0xbd32e5c5	-0.043676157
237	0xbd284848	-0.041084558
238	0xbd7b2a26	-0.061319493
239	0x3b4a2893	0.0030846938
240	0xbd03cca4	-0.032177582
241	0x3a7505c7	0.0009346869
242	0x3c216f33	0.009853172
243	0xbd25f5e5	-0.040517706
244	0xbd755c17	-0.059902277
245	0x3c9168fe	0.01775026
246	0xbd94887a	-0.07252593
247	0xbd56bdce	-0.052427106
248	0xbcaa0126	-0.0207525
249	0xbcde3023	-0.027122563
250	0xbd164579	-0.036687348
251	0xbdeac35c	-0.11463043
252	0xbd1ffb65	-0.039058108
253	0xbac5e5cd	-0.0015098393
254	0x3d82701d	0.0636904
255	0x3dcbe6a3	0.099561

Linear1.bias f4 [256]
0	0xbf04cef2	-0.51878273
1	0xbf143b24	-0.5790274
2	0xbf04fdc8	-0.5194974
3	0xbee7ce31	-0.452745
4	0xbf0a6ecd	-0.5407532
5	0xbef7d397	-0.48403618
6	0xbf25f187	-0.64821666
7	0xbf0dfe4e	-0.55466163
8	0xbf1675d2	-0.5877353
9	0xbf046bf3	-0.5172722
10	0xbf317395	-0.6931699
11	0xbee65e03	-0.449936
12	0xbef7bf22	-0.4838801
13	0xbf199afe	-0.60002124
14	0xbf2954a9	-0.66144806
15	0xbee265d6	-0.4421832
16	0xbf0222de	-0.50834453
17	0xbf23bfd2	-0.6396457
18	0xbee7a359	-0.45241812
19	0xbf11c1bc	-0.5693624
20	0xbefbc3b0	-0.49172735
21	0xbee577b6	-0.44817895
22	0xbf0c7da6	-0.54879224
23	0xbef18003	-0.47167978
24	0xbee925b1	-0.4553657
25	0xbf03789e	-0.5135592
26	0xbf0317eb	-0.5120837
27	0xbf06da14	-0.5267651
28	0xbedfb058	-0.43689227
29	0xbf15afcd	-0.58471376
30	0xbefedb43	-0.49776658
31	0xbf0c6703	-0.54844683
32	0xbf00108c	-0.5002525
33	0xbed51ae6	-0.41622084
34	0xbefd7a3c	-0.4950732
35	0xbf0e5465	-0.55597526
36	0xbf11624f	-0.5679063
37	0xbf16b77e	-0.58873737
38	0xbf281f31	-0.65672594
39	0xbed34ed4	-0.4127108
40	0xbf198a17	-0.59976333
41	0xbf1f4124	-0.6220877
42	0xbef63396	-0.48086232
43	0xbed595c3	-0.41715822
44	0xbebf731f	-0.37392518
45	0xbeee7cc2	-0.46579558
46	0xbef1938d	-0.47182885
47	0xbf23f63b	-0.6404759
48	0xbf0323e5	-0.51226646
49	0xbeace4a6	-0.33768195
50	0xbf07afd2	-0.53002656
51	0xbef3b68a	-0.47600204
52	0xbebcdb4f	-0.3688607
53	0xbed31c37	-0.41232464
54	0xbeec9e8e	-0.46214718
55	0xbedbce66	-0.42930907
56	0xbf11186b	-0.56677884
57	0xbf24dc9c	-0.64399123
58	0xbf14bf58	-0.5810447
59	0xbf2d36df	-0.6766185
60	0xbf1c1dc6	-0.6098293
61	0xbf12f5b6	-0.57406175
62	0xbf0c4e6a	-0.5480715
63	0xbf1f782a	-0.6229273
64	0xbf23c1ec	-0.63967776
65	0xbf1bc797	-0.60851425
66	0xbf04988f	-0.51795286
67	0xbf18c033	-0.5966827
68	0xbf230c0d	-0.63690263
69	0xbf148853	-0.58020514
70	0xbf007253	-0.50174445
71	0xbf2955fe	-0.6614684
72	0xbf10d164	-0.56569505
73	0xbf067fa7	-0.5253853
74	0xbee25318	-0.4420402
75	0xbee709a6	-0.4512455
76	0xbf1e9c07	-0.6195683
77	0xbf07ae3f	-0.53000253
78	0xbf0c73d6	-0.5486425
79	0xbed6ea40	-0.41975594
80	0xbedbb121	-0.42908576
81	0xbf0903a1	-0.5352116
82	0xbef91db7	-0.48655483
83	0xbef7aafa	-0.48372632
84	0xbeffc5b0	-0.4995551
85	0xbef3afdb	-0.47595105
86	0xbed715aa	-0.42008716
87	0xbefe843f	-0.4971027
88	0xbf001586	-0.5003284
89	0xbf17d287	-0.59305614
90	0xbf04cfbc	-0.5187948
91	0xbf334b9e	-0.7003726
92	0xbed91188	-0.42396188
93	0xbf10c270	-0.5654669
94	0xbeeae046	-0.45874232
95	0xbefc7178	-0.4930532
96	0xbf12fefa	-0.57420313
97	0xbf02b854	-0.5106251
98	0xbf0b99d3	-0.5453159
99	0xbf2007fe	-0.62512195
100	0xbedfc585	-0.43705383
101	0xbedce6b0	-0.4314475
102	0xbef7df22	-0.48412424
103	0xbeefb9f8	-0.4682157
104	0xbf25907f	-0.6467361
105	0xbf00f402	-0.50372326
106	0xbefab4a7	-0.48965952
107	0xbf0daeaf	-0.5534467
108	0xbee344fe	-0.44388574
109	0xbf078411	-0.5293589
110	0xbf2f63a8	-0.6851144
111	0xbefea1dc	-0.49732864
112	0xbf148b67	-0.5802521
113	0xbf08b37b	-0.53398865
114	0xbf0bb9fb	-0.5458066
115	0xbef8518d	-0.48499718
116	0xbf1b41b9	-0.6064716
117	0xbf041350	-0.5159197
118	0xbf022bed	-0.50848275
119	0xbf010f3a	-0.5041386
120	0xbf34ba47	-0.70596737
121	0xbf00e8c7	-0.5035519
122	0xbec3c8cf	-0.38239142
123	0xbf0a4b77	-0.540214
124	0xbee42963	-0.44562826
125	0xbef819d1	-0.48457196
126	0xbf1002d7	-0.56254333
127	0xbef37d17	-0.47556373
128	0xbeec6f7e	-0.46178812
129	0xbf1e959a	-0.61947024
130	0xbf0c18a1	-0.5472508
131	0xbf0c3030	-0.5476103
132	0xbebbab83	-0.3665429
133	0xbefb171a	-0.49041063
134	0xbee9301f	-0.45544526
135	0xbeeefed8	-0.46678805
136	0xbf27eb86	-0.65593755
137	0xbf29e928	-0.66371393
138	0xbf22b777	-0.63561195
139	0xbec424a8	-0.38309216
140	0xbef3bbed	-0.47604313
141	0xbf01a9f4	-0.5064995
142	0xbeaf9fc3	-0.34301576
143	0xbf166674	-0.5875008
144	0xbeeb09eb	-0.45906004
145	0xbedf4298	-0.43605494
146	0xbf0738fd	-0.5282133
147	0xbf07d164	-0.5305388
148	0xbf0af53b	-0.5428044
149	0xbf0e8049	-0.556645
150	0xbee0f0eb	-0.43933806
151	0xbf1a6f6f	-0.60326284
152	0xbf3442e9	-0.70414597
153	0xbf0ac3c4	-0.54204965
154	0xbeff7ebe	-0.49901384
155	0xbf04dd0a	-0.5189978
156	0xbefe4a96	-0.4966628
157	0xbf13716a	-0.5759493
158	0xbef89d83	-0.48557672
159	0xbec71ab7	-0.3888757
160	0xbf378704	-0.7169039
161	0xbf04275a	-0.51622546
162	0xbf033504	-0.5125277
163	0xbf0b8a76	-0.5450815
164	0xbf2080a5	-0.62696296
165	0xbed0d9b2	-0.40791088
166	0xbef84eb6	-0.48497552
167	0xbf05761d	-0.5213335
168	0xbece1733	-0.40252075
169	0xbefce457	-0.4939296
170	0xbf00ffdc	-0.5039041
171	0xbf02cd55	-0.5109456
172	0xbeeef662	-0.4667235
173	0xbf1abb20	-0.6044178
174	0xbf1aac19	-0.6041885
175	0xbed80b40	-0.42196083
176	0xbefa32af	-0.48866794
177	0xbf0f1973	-0.5589821
178	0xbf033c1d	-0.512636
179	0xbec53ebc	-0.38524425
180	0xbf112304	-0.56694055
181	0xbeec8f58	-0.46203113
182	0xbf0ae02b	-0.54248303
183	0xbeea3388	-0.4574244
184	0xbef86611	-0.4851537
185	0xbee47357	-0.44619247
186	0xbea3e238	-0.3200853
187	0xbf1ca7e7	-0.611937
188	0xbf07293e	-0.52797306
189	0xbef0c63e	-0.47026247
190	0xbf18d72e	-0.5970334
191	0xbf25894a	-0.6466261
192	0xbee64421	-0.44973853
193	0xbefd6884	-0.49493802
194	0xbef60a28	-0.48054624
195	0xbf22e8b1	-0.6363631
196	0xbf08dcf4	-0.5346215
197	0xbf1a1ea4	-0.60203004
198	0xbed817b0	-0.42205572
199	0xbf18b93c	-0.59657645
200	0xbeead151	-0.4586282
201	0xbec70e87	-0.3887827
202	0xbf0aebb3	-0.542659
203	0xbeff4959	-0.49860647
204	0xbeee6f15	-0.46569124
205	0xbf1393ae	-0.57647216
206	0xbefdba4a	-0.4955619
207	0xbf1d669b	-0.6148469
208	0xbf18937d	-0.5960005
209	0xbed15629	-0.40886047
210	0xbf0fde44	-0.56198525
211	0xbf02c81b	-0.51086587
212	0xbee79eea	-0.4523843
213	0xbf05c060	-0.52246666
214	0xbf1f03c5	-0.62115127
215	0xbf122705	-0.5709079
216	0xbeeb6e51	-0.45982602
217	0xbf10b74b	-0.5652968
218	0xbeee177d	-0.46502295
219	0xbf0a8aa2	-0.54117787
220	0xbee01533	-0.43766174
221	0xbee469d2	-0.44611984
222	0xbef3ac0c	-0.475922
223	0xbf063887	-0.52430004
224	0xbf33e964	-0.70278
225	0xbf3b3c19	-0.73138577
226	0xbef8c784	-0.48589718
227	0xbf0e8fd3	-0.5568821
228	0xbf168437	-0.58795494
229	0xbee62841	-0.44952586
230	0xbf022f20	-0.5085316
231	0xbee89127	-0.45423242
232	0xbefa8722	-0.48931223
233	0xbee929b2	-0.45539623
234	0xbf06a0d6	-0.52589166
235	0xbf26e928	-0.6519952
236	0xbf0d8751	-0.552846
237	0xbef0e02d	-0.47046033
238	0xbf43a2e9	-0.76420456
239	0xbf15ce2d	-0.58517724
240	0xbee70a1a	-0.45124894
241	0xbf205e03	-0.6264345
242	0xbeffb9f6	-0.49946564
243	0xbf029353	-0.5100605
244	0xbf0618e0	-0.52381706
245	0xbf015411	-0.505189
246	0xbee849da	-0.45368844
247	0xbf4017d2	-0.75036347
248	0xbef9963f	-0.4874744
249	0xbf0ff107	-0.56227154
250	0xbf3da423	-0.7407858
251	0xbefee946	-0.49787349
252	0xbf1816c4	-0.5940974
253	0xbf1a9a42	-0.6039163
254	0xbf0e707c	-0.5564039
255	0xbed04866	-0.40680236

Linear2.weight f4 [7, 256]
0	0x3e3396d2	0.17538002
1	0x3b8b6ef1	0.0042551686
2	0xbe154c3a	-0.1457986
3	0xbc9345b5	-0.017977575
4	0x3b80c303	0.003929497
5	0xb9477557	-0.00019021831
6	0x3c808b1e	0.015691336
7	0x3c8d3644	0.01723779
8	0x38a35dc4	7.789911e-05
9	0x3cd0c1d7	0.025483055
10	0x3d8a8a36	0.06764643
11	0xbdef8421	-0.116951235
12	0x3d95f8d4	0.07322851
13	0x3dc7d3b2	0.097571746
14	0x3d57fc2e	0.05273073
15	0xbe28af2d	-0.16473074
16	0x3c5f9970	0.013647422
17	0x3d4b0d9e	0.049573533
18	0xbc733f37	-0.014846615
19	0xbd58fdbc	-0.052976355
20	0xbdcb1a1e	-0.09917091
21	0xbe1e2eb1	-0.15447499
22	0xbed986c9	-0.42485645
23	0xbe11d90d	-0.14242955
24	0xbdc29ba8	-0.09502345
25	0x3c5a02ef	0.0133063635
26	0xbdaf564d	-0.085613824
27	0xbc63c9a3	-0.013903054
28	0xbdbb7015	-0.09152237
29	0x3d304c14	0.043041304
30	0xbd031d66	-0.03201046
31	0xbda22cde	-0.07918714
32	0xbdffb6ce	-0.12486039
33	0xbe05fa19	-0.13083686
34	0x3c833554	0.01601664
35	0xbdd1b809	-0.1024018
36	0xbd150e73	-0.036390733
37	0xbdfb5988	-0.12272936
38	0x3b8b8572	0.0042578513
39	0xbd561350	-0.05226451
40	0x3c8d1a7a	0.01722454
41	0xbdaf3015	-0.08554093
42	0x3c0261a2	0.007957848
43	0x3c1cf0b7	0.009578875
44	0xbd50a825	-0.050941605
45	0x3d729e5b	0.05923305
46	0xbc85e0e1	-0.016342582
47	0x3d510eaf	0.051039394
48	0x3da98541	0.08277369
49	0xbd500623	-0.050787102
50	0xb9137b19	-0.0001406487
51	0xbd22eb81	-0.039775375
52	0x3c53b503	0.0129215745
53	0xbd2a25b1	-0.04153985
54	0xbd83247b	-0.064034425
55	0xbca4e4a2	-0.020128552
56	0x3d288244	0.041139856
57	0xbd8ebea0	-0.069699526
58	0x3d83a1ce	0.06427346
59	0x3bbd33db	0.005774004
60	0x3d4f7512	0.050648756
61	0x3cb96d60	0.022635162
62	0xbdd33c13	-0.103141926
63	0x3de4af67	0.11166268
64	0xbd7b3156	-0.061326347
65	0xbd28b9e9	-0.041192923
66	0x3de072f4	0.109594256
67	0x38afca3a	8.382318e-05
68	0x3cecdb95	0.028913299
69	0xbd7aac8b	-0.061199706
70	0xbc2a23f5	-0.010384549
71	0xbd8fc2a6	-0.07019548
72	0xbe1fc486	-0.15602311
73	0xbcd0bbd9	-0.025480198
74	0x3da0c645	0.07850317
75	0xbc4bfce0	-0.012450427
76	0x3d1cf8cf	0.03832322
77	0xbdac30c0	-0.08407736
78	0xbd723efa	-0.05914209
79	0xbd61df1e	-0.05514442
80	0xbcf4e8c4	-0.029896148
81	0x3d94d020	0.07266259
82	0xbd87f86f	-0.06639182
83	0xbc2189c0	-0.009859502
84	0xbe067975	-0.1313227
85	0xbde6fd4c	-0.11278781
86	0xbd5769da	-0.052591182
87	0xbb88ac6e	-0.004170946
88	0xbc3fa726	-0.011697566
89	0xbd9ac2d0	-0.07556689
90	0xbdf96e93	-0.121792935
91	0xbd07f260	-0.03319013
92	0xbcfc3251	-0.030785711
93	0x3cdeeabf	0.027211545
94	0x3c38ed26	0.011287009
95	0xbdaa7921	-0.08323885
96	0x3c971e23	0.018446987
97	0xbe1d4ead	-0.15362044
98	0xbaadeca1	-0.0013269373
99	0x3d289414	0.041156843
100	0xbdcd36c4	-0.10020211
101	0xbdf8dc37	-0.12151378
102	0x3ca50480	0.020143747
103	0x3c02a9b5	0.007975032
104	0x3c35bb2f	0.011091991
105	0xbcbc2461	-0.022966566
106	0x3bc722fc	0.0060771685
107	0x3d0678f8	0.03283021
108	0x3defb989	0.1170531
109	0xbd2288bb	-0.039681178
110	0xbc92f0e2	-0.017937128
111	0x3ce3191b	0.027721932
112	0xbb5b542a	-0.0033466914
113	0xbda74480	-0.08167362
114	0xbc2386ed	-0.009980899
115	0x3d2b60b5	0.041840274
116	0xbbb9ba21	-0.0056679402
117	0xbc367d89	-0.011138328
118	0x3ca85505	0.020548353
119	0xbc21953c	-0.00986224
120	0x3c7a14ac	0.015263718
121	0xbbda0055	-0.0066528716
122	0xbde03be7	-0.109489255
123	0xbdd3f86b	-0.10350116
124	0xb8dc5252	-0.00010505751
125	0xbe4fb179	-0.20282544
126	0x3ca2dff5	0.019882182
127	0x3d03b632	0.032156177
128	0x3c48cd4f	0.012255981
129	0xbce27afa	-0.02764653
130	0xbcb580e2	-0.022156183
131	0xbe0c2c80	-0.1368885
132	0xbda3be34	-0.07995263
133	0xbd91285a	-0.070877746
134	0xbd00c120	-0.03143418
135	0xbd39fb0f	-0.045405444
136	0xbb0f54e6	-0.0021870672
137	0x3dbe791b	0.09300443
138	0x3c3d329d	0.011547712
139	0xbd83264a	-0.064037874
140	0x3cee3e3c	0.02908241
141	0xbce6a4b0	-0.028154701
142	0xbcf0ac6b	-0.02937909
143	0xbc7fcb00	-0.015612364
144	0x3caefc40	0.021360517
145	0x3de2bac8	0.11070782
146	0xbd835598	-0.0641281
147	0xbe138ceb	-0.14409225
148	0xbbf0e053	-0.0073509603
149	0xbcb34dc4	-0.021887667
150	0x3c889156	0.016670864
151	0xbdb7f1f9	-0.089816995
152	0x3c42fda0	0.011901289
153	0x3d132c4b	0.035930913
154	0x3e0c05d0	0.13674092
155	0xbaf03b17	-0.0018328157
156	0x3d12a9bc	0.035806403
157	0xbd8e5c36	-0.069511816
158	0xbd73ee48	-0.059553415
159	0xbda58525	-0.08082036
160	0x3d714dce	0.05891209
161	0x3e1bd2d3	0.15217142
162	0xbc7ecfc1	-0.015552462
163	0x3d63c2b7	0.055605616
164	0xbcebaecb	-0.028769871
165	0xbd85b75d	-0.065291144
166	0x3d19797a	0.037469365
167	0x3e075d4e	0.13219187
168	0xbd271a59	-0.04079661
169	0xbcd26f3a	-0.025687803
170	0xbd863d7a	-0.065546945
171	0x3c953fa9	0.018218832
172	0xbc708d3a	-0.014682109
173	0xbd271acb	-0.040797036
174	0xbda74c3c	-0.081688374
175	0xbc04ae6f	-0.008098229
176	0x3bed6e1d	0.0072457925
177	0x3c29355a	0.010327661
178	0xbd9a4e67	-0.07534485
179	0xbe7017b4	-0.23446542
180	0xbc9d7c9a	-0.019224454
181	0xbd15f374	-0.036609128
182	0xbcafa8ec	-0.021442853
183	0xbc36b3de	-0.011151282
184	0x3add285a	0.0016872988
185	0xbd45ba7a	-0.04827354
186	0xbd0d806c	-0.0345463
187	0x3cd8cb09	0.026464002
188	0xbdbbfaac	-0.09178671
189	0xbd498307	-0.049197223
190	0xbd865cbb	-0.06560656
191	0xbdb82f68	-0.08993417
192	0xbda38718	-0.079847515
193	0xbd2dc0d5	-0.042420227
194	0xbd2238cd	-0.03960495
195	0xbd12ba29	-0.035822067
196	0xbd14fe28	-0.036375195
197	0x3c21efaa	0.0098838005
198	0xbd3446dd	-0.044012893
199	0xbcfa370d	-0.030543828
200	0xbd63fa49	-0.055658612
201	0xbdb19d03	-0.08672526
202	0xbe1b670e	-0.15176031
203	0x3ca820b2	0.020523403
204	0xbd2af751	-0.041739766
205	0xbcd14236	-0.025544267
206	0x3cfffb30	0.031247705
207	0xbd8617b6	-0.06547491
208	0xbd60eba2	-0.054912217
209	0x3cd3f332	0.0258728
210	0x3a7fac35	0.0009753139
211	0x3dd038ab	0.101670586
212	0xbd42ce67	-0.047560122
213	0xbdd7bf19	-0.10534496
214	0xbcab3e13	-0.020903623
215	0xbe390054	-0.18066531
216	0xbdc5f98d	-0.09666739
217	0x3c9633f0	0.018335313
218	0xbd30faa9	-0.0432078
219	0xbdd7529a	-0.10513802
220	0xbdcf6467	-0.10126572
221	0x3e39f6c4	0.1816054
222	0xbcbf14a2	-0.023325268
223	0xbd26585c	-0.04061161
224	0xbd8e87d0	-0.06959498
225	0x3e06f913	0.13180952
226	0x3d910771	0.070814975
227	0xbe4e5b8a	-0.20152107
228	0xbadc8e69	-0.001682711
229	0xbcc44bf9	-0.023962008
230	0xbcc54c51	-0.024084242
231	0xbe300642	-0.17189887
232	0xbe57e438	-0.21083152
233	0x3e0439de	0.129127
234	0xbd15dff2	-0.036590524
235	0xbde5abf8	-0.11214441
236	0xbc9f0592	-0.019411836
237	0xbb19d341	-0.0023471864
238	0x3e2d28bc	0.1691007
239	0xbdf1ae0b	-0.11800774
240	0xbd07c3b5	-0.033145625
241	0xbd9820c6	-0.07428126
242	0xbdafcd65	-0.08584098
243	0xbd2ea03e	-0.042633288
244	0xbe61596d	-0.2200677
245	0xbe34bf64	-0.17651135
246	0xbd66176c	-0.05617468
247	0x3e32fb87	0.17478763
248	0xbc529c36	-0.012854626
249	0x3bb86b07	0.005627993
250	0xbc8e838d	-0.017396713
251	0xbe1f2108	-0.15539944
252	0xbe8573d9	-0.26064947
253	0xbc7848b2	-0.015154051
254	0x3e57fe98	0.21093214
255	0x3d967315	0.07346169

Linear2.bias f4 [7]
0	0x3c816cb7	0.01579891
1	0x3c8bfc69	0.017088132
2	0x3c9d83da	0.01922791
3	0x3c85dd53	0.016340887
4	0x3c9d6f52	0.01921812
5	0x3c90fbda	0.017698217
6	0x3c8aa1bd	0.016922826
